…
Error in label values min 0.0 max 3.0      9-LGN
Error in label values min 0.0 max 2.0      10-MGN
Error in label values min 0.0 max 2.0      11-CM
Error in label values min 0.0 max 5.0      12-MD-Pf
Error in label values min 0.0 max 30.0      13-Hb
Error in label values min 0.0 max 4.0      14-MTT
__________________________________________________________________________________________________
Layer (type)                    Output Shape         Param #     Connected to                     
==================================================================================================
input_1 (InputLayer)            (None, 52, 80, 1)    0                                            
__________________________________________________________________________________________________
conv2d_1 (Conv2D)               (None, 52, 80, 20)   200         input_1[0][0]                    
__________________________________________________________________________________________________
batch_normalization_1 (BatchNor (None, 52, 80, 20)   80          conv2d_1[0][0]                   
__________________________________________________________________________________________________
activation_1 (Activation)       (None, 52, 80, 20)   0           batch_normalization_1[0][0]      
__________________________________________________________________________________________________
conv2d_2 (Conv2D)               (None, 52, 80, 20)   3620        activation_1[0][0]               
__________________________________________________________________________________________________
batch_normalization_2 (BatchNor (None, 52, 80, 20)   80          conv2d_2[0][0]                   
__________________________________________________________________________________________________
activation_2 (Activation)       (None, 52, 80, 20)   0           batch_normalization_2[0][0]      
__________________________________________________________________________________________________
max_pooling2d_1 (MaxPooling2D)  (None, 26, 40, 20)   0           activation_2[0][0]               
__________________________________________________________________________________________________
dropout_1 (Dropout)             (None, 26, 40, 20)   0           max_pooling2d_1[0][0]            
__________________________________________________________________________________________________
conv2d_3 (Conv2D)               (None, 26, 40, 40)   7240        dropout_1[0][0]                  
__________________________________________________________________________________________________
batch_normalization_3 (BatchNor (None, 26, 40, 40)   160         conv2d_3[0][0]                   
__________________________________________________________________________________________________
activation_3 (Activation)       (None, 26, 40, 40)   0           batch_normalization_3[0][0]      
__________________________________________________________________________________________________
conv2d_4 (Conv2D)               (None, 26, 40, 40)   14440       activation_3[0][0]               
__________________________________________________________________________________________________
batch_normalization_4 (BatchNor (None, 26, 40, 40)   160         conv2d_4[0][0]                   
__________________________________________________________________________________________________
activation_4 (Activation)       (None, 26, 40, 40)   0           batch_normalization_4[0][0]      
__________________________________________________________________________________________________
max_pooling2d_2 (MaxPooling2D)  (None, 13, 20, 40)   0           activation_4[0][0]               
__________________________________________________________________________________________________
dropout_2 (Dropout)             (None, 13, 20, 40)   0           max_pooling2d_2[0][0]            
__________________________________________________________________________________________________
conv2d_5 (Conv2D)               (None, 13, 20, 80)   28880       dropout_2[0][0]                  
__________________________________________________________________________________________________
batch_normalization_5 (BatchNor (None, 13, 20, 80)   320         conv2d_5[0][0]                   
__________________________________________________________________________________________________
activation_5 (Activation)       (None, 13, 20, 80)   0           batch_normalization_5[0][0]      
__________________________________________________________________________________________________
conv2d_6 (Conv2D)               (None, 13, 20, 80)   57680       activation_5[0][0]               
__________________________________________________________________________________________________
batch_normalization_6 (BatchNor (None, 13, 20, 80)   320         conv2d_6[0][0]                   
__________________________________________________________________________________________________
activation_6 (Activation)       (None, 13, 20, 80)   0           batch_normalization_6[0][0]      
__________________________________________________________________________________________________
dropout_3 (Dropout)             (None, 13, 20, 80)   0           activation_6[0][0]               
__________________________________________________________________________________________________
conv2d_transpose_1 (Conv2DTrans (None, 26, 40, 40)   12840       dropout_3[0][0]                  
__________________________________________________________________________________________________
concatenate_1 (Concatenate)     (None, 26, 40, 80)   0           conv2d_transpose_1[0][0]         
                                                                 activation_4[0][0]               
__________________________________________________________________________________________________
conv2d_7 (Conv2D)               (None, 26, 40, 40)   28840       concatenate_1[0][0]              
__________________________________________________________________________________________________
batch_normalization_7 (BatchNor (None, 26, 40, 40)   160         conv2d_7[0][0]                   
__________________________________________________________________________________________________
activation_7 (Activation)       (None, 26, 40, 40)   0           batch_normalization_7[0][0]      
__________________________________________________________________________________________________
conv2d_8 (Conv2D)               (None, 26, 40, 40)   14440       activation_7[0][0]               
__________________________________________________________________________________________________
batch_normalization_8 (BatchNor (None, 26, 40, 40)   160         conv2d_8[0][0]                   
__________________________________________________________________________________________________
activation_8 (Activation)       (None, 26, 40, 40)   0           batch_normalization_8[0][0]      
__________________________________________________________________________________________________
dropout_4 (Dropout)             (None, 26, 40, 40)   0           activation_8[0][0]               
__________________________________________________________________________________________________
conv2d_transpose_2 (Conv2DTrans (None, 52, 80, 20)   3220        dropout_4[0][0]                  
__________________________________________________________________________________________________
concatenate_2 (Concatenate)     (None, 52, 80, 40)   0           conv2d_transpose_2[0][0]         
                                                                 activation_2[0][0]               
__________________________________________________________________________________________________
conv2d_9 (Conv2D)               (None, 52, 80, 20)   7220        concatenate_2[0][0]              
__________________________________________________________________________________________________
batch_normalization_9 (BatchNor (None, 52, 80, 20)   80          conv2d_9[0][0]                   
__________________________________________________________________________________________________
activation_9 (Activation)       (None, 52, 80, 20)   0           batch_normalization_9[0][0]      
__________________________________________________________________________________________________
conv2d_10 (Conv2D)              (None, 52, 80, 20)   3620        activation_9[0][0]               
__________________________________________________________________________________________________
batch_normalization_10 (BatchNo (None, 52, 80, 20)   80          conv2d_10[0][0]                  
__________________________________________________________________________________________________
activation_10 (Activation)      (None, 52, 80, 20)   0           batch_normalization_10[0][0]     
__________________________________________________________________________________________________
dropout_5 (Dropout)             (None, 52, 80, 20)   0           activation_10[0][0]              
__________________________________________________________________________________________________
conv2d_11 (Conv2D)              (None, 52, 80, 13)   273         dropout_5[0][0]                  
==================================================================================================
Total params: 184,113
Trainable params: 183,313
Non-trainable params: 800
__________________________________________________________________________________________________
 --- initialized from Model_7T /array/ssd/msmajdi/experiments/keras/exp6/models/sE12_Cascade_FM20_U-Net4_NL3_LS_MyBCE_US1_Main_Init_3T_CV_a/MultiClass_24567891011121314/sd2
…
Error in label values min 0.0 max 3.0      9-LGN
Error in label values min 0.0 max 2.0      10-MGN
Error in label values min 0.0 max 2.0      11-CM
Error in label values min 0.0 max 5.0      12-MD-Pf
Error in label values min 0.0 max 30.0      13-Hb
Error in label values min 0.0 max 4.0      14-MTT
__________________________________________________________________________________________________
Layer (type)                    Output Shape         Param #     Connected to                     
==================================================================================================
input_1 (InputLayer)            (None, 52, 52, 1)    0                                            
__________________________________________________________________________________________________
conv2d_1 (Conv2D)               (None, 52, 52, 20)   200         input_1[0][0]                    
__________________________________________________________________________________________________
batch_normalization_1 (BatchNor (None, 52, 52, 20)   80          conv2d_1[0][0]                   
__________________________________________________________________________________________________
activation_1 (Activation)       (None, 52, 52, 20)   0           batch_normalization_1[0][0]      
__________________________________________________________________________________________________
conv2d_2 (Conv2D)               (None, 52, 52, 20)   3620        activation_1[0][0]               
__________________________________________________________________________________________________
batch_normalization_2 (BatchNor (None, 52, 52, 20)   80          conv2d_2[0][0]                   
__________________________________________________________________________________________________
activation_2 (Activation)       (None, 52, 52, 20)   0           batch_normalization_2[0][0]      
__________________________________________________________________________________________________
max_pooling2d_1 (MaxPooling2D)  (None, 26, 26, 20)   0           activation_2[0][0]               
__________________________________________________________________________________________________
dropout_1 (Dropout)             (None, 26, 26, 20)   0           max_pooling2d_1[0][0]            
__________________________________________________________________________________________________
conv2d_3 (Conv2D)               (None, 26, 26, 40)   7240        dropout_1[0][0]                  
__________________________________________________________________________________________________
batch_normalization_3 (BatchNor (None, 26, 26, 40)   160         conv2d_3[0][0]                   
__________________________________________________________________________________________________
activation_3 (Activation)       (None, 26, 26, 40)   0           batch_normalization_3[0][0]      
__________________________________________________________________________________________________
conv2d_4 (Conv2D)               (None, 26, 26, 40)   14440       activation_3[0][0]               
__________________________________________________________________________________________________
batch_normalization_4 (BatchNor (None, 26, 26, 40)   160         conv2d_4[0][0]                   
__________________________________________________________________________________________________
activation_4 (Activation)       (None, 26, 26, 40)   0           batch_normalization_4[0][0]      
__________________________________________________________________________________________________
max_pooling2d_2 (MaxPooling2D)  (None, 13, 13, 40)   0           activation_4[0][0]               
__________________________________________________________________________________________________
dropout_2 (Dropout)             (None, 13, 13, 40)   0           max_pooling2d_2[0][0]            
__________________________________________________________________________________________________
conv2d_5 (Conv2D)               (None, 13, 13, 80)   28880       dropout_2[0][0]                  
__________________________________________________________________________________________________
batch_normalization_5 (BatchNor (None, 13, 13, 80)   320         conv2d_5[0][0]                   
__________________________________________________________________________________________________
activation_5 (Activation)       (None, 13, 13, 80)   0           batch_normalization_5[0][0]      
__________________________________________________________________________________________________
conv2d_6 (Conv2D)               (None, 13, 13, 80)   57680       activation_5[0][0]               
__________________________________________________________________________________________________
batch_normalization_6 (BatchNor (None, 13, 13, 80)   320         conv2d_6[0][0]                   
__________________________________________________________________________________________________
activation_6 (Activation)       (None, 13, 13, 80)   0           batch_normalization_6[0][0]      
__________________________________________________________________________________________________
dropout_3 (Dropout)             (None, 13, 13, 80)   0           activation_6[0][0]               
__________________________________________________________________________________________________
conv2d_transpose_1 (Conv2DTrans (None, 26, 26, 40)   12840       dropout_3[0][0]                  
__________________________________________________________________________________________________
concatenate_1 (Concatenate)     (None, 26, 26, 80)   0           conv2d_transpose_1[0][0]         
                                                                 activation_4[0][0]               
__________________________________________________________________________________________________
conv2d_7 (Conv2D)               (None, 26, 26, 40)   28840       concatenate_1[0][0]              
__________________________________________________________________________________________________
batch_normalization_7 (BatchNor (None, 26, 26, 40)   160         conv2d_7[0][0]                   
__________________________________________________________________________________________________
activation_7 (Activation)       (None, 26, 26, 40)   0           batch_normalization_7[0][0]      
__________________________________________________________________________________________________
conv2d_8 (Conv2D)               (None, 26, 26, 40)   14440       activation_7[0][0]               
__________________________________________________________________________________________________
batch_normalization_8 (BatchNor (None, 26, 26, 40)   160         conv2d_8[0][0]                   
__________________________________________________________________________________________________
activation_8 (Activation)       (None, 26, 26, 40)   0           batch_normalization_8[0][0]      
__________________________________________________________________________________________________
dropout_4 (Dropout)             (None, 26, 26, 40)   0           activation_8[0][0]               
__________________________________________________________________________________________________2019-06-30 19:06:26.741420: I tensorflow/core/common_runtime/gpu/gpu_device.cc:1471] Adding visible gpu devices: 0
2019-06-30 19:06:26.741532: I tensorflow/core/common_runtime/gpu/gpu_device.cc:952] Device interconnect StreamExecutor with strength 1 edge matrix:
2019-06-30 19:06:26.741552: I tensorflow/core/common_runtime/gpu/gpu_device.cc:958]      0 
2019-06-30 19:06:26.741567: I tensorflow/core/common_runtime/gpu/gpu_device.cc:971] 0:   N 
2019-06-30 19:06:26.742165: I tensorflow/core/common_runtime/gpu/gpu_device.cc:1084] Created TensorFlow device (/job:localhost/replica:0/task:0/device:GPU:0 with 15123 MB memory) -> physical GPU (device: 0, name: Tesla P100-PCIE-16GB, pci bus id: 0000:04:00.0, compute capability: 6.0)

conv2d_transpose_2 (Conv2DTrans (None, 52, 52, 20)   3220        dropout_4[0][0]                  
__________________________________________________________________________________________________
concatenate_2 (Concatenate)     (None, 52, 52, 40)   0           conv2d_transpose_2[0][0]         
                                                                 activation_2[0][0]               
__________________________________________________________________________________________________
conv2d_9 (Conv2D)               (None, 52, 52, 20)   7220        concatenate_2[0][0]              
__________________________________________________________________________________________________
batch_normalization_9 (BatchNor (None, 52, 52, 20)   80          conv2d_9[0][0]                   
__________________________________________________________________________________________________
activation_9 (Activation)       (None, 52, 52, 20)   0           batch_normalization_9[0][0]      
__________________________________________________________________________________________________
conv2d_10 (Conv2D)              (None, 52, 52, 20)   3620        activation_9[0][0]               
__________________________________________________________________________________________________
batch_normalization_10 (BatchNo (None, 52, 52, 20)   80          conv2d_10[0][0]                  
__________________________________________________________________________________________________
activation_10 (Activation)      (None, 52, 52, 20)   0           batch_normalization_10[0][0]     
__________________________________________________________________________________________________
dropout_5 (Dropout)             (None, 52, 52, 20)   0           activation_10[0][0]              
__________________________________________________________________________________________________
conv2d_11 (Conv2D)              (None, 52, 52, 13)   273         dropout_5[0][0]                  
==================================================================================================
Total params: 184,113
Trainable params: 183,313
Non-trainable params: 800
__________________________________________________________________________________________________
 --- initialized from Model_7T /array/ssd/msmajdi/experiments/keras/exp6/models/sE12_Cascade_FM20_U-Net4_NL3_LS_MyBCE_US1_Main_Init_3T_CV_a/MultiClass_24567891011121314/sd1
…
Loading test:   0%|          | 0/3 [00:00<?, ?it/s]Loading test:  33%|███▎      | 1/3 [00:01<00:02,  1.27s/it]Loading test:  67%|██████▋   | 2/3 [00:02<00:01,  1.27s/it]Loading test: 100%|██████████| 3/3 [00:03<00:00,  1.22s/it]
concatenating: validation:   0%|          | 0/3 [00:00<?, ?it/s]concatenating: validation: 100%|██████████| 3/3 [00:00<00:00, 111.94it/s] 5.0      12-MD-Pf
Error in label values min 0.0 max 30.0      13-Hb
Error in label values min 0.0 max 4.0      14-MTT
__________________________________________________________________________________________________
Layer (type)                    Output Shape         Param #     Connected to                     
==================================================================================================
input_1 (InputLayer)            (None, 80, 52, 1)    0                                            
__________________________________________________________________________________________________
conv2d_1 (Conv2D)               (None, 80, 52, 20)   200         input_1[0][0]                    
__________________________________________________________________________________________________
batch_normalization_1 (BatchNor (None, 80, 52, 20)   80          conv2d_1[0][0]                   
__________________________________________________________________________________________________
activation_1 (Activation)       (None, 80, 52, 20)   0           batch_normalization_1[0][0]      
__________________________________________________________________________________________________
conv2d_2 (Conv2D)               (None, 80, 52, 20)   3620        activation_1[0][0]               
__________________________________________________________________________________________________
batch_normalization_2 (BatchNor (None, 80, 52, 20)   80          conv2d_2[0][0]                   
__________________________________________________________________________________________________
activation_2 (Activation)       (None, 80, 52, 20)   0           batch_normalization_2[0][0]      
__________________________________________________________________________________________________
max_pooling2d_1 (MaxPooling2D)  (None, 40, 26, 20)   0           activation_2[0][0]               
__________________________________________________________________________________________________
dropout_1 (Dropout)             (None, 40, 26, 20)   0           max_pooling2d_1[0][0]            
__________________________________________________________________________________________________
conv2d_3 (Conv2D)               (None, 40, 26, 40)   7240        dropout_1[0][0]                  
__________________________________________________________________________________________________
batch_normalization_3 (BatchNor (None, 40, 26, 40)   160         conv2d_3[0][0]                   
__________________________________________________________________________________________________
activation_3 (Activation)       (None, 40, 26, 40)   0           batch_normalization_3[0][0]      
__________________________________________________________________________________________________
conv2d_4 (Conv2D)               (None, 40, 26, 40)   14440       activation_3[0][0]               
__________________________________________________________________________________________________
batch_normalization_4 (BatchNor (None, 40, 26, 40)   160         conv2d_4[0][0]                   
__________________________________________________________________________________________________
activation_4 (Activation)       (None, 40, 26, 40)   0           batch_normalization_4[0][0]      
__________________________________________________________________________________________________
max_pooling2d_2 (MaxPooling2D)  (None, 20, 13, 40)   0           activation_4[0][0]               
__________________________________________________________________________________________________
dropout_2 (Dropout)             (None, 20, 13, 40)   0           max_pooling2d_2[0][0]            
__________________________________________________________________________________________________
conv2d_5 (Conv2D)               (None, 20, 13, 80)   28880       dropout_2[0][0]                  
__________________________________________________________________________________________________
batch_normalization_5 (BatchNor (None, 20, 13, 80)   320         conv2d_5[0][0]                   
__________________________________________________________________________________________________
activation_5 (Activation)       (None, 20, 13, 80)   0           batch_normalization_5[0][0]      
__________________________________________________________________________________________________
conv2d_6 (Conv2D)               (None, 20, 13, 80)   57680       activation_5[0][0]               
__________________________________________________________________________________________________
batch_normalization_6 (BatchNor (None, 20, 13, 80)   320         conv2d_6[0][0]                   
__________________________________________________________________________________________________
activation_6 (Activation)       (None, 20, 13, 80)   0           batch_normalization_6[0][0]      
__________________________________________________________________________________________________
dropout_3 (Dropout)             (None, 20, 13, 80)   0           activation_6[0][0]               
__________________________________________________________________________________________________
conv2d_transpose_1 (Conv2DTrans (None, 40, 26, 40)   12840       dropout_3[0][0]                  
__________________________________________________________________________________________________
concatenate_1 (Concatenate)     (None, 40, 26, 80)   0           conv2d_transpose_1[0][0]         
                                                                 activation_4[0][0]               
__________________________________________________________________________________________________
conv2d_7 (Conv2D)               (None, 40, 26, 40)   28840       concatenate_1[0][0]              
__________________________________________________________________________________________________
batch_normalization_7 (BatchNor (None, 40, 26, 40)   160         conv2d_7[0][0]                   
__________________________________________________________________________________________________
activation_7 (Activation)       (None, 40, 26, 40)   0           batch_normalization_7[0][0]      
__________________________________________________________________________________________________
conv2d_8 (Conv2D)               (None, 40, 26, 40)   14440       activation_7[0][0]               
__________________________________________________________________________________________________
batch_normalization_8 (BatchNor (None, 40, 26, 40)   160         conv2d_8[0][0]                   
__________________________________________________________________________________________________
activation_8 (Activation)       (None, 40, 26, 40)   0           batch_normalization_8[0][0]      
__________________________________________________________________________________________________
dropout_4 (Dropout)             (None, 40, 26, 40)   0           activation_8[0][0]               
__________________________________________________________________________________________________
conv2d_transpose_2 (Conv2DTrans (None, 80, 52, 20)   3220        dropout_4[0][0]                  
__________________________________________________________________________________________________
concatenate_2 (Concatenate)     (None, 80, 52, 40)   0           conv2d_transpose_2[0][0]         
                                                                 activation_2[0][0]               
__________________________________________________________________________________________________
conv2d_9 (Conv2D)               (None, 80, 52, 20)   7220        concatenate_2[0][0]              
__________________________________________________________________________________________________
batch_normalization_9 (BatchNor (None, 80, 52, 20)   80          conv2d_9[0][0]                   
__________________________________________________________________________________________________
activation_9 (Activation)       (None, 80, 52, 20)   0           batch_normalization_9[0][0]      
__________________________________________________________________________________________________
conv2d_10 (Conv2D)              (None, 80, 52, 20)   3620        activation_9[0][0]               2019-06-30 19:37:06.334837: I tensorflow/core/common_runtime/gpu/gpu_device.cc:1471] Adding visible gpu devices: 0
2019-06-30 19:37:06.334940: I tensorflow/core/common_runtime/gpu/gpu_device.cc:952] Device interconnect StreamExecutor with strength 1 edge matrix:
2019-06-30 19:37:06.334955: I tensorflow/core/common_runtime/gpu/gpu_device.cc:958]      0 
2019-06-30 19:37:06.334963: I tensorflow/core/common_runtime/gpu/gpu_device.cc:971] 0:   N 
…
Error in label values min 0.0 max 3.0      9-LGN
Error in label values min 0.0 max 2.0      10-MGN
Error in label values min 0.0 max 2.0      11-CM
Error in label values min 0.0 max 5.0      12-MD-Pf
Error in label values min 0.0 max 30.0      13-Hb
Error in label values min 0.0 max 4.0      14-MTT
__________________________________________________________________________________________________
Layer (type)                    Output Shape         Param #     Connected to                     
==================================================================================================
input_1 (InputLayer)            (None, 52, 80, 1)    0                                            
__________________________________________________________________________________________________
conv2d_1 (Conv2D)               (None, 52, 80, 30)   300         input_1[0][0]                    
__________________________________________________________________________________________________
batch_normalization_1 (BatchNor (None, 52, 80, 30)   120         conv2d_1[0][0]                   
__________________________________________________________________________________________________
activation_1 (Activation)       (None, 52, 80, 30)   0           batch_normalization_1[0][0]      
__________________________________________________________________________________________________
conv2d_2 (Conv2D)               (None, 52, 80, 30)   8130        activation_1[0][0]               
__________________________________________________________________________________________________
batch_normalization_2 (BatchNor (None, 52, 80, 30)   120         conv2d_2[0][0]                   
__________________________________________________________________________________________________
activation_2 (Activation)       (None, 52, 80, 30)   0           batch_normalization_2[0][0]      
__________________________________________________________________________________________________
max_pooling2d_1 (MaxPooling2D)  (None, 26, 40, 30)   0           activation_2[0][0]               
__________________________________________________________________________________________________
dropout_1 (Dropout)             (None, 26, 40, 30)   0           max_pooling2d_1[0][0]            
__________________________________________________________________________________________________
conv2d_3 (Conv2D)               (None, 26, 40, 60)   16260       dropout_1[0][0]                  
__________________________________________________________________________________________________
batch_normalization_3 (BatchNor (None, 26, 40, 60)   240         conv2d_3[0][0]                   
__________________________________________________________________________________________________
activation_3 (Activation)       (None, 26, 40, 60)   0           batch_normalization_3[0][0]      
__________________________________________________________________________________________________
conv2d_4 (Conv2D)               (None, 26, 40, 60)   32460       activation_3[0][0]               
__________________________________________________________________________________________________
batch_normalization_4 (BatchNor (None, 26, 40, 60)   240         conv2d_4[0][0]                   
__________________________________________________________________________________________________
activation_4 (Activation)       (None, 26, 40, 60)   0           batch_normalization_4[0][0]      
__________________________________________________________________________________________________
max_pooling2d_2 (MaxPooling2D)  (None, 13, 20, 60)   0           activation_4[0][0]               
__________________________________________________________________________________________________
dropout_2 (Dropout)             (None, 13, 20, 60)   0           max_pooling2d_2[0][0]            
__________________________________________________________________________________________________
conv2d_5 (Conv2D)               (None, 13, 20, 120)  64920       dropout_2[0][0]                  
__________________________________________________________________________________________________
batch_normalization_5 (BatchNor (None, 13, 20, 120)  480         conv2d_5[0][0]                   
__________________________________________________________________________________________________
activation_5 (Activation)       (None, 13, 20, 120)  0           batch_normalization_5[0][0]      
__________________________________________________________________________________________________
conv2d_6 (Conv2D)               (None, 13, 20, 120)  129720      activation_5[0][0]               
__________________________________________________________________________________________________
batch_normalization_6 (BatchNor (None, 13, 20, 120)  480         conv2d_6[0][0]                   
__________________________________________________________________________________________________
activation_6 (Activation)       (None, 13, 20, 120)  0           batch_normalization_6[0][0]      
__________________________________________________________________________________________________
dropout_3 (Dropout)             (None, 13, 20, 120)  0           activation_6[0][0]               
__________________________________________________________________________________________________
conv2d_transpose_1 (Conv2DTrans (None, 26, 40, 60)   28860       dropout_3[0][0]                  
__________________________________________________________________________________________________
concatenate_1 (Concatenate)     (None, 26, 40, 120)  0           conv2d_transpose_1[0][0]         
                                                                 activation_4[0][0]               
__________________________________________________________________________________________________
conv2d_7 (Conv2D)               (None, 26, 40, 60)   64860       concatenate_1[0][0]              
__________________________________________________________________________________________________
batch_normalization_7 (BatchNor (None, 26, 40, 60)   240         conv2d_7[0][0]                   
__________________________________________________________________________________________________
activation_7 (Activation)       (None, 26, 40, 60)   0           batch_normalization_7[0][0]      
__________________________________________________________________________________________________
conv2d_8 (Conv2D)               (None, 26, 40, 60)   32460       activation_7[0][0]               
__________________________________________________________________________________________________
batch_normalization_8 (BatchNor (None, 26, 40, 60)   240         conv2d_8[0][0]                   
__________________________________________________________________________________________________
activation_8 (Activation)       (None, 26, 40, 60)   0           batch_normalization_8[0][0]      
__________________________________________________________________________________________________
dropout_4 (Dropout)             (None, 26, 40, 60)   0           activation_8[0][0]               2019-06-30 20:02:10.753855: I tensorflow/core/common_runtime/gpu/gpu_device.cc:1471] Adding visible gpu devices: 0
2019-06-30 20:02:10.753951: I tensorflow/core/common_runtime/gpu/gpu_device.cc:952] Device interconnect StreamExecutor with strength 1 edge matrix:
2019-06-30 20:02:10.753965: I tensorflow/core/common_runtime/gpu/gpu_device.cc:958]      0 
2019-06-30 20:02:10.753973: I tensorflow/core/common_runtime/gpu/gpu_device.cc:971] 0:   N 
2019-06-30 20:02:10.754445: I tensorflow/core/common_runtime/gpu/gpu_device.cc:1084] Created TensorFlow device (/job:localhost/replica:0/task:0/device:GPU:0 with 15123 MB memory) -> physical GPU (device: 0, name: Tesla P100-PCIE-16GB, pci bus id: 0000:04:00.0, compute capability: 6.0)

__________________________________________________________________________________________________
conv2d_transpose_2 (Conv2DTrans (None, 52, 80, 30)   7230        dropout_4[0][0]                  
__________________________________________________________________________________________________
concatenate_2 (Concatenate)     (None, 52, 80, 60)   0           conv2d_transpose_2[0][0]         
                                                                 activation_2[0][0]               
__________________________________________________________________________________________________
conv2d_9 (Conv2D)               (None, 52, 80, 30)   16230       concatenate_2[0][0]              
__________________________________________________________________________________________________
batch_normalization_9 (BatchNor (None, 52, 80, 30)   120         conv2d_9[0][0]                   
__________________________________________________________________________________________________
activation_9 (Activation)       (None, 52, 80, 30)   0           batch_normalization_9[0][0]      
__________________________________________________________________________________________________
conv2d_10 (Conv2D)              (None, 52, 80, 30)   8130        activation_9[0][0]               
__________________________________________________________________________________________________
batch_normalization_10 (BatchNo (None, 52, 80, 30)   120         conv2d_10[0][0]                  
__________________________________________________________________________________________________
activation_10 (Activation)      (None, 52, 80, 30)   0           batch_normalization_10[0][0]     
__________________________________________________________________________________________________
dropout_5 (Dropout)             (None, 52, 80, 30)   0           activation_10[0][0]              
__________________________________________________________________________________________________
conv2d_11 (Conv2D)              (None, 52, 80, 13)   403         dropout_5[0][0]                  
==================================================================================================
Total params: 412,363
Trainable params: 411,163
Non-trainable params: 1,200
__________________________________________________________________________________________________
 --- initialized from Model_7T /array/ssd/msmajdi/experiments/keras/exp6/models/sE12_Cascade_FM30_U-Net4_NL3_LS_MyBCE_US1_Main_Init_3T_CV_a/MultiClass_24567891011121314/sd2
…
Error in label values min 0.0 max 3.0      9-LGN
Error in label values min 0.0 max 2.0      10-MGN
Error in label values min 0.0 max 2.0      11-CM
Error in label values min 0.0 max 5.0      12-MD-Pf
Error in label values min 0.0 max 30.0      13-Hb
Error in label values min 0.0 max 4.0      14-MTT
__________________________________________________________________________________________________
Layer (type)                    Output Shape         Param #     Connected to                     
==================================================================================================
input_1 (InputLayer)            (None, 52, 52, 1)    0                                            
__________________________________________________________________________________________________
conv2d_1 (Conv2D)               (None, 52, 52, 30)   300         input_1[0][0]                    
__________________________________________________________________________________________________
batch_normalization_1 (BatchNor (None, 52, 52, 30)   120         conv2d_1[0][0]                   
__________________________________________________________________________________________________
activation_1 (Activation)       (None, 52, 52, 30)   0           batch_normalization_1[0][0]      
__________________________________________________________________________________________________
conv2d_2 (Conv2D)               (None, 52, 52, 30)   8130        activation_1[0][0]               
__________________________________________________________________________________________________
batch_normalization_2 (BatchNor (None, 52, 52, 30)   120         conv2d_2[0][0]                   
__________________________________________________________________________________________________
activation_2 (Activation)       (None, 52, 52, 30)   0           batch_normalization_2[0][0]      
__________________________________________________________________________________________________
max_pooling2d_1 (MaxPooling2D)  (None, 26, 26, 30)   0           activation_2[0][0]               
__________________________________________________________________________________________________
dropout_1 (Dropout)             (None, 26, 26, 30)   0           max_pooling2d_1[0][0]            
__________________________________________________________________________________________________
conv2d_3 (Conv2D)               (None, 26, 26, 60)   16260       dropout_1[0][0]                  
__________________________________________________________________________________________________
batch_normalization_3 (BatchNor (None, 26, 26, 60)   240         conv2d_3[0][0]                   
__________________________________________________________________________________________________
activation_3 (Activation)       (None, 26, 26, 60)   0           batch_normalization_3[0][0]      
__________________________________________________________________________________________________
conv2d_4 (Conv2D)               (None, 26, 26, 60)   32460       activation_3[0][0]               
__________________________________________________________________________________________________
batch_normalization_4 (BatchNor (None, 26, 26, 60)   240         conv2d_4[0][0]                   
__________________________________________________________________________________________________
activation_4 (Activation)       (None, 26, 26, 60)   0           batch_normalization_4[0][0]      
__________________________________________________________________________________________________
max_pooling2d_2 (MaxPooling2D)  (None, 13, 13, 60)   0           activation_4[0][0]               
__________________________________________________________________________________________________
dropout_2 (Dropout)             (None, 13, 13, 60)   0           max_pooling2d_2[0][0]            
__________________________________________________________________________________________________
conv2d_5 (Conv2D)               (None, 13, 13, 120)  64920       dropout_2[0][0]                  
__________________________________________________________________________________________________
batch_normalization_5 (BatchNor (None, 13, 13, 120)  480         conv2d_5[0][0]                   
__________________________________________________________________________________________________
activation_5 (Activation)       (None, 13, 13, 120)  0           batch_normalization_5[0][0]      
__________________________________________________________________________________________________
conv2d_6 (Conv2D)               (None, 13, 13, 120)  129720      activation_5[0][0]               
__________________________________________________________________________________________________
batch_normalization_6 (BatchNor (None, 13, 13, 120)  480         conv2d_6[0][0]                   
__________________________________________________________________________________________________
activation_6 (Activation)       (None, 13, 13, 120)  0           batch_normalization_6[0][0]      
__________________________________________________________________________________________________
dropout_3 (Dropout)             (None, 13, 13, 120)  0           activation_6[0][0]               
__________________________________________________________________________________________________
conv2d_transpose_1 (Conv2DTrans (None, 26, 26, 60)   28860       dropout_3[0][0]                  
__________________________________________________________________________________________________
concatenate_1 (Concatenate)     (None, 26, 26, 120)  0           conv2d_transpose_1[0][0]         
                                                                 activation_4[0][0]               
__________________________________________________________________________________________________
conv2d_7 (Conv2D)               (None, 26, 26, 60)   64860       concatenate_1[0][0]              
__________________________________________________________________________________________________
batch_normalization_7 (BatchNor (None, 26, 26, 60)   240         conv2d_7[0][0]                   
__________________________________________________________________________________________________
activation_7 (Activation)       (None, 26, 26, 60)   0           batch_normalization_7[0][0]      
__________________________________________________________________________________________________
conv2d_8 (Conv2D)               (None, 26, 26, 60)   32460       activation_7[0][0]               
__________________________________________________________________________________________________
batch_normalization_8 (BatchNor (None, 26, 26, 60)   240         conv2d_8[0][0]                   
__________________________________________________________________________________________________
activation_8 (Activation)       (None, 26, 26, 60)   0           batch_normalization_8[0][0]      
__________________________________________________________________________________________________
dropout_4 (Dropout)             (None, 26, 26, 60)   0           activation_8[0][0]               
__________________________________________________________________________________________________
conv2d_transpose_2 (Conv2DTrans (None, 52, 52, 30)   7230        dropout_4[0][0]                  
__________________________________________________________________________________________________
concatenate_2 (Concatenate)     (None, 52, 52, 60)   0           conv2d_transpose_2[0][0]         
                                                                 activation_2[0][0]               
__________________________________________________________________________________________________
conv2d_9 (Conv2D)               (None, 52, 52, 30)   16230       concatenate_2[0][0]              
__________________________________________________________________________________________________
batch_normalization_9 (BatchNor (None, 52, 52, 30)   120         conv2d_9[0][0]                   
__________________________________________________________________________________________________
activation_9 (Activation)       (None, 52, 52, 30)   0           batch_normalization_9[0][0]      
__________________________________________________________________________________________________
conv2d_10 (Conv2D)              (None, 52, 52, 30)   8130        activation_9[0][0]               
__________________________________________________________________________________________________
batch_normalization_10 (BatchNo (None, 52, 52, 30)   120         conv2d_10[0][0]                  
__________________________________________________________________________________________________
activation_10 (Activation)      (None, 52, 52, 30)   0           batch_normalization_10[0][0]     
__________________________________________________________________________________________________2019-06-30 20:33:07.022758: I tensorflow/core/common_runtime/gpu/gpu_device.cc:1471] Adding visible gpu devices: 0
2019-06-30 20:33:07.022891: I tensorflow/core/common_runtime/gpu/gpu_device.cc:952] Device interconnect StreamExecutor with strength 1 edge matrix:
…
Error in label values min 0.0 max 3.0      9-LGN
Error in label values min 0.0 max 2.0      10-MGN
Error in label values min 0.0 max 2.0      11-CM
Error in label values min 0.0 max 5.0      12-MD-Pf
Error in label values min 0.0 max 30.0      13-Hb
Error in label values min 0.0 max 4.0      14-MTT
__________________________________________________________________________________________________
Layer (type)                    Output Shape         Param #     Connected to                     
==================================================================================================
input_1 (InputLayer)            (None, 80, 52, 1)    0                                            
__________________________________________________________________________________________________
conv2d_1 (Conv2D)               (None, 80, 52, 30)   300         input_1[0][0]                    
__________________________________________________________________________________________________
batch_normalization_1 (BatchNor (None, 80, 52, 30)   120         conv2d_1[0][0]                   
__________________________________________________________________________________________________
activation_1 (Activation)       (None, 80, 52, 30)   0           batch_normalization_1[0][0]      
__________________________________________________________________________________________________
conv2d_2 (Conv2D)               (None, 80, 52, 30)   8130        activation_1[0][0]               
__________________________________________________________________________________________________
batch_normalization_2 (BatchNor (None, 80, 52, 30)   120         conv2d_2[0][0]                   2019-06-30 21:00:14.134054: I tensorflow/core/common_runtime/gpu/gpu_device.cc:1471] Adding visible gpu devices: 0
2019-06-30 21:00:14.134152: I tensorflow/core/common_runtime/gpu/gpu_device.cc:952] Device interconnect StreamExecutor with strength 1 edge matrix:
2019-06-30 21:00:14.134166: I tensorflow/core/common_runtime/gpu/gpu_device.cc:958]      0 
2019-06-30 21:00:14.134174: I tensorflow/core/common_runtime/gpu/gpu_device.cc:971] 0:   N 
2019-06-30 21:00:14.134602: I tensorflow/core/common_runtime/gpu/gpu_device.cc:1084] Created TensorFlow device (/job:localhost/replica:0/task:0/device:GPU:0 with 15123 MB memory) -> physical GPU (device: 0, name: Tesla P100-PCIE-16GB, pci bus id: 0000:04:00.0, compute capability: 6.0)

__________________________________________________________________________________________________
activation_2 (Activation)       (None, 80, 52, 30)   0           batch_normalization_2[0][0]      
__________________________________________________________________________________________________
max_pooling2d_1 (MaxPooling2D)  (None, 40, 26, 30)   0           activation_2[0][0]               
__________________________________________________________________________________________________
dropout_1 (Dropout)             (None, 40, 26, 30)   0           max_pooling2d_1[0][0]            
__________________________________________________________________________________________________
conv2d_3 (Conv2D)               (None, 40, 26, 60)   16260       dropout_1[0][0]                  
__________________________________________________________________________________________________
batch_normalization_3 (BatchNor (None, 40, 26, 60)   240         conv2d_3[0][0]                   
__________________________________________________________________________________________________
activation_3 (Activation)       (None, 40, 26, 60)   0           batch_normalization_3[0][0]      
__________________________________________________________________________________________________
conv2d_4 (Conv2D)               (None, 40, 26, 60)   32460       activation_3[0][0]               
__________________________________________________________________________________________________
batch_normalization_4 (BatchNor (None, 40, 26, 60)   240         conv2d_4[0][0]                   
__________________________________________________________________________________________________
activation_4 (Activation)       (None, 40, 26, 60)   0           batch_normalization_4[0][0]      
__________________________________________________________________________________________________
max_pooling2d_2 (MaxPooling2D)  (None, 20, 13, 60)   0           activation_4[0][0]               
__________________________________________________________________________________________________
dropout_2 (Dropout)             (None, 20, 13, 60)   0           max_pooling2d_2[0][0]            
__________________________________________________________________________________________________
conv2d_5 (Conv2D)               (None, 20, 13, 120)  64920       dropout_2[0][0]                  
__________________________________________________________________________________________________
batch_normalization_5 (BatchNor (None, 20, 13, 120)  480         conv2d_5[0][0]                   
__________________________________________________________________________________________________
activation_5 (Activation)       (None, 20, 13, 120)  0           batch_normalization_5[0][0]      
__________________________________________________________________________________________________
conv2d_6 (Conv2D)               (None, 20, 13, 120)  129720      activation_5[0][0]               
__________________________________________________________________________________________________
batch_normalization_6 (BatchNor (None, 20, 13, 120)  480         conv2d_6[0][0]                   
__________________________________________________________________________________________________
activation_6 (Activation)       (None, 20, 13, 120)  0           batch_normalization_6[0][0]      
__________________________________________________________________________________________________
dropout_3 (Dropout)             (None, 20, 13, 120)  0           activation_6[0][0]               
__________________________________________________________________________________________________
conv2d_transpose_1 (Conv2DTrans (None, 40, 26, 60)   28860       dropout_3[0][0]                  
__________________________________________________________________________________________________
concatenate_1 (Concatenate)     (None, 40, 26, 120)  0           conv2d_transpose_1[0][0]         
                                                                 activation_4[0][0]               
__________________________________________________________________________________________________
conv2d_7 (Conv2D)               (None, 40, 26, 60)   64860       concatenate_1[0][0]              
__________________________________________________________________________________________________
batch_normalization_7 (BatchNor (None, 40, 26, 60)   240         conv2d_7[0][0]                   
__________________________________________________________________________________________________
activation_7 (Activation)       (None, 40, 26, 60)   0           batch_normalization_7[0][0]      
__________________________________________________________________________________________________
conv2d_8 (Conv2D)               (None, 40, 26, 60)   32460       activation_7[0][0]               
__________________________________________________________________________________________________
batch_normalization_8 (BatchNor (None, 40, 26, 60)   240         conv2d_8[0][0]                   
__________________________________________________________________________________________________
activation_8 (Activation)       (None, 40, 26, 60)   0           batch_normalization_8[0][0]      
__________________________________________________________________________________________________
dropout_4 (Dropout)             (None, 40, 26, 60)   0           activation_8[0][0]               
__________________________________________________________________________________________________
conv2d_transpose_2 (Conv2DTrans (None, 80, 52, 30)   7230        dropout_4[0][0]                  
__________________________________________________________________________________________________
concatenate_2 (Concatenate)     (None, 80, 52, 60)   0           conv2d_transpose_2[0][0]         
                                                                 activation_2[0][0]               
__________________________________________________________________________________________________
conv2d_9 (Conv2D)               (None, 80, 52, 30)   16230       concatenate_2[0][0]              
__________________________________________________________________________________________________
batch_normalization_9 (BatchNor (None, 80, 52, 30)   120         conv2d_9[0][0]                   
__________________________________________________________________________________________________
activation_9 (Activation)       (None, 80, 52, 30)   0           batch_normalization_9[0][0]      
__________________________________________________________________________________________________
conv2d_10 (Conv2D)              (None, 80, 52, 30)   8130        activation_9[0][0]               
__________________________________________________________________________________________________
batch_normalization_10 (BatchNo (None, 80, 52, 30)   120         conv2d_10[0][0]                  
__________________________________________________________________________________________________
activation_10 (Activation)      (None, 80, 52, 30)   0           batch_normalization_10[0][0]     
__________________________________________________________________________________________________
dropout_5 (Dropout)             (None, 80, 52, 30)   0           activation_10[0][0]              
__________________________________________________________________________________________________
conv2d_11 (Conv2D)              (None, 80, 52, 13)   403         dropout_5[0][0]                  
==================================================================================================
Total params: 412,363
Trainable params: 411,163
Non-trainable params: 1,200
__________________________________________________________________________________________________
 --- initialized from Model_7T /array/ssd/msmajdi/experiments/keras/exp6/models/sE12_Cascade_FM30_U-Net4_NL3_LS_MyBCE_US1_Main_Init_3T_CV_a/MultiClass_24567891011121314/sd0
…
Error in label values min 0.0 max 3.0      9-LGN
Error in label values min 0.0 max 2.0      10-MGN
Error in label values min 0.0 max 2.0      11-CM
Error in label values min 0.0 max 5.0      12-MD-Pf
Error in label values min 0.0 max 30.0      13-Hb
Error in label values min 0.0 max 4.0      14-MTT
__________________________________________________________________________________________________
Layer (type)                    Output Shape         Param #     Connected to                     
==================================================================================================
input_1 (InputLayer)            (None, 52, 80, 1)    0                                            
__________________________________________________________________________________________________
conv2d_1 (Conv2D)               (None, 52, 80, 40)   400         input_1[0][0]                    
__________________________________________________________________________________________________
batch_normalization_1 (BatchNor (None, 52, 80, 40)   160         conv2d_1[0][0]                   
__________________________________________________________________________________________________
activation_1 (Activation)       (None, 52, 80, 40)   0           batch_normalization_1[0][0]      
__________________________________________________________________________________________________
conv2d_2 (Conv2D)               (None, 52, 80, 40)   14440       activation_1[0][0]               
__________________________________________________________________________________________________
batch_normalization_2 (BatchNor (None, 52, 80, 40)   160         conv2d_2[0][0]                   
__________________________________________________________________________________________________
activation_2 (Activation)       (None, 52, 80, 40)   0           batch_normalization_2[0][0]      
__________________________________________________________________________________________________
max_pooling2d_1 (MaxPooling2D)  (None, 26, 40, 40)   0           activation_2[0][0]               
__________________________________________________________________________________________________
dropout_1 (Dropout)             (None, 26, 40, 40)   0           max_pooling2d_1[0][0]            
__________________________________________________________________________________________________
conv2d_3 (Conv2D)               (None, 26, 40, 80)   28880       dropout_1[0][0]                  
__________________________________________________________________________________________________
batch_normalization_3 (BatchNor (None, 26, 40, 80)   320         conv2d_3[0][0]                   
__________________________________________________________________________________________________
activation_3 (Activation)       (None, 26, 40, 80)   0           batch_normalization_3[0][0]      
__________________________________________________________________________________________________
conv2d_4 (Conv2D)               (None, 26, 40, 80)   57680       activation_3[0][0]               
__________________________________________________________________________________________________
batch_normalization_4 (BatchNor (None, 26, 40, 80)   320         conv2d_4[0][0]                   
__________________________________________________________________________________________________
activation_4 (Activation)       (None, 26, 40, 80)   0           batch_normalization_4[0][0]      
__________________________________________________________________________________________________
max_pooling2d_2 (MaxPooling2D)  (None, 13, 20, 80)   0           activation_4[0][0]               
__________________________________________________________________________________________________
dropout_2 (Dropout)             (None, 13, 20, 80)   0           max_pooling2d_2[0][0]            
__________________________________________________________________________________________________
conv2d_5 (Conv2D)               (None, 13, 20, 160)  115360      dropout_2[0][0]                  
__________________________________________________________________________________________________
batch_normalization_5 (BatchNor (None, 13, 20, 160)  640         conv2d_5[0][0]                   
__________________________________________________________________________________________________
activation_5 (Activation)       (None, 13, 20, 160)  0           batch_normalization_5[0][0]      
__________________________________________________________________________________________________
conv2d_6 (Conv2D)               (None, 13, 20, 160)  230560      activation_5[0][0]               
__________________________________________________________________________________________________
batch_normalization_6 (BatchNor (None, 13, 20, 160)  640         conv2d_6[0][0]                   
__________________________________________________________________________________________________
activation_6 (Activation)       (None, 13, 20, 160)  0           batch_normalization_6[0][0]      
__________________________________________________________________________________________________
dropout_3 (Dropout)             (None, 13, 20, 160)  0           activation_6[0][0]               
__________________________________________________________________________________________________
conv2d_transpose_1 (Conv2DTrans (None, 26, 40, 80)   51280       dropout_3[0][0]                  
__________________________________________________________________________________________________
concatenate_1 (Concatenate)     (None, 26, 40, 160)  0           conv2d_transpose_1[0][0]         
                                                                 activation_4[0][0]               
__________________________________________________________________________________________________
conv2d_7 (Conv2D)               (None, 26, 40, 80)   115280      concatenate_1[0][0]              
__________________________________________________________________________________________________
batch_normalization_7 (BatchNor (None, 26, 40, 80)   320         conv2d_7[0][0]                   2019-06-30 21:32:06.258586: I tensorflow/core/common_runtime/gpu/gpu_device.cc:1471] Adding visible gpu devices: 0
2019-06-30 21:32:06.258689: I tensorflow/core/common_runtime/gpu/gpu_device.cc:952] Device interconnect StreamExecutor with strength 1 edge matrix:
2019-06-30 21:32:06.258712: I tensorflow/core/common_runtime/gpu/gpu_device.cc:958]      0 
2019-06-30 21:32:06.258721: I tensorflow/core/common_runtime/gpu/gpu_device.cc:971] 0:   N 
2019-06-30 21:32:06.259152: I tensorflow/core/common_runtime/gpu/gpu_device.cc:1084] Created TensorFlow device (/job:localhost/replica:0/task:0/device:GPU:0 with 15123 MB memory) -> physical GPU (device: 0, name: Tesla P100-PCIE-16GB, pci bus id: 0000:04:00.0, compute capability: 6.0)

__________________________________________________________________________________________________
activation_7 (Activation)       (None, 26, 40, 80)   0           batch_normalization_7[0][0]      
__________________________________________________________________________________________________
conv2d_8 (Conv2D)               (None, 26, 40, 80)   57680       activation_7[0][0]               
__________________________________________________________________________________________________
batch_normalization_8 (BatchNor (None, 26, 40, 80)   320         conv2d_8[0][0]                   
__________________________________________________________________________________________________
activation_8 (Activation)       (None, 26, 40, 80)   0           batch_normalization_8[0][0]      
__________________________________________________________________________________________________
dropout_4 (Dropout)             (None, 26, 40, 80)   0           activation_8[0][0]               
__________________________________________________________________________________________________
conv2d_transpose_2 (Conv2DTrans (None, 52, 80, 40)   12840       dropout_4[0][0]                  
__________________________________________________________________________________________________
concatenate_2 (Concatenate)     (None, 52, 80, 80)   0           conv2d_transpose_2[0][0]         
                                                                 activation_2[0][0]               
__________________________________________________________________________________________________
conv2d_9 (Conv2D)               (None, 52, 80, 40)   28840       concatenate_2[0][0]              
__________________________________________________________________________________________________
batch_normalization_9 (BatchNor (None, 52, 80, 40)   160         conv2d_9[0][0]                   
__________________________________________________________________________________________________
activation_9 (Activation)       (None, 52, 80, 40)   0           batch_normalization_9[0][0]      
__________________________________________________________________________________________________
conv2d_10 (Conv2D)              (None, 52, 80, 40)   14440       activation_9[0][0]               
__________________________________________________________________________________________________
batch_normalization_10 (BatchNo (None, 52, 80, 40)   160         conv2d_10[0][0]                  
__________________________________________________________________________________________________
activation_10 (Activation)      (None, 52, 80, 40)   0           batch_normalization_10[0][0]     
__________________________________________________________________________________________________
dropout_5 (Dropout)             (None, 52, 80, 40)   0           activation_10[0][0]              
__________________________________________________________________________________________________
conv2d_11 (Conv2D)              (None, 52, 80, 13)   533         dropout_5[0][0]                  
==================================================================================================
Total params: 731,413
Trainable params: 729,813
Non-trainable params: 1,600
__________________________________________________________________________________________________
 --- initialized from Model_7T /array/ssd/msmajdi/experiments/keras/exp6/models/sE12_Cascade_FM40_U-Net4_NL3_LS_MyBCE_US1_Main_Init_3T_CV_a/MultiClass_24567891011121314/sd2
…
Error in label values min 0.0 max 3.0      9-LGN
Error in label values min 0.0 max 2.0      10-MGN
Error in label values min 0.0 max 2.0      11-CM
Error in label values min 0.0 max 5.0      12-MD-Pf
Error in label values min 0.0 max 30.0      13-Hb
Error in label values min 0.0 max 4.0      14-MTT
__________________________________________________________________________________________________
Layer (type)                    Output Shape         Param #     Connected to                     
==================================================================================================
input_1 (InputLayer)            (None, 52, 52, 1)    0                                            
__________________________________________________________________________________________________
conv2d_1 (Conv2D)               (None, 52, 52, 40)   400         input_1[0][0]                    
__________________________________________________________________________________________________
batch_normalization_1 (BatchNor (None, 52, 52, 40)   160         conv2d_1[0][0]                   
__________________________________________________________________________________________________
activation_1 (Activation)       (None, 52, 52, 40)   0           batch_normalization_1[0][0]      
__________________________________________________________________________________________________
conv2d_2 (Conv2D)               (None, 52, 52, 40)   14440       activation_1[0][0]               
__________________________________________________________________________________________________
batch_normalization_2 (BatchNor (None, 52, 52, 40)   160         conv2d_2[0][0]                   
__________________________________________________________________________________________________
activation_2 (Activation)       (None, 52, 52, 40)   0           batch_normalization_2[0][0]      
__________________________________________________________________________________________________
max_pooling2d_1 (MaxPooling2D)  (None, 26, 26, 40)   0           activation_2[0][0]               
__________________________________________________________________________________________________
dropout_1 (Dropout)             (None, 26, 26, 40)   0           max_pooling2d_1[0][0]            
__________________________________________________________________________________________________
conv2d_3 (Conv2D)               (None, 26, 26, 80)   28880       dropout_1[0][0]                  
__________________________________________________________________________________________________
batch_normalization_3 (BatchNor (None, 26, 26, 80)   320         conv2d_3[0][0]                   
__________________________________________________________________________________________________
activation_3 (Activation)       (None, 26, 26, 80)   0           batch_normalization_3[0][0]      
__________________________________________________________________________________________________
conv2d_4 (Conv2D)               (None, 26, 26, 80)   57680       activation_3[0][0]               
__________________________________________________________________________________________________
batch_normalization_4 (BatchNor (None, 26, 26, 80)   320         conv2d_4[0][0]                   
__________________________________________________________________________________________________
activation_4 (Activation)       (None, 26, 26, 80)   0           batch_normalization_4[0][0]      
__________________________________________________________________________________________________
max_pooling2d_2 (MaxPooling2D)  (None, 13, 13, 80)   0           activation_4[0][0]               
__________________________________________________________________________________________________
dropout_2 (Dropout)             (None, 13, 13, 80)   0           max_pooling2d_2[0][0]            
__________________________________________________________________________________________________
conv2d_5 (Conv2D)               (None, 13, 13, 160)  115360      dropout_2[0][0]                  
__________________________________________________________________________________________________
batch_normalization_5 (BatchNor (None, 13, 13, 160)  640         conv2d_5[0][0]                   
__________________________________________________________________________________________________
activation_5 (Activation)       (None, 13, 13, 160)  0           batch_normalization_5[0][0]      
__________________________________________________________________________________________________
conv2d_6 (Conv2D)               (None, 13, 13, 160)  230560      activation_5[0][0]               
__________________________________________________________________________________________________
batch_normalization_6 (BatchNor (None, 13, 13, 160)  640         conv2d_6[0][0]                   
__________________________________________________________________________________________________
activation_6 (Activation)       (None, 13, 13, 160)  0           batch_normalization_6[0][0]      
__________________________________________________________________________________________________
dropout_3 (Dropout)             (None, 13, 13, 160)  0           activation_6[0][0]               
__________________________________________________________________________________________________
conv2d_transpose_1 (Conv2DTrans (None, 26, 26, 80)   51280       dropout_3[0][0]                  
__________________________________________________________________________________________________
concatenate_1 (Concatenate)     (None, 26, 26, 160)  0           conv2d_transpose_1[0][0]         
                                                                 activation_4[0][0]               
__________________________________________________________________________________________________
conv2d_7 (Conv2D)               (None, 26, 26, 80)   115280      concatenate_1[0][0]              
__________________________________________________________________________________________________
batch_normalization_7 (BatchNor (None, 26, 26, 80)   320         conv2d_7[0][0]                   
__________________________________________________________________________________________________
activation_7 (Activation)       (None, 26, 26, 80)   0           batch_normalization_7[0][0]      
__________________________________________________________________________________________________
conv2d_8 (Conv2D)               (None, 26, 26, 80)   57680       activation_7[0][0]               
__________________________________________________________________________________________________
batch_normalization_8 (BatchNor (None, 26, 26, 80)   320         conv2d_8[0][0]                   
__________________________________________________________________________________________________
activation_8 (Activation)       (None, 26, 26, 80)   0           batch_normalization_8[0][0]      
__________________________________________________________________________________________________
dropout_4 (Dropout)             (None, 26, 26, 80)   0           activation_8[0][0]               
__________________________________________________________________________________________________2019-06-30 22:06:45.268844: I tensorflow/core/common_runtime/gpu/gpu_device.cc:1471] Adding visible gpu devices: 0
2019-06-30 22:06:45.268961: I tensorflow/core/common_runtime/gpu/gpu_device.cc:952] Device interconnect StreamExecutor with strength 1 edge matrix:
2019-06-30 22:06:45.268982: I tensorflow/core/common_runtime/gpu/gpu_device.cc:958]      0 
2019-06-30 22:06:45.268997: I tensorflow/core/common_runtime/gpu/gpu_device.cc:971] 0:   N 
2019-06-30 22:06:45.269516: I tensorflow/core/common_runtime/gpu/gpu_device.cc:1084] Created TensorFlow device (/job:localhost/replica:0/task:0/device:GPU:0 with 15123 MB memory) -> physical GPU (device: 0, name: Tesla P100-PCIE-16GB, pci bus id: 0000:04:00.0, compute capability: 6.0)

conv2d_transpose_2 (Conv2DTrans (None, 52, 52, 40)   12840       dropout_4[0][0]                  
__________________________________________________________________________________________________
concatenate_2 (Concatenate)     (None, 52, 52, 80)   0           conv2d_transpose_2[0][0]         
                                                                 activation_2[0][0]               
__________________________________________________________________________________________________
conv2d_9 (Conv2D)               (None, 52, 52, 40)   28840       concatenate_2[0][0]              
__________________________________________________________________________________________________
batch_normalization_9 (BatchNor (None, 52, 52, 40)   160         conv2d_9[0][0]                   
__________________________________________________________________________________________________
activation_9 (Activation)       (None, 52, 52, 40)   0           batch_normalization_9[0][0]      
__________________________________________________________________________________________________
conv2d_10 (Conv2D)              (None, 52, 52, 40)   14440       activation_9[0][0]               
__________________________________________________________________________________________________
batch_normalization_10 (BatchNo (None, 52, 52, 40)   160         conv2d_10[0][0]                  
__________________________________________________________________________________________________
activation_10 (Activation)      (None, 52, 52, 40)   0           batch_normalization_10[0][0]     
__________________________________________________________________________________________________
dropout_5 (Dropout)             (None, 52, 52, 40)   0           activation_10[0][0]              
__________________________________________________________________________________________________
conv2d_11 (Conv2D)              (None, 52, 52, 13)   533         dropout_5[0][0]                  
==================================================================================================
Total params: 731,413
Trainable params: 729,813
Non-trainable params: 1,600
__________________________________________________________________________________________________
 --- initialized from Model_7T /array/ssd/msmajdi/experiments/keras/exp6/models/sE12_Cascade_FM40_U-Net4_NL3_LS_MyBCE_US1_Main_Init_3T_CV_a/MultiClass_24567891011121314/sd1
…
Error in label values min 0.0 max 3.0      9-LGN
Error in label values min 0.0 max 2.0      10-MGN
Error in label values min 0.0 max 2.0      11-CM
Error in label values min 0.0 max 5.0      12-MD-Pf
Error in label values min 0.0 max 30.0      13-Hb
Error in label values min 0.0 max 4.0      14-MTT
__________________________________________________________________________________________________
Layer (type)                    Output Shape         Param #     Connected to                     
==================================================================================================
input_1 (InputLayer)            (None, 80, 52, 1)    0                                            
__________________________________________________________________________________________________
conv2d_1 (Conv2D)               (None, 80, 52, 40)   400         input_1[0][0]                    
__________________________________________________________________________________________________
batch_normalization_1 (BatchNor (None, 80, 52, 40)   160         conv2d_1[0][0]                   
__________________________________________________________________________________________________
activation_1 (Activation)       (None, 80, 52, 40)   0           batch_normalization_1[0][0]      
__________________________________________________________________________________________________
conv2d_2 (Conv2D)               (None, 80, 52, 40)   14440       activation_1[0][0]               
__________________________________________________________________________________________________
batch_normalization_2 (BatchNor (None, 80, 52, 40)   160         conv2d_2[0][0]                   
__________________________________________________________________________________________________
activation_2 (Activation)       (None, 80, 52, 40)   0           batch_normalization_2[0][0]      
__________________________________________________________________________________________________
max_pooling2d_1 (MaxPooling2D)  (None, 40, 26, 40)   0           activation_2[0][0]               
__________________________________________________________________________________________________
dropout_1 (Dropout)             (None, 40, 26, 40)   0           max_pooling2d_1[0][0]            
__________________________________________________________________________________________________
conv2d_3 (Conv2D)               (None, 40, 26, 80)   28880       dropout_1[0][0]                  
__________________________________________________________________________________________________
batch_normalization_3 (BatchNor (None, 40, 26, 80)   320         conv2d_3[0][0]                   
__________________________________________________________________________________________________
activation_3 (Activation)       (None, 40, 26, 80)   0           batch_normalization_3[0][0]      
__________________________________________________________________________________________________
conv2d_4 (Conv2D)               (None, 40, 26, 80)   57680       activation_3[0][0]               
__________________________________________________________________________________________________
batch_normalization_4 (BatchNor (None, 40, 26, 80)   320         conv2d_4[0][0]                   
__________________________________________________________________________________________________
activation_4 (Activation)       (None, 40, 26, 80)   0           batch_normalization_4[0][0]      
__________________________________________________________________________________________________
max_pooling2d_2 (MaxPooling2D)  (None, 20, 13, 80)   0           activation_4[0][0]               
__________________________________________________________________________________________________
dropout_2 (Dropout)             (None, 20, 13, 80)   0           max_pooling2d_2[0][0]            
__________________________________________________________________________________________________
conv2d_5 (Conv2D)               (None, 20, 13, 160)  115360      dropout_2[0][0]                  
__________________________________________________________________________________________________
batch_normalization_5 (BatchNor (None, 20, 13, 160)  640         conv2d_5[0][0]                   
__________________________________________________________________________________________________
activation_5 (Activation)       (None, 20, 13, 160)  0           batch_normalization_5[0][0]      
__________________________________________________________________________________________________
conv2d_6 (Conv2D)               (None, 20, 13, 160)  230560      activation_5[0][0]               
__________________________________________________________________________________________________
batch_normalization_6 (BatchNor (None, 20, 13, 160)  640         conv2d_6[0][0]                   
__________________________________________________________________________________________________
activation_6 (Activation)       (None, 20, 13, 160)  0           batch_normalization_6[0][0]      
__________________________________________________________________________________________________
dropout_3 (Dropout)             (None, 20, 13, 160)  0           activation_6[0][0]               
__________________________________________________________________________________________________
conv2d_transpose_1 (Conv2DTrans (None, 40, 26, 80)   51280       dropout_3[0][0]                  
__________________________________________________________________________________________________
concatenate_1 (Concatenate)     (None, 40, 26, 160)  0           conv2d_transpose_1[0][0]         
                                                                 activation_4[0][0]               
__________________________________________________________________________________________________
conv2d_7 (Conv2D)               (None, 40, 26, 80)   115280      concatenate_1[0][0]              
__________________________________________________________________________________________________
batch_normalization_7 (BatchNor (None, 40, 26, 80)   320         conv2d_7[0][0]                   
__________________________________________________________________________________________________
activation_7 (Activation)       (None, 40, 26, 80)   0           batch_normalization_7[0][0]      
__________________________________________________________________________________________________
conv2d_8 (Conv2D)               (None, 40, 26, 80)   57680       activation_7[0][0]               
__________________________________________________________________________________________________
batch_normalization_8 (BatchNor (None, 40, 26, 80)   320         conv2d_8[0][0]                   
__________________________________________________________________________________________________
activation_8 (Activation)       (None, 40, 26, 80)   0           batch_normalization_8[0][0]      
__________________________________________________________________________________________________
dropout_4 (Dropout)             (None, 40, 26, 80)   0           activation_8[0][0]               
__________________________________________________________________________________________________2019-06-30 22:47:53.111998: I tensorflow/core/common_runtime/gpu/gpu_device.cc:1471] Adding visible gpu devices: 0
2019-06-30 22:47:53.112095: I tensorflow/core/common_runtime/gpu/gpu_device.cc:952] Device interconnect StreamExecutor with strength 1 edge matrix:
2019-06-30 22:47:53.112110: I tensorflow/core/common_runtime/gpu/gpu_device.cc:958]      0 
2019-06-30 22:47:53.112118: I tensorflow/core/common_runtime/gpu/gpu_device.cc:971] 0:   N 
2019-06-30 22:47:53.112531: I tensorflow/core/common_runtime/gpu/gpu_device.cc:1084] Created TensorFlow device (/job:localhost/replica:0/task:0/device:GPU:0 with 15123 MB memory) -> physical GPU (device: 0, name: Tesla P100-PCIE-16GB, pci bus id: 0000:04:00.0, compute capability: 6.0)

conv2d_transpose_2 (Conv2DTrans (None, 80, 52, 40)   12840       dropout_4[0][0]                  
__________________________________________________________________________________________________
concatenate_2 (Concatenate)     (None, 80, 52, 80)   0           conv2d_transpose_2[0][0]         
                                                                 activation_2[0][0]               
__________________________________________________________________________________________________
conv2d_9 (Conv2D)               (None, 80, 52, 40)   28840       concatenate_2[0][0]              
__________________________________________________________________________________________________
batch_normalization_9 (BatchNor (None, 80, 52, 40)   160         conv2d_9[0][0]                   
__________________________________________________________________________________________________
activation_9 (Activation)       (None, 80, 52, 40)   0           batch_normalization_9[0][0]      
__________________________________________________________________________________________________
conv2d_10 (Conv2D)              (None, 80, 52, 40)   14440       activation_9[0][0]               
__________________________________________________________________________________________________
batch_normalization_10 (BatchNo (None, 80, 52, 40)   160         conv2d_10[0][0]                  
__________________________________________________________________________________________________
activation_10 (Activation)      (None, 80, 52, 40)   0           batch_normalization_10[0][0]     
__________________________________________________________________________________________________
dropout_5 (Dropout)             (None, 80, 52, 40)   0           activation_10[0][0]              
__________________________________________________________________________________________________
conv2d_11 (Conv2D)              (None, 80, 52, 13)   533         dropout_5[0][0]                  
==================================================================================================
Total params: 731,413
Trainable params: 729,813
Non-trainable params: 1,600
__________________________________________________________________________________________________
 --- initialized from Model_7T /array/ssd/msmajdi/experiments/keras/exp6/models/sE12_Cascade_FM40_U-Net4_NL3_LS_MyBCE_US1_Main_Init_3T_CV_a/MultiClass_24567891011121314/sd0
…
Error in label values min 0.0 max 3.0      9-LGN
Error in label values min 0.0 max 2.0      10-MGN
Error in label values min 0.0 max 2.0      11-CM
Error in label values min 0.0 max 5.0      12-MD-Pf
Error in label values min 0.0 max 30.0      13-Hb
Error in label values min 0.0 max 4.0      14-MTT
__________________________________________________________________________________________________
Layer (type)                    Output Shape         Param #     Connected to                     
==================================================================================================
input_1 (InputLayer)            (None, 56, 80, 1)    0                                            
__________________________________________________________________________________________________
conv2d_1 (Conv2D)               (None, 56, 80, 20)   200         input_1[0][0]                    
__________________________________________________________________________________________________
batch_normalization_1 (BatchNor (None, 56, 80, 20)   80          conv2d_1[0][0]                   
__________________________________________________________________________________________________
activation_1 (Activation)       (None, 56, 80, 20)   0           batch_normalization_1[0][0]      
__________________________________________________________________________________________________
conv2d_2 (Conv2D)               (None, 56, 80, 20)   3620        activation_1[0][0]               
__________________________________________________________________________________________________
batch_normalization_2 (BatchNor (None, 56, 80, 20)   80          conv2d_2[0][0]                   
__________________________________________________________________________________________________
activation_2 (Activation)       (None, 56, 80, 20)   0           batch_normalization_2[0][0]      
__________________________________________________________________________________________________
max_pooling2d_1 (MaxPooling2D)  (None, 28, 40, 20)   0           activation_2[0][0]               
__________________________________________________________________________________________________
dropout_1 (Dropout)             (None, 28, 40, 20)   0           max_pooling2d_1[0][0]            
__________________________________________________________________________________________________
conv2d_3 (Conv2D)               (None, 28, 40, 40)   7240        dropout_1[0][0]                  
__________________________________________________________________________________________________
batch_normalization_3 (BatchNor (None, 28, 40, 40)   160         conv2d_3[0][0]                   
__________________________________________________________________________________________________
activation_3 (Activation)       (None, 28, 40, 40)   0           batch_normalization_3[0][0]      
__________________________________________________________________________________________________
conv2d_4 (Conv2D)               (None, 28, 40, 40)   14440       activation_3[0][0]               
__________________________________________________________________________________________________
batch_normalization_4 (BatchNor (None, 28, 40, 40)   160         conv2d_4[0][0]                   
__________________________________________________________________________________________________
activation_4 (Activation)       (None, 28, 40, 40)   0           batch_normalization_4[0][0]      
__________________________________________________________________________________________________
max_pooling2d_2 (MaxPooling2D)  (None, 14, 20, 40)   0           activation_4[0][0]               
__________________________________________________________________________________________________
dropout_2 (Dropout)             (None, 14, 20, 40)   0           max_pooling2d_2[0][0]            
__________________________________________________________________________________________________
conv2d_5 (Conv2D)               (None, 14, 20, 80)   28880       dropout_2[0][0]                  
__________________________________________________________________________________________________
batch_normalization_5 (BatchNor (None, 14, 20, 80)   320         conv2d_5[0][0]                   
__________________________________________________________________________________________________
activation_5 (Activation)       (None, 14, 20, 80)   0           batch_normalization_5[0][0]      
__________________________________________________________________________________________________
conv2d_6 (Conv2D)               (None, 14, 20, 80)   57680       activation_5[0][0]               
__________________________________________________________________________________________________
batch_normalization_6 (BatchNor (None, 14, 20, 80)   320         conv2d_6[0][0]                   
__________________________________________________________________________________________________
activation_6 (Activation)       (None, 14, 20, 80)   0           batch_normalization_6[0][0]      
__________________________________________________________________________________________________
max_pooling2d_3 (MaxPooling2D)  (None, 7, 10, 80)    0           activation_6[0][0]               
__________________________________________________________________________________________________
dropout_3 (Dropout)             (None, 7, 10, 80)    0           max_pooling2d_3[0][0]            
__________________________________________________________________________________________________
conv2d_7 (Conv2D)               (None, 7, 10, 160)   115360      dropout_3[0][0]                  
__________________________________________________________________________________________________
batch_normalization_7 (BatchNor (None, 7, 10, 160)   640         conv2d_7[0][0]                   
__________________________________________________________________________________________________
activation_7 (Activation)       (None, 7, 10, 160)   0           batch_normalization_7[0][0]      
__________________________________________________________________________________________________
conv2d_8 (Conv2D)               (None, 7, 10, 160)   230560      activation_7[0][0]               
__________________________________________________________________________________________________
batch_normalization_8 (BatchNor (None, 7, 10, 160)   640         conv2d_8[0][0]                   
__________________________________________________________________________________________________
activation_8 (Activation)       (None, 7, 10, 160)   0           batch_normalization_8[0][0]      
__________________________________________________________________________________________________
dropout_4 (Dropout)             (None, 7, 10, 160)   0           activation_8[0][0]               
__________________________________________________________________________________________________
conv2d_transpose_1 (Conv2DTrans (None, 14, 20, 80)   51280       dropout_4[0][0]                  
__________________________________________________________________________________________________
concatenate_1 (Concatenate)     (None, 14, 20, 160)  0           conv2d_transpose_1[0][0]         
                                                                 activation_6[0][0]               
__________________________________________________________________________________________________
conv2d_9 (Conv2D)               (None, 14, 20, 80)   115280      concatenate_1[0][0]              
__________________________________________________________________________________________________
batch_normalization_9 (BatchNor (None, 14, 20, 80)   320         conv2d_9[0][0]                   
__________________________________________________________________________________________________
activation_9 (Activation)       (None, 14, 20, 80)   0           batch_normalization_9[0][0]      2019-06-30 23:15:18.803124: I tensorflow/core/common_runtime/gpu/gpu_device.cc:1471] Adding visible gpu devices: 0
2019-06-30 23:15:18.803218: I tensorflow/core/common_runtime/gpu/gpu_device.cc:952] Device interconnect StreamExecutor with strength 1 edge matrix:
2019-06-30 23:15:18.803232: I tensorflow/core/common_runtime/gpu/gpu_device.cc:958]      0 
2019-06-30 23:15:18.803240: I tensorflow/core/common_runtime/gpu/gpu_device.cc:971] 0:   N 
2019-06-30 23:15:18.803649: I tensorflow/core/common_runtime/gpu/gpu_device.cc:1084] Created TensorFlow device (/job:localhost/replica:0/task:0/device:GPU:0 with 15123 MB memory) -> physical GPU (device: 0, name: Tesla P100-PCIE-16GB, pci bus id: 0000:04:00.0, compute capability: 6.0)

__________________________________________________________________________________________________
conv2d_10 (Conv2D)              (None, 14, 20, 80)   57680       activation_9[0][0]               
__________________________________________________________________________________________________
batch_normalization_10 (BatchNo (None, 14, 20, 80)   320         conv2d_10[0][0]                  
__________________________________________________________________________________________________
activation_10 (Activation)      (None, 14, 20, 80)   0           batch_normalization_10[0][0]     
__________________________________________________________________________________________________
dropout_5 (Dropout)             (None, 14, 20, 80)   0           activation_10[0][0]              
__________________________________________________________________________________________________
conv2d_transpose_2 (Conv2DTrans (None, 28, 40, 40)   12840       dropout_5[0][0]                  
__________________________________________________________________________________________________
concatenate_2 (Concatenate)     (None, 28, 40, 80)   0           conv2d_transpose_2[0][0]         
                                                                 activation_4[0][0]               
__________________________________________________________________________________________________
conv2d_11 (Conv2D)              (None, 28, 40, 40)   28840       concatenate_2[0][0]              
__________________________________________________________________________________________________
batch_normalization_11 (BatchNo (None, 28, 40, 40)   160         conv2d_11[0][0]                  
__________________________________________________________________________________________________
activation_11 (Activation)      (None, 28, 40, 40)   0           batch_normalization_11[0][0]     
__________________________________________________________________________________________________
conv2d_12 (Conv2D)              (None, 28, 40, 40)   14440       activation_11[0][0]              
__________________________________________________________________________________________________
batch_normalization_12 (BatchNo (None, 28, 40, 40)   160         conv2d_12[0][0]                  
__________________________________________________________________________________________________
activation_12 (Activation)      (None, 28, 40, 40)   0           batch_normalization_12[0][0]     
__________________________________________________________________________________________________
dropout_6 (Dropout)             (None, 28, 40, 40)   0           activation_12[0][0]              
__________________________________________________________________________________________________
conv2d_transpose_3 (Conv2DTrans (None, 56, 80, 20)   3220        dropout_6[0][0]                  
__________________________________________________________________________________________________
concatenate_3 (Concatenate)     (None, 56, 80, 40)   0           conv2d_transpose_3[0][0]         
                                                                 activation_2[0][0]               
__________________________________________________________________________________________________
conv2d_13 (Conv2D)              (None, 56, 80, 20)   7220        concatenate_3[0][0]              
__________________________________________________________________________________________________
batch_normalization_13 (BatchNo (None, 56, 80, 20)   80          conv2d_13[0][0]                  
__________________________________________________________________________________________________
activation_13 (Activation)      (None, 56, 80, 20)   0           batch_normalization_13[0][0]     
__________________________________________________________________________________________________
conv2d_14 (Conv2D)              (None, 56, 80, 20)   3620        activation_13[0][0]              
__________________________________________________________________________________________________
batch_normalization_14 (BatchNo (None, 56, 80, 20)   80          conv2d_14[0][0]                  
__________________________________________________________________________________________________
activation_14 (Activation)      (None, 56, 80, 20)   0           batch_normalization_14[0][0]     
__________________________________________________________________________________________________
dropout_7 (Dropout)             (None, 56, 80, 20)   0           activation_14[0][0]              
__________________________________________________________________________________________________
conv2d_15 (Conv2D)              (None, 56, 80, 13)   273         dropout_7[0][0]                  
==================================================================================================
Total params: 756,193
Trainable params: 754,433
Non-trainable params: 1,760
__________________________________________________________________________________________________
 --- initialized from Model_7T /array/ssd/msmajdi/experiments/keras/exp6/models/sE12_Cascade_FM20_U-Net4_NL4_LS_MyBCE_US1_Main_Init_3T_CV_a/MultiClass_24567891011121314/sd2
…
Error in label values min 0.0 max 3.0      9-LGN
Error in label values min 0.0 max 2.0      10-MGN
Error in label values min 0.0 max 2.0      11-CM
Error in label values min 0.0 max 5.0      12-MD-Pf
Error in label values min 0.0 max 30.0      13-Hb
Error in label values min 0.0 max 4.0      14-MTT
__________________________________________________________________________________________________
Layer (type)                    Output Shape         Param #     Connected to                     
==================================================================================================
input_1 (InputLayer)            (None, 56, 56, 1)    0                                            
__________________________________________________________________________________________________
conv2d_1 (Conv2D)               (None, 56, 56, 20)   200         input_1[0][0]                    
__________________________________________________________________________________________________
batch_normalization_1 (BatchNor (None, 56, 56, 20)   80          conv2d_1[0][0]                   
__________________________________________________________________________________________________
activation_1 (Activation)       (None, 56, 56, 20)   0           batch_normalization_1[0][0]      
__________________________________________________________________________________________________
conv2d_2 (Conv2D)               (None, 56, 56, 20)   3620        activation_1[0][0]               
__________________________________________________________________________________________________
batch_normalization_2 (BatchNor (None, 56, 56, 20)   80          conv2d_2[0][0]                   
__________________________________________________________________________________________________
activation_2 (Activation)       (None, 56, 56, 20)   0           batch_normalization_2[0][0]      
__________________________________________________________________________________________________
max_pooling2d_1 (MaxPooling2D)  (None, 28, 28, 20)   0           activation_2[0][0]               
__________________________________________________________________________________________________
dropout_1 (Dropout)             (None, 28, 28, 20)   0           max_pooling2d_1[0][0]            
__________________________________________________________________________________________________
conv2d_3 (Conv2D)               (None, 28, 28, 40)   7240        dropout_1[0][0]                  
__________________________________________________________________________________________________
batch_normalization_3 (BatchNor (None, 28, 28, 40)   160         conv2d_3[0][0]                   
__________________________________________________________________________________________________
activation_3 (Activation)       (None, 28, 28, 40)   0           batch_normalization_3[0][0]      
__________________________________________________________________________________________________
conv2d_4 (Conv2D)               (None, 28, 28, 40)   14440       activation_3[0][0]               
__________________________________________________________________________________________________
batch_normalization_4 (BatchNor (None, 28, 28, 40)   160         conv2d_4[0][0]                   
__________________________________________________________________________________________________
activation_4 (Activation)       (None, 28, 28, 40)   0           batch_normalization_4[0][0]      
__________________________________________________________________________________________________
max_pooling2d_2 (MaxPooling2D)  (None, 14, 14, 40)   0           activation_4[0][0]               
__________________________________________________________________________________________________
dropout_2 (Dropout)             (None, 14, 14, 40)   0           max_pooling2d_2[0][0]            
__________________________________________________________________________________________________
conv2d_5 (Conv2D)               (None, 14, 14, 80)   28880       dropout_2[0][0]                  
__________________________________________________________________________________________________
batch_normalization_5 (BatchNor (None, 14, 14, 80)   320         conv2d_5[0][0]                   
__________________________________________________________________________________________________
activation_5 (Activation)       (None, 14, 14, 80)   0           batch_normalization_5[0][0]      
__________________________________________________________________________________________________
conv2d_6 (Conv2D)               (None, 14, 14, 80)   57680       activation_5[0][0]               
__________________________________________________________________________________________________
batch_normalization_6 (BatchNor (None, 14, 14, 80)   320         conv2d_6[0][0]                   
__________________________________________________________________________________________________
activation_6 (Activation)       (None, 14, 14, 80)   0           batch_normalization_6[0][0]      
__________________________________________________________________________________________________
max_pooling2d_3 (MaxPooling2D)  (None, 7, 7, 80)     0           activation_6[0][0]               
__________________________________________________________________________________________________
dropout_3 (Dropout)             (None, 7, 7, 80)     0           max_pooling2d_3[0][0]            
__________________________________________________________________________________________________
conv2d_7 (Conv2D)               (None, 7, 7, 160)    115360      dropout_3[0][0]                  
__________________________________________________________________________________________________
batch_normalization_7 (BatchNor (None, 7, 7, 160)    640         conv2d_7[0][0]                   
__________________________________________________________________________________________________
activation_7 (Activation)       (None, 7, 7, 160)    0           batch_normalization_7[0][0]      
__________________________________________________________________________________________________
conv2d_8 (Conv2D)               (None, 7, 7, 160)    230560      activation_7[0][0]               
__________________________________________________________________________________________________
batch_normalization_8 (BatchNor (None, 7, 7, 160)    640         conv2d_8[0][0]                   
__________________________________________________________________________________________________
activation_8 (Activation)       (None, 7, 7, 160)    0           batch_normalization_8[0][0]      
__________________________________________________________________________________________________
dropout_4 (Dropout)             (None, 7, 7, 160)    0           activation_8[0][0]               
__________________________________________________________________________________________________
conv2d_transpose_1 (Conv2DTrans (None, 14, 14, 80)   51280       dropout_4[0][0]                  
__________________________________________________________________________________________________
concatenate_1 (Concatenate)     (None, 14, 14, 160)  0           conv2d_transpose_1[0][0]         2019-06-30 23:43:54.705051: I tensorflow/core/common_runtime/gpu/gpu_device.cc:1471] Adding visible gpu devices: 0
2019-06-30 23:43:54.705144: I tensorflow/core/common_runtime/gpu/gpu_device.cc:952] Device interconnect StreamExecutor with strength 1 edge matrix:
2019-06-30 23:43:54.705158: I tensorflow/core/common_runtime/gpu/gpu_device.cc:958]      0 
2019-06-30 23:43:54.705167: I tensorflow/core/common_runtime/gpu/gpu_device.cc:971] 0:   N 
2019-06-30 23:43:54.705574: I tensorflow/core/common_runtime/gpu/gpu_device.cc:1084] Created TensorFlow device (/job:localhost/replica:0/task:0/device:GPU:0 with 15123 MB memory) -> physical GPU (device: 0, name: Tesla P100-PCIE-16GB, pci bus id: 0000:04:00.0, compute capability: 6.0)

                                                                 activation_6[0][0]               
__________________________________________________________________________________________________
conv2d_9 (Conv2D)               (None, 14, 14, 80)   115280      concatenate_1[0][0]              
__________________________________________________________________________________________________
batch_normalization_9 (BatchNor (None, 14, 14, 80)   320         conv2d_9[0][0]                   
__________________________________________________________________________________________________
activation_9 (Activation)       (None, 14, 14, 80)   0           batch_normalization_9[0][0]      
__________________________________________________________________________________________________
conv2d_10 (Conv2D)              (None, 14, 14, 80)   57680       activation_9[0][0]               
__________________________________________________________________________________________________
batch_normalization_10 (BatchNo (None, 14, 14, 80)   320         conv2d_10[0][0]                  
__________________________________________________________________________________________________
activation_10 (Activation)      (None, 14, 14, 80)   0           batch_normalization_10[0][0]     
__________________________________________________________________________________________________
dropout_5 (Dropout)             (None, 14, 14, 80)   0           activation_10[0][0]              
__________________________________________________________________________________________________
conv2d_transpose_2 (Conv2DTrans (None, 28, 28, 40)   12840       dropout_5[0][0]                  
__________________________________________________________________________________________________
concatenate_2 (Concatenate)     (None, 28, 28, 80)   0           conv2d_transpose_2[0][0]         
                                                                 activation_4[0][0]               
__________________________________________________________________________________________________
conv2d_11 (Conv2D)              (None, 28, 28, 40)   28840       concatenate_2[0][0]              
__________________________________________________________________________________________________
batch_normalization_11 (BatchNo (None, 28, 28, 40)   160         conv2d_11[0][0]                  
__________________________________________________________________________________________________
activation_11 (Activation)      (None, 28, 28, 40)   0           batch_normalization_11[0][0]     
__________________________________________________________________________________________________
conv2d_12 (Conv2D)              (None, 28, 28, 40)   14440       activation_11[0][0]              
__________________________________________________________________________________________________
batch_normalization_12 (BatchNo (None, 28, 28, 40)   160         conv2d_12[0][0]                  
__________________________________________________________________________________________________
activation_12 (Activation)      (None, 28, 28, 40)   0           batch_normalization_12[0][0]     
__________________________________________________________________________________________________
dropout_6 (Dropout)             (None, 28, 28, 40)   0           activation_12[0][0]              
__________________________________________________________________________________________________
conv2d_transpose_3 (Conv2DTrans (None, 56, 56, 20)   3220        dropout_6[0][0]                  
__________________________________________________________________________________________________
concatenate_3 (Concatenate)     (None, 56, 56, 40)   0           conv2d_transpose_3[0][0]         
                                                                 activation_2[0][0]               
__________________________________________________________________________________________________
conv2d_13 (Conv2D)              (None, 56, 56, 20)   7220        concatenate_3[0][0]              
__________________________________________________________________________________________________
batch_normalization_13 (BatchNo (None, 56, 56, 20)   80          conv2d_13[0][0]                  
__________________________________________________________________________________________________
activation_13 (Activation)      (None, 56, 56, 20)   0           batch_normalization_13[0][0]     
__________________________________________________________________________________________________
conv2d_14 (Conv2D)              (None, 56, 56, 20)   3620        activation_13[0][0]              
__________________________________________________________________________________________________
batch_normalization_14 (BatchNo (None, 56, 56, 20)   80          conv2d_14[0][0]                  
__________________________________________________________________________________________________
activation_14 (Activation)      (None, 56, 56, 20)   0           batch_normalization_14[0][0]     
__________________________________________________________________________________________________
dropout_7 (Dropout)             (None, 56, 56, 20)   0           activation_14[0][0]              
__________________________________________________________________________________________________
conv2d_15 (Conv2D)              (None, 56, 56, 13)   273         dropout_7[0][0]                  
==================================================================================================
Total params: 756,193
Trainable params: 754,433
Non-trainable params: 1,760
__________________________________________________________________________________________________
 --- initialized from Model_7T /array/ssd/msmajdi/experiments/keras/exp6/models/sE12_Cascade_FM20_U-Net4_NL4_LS_MyBCE_US1_Main_Init_3T_CV_a/MultiClass_24567891011121314/sd1
…
Error in label values min 0.0 max 3.0      9-LGN
Error in label values min 0.0 max 2.0      10-MGN
Error in label values min 0.0 max 2.0      11-CM
Error in label values min 0.0 max 5.0      12-MD-Pf
Error in label values min 0.0 max 30.0      13-Hb
Error in label values min 0.0 max 4.0      14-MTT
__________________________________________________________________________________________________
Layer (type)                    Output Shape         Param #     Connected to                     
==================================================================================================
input_1 (InputLayer)            (None, 80, 56, 1)    0                                            
__________________________________________________________________________________________________
conv2d_1 (Conv2D)               (None, 80, 56, 20)   200         input_1[0][0]                    
__________________________________________________________________________________________________
batch_normalization_1 (BatchNor (None, 80, 56, 20)   80          conv2d_1[0][0]                   
__________________________________________________________________________________________________
activation_1 (Activation)       (None, 80, 56, 20)   0           batch_normalization_1[0][0]      
__________________________________________________________________________________________________
conv2d_2 (Conv2D)               (None, 80, 56, 20)   3620        activation_1[0][0]               
__________________________________________________________________________________________________
batch_normalization_2 (BatchNor (None, 80, 56, 20)   80          conv2d_2[0][0]                   
__________________________________________________________________________________________________
activation_2 (Activation)       (None, 80, 56, 20)   0           batch_normalization_2[0][0]      
__________________________________________________________________________________________________
max_pooling2d_1 (MaxPooling2D)  (None, 40, 28, 20)   0           activation_2[0][0]               
__________________________________________________________________________________________________
dropout_1 (Dropout)             (None, 40, 28, 20)   0           max_pooling2d_1[0][0]            
__________________________________________________________________________________________________
conv2d_3 (Conv2D)               (None, 40, 28, 40)   7240        dropout_1[0][0]                  
__________________________________________________________________________________________________
batch_normalization_3 (BatchNor (None, 40, 28, 40)   160         conv2d_3[0][0]                   
__________________________________________________________________________________________________
activation_3 (Activation)       (None, 40, 28, 40)   0           batch_normalization_3[0][0]      
__________________________________________________________________________________________________
conv2d_4 (Conv2D)               (None, 40, 28, 40)   14440       activation_3[0][0]               
__________________________________________________________________________________________________
batch_normalization_4 (BatchNor (None, 40, 28, 40)   160         conv2d_4[0][0]                   
__________________________________________________________________________________________________
activation_4 (Activation)       (None, 40, 28, 40)   0           batch_normalization_4[0][0]      
__________________________________________________________________________________________________
max_pooling2d_2 (MaxPooling2D)  (None, 20, 14, 40)   0           activation_4[0][0]               
__________________________________________________________________________________________________
dropout_2 (Dropout)             (None, 20, 14, 40)   0           max_pooling2d_2[0][0]            
__________________________________________________________________________________________________
conv2d_5 (Conv2D)               (None, 20, 14, 80)   28880       dropout_2[0][0]                  
__________________________________________________________________________________________________
batch_normalization_5 (BatchNor (None, 20, 14, 80)   320         conv2d_5[0][0]                   
__________________________________________________________________________________________________
activation_5 (Activation)       (None, 20, 14, 80)   0           batch_normalization_5[0][0]      
__________________________________________________________________________________________________
conv2d_6 (Conv2D)               (None, 20, 14, 80)   57680       activation_5[0][0]               
__________________________________________________________________________________________________
batch_normalization_6 (BatchNor (None, 20, 14, 80)   320         conv2d_6[0][0]                   
__________________________________________________________________________________________________
activation_6 (Activation)       (None, 20, 14, 80)   0           batch_normalization_6[0][0]      
__________________________________________________________________________________________________
max_pooling2d_3 (MaxPooling2D)  (None, 10, 7, 80)    0           activation_6[0][0]               
__________________________________________________________________________________________________
dropout_3 (Dropout)             (None, 10, 7, 80)    0           max_pooling2d_3[0][0]            
__________________________________________________________________________________________________
conv2d_7 (Conv2D)               (None, 10, 7, 160)   115360      dropout_3[0][0]                  
__________________________________________________________________________________________________
batch_normalization_7 (BatchNor (None, 10, 7, 160)   640         conv2d_7[0][0]                   
__________________________________________________________________________________________________
activation_7 (Activation)       (None, 10, 7, 160)   0           batch_normalization_7[0][0]      
__________________________________________________________________________________________________
conv2d_8 (Conv2D)               (None, 10, 7, 160)   230560      activation_7[0][0]               
__________________________________________________________________________________________________
batch_normalization_8 (BatchNor (None, 10, 7, 160)   640         conv2d_8[0][0]                   
__________________________________________________________________________________________________
activation_8 (Activation)       (None, 10, 7, 160)   0           batch_normalization_8[0][0]      
__________________________________________________________________________________________________
dropout_4 (Dropout)             (None, 10, 7, 160)   0           activation_8[0][0]               
__________________________________________________________________________________________________
conv2d_transpose_1 (Conv2DTrans (None, 20, 14, 80)   51280       dropout_4[0][0]                  
__________________________________________________________________________________________________
concatenate_1 (Concatenate)     (None, 20, 14, 160)  0           conv2d_transpose_1[0][0]         2019-07-01 00:28:54.778376: I tensorflow/core/common_runtime/gpu/gpu_device.cc:1471] Adding visible gpu devices: 0
2019-07-01 00:28:54.778494: I tensorflow/core/common_runtime/gpu/gpu_device.cc:952] Device interconnect StreamExecutor with strength 1 edge matrix:
2019-07-01 00:28:54.778510: I tensorflow/core/common_runtime/gpu/gpu_device.cc:958]      0 
2019-07-01 00:28:54.778518: I tensorflow/core/common_runtime/gpu/gpu_device.cc:971] 0:   N 
2019-07-01 00:28:54.778969: I tensorflow/core/common_runtime/gpu/gpu_device.cc:1084] Created TensorFlow device (/job:localhost/replica:0/task:0/device:GPU:0 with 15123 MB memory) -> physical GPU (device: 0, name: Tesla P100-PCIE-16GB, pci bus id: 0000:04:00.0, compute capability: 6.0)

                                                                 activation_6[0][0]               
__________________________________________________________________________________________________
conv2d_9 (Conv2D)               (None, 20, 14, 80)   115280      concatenate_1[0][0]              
__________________________________________________________________________________________________
batch_normalization_9 (BatchNor (None, 20, 14, 80)   320         conv2d_9[0][0]                   
__________________________________________________________________________________________________
activation_9 (Activation)       (None, 20, 14, 80)   0           batch_normalization_9[0][0]      
__________________________________________________________________________________________________
conv2d_10 (Conv2D)              (None, 20, 14, 80)   57680       activation_9[0][0]               
__________________________________________________________________________________________________
batch_normalization_10 (BatchNo (None, 20, 14, 80)   320         conv2d_10[0][0]                  
__________________________________________________________________________________________________
activation_10 (Activation)      (None, 20, 14, 80)   0           batch_normalization_10[0][0]     
__________________________________________________________________________________________________
dropout_5 (Dropout)             (None, 20, 14, 80)   0           activation_10[0][0]              
__________________________________________________________________________________________________
conv2d_transpose_2 (Conv2DTrans (None, 40, 28, 40)   12840       dropout_5[0][0]                  
__________________________________________________________________________________________________
concatenate_2 (Concatenate)     (None, 40, 28, 80)   0           conv2d_transpose_2[0][0]         
                                                                 activation_4[0][0]               
__________________________________________________________________________________________________
conv2d_11 (Conv2D)              (None, 40, 28, 40)   28840       concatenate_2[0][0]              
__________________________________________________________________________________________________
batch_normalization_11 (BatchNo (None, 40, 28, 40)   160         conv2d_11[0][0]                  
__________________________________________________________________________________________________
activation_11 (Activation)      (None, 40, 28, 40)   0           batch_normalization_11[0][0]     
__________________________________________________________________________________________________
conv2d_12 (Conv2D)              (None, 40, 28, 40)   14440       activation_11[0][0]              
__________________________________________________________________________________________________
batch_normalization_12 (BatchNo (None, 40, 28, 40)   160         conv2d_12[0][0]                  
__________________________________________________________________________________________________
activation_12 (Activation)      (None, 40, 28, 40)   0           batch_normalization_12[0][0]     
__________________________________________________________________________________________________
dropout_6 (Dropout)             (None, 40, 28, 40)   0           activation_12[0][0]              
__________________________________________________________________________________________________
conv2d_transpose_3 (Conv2DTrans (None, 80, 56, 20)   3220        dropout_6[0][0]                  
__________________________________________________________________________________________________
concatenate_3 (Concatenate)     (None, 80, 56, 40)   0           conv2d_transpose_3[0][0]         
                                                                 activation_2[0][0]               
__________________________________________________________________________________________________
conv2d_13 (Conv2D)              (None, 80, 56, 20)   7220        concatenate_3[0][0]              
__________________________________________________________________________________________________
batch_normalization_13 (BatchNo (None, 80, 56, 20)   80          conv2d_13[0][0]                  
__________________________________________________________________________________________________
activation_13 (Activation)      (None, 80, 56, 20)   0           batch_normalization_13[0][0]     
__________________________________________________________________________________________________
conv2d_14 (Conv2D)              (None, 80, 56, 20)   3620        activation_13[0][0]              
__________________________________________________________________________________________________
batch_normalization_14 (BatchNo (None, 80, 56, 20)   80          conv2d_14[0][0]                  
__________________________________________________________________________________________________
activation_14 (Activation)      (None, 80, 56, 20)   0           batch_normalization_14[0][0]     
__________________________________________________________________________________________________
dropout_7 (Dropout)             (None, 80, 56, 20)   0           activation_14[0][0]              
__________________________________________________________________________________________________
conv2d_15 (Conv2D)              (None, 80, 56, 13)   273         dropout_7[0][0]                  
==================================================================================================
Total params: 756,193
Trainable params: 754,433
Non-trainable params: 1,760
__________________________________________________________________________________________________
 --- initialized from Model_7T /array/ssd/msmajdi/experiments/keras/exp6/models/sE12_Cascade_FM20_U-Net4_NL4_LS_MyBCE_US1_Main_Init_3T_CV_a/MultiClass_24567891011121314/sd0
…
Error in label values min 0.0 max 3.0      9-LGN
Error in label values min 0.0 max 2.0      10-MGN
Error in label values min 0.0 max 2.0      11-CM
Error in label values min 0.0 max 5.0      12-MD-Pf
Error in label values min 0.0 max 30.0      13-Hb
Error in label values min 0.0 max 4.0      14-MTT
__________________________________________________________________________________________________
Layer (type)                    Output Shape         Param #     Connected to                     
==================================================================================================
input_1 (InputLayer)            (None, 56, 80, 1)    0                                            
__________________________________________________________________________________________________
conv2d_1 (Conv2D)               (None, 56, 80, 30)   300         input_1[0][0]                    
__________________________________________________________________________________________________
batch_normalization_1 (BatchNor (None, 56, 80, 30)   120         conv2d_1[0][0]                   
__________________________________________________________________________________________________
activation_1 (Activation)       (None, 56, 80, 30)   0           batch_normalization_1[0][0]      
__________________________________________________________________________________________________
conv2d_2 (Conv2D)               (None, 56, 80, 30)   8130        activation_1[0][0]               
__________________________________________________________________________________________________
batch_normalization_2 (BatchNor (None, 56, 80, 30)   120         conv2d_2[0][0]                   
__________________________________________________________________________________________________
activation_2 (Activation)       (None, 56, 80, 30)   0           batch_normalization_2[0][0]      
__________________________________________________________________________________________________
max_pooling2d_1 (MaxPooling2D)  (None, 28, 40, 30)   0           activation_2[0][0]               
__________________________________________________________________________________________________
dropout_1 (Dropout)             (None, 28, 40, 30)   0           max_pooling2d_1[0][0]            
__________________________________________________________________________________________________
conv2d_3 (Conv2D)               (None, 28, 40, 60)   16260       dropout_1[0][0]                  
__________________________________________________________________________________________________
batch_normalization_3 (BatchNor (None, 28, 40, 60)   240         conv2d_3[0][0]                   
__________________________________________________________________________________________________
activation_3 (Activation)       (None, 28, 40, 60)   0           batch_normalization_3[0][0]      
__________________________________________________________________________________________________
conv2d_4 (Conv2D)               (None, 28, 40, 60)   32460       activation_3[0][0]               
__________________________________________________________________________________________________
batch_normalization_4 (BatchNor (None, 28, 40, 60)   240         conv2d_4[0][0]                   
__________________________________________________________________________________________________
activation_4 (Activation)       (None, 28, 40, 60)   0           batch_normalization_4[0][0]      
__________________________________________________________________________________________________
max_pooling2d_2 (MaxPooling2D)  (None, 14, 20, 60)   0           activation_4[0][0]               
__________________________________________________________________________________________________
dropout_2 (Dropout)             (None, 14, 20, 60)   0           max_pooling2d_2[0][0]            
__________________________________________________________________________________________________
conv2d_5 (Conv2D)               (None, 14, 20, 120)  64920       dropout_2[0][0]                  
__________________________________________________________________________________________________
batch_normalization_5 (BatchNor (None, 14, 20, 120)  480         conv2d_5[0][0]                   
__________________________________________________________________________________________________
activation_5 (Activation)       (None, 14, 20, 120)  0           batch_normalization_5[0][0]      
__________________________________________________________________________________________________
conv2d_6 (Conv2D)               (None, 14, 20, 120)  129720      activation_5[0][0]               
__________________________________________________________________________________________________
batch_normalization_6 (BatchNor (None, 14, 20, 120)  480         conv2d_6[0][0]                   
__________________________________________________________________________________________________
activation_6 (Activation)       (None, 14, 20, 120)  0           batch_normalization_6[0][0]      
__________________________________________________________________________________________________
max_pooling2d_3 (MaxPooling2D)  (None, 7, 10, 120)   0           activation_6[0][0]               
__________________________________________________________________________________________________
dropout_3 (Dropout)             (None, 7, 10, 120)   0           max_pooling2d_3[0][0]            
__________________________________________________________________________________________________
conv2d_7 (Conv2D)               (None, 7, 10, 240)   259440      dropout_3[0][0]                  
__________________________________________________________________________________________________
batch_normalization_7 (BatchNor (None, 7, 10, 240)   960         conv2d_7[0][0]                   
__________________________________________________________________________________________________
activation_7 (Activation)       (None, 7, 10, 240)   0           batch_normalization_7[0][0]      
__________________________________________________________________________________________________2019-07-01 01:10:33.183100: I tensorflow/core/common_runtime/gpu/gpu_device.cc:1471] Adding visible gpu devices: 0
2019-07-01 01:10:33.183190: I tensorflow/core/common_runtime/gpu/gpu_device.cc:952] Device interconnect StreamExecutor with strength 1 edge matrix:
2019-07-01 01:10:33.183204: I tensorflow/core/common_runtime/gpu/gpu_device.cc:958]      0 
2019-07-01 01:10:33.183213: I tensorflow/core/common_runtime/gpu/gpu_device.cc:971] 0:   N 
2019-07-01 01:10:33.183600: I tensorflow/core/common_runtime/gpu/gpu_device.cc:1084] Created TensorFlow device (/job:localhost/replica:0/task:0/device:GPU:0 with 15123 MB memory) -> physical GPU (device: 0, name: Tesla P100-PCIE-16GB, pci bus id: 0000:04:00.0, compute capability: 6.0)

conv2d_8 (Conv2D)               (None, 7, 10, 240)   518640      activation_7[0][0]               
__________________________________________________________________________________________________
batch_normalization_8 (BatchNor (None, 7, 10, 240)   960         conv2d_8[0][0]                   
__________________________________________________________________________________________________
activation_8 (Activation)       (None, 7, 10, 240)   0           batch_normalization_8[0][0]      
__________________________________________________________________________________________________
dropout_4 (Dropout)             (None, 7, 10, 240)   0           activation_8[0][0]               
__________________________________________________________________________________________________
conv2d_transpose_1 (Conv2DTrans (None, 14, 20, 120)  115320      dropout_4[0][0]                  
__________________________________________________________________________________________________
concatenate_1 (Concatenate)     (None, 14, 20, 240)  0           conv2d_transpose_1[0][0]         
                                                                 activation_6[0][0]               
__________________________________________________________________________________________________
conv2d_9 (Conv2D)               (None, 14, 20, 120)  259320      concatenate_1[0][0]              
__________________________________________________________________________________________________
batch_normalization_9 (BatchNor (None, 14, 20, 120)  480         conv2d_9[0][0]                   
__________________________________________________________________________________________________
activation_9 (Activation)       (None, 14, 20, 120)  0           batch_normalization_9[0][0]      
__________________________________________________________________________________________________
conv2d_10 (Conv2D)              (None, 14, 20, 120)  129720      activation_9[0][0]               
__________________________________________________________________________________________________
batch_normalization_10 (BatchNo (None, 14, 20, 120)  480         conv2d_10[0][0]                  
__________________________________________________________________________________________________
activation_10 (Activation)      (None, 14, 20, 120)  0           batch_normalization_10[0][0]     
__________________________________________________________________________________________________
dropout_5 (Dropout)             (None, 14, 20, 120)  0           activation_10[0][0]              
__________________________________________________________________________________________________
conv2d_transpose_2 (Conv2DTrans (None, 28, 40, 60)   28860       dropout_5[0][0]                  
__________________________________________________________________________________________________
concatenate_2 (Concatenate)     (None, 28, 40, 120)  0           conv2d_transpose_2[0][0]         
                                                                 activation_4[0][0]               
__________________________________________________________________________________________________
conv2d_11 (Conv2D)              (None, 28, 40, 60)   64860       concatenate_2[0][0]              
__________________________________________________________________________________________________
batch_normalization_11 (BatchNo (None, 28, 40, 60)   240         conv2d_11[0][0]                  
__________________________________________________________________________________________________
activation_11 (Activation)      (None, 28, 40, 60)   0           batch_normalization_11[0][0]     
__________________________________________________________________________________________________
conv2d_12 (Conv2D)              (None, 28, 40, 60)   32460       activation_11[0][0]              
__________________________________________________________________________________________________
batch_normalization_12 (BatchNo (None, 28, 40, 60)   240         conv2d_12[0][0]                  
__________________________________________________________________________________________________
activation_12 (Activation)      (None, 28, 40, 60)   0           batch_normalization_12[0][0]     
__________________________________________________________________________________________________
dropout_6 (Dropout)             (None, 28, 40, 60)   0           activation_12[0][0]              
__________________________________________________________________________________________________
conv2d_transpose_3 (Conv2DTrans (None, 56, 80, 30)   7230        dropout_6[0][0]                  
__________________________________________________________________________________________________
concatenate_3 (Concatenate)     (None, 56, 80, 60)   0           conv2d_transpose_3[0][0]         
                                                                 activation_2[0][0]               
__________________________________________________________________________________________________
conv2d_13 (Conv2D)              (None, 56, 80, 30)   16230       concatenate_3[0][0]              
__________________________________________________________________________________________________
batch_normalization_13 (BatchNo (None, 56, 80, 30)   120         conv2d_13[0][0]                  
__________________________________________________________________________________________________
activation_13 (Activation)      (None, 56, 80, 30)   0           batch_normalization_13[0][0]     
__________________________________________________________________________________________________
conv2d_14 (Conv2D)              (None, 56, 80, 30)   8130        activation_13[0][0]              
__________________________________________________________________________________________________
batch_normalization_14 (BatchNo (None, 56, 80, 30)   120         conv2d_14[0][0]                  
__________________________________________________________________________________________________
activation_14 (Activation)      (None, 56, 80, 30)   0           batch_normalization_14[0][0]     
__________________________________________________________________________________________________
dropout_7 (Dropout)             (None, 56, 80, 30)   0           activation_14[0][0]              
__________________________________________________________________________________________________
conv2d_15 (Conv2D)              (None, 56, 80, 13)   403         dropout_7[0][0]                  
==================================================================================================
Total params: 1,697,683
Trainable params: 1,695,043
Non-trainable params: 2,640
__________________________________________________________________________________________________
 --- initialized from Model_7T /array/ssd/msmajdi/experiments/keras/exp6/models/sE12_Cascade_FM30_U-Net4_NL4_LS_MyBCE_US1_Main_Init_3T_CV_a/MultiClass_24567891011121314/sd2
…
Error in label values min 0.0 max 3.0      9-LGN
Error in label values min 0.0 max 2.0      10-MGN
Error in label values min 0.0 max 2.0      11-CM
Error in label values min 0.0 max 5.0      12-MD-Pf
Error in label values min 0.0 max 30.0      13-Hb
Error in label values min 0.0 max 4.0      14-MTT
__________________________________________________________________________________________________
Layer (type)                    Output Shape         Param #     Connected to                     
==================================================================================================
input_1 (InputLayer)            (None, 56, 56, 1)    0                                            
__________________________________________________________________________________________________
conv2d_1 (Conv2D)               (None, 56, 56, 30)   300         input_1[0][0]                    
__________________________________________________________________________________________________
batch_normalization_1 (BatchNor (None, 56, 56, 30)   120         conv2d_1[0][0]                   
__________________________________________________________________________________________________
activation_1 (Activation)       (None, 56, 56, 30)   0           batch_normalization_1[0][0]      
__________________________________________________________________________________________________
conv2d_2 (Conv2D)               (None, 56, 56, 30)   8130        activation_1[0][0]               
__________________________________________________________________________________________________
batch_normalization_2 (BatchNor (None, 56, 56, 30)   120         conv2d_2[0][0]                   
__________________________________________________________________________________________________
activation_2 (Activation)       (None, 56, 56, 30)   0           batch_normalization_2[0][0]      
__________________________________________________________________________________________________
max_pooling2d_1 (MaxPooling2D)  (None, 28, 28, 30)   0           activation_2[0][0]               
__________________________________________________________________________________________________
dropout_1 (Dropout)             (None, 28, 28, 30)   0           max_pooling2d_1[0][0]            
__________________________________________________________________________________________________
conv2d_3 (Conv2D)               (None, 28, 28, 60)   16260       dropout_1[0][0]                  
__________________________________________________________________________________________________
batch_normalization_3 (BatchNor (None, 28, 28, 60)   240         conv2d_3[0][0]                   
__________________________________________________________________________________________________
activation_3 (Activation)       (None, 28, 28, 60)   0           batch_normalization_3[0][0]      
__________________________________________________________________________________________________
conv2d_4 (Conv2D)               (None, 28, 28, 60)   32460       activation_3[0][0]               
__________________________________________________________________________________________________
batch_normalization_4 (BatchNor (None, 28, 28, 60)   240         conv2d_4[0][0]                   
__________________________________________________________________________________________________
activation_4 (Activation)       (None, 28, 28, 60)   0           batch_normalization_4[0][0]      
__________________________________________________________________________________________________
max_pooling2d_2 (MaxPooling2D)  (None, 14, 14, 60)   0           activation_4[0][0]               
__________________________________________________________________________________________________
dropout_2 (Dropout)             (None, 14, 14, 60)   0           max_pooling2d_2[0][0]            
__________________________________________________________________________________________________
conv2d_5 (Conv2D)               (None, 14, 14, 120)  64920       dropout_2[0][0]                  
__________________________________________________________________________________________________
batch_normalization_5 (BatchNor (None, 14, 14, 120)  480         conv2d_5[0][0]                   
…
dropout_3 (Dropout)             (None, 10, 7, 120)   0           max_pooling2d_3[0][0]            
__________________________________________________________________________________________________
conv2d_7 (Conv2D)               (None, 10, 7, 240)   259440      dropout_3[0][0]                  
__________________________________________________________________________________________________
batch_normalization_7 (BatchNor (None, 10, 7, 240)   960         conv2d_7[0][0]                   
__________________________________________________________________________________________________
activation_7 (Activation)       (None, 10, 7, 240)   0           batch_normalization_7[0][0]      
__________________________________________________________________________________________________
conv2d_8 (Conv2D)               (None, 10, 7, 240)   518640      activation_7[0][0]               
__________________________________________________________________________________________________
batch_normalization_8 (BatchNor (None, 10, 7, 240)   960         conv2d_8[0][0]                   
__________________________________________________________________________________________________
activation_8 (Activation)       (None, 10, 7, 240)   0           batch_normalization_8[0][0]      
__________________________________________________________________________________________________
dropout_4 (Dropout)             (None, 10, 7, 240)   0           activation_8[0][0]               
__________________________________________________________________________________________________
conv2d_transpose_1 (Conv2DTrans (None, 20, 14, 120)  115320      dropout_4[0][0]                  
__________________________________________________________________________________________________
concatenate_1 (Concatenate)     (None, 20, 14, 240)  0           conv2d_transpose_1[0][0]         2019-07-01 02:12:32.613924: I tensorflow/core/common_runtime/gpu/gpu_device.cc:1471] Adding visible gpu devices: 0
2019-07-01 02:12:32.614040: I tensorflow/core/common_runtime/gpu/gpu_device.cc:952] Device interconnect StreamExecutor with strength 1 edge matrix:
2019-07-01 02:12:32.614055: I tensorflow/core/common_runtime/gpu/gpu_device.cc:958]      0 
2019-07-01 02:12:32.614063: I tensorflow/core/common_runtime/gpu/gpu_device.cc:971] 0:   N 
2019-07-01 02:12:32.614500: I tensorflow/core/common_runtime/gpu/gpu_device.cc:1084] Created TensorFlow device (/job:localhost/replica:0/task:0/device:GPU:0 with 15123 MB memory) -> physical GPU (device: 0, name: Tesla P100-PCIE-16GB, pci bus id: 0000:04:00.0, compute capability: 6.0)

                                                                 activation_6[0][0]               
__________________________________________________________________________________________________
conv2d_9 (Conv2D)               (None, 20, 14, 120)  259320      concatenate_1[0][0]              
__________________________________________________________________________________________________
batch_normalization_9 (BatchNor (None, 20, 14, 120)  480         conv2d_9[0][0]                   
__________________________________________________________________________________________________
activation_9 (Activation)       (None, 20, 14, 120)  0           batch_normalization_9[0][0]      
__________________________________________________________________________________________________
conv2d_10 (Conv2D)              (None, 20, 14, 120)  129720      activation_9[0][0]               
__________________________________________________________________________________________________
batch_normalization_10 (BatchNo (None, 20, 14, 120)  480         conv2d_10[0][0]                  
__________________________________________________________________________________________________
activation_10 (Activation)      (None, 20, 14, 120)  0           batch_normalization_10[0][0]     
__________________________________________________________________________________________________
dropout_5 (Dropout)             (None, 20, 14, 120)  0           activation_10[0][0]              
__________________________________________________________________________________________________
conv2d_transpose_2 (Conv2DTrans (None, 40, 28, 60)   28860       dropout_5[0][0]                  
__________________________________________________________________________________________________
concatenate_2 (Concatenate)     (None, 40, 28, 120)  0           conv2d_transpose_2[0][0]         
                                                                 activation_4[0][0]               
__________________________________________________________________________________________________
conv2d_11 (Conv2D)              (None, 40, 28, 60)   64860       concatenate_2[0][0]              
__________________________________________________________________________________________________
batch_normalization_11 (BatchNo (None, 40, 28, 60)   240         conv2d_11[0][0]                  
__________________________________________________________________________________________________
activation_11 (Activation)      (None, 40, 28, 60)   0           batch_normalization_11[0][0]     
__________________________________________________________________________________________________
conv2d_12 (Conv2D)              (None, 40, 28, 60)   32460       activation_11[0][0]              
__________________________________________________________________________________________________
batch_normalization_12 (BatchNo (None, 40, 28, 60)   240         conv2d_12[0][0]                  
__________________________________________________________________________________________________
activation_12 (Activation)      (None, 40, 28, 60)   0           batch_normalization_12[0][0]     
__________________________________________________________________________________________________
dropout_6 (Dropout)             (None, 40, 28, 60)   0           activation_12[0][0]              
__________________________________________________________________________________________________
conv2d_transpose_3 (Conv2DTrans (None, 80, 56, 30)   7230        dropout_6[0][0]                  
__________________________________________________________________________________________________
concatenate_3 (Concatenate)     (None, 80, 56, 60)   0           conv2d_transpose_3[0][0]         
                                                                 activation_2[0][0]               
__________________________________________________________________________________________________
conv2d_13 (Conv2D)              (None, 80, 56, 30)   16230       concatenate_3[0][0]              
__________________________________________________________________________________________________
batch_normalization_13 (BatchNo (None, 80, 56, 30)   120         conv2d_13[0][0]                  
__________________________________________________________________________________________________
activation_13 (Activation)      (None, 80, 56, 30)   0           batch_normalization_13[0][0]     
__________________________________________________________________________________________________
conv2d_14 (Conv2D)              (None, 80, 56, 30)   8130        activation_13[0][0]              
__________________________________________________________________________________________________
batch_normalization_14 (BatchNo (None, 80, 56, 30)   120         conv2d_14[0][0]                  
__________________________________________________________________________________________________
activation_14 (Activation)      (None, 80, 56, 30)   0           batch_normalization_14[0][0]     
__________________________________________________________________________________________________
dropout_7 (Dropout)             (None, 80, 56, 30)   0           activation_14[0][0]              
__________________________________________________________________________________________________
conv2d_15 (Conv2D)              (None, 80, 56, 13)   403         dropout_7[0][0]                  
==================================================================================================
Total params: 1,697,683
Trainable params: 1,695,043
Non-trainable params: 2,640
__________________________________________________________________________________________________
 --- initialized from Model_7T /array/ssd/msmajdi/experiments/keras/exp6/models/sE12_Cascade_FM30_U-Net4_NL4_LS_MyBCE_US1_Main_Init_3T_CV_a/MultiClass_24567891011121314/sd0
…
Error in label values min 0.0 max 3.0      9-LGN
Error in label values min 0.0 max 2.0      10-MGN
Error in label values min 0.0 max 2.0      11-CM
Error in label values min 0.0 max 5.0      12-MD-Pf
Error in label values min 0.0 max 30.0      13-Hb
Error in label values min 0.0 max 4.0      14-MTT
__________________________________________________________________________________________________
Layer (type)                    Output Shape         Param #     Connected to                     
==================================================================================================
input_1 (InputLayer)            (None, 56, 80, 1)    0                                            
__________________________________________________________________________________________________
conv2d_1 (Conv2D)               (None, 56, 80, 40)   400         input_1[0][0]                    
__________________________________________________________________________________________________
batch_normalization_1 (BatchNor (None, 56, 80, 40)   160         conv2d_1[0][0]                   
__________________________________________________________________________________________________
activation_1 (Activation)       (None, 56, 80, 40)   0           batch_normalization_1[0][0]      
__________________________________________________________________________________________________
conv2d_2 (Conv2D)               (None, 56, 80, 40)   14440       activation_1[0][0]               
__________________________________________________________________________________________________
batch_normalization_2 (BatchNor (None, 56, 80, 40)   160         conv2d_2[0][0]                   
__________________________________________________________________________________________________
activation_2 (Activation)       (None, 56, 80, 40)   0           batch_normalization_2[0][0]      
__________________________________________________________________________________________________
max_pooling2d_1 (MaxPooling2D)  (None, 28, 40, 40)   0           activation_2[0][0]               
__________________________________________________________________________________________________
dropout_1 (Dropout)             (None, 28, 40, 40)   0           max_pooling2d_1[0][0]            
__________________________________________________________________________________________________
conv2d_3 (Conv2D)               (None, 28, 40, 80)   28880       dropout_1[0][0]                  
__________________________________________________________________________________________________
batch_normalization_3 (BatchNor (None, 28, 40, 80)   320         conv2d_3[0][0]                   
__________________________________________________________________________________________________
activation_3 (Activation)       (None, 28, 40, 80)   0           batch_normalization_3[0][0]      
__________________________________________________________________________________________________
conv2d_4 (Conv2D)               (None, 28, 40, 80)   57680       activation_3[0][0]               
__________________________________________________________________________________________________
batch_normalization_4 (BatchNor (None, 28, 40, 80)   320         conv2d_4[0][0]                   
__________________________________________________________________________________________________
activation_4 (Activation)       (None, 28, 40, 80)   0           batch_normalization_4[0][0]      
__________________________________________________________________________________________________
max_pooling2d_2 (MaxPooling2D)  (None, 14, 20, 80)   0           activation_4[0][0]               
__________________________________________________________________________________________________
dropout_2 (Dropout)             (None, 14, 20, 80)   0           max_pooling2d_2[0][0]            
__________________________________________________________________________________________________
conv2d_5 (Conv2D)               (None, 14, 20, 160)  115360      dropout_2[0][0]                  
__________________________________________________________________________________________________
batch_normalization_5 (BatchNor (None, 14, 20, 160)  640         conv2d_5[0][0]                   
__________________________________________________________________________________________________
activation_5 (Activation)       (None, 14, 20, 160)  0           batch_normalization_5[0][0]      
__________________________________________________________________________________________________
conv2d_6 (Conv2D)               (None, 14, 20, 160)  230560      activation_5[0][0]               
__________________________________________________________________________________________________
batch_normalization_6 (BatchNor (None, 14, 20, 160)  640         conv2d_6[0][0]                   
__________________________________________________________________________________________________
activation_6 (Activation)       (None, 14, 20, 160)  0           batch_normalization_6[0][0]      
__________________________________________________________________________________________________
max_pooling2d_3 (MaxPooling2D)  (None, 7, 10, 160)   0           activation_6[0][0]               
__________________________________________________________________________________________________
dropout_3 (Dropout)             (None, 7, 10, 160)   0           max_pooling2d_3[0][0]            
__________________________________________________________________________________________________
conv2d_7 (Conv2D)               (None, 7, 10, 320)   461120      dropout_3[0][0]                  
__________________________________________________________________________________________________
batch_normalization_7 (BatchNor (None, 7, 10, 320)   1280        conv2d_7[0][0]                   
__________________________________________________________________________________________________
activation_7 (Activation)       (None, 7, 10, 320)   0           batch_normalization_7[0][0]      
__________________________________________________________________________________________________2019-07-01 02:50:06.486173: I tensorflow/core/common_runtime/gpu/gpu_device.cc:1471] Adding visible gpu devices: 0
2019-07-01 02:50:06.486270: I tensorflow/core/common_runtime/gpu/gpu_device.cc:952] Device interconnect StreamExecutor with strength 1 edge matrix:
2019-07-01 02:50:06.486285: I tensorflow/core/common_runtime/gpu/gpu_device.cc:958]      0 
2019-07-01 02:50:06.486304: I tensorflow/core/common_runtime/gpu/gpu_device.cc:971] 0:   N 
2019-07-01 02:50:06.486687: I tensorflow/core/common_runtime/gpu/gpu_device.cc:1084] Created TensorFlow device (/job:localhost/replica:0/task:0/device:GPU:0 with 15123 MB memory) -> physical GPU (device: 0, name: Tesla P100-PCIE-16GB, pci bus id: 0000:04:00.0, compute capability: 6.0)

conv2d_8 (Conv2D)               (None, 7, 10, 320)   921920      activation_7[0][0]               
__________________________________________________________________________________________________
batch_normalization_8 (BatchNor (None, 7, 10, 320)   1280        conv2d_8[0][0]                   
__________________________________________________________________________________________________
activation_8 (Activation)       (None, 7, 10, 320)   0           batch_normalization_8[0][0]      
__________________________________________________________________________________________________
dropout_4 (Dropout)             (None, 7, 10, 320)   0           activation_8[0][0]               
__________________________________________________________________________________________________
conv2d_transpose_1 (Conv2DTrans (None, 14, 20, 160)  204960      dropout_4[0][0]                  
__________________________________________________________________________________________________
concatenate_1 (Concatenate)     (None, 14, 20, 320)  0           conv2d_transpose_1[0][0]         
                                                                 activation_6[0][0]               
__________________________________________________________________________________________________
conv2d_9 (Conv2D)               (None, 14, 20, 160)  460960      concatenate_1[0][0]              
__________________________________________________________________________________________________
batch_normalization_9 (BatchNor (None, 14, 20, 160)  640         conv2d_9[0][0]                   
__________________________________________________________________________________________________
activation_9 (Activation)       (None, 14, 20, 160)  0           batch_normalization_9[0][0]      
__________________________________________________________________________________________________
conv2d_10 (Conv2D)              (None, 14, 20, 160)  230560      activation_9[0][0]               
__________________________________________________________________________________________________
batch_normalization_10 (BatchNo (None, 14, 20, 160)  640         conv2d_10[0][0]                  
__________________________________________________________________________________________________
activation_10 (Activation)      (None, 14, 20, 160)  0           batch_normalization_10[0][0]     
__________________________________________________________________________________________________
dropout_5 (Dropout)             (None, 14, 20, 160)  0           activation_10[0][0]              
__________________________________________________________________________________________________
conv2d_transpose_2 (Conv2DTrans (None, 28, 40, 80)   51280       dropout_5[0][0]                  
__________________________________________________________________________________________________
concatenate_2 (Concatenate)     (None, 28, 40, 160)  0           conv2d_transpose_2[0][0]         
                                                                 activation_4[0][0]               
__________________________________________________________________________________________________
conv2d_11 (Conv2D)              (None, 28, 40, 80)   115280      concatenate_2[0][0]              
__________________________________________________________________________________________________
batch_normalization_11 (BatchNo (None, 28, 40, 80)   320         conv2d_11[0][0]                  
__________________________________________________________________________________________________
activation_11 (Activation)      (None, 28, 40, 80)   0           batch_normalization_11[0][0]     
__________________________________________________________________________________________________
conv2d_12 (Conv2D)              (None, 28, 40, 80)   57680       activation_11[0][0]              
__________________________________________________________________________________________________
batch_normalization_12 (BatchNo (None, 28, 40, 80)   320         conv2d_12[0][0]                  
__________________________________________________________________________________________________
activation_12 (Activation)      (None, 28, 40, 80)   0           batch_normalization_12[0][0]     
__________________________________________________________________________________________________
dropout_6 (Dropout)             (None, 28, 40, 80)   0           activation_12[0][0]              
__________________________________________________________________________________________________
conv2d_transpose_3 (Conv2DTrans (None, 56, 80, 40)   12840       dropout_6[0][0]                  
__________________________________________________________________________________________________
concatenate_3 (Concatenate)     (None, 56, 80, 80)   0           conv2d_transpose_3[0][0]         
                                                                 activation_2[0][0]               
__________________________________________________________________________________________________
conv2d_13 (Conv2D)              (None, 56, 80, 40)   28840       concatenate_3[0][0]              
__________________________________________________________________________________________________
batch_normalization_13 (BatchNo (None, 56, 80, 40)   160         conv2d_13[0][0]                  
__________________________________________________________________________________________________
activation_13 (Activation)      (None, 56, 80, 40)   0           batch_normalization_13[0][0]     
__________________________________________________________________________________________________
conv2d_14 (Conv2D)              (None, 56, 80, 40)   14440       activation_13[0][0]              
__________________________________________________________________________________________________
batch_normalization_14 (BatchNo (None, 56, 80, 40)   160         conv2d_14[0][0]                  
__________________________________________________________________________________________________
activation_14 (Activation)      (None, 56, 80, 40)   0           batch_normalization_14[0][0]     
__________________________________________________________________________________________________
dropout_7 (Dropout)             (None, 56, 80, 40)   0           activation_14[0][0]              
__________________________________________________________________________________________________
conv2d_15 (Conv2D)              (None, 56, 80, 13)   533         dropout_7[0][0]                  
==================================================================================================
Total params: 3,014,773
Trainable params: 3,011,253
Non-trainable params: 3,520
__________________________________________________________________________________________________
 --- initialized from Model_7T /array/ssd/msmajdi/experiments/keras/exp6/models/sE12_Cascade_FM40_U-Net4_NL4_LS_MyBCE_US1_Main_Init_3T_CV_a/MultiClass_24567891011121314/sd2
…
Error in label values min 0.0 max 3.0      9-LGN
Error in label values min 0.0 max 2.0      10-MGN
Error in label values min 0.0 max 2.0      11-CM
Error in label values min 0.0 max 5.0      12-MD-Pf
Error in label values min 0.0 max 30.0      13-Hb
Error in label values min 0.0 max 4.0      14-MTT
__________________________________________________________________________________________________
Layer (type)                    Output Shape         Param #     Connected to                     
==================================================================================================
input_1 (InputLayer)            (None, 56, 56, 1)    0                                            
__________________________________________________________________________________________________
conv2d_1 (Conv2D)               (None, 56, 56, 40)   400         input_1[0][0]                    
__________________________________________________________________________________________________
batch_normalization_1 (BatchNor (None, 56, 56, 40)   160         conv2d_1[0][0]                   
__________________________________________________________________________________________________
activation_1 (Activation)       (None, 56, 56, 40)   0           batch_normalization_1[0][0]      
__________________________________________________________________________________________________
conv2d_2 (Conv2D)               (None, 56, 56, 40)   14440       activation_1[0][0]               
__________________________________________________________________________________________________
batch_normalization_2 (BatchNor (None, 56, 56, 40)   160         conv2d_2[0][0]                   
__________________________________________________________________________________________________
activation_2 (Activation)       (None, 56, 56, 40)   0           batch_normalization_2[0][0]      
__________________________________________________________________________________________________
max_pooling2d_1 (MaxPooling2D)  (None, 28, 28, 40)   0           activation_2[0][0]               
__________________________________________________________________________________________________
dropout_1 (Dropout)             (None, 28, 28, 40)   0           max_pooling2d_1[0][0]            
__________________________________________________________________________________________________
conv2d_3 (Conv2D)               (None, 28, 28, 80)   28880       dropout_1[0][0]                  
__________________________________________________________________________________________________
batch_normalization_3 (BatchNor (None, 28, 28, 80)   320         conv2d_3[0][0]                   
__________________________________________________________________________________________________
activation_3 (Activation)       (None, 28, 28, 80)   0           batch_normalization_3[0][0]      
__________________________________________________________________________________________________
conv2d_4 (Conv2D)               (None, 28, 28, 80)   57680       activation_3[0][0]               
__________________________________________________________________________________________________
batch_normalization_4 (BatchNor (None, 28, 28, 80)   320         conv2d_4[0][0]                   
__________________________________________________________________________________________________
activation_4 (Activation)       (None, 28, 28, 80)   0           batch_normalization_4[0][0]      
__________________________________________________________________________________________________
max_pooling2d_2 (MaxPooling2D)  (None, 14, 14, 80)   0           activation_4[0][0]               
__________________________________________________________________________________________________
dropout_2 (Dropout)             (None, 14, 14, 80)   0           max_pooling2d_2[0][0]            
__________________________________________________________________________________________________
conv2d_5 (Conv2D)               (None, 14, 14, 160)  115360      dropout_2[0][0]                  
__________________________________________________________________________________________________
batch_normalization_5 (BatchNor (None, 14, 14, 160)  640         conv2d_5[0][0]                   
__________________________________________________________________________________________________
activation_5 (Activation)       (None, 14, 14, 160)  0           batch_normalization_5[0][0]      
__________________________________________________________________________________________________
conv2d_6 (Conv2D)               (None, 14, 14, 160)  230560      activation_5[0][0]               
__________________________________________________________________________________________________
batch_normalization_6 (BatchNor (None, 14, 14, 160)  640         conv2d_6[0][0]                   
__________________________________________________________________________________________________
activation_6 (Activation)       (None, 14, 14, 160)  0           batch_normalization_6[0][0]      
__________________________________________________________________________________________________
max_pooling2d_3 (MaxPooling2D)  (None, 7, 7, 160)    0           activation_6[0][0]               
__________________________________________________________________________________________________
dropout_3 (Dropout)             (None, 7, 7, 160)    0           max_pooling2d_3[0][0]            
__________________________________________________________________________________________________
conv2d_7 (Conv2D)               (None, 7, 7, 320)    461120      dropout_3[0][0]                  
__________________________________________________________________________________________________
batch_normalization_7 (BatchNor (None, 7, 7, 320)    1280        conv2d_7[0][0]                   
__________________________________________________________________________________________________
activation_7 (Activation)       (None, 7, 7, 320)    0           batch_normalization_7[0][0]      
__________________________________________________________________________________________________
conv2d_8 (Conv2D)               (None, 7, 7, 320)    921920      activation_7[0][0]               
__________________________________________________________________________________________________
batch_normalization_8 (BatchNor (None, 7, 7, 320)    1280        conv2d_8[0][0]                   
__________________________________________________________________________________________________
activation_8 (Activation)       (None, 7, 7, 320)    0           batch_normalization_8[0][0]      
__________________________________________________________________________________________________
dropout_4 (Dropout)             (None, 7, 7, 320)    0           activation_8[0][0]               
__________________________________________________________________________________________________
conv2d_transpose_1 (Conv2DTrans (None, 14, 14, 160)  204960      dropout_4[0][0]                  
__________________________________________________________________________________________________
concatenate_1 (Concatenate)     (None, 14, 14, 320)  0           conv2d_transpose_1[0][0]         2019-07-01 03:31:15.517656: I tensorflow/core/common_runtime/gpu/gpu_device.cc:1471] Adding visible gpu devices: 0
2019-07-01 03:31:15.517798: I tensorflow/core/common_runtime/gpu/gpu_device.cc:952] Device interconnect StreamExecutor with strength 1 edge matrix:
2019-07-01 03:31:15.517814: I tensorflow/core/common_runtime/gpu/gpu_device.cc:958]      0 
2019-07-01 03:31:15.517823: I tensorflow/core/common_runtime/gpu/gpu_device.cc:971] 0:   N 
2019-07-01 03:31:15.518252: I tensorflow/core/common_runtime/gpu/gpu_device.cc:1084] Created TensorFlow device (/job:localhost/replica:0/task:0/device:GPU:0 with 15123 MB memory) -> physical GPU (device: 0, name: Tesla P100-PCIE-16GB, pci bus id: 0000:04:00.0, compute capability: 6.0)

                                                                 activation_6[0][0]               
__________________________________________________________________________________________________
conv2d_9 (Conv2D)               (None, 14, 14, 160)  460960      concatenate_1[0][0]              
__________________________________________________________________________________________________
batch_normalization_9 (BatchNor (None, 14, 14, 160)  640         conv2d_9[0][0]                   
__________________________________________________________________________________________________
activation_9 (Activation)       (None, 14, 14, 160)  0           batch_normalization_9[0][0]      
__________________________________________________________________________________________________
conv2d_10 (Conv2D)              (None, 14, 14, 160)  230560      activation_9[0][0]               
__________________________________________________________________________________________________
batch_normalization_10 (BatchNo (None, 14, 14, 160)  640         conv2d_10[0][0]                  
__________________________________________________________________________________________________
activation_10 (Activation)      (None, 14, 14, 160)  0           batch_normalization_10[0][0]     
__________________________________________________________________________________________________
dropout_5 (Dropout)             (None, 14, 14, 160)  0           activation_10[0][0]              
__________________________________________________________________________________________________
conv2d_transpose_2 (Conv2DTrans (None, 28, 28, 80)   51280       dropout_5[0][0]                  
__________________________________________________________________________________________________
concatenate_2 (Concatenate)     (None, 28, 28, 160)  0           conv2d_transpose_2[0][0]         
                                                                 activation_4[0][0]               
__________________________________________________________________________________________________
conv2d_11 (Conv2D)              (None, 28, 28, 80)   115280      concatenate_2[0][0]              
__________________________________________________________________________________________________
batch_normalization_11 (BatchNo (None, 28, 28, 80)   320         conv2d_11[0][0]                  
__________________________________________________________________________________________________
activation_11 (Activation)      (None, 28, 28, 80)   0           batch_normalization_11[0][0]     
__________________________________________________________________________________________________
conv2d_12 (Conv2D)              (None, 28, 28, 80)   57680       activation_11[0][0]              
__________________________________________________________________________________________________
batch_normalization_12 (BatchNo (None, 28, 28, 80)   320         conv2d_12[0][0]                  
__________________________________________________________________________________________________
activation_12 (Activation)      (None, 28, 28, 80)   0           batch_normalization_12[0][0]     
__________________________________________________________________________________________________
dropout_6 (Dropout)             (None, 28, 28, 80)   0           activation_12[0][0]              
__________________________________________________________________________________________________
conv2d_transpose_3 (Conv2DTrans (None, 56, 56, 40)   12840       dropout_6[0][0]                  
__________________________________________________________________________________________________
concatenate_3 (Concatenate)     (None, 56, 56, 80)   0           conv2d_transpose_3[0][0]         
                                                                 activation_2[0][0]               
__________________________________________________________________________________________________
conv2d_13 (Conv2D)              (None, 56, 56, 40)   28840       concatenate_3[0][0]              
__________________________________________________________________________________________________
batch_normalization_13 (BatchNo (None, 56, 56, 40)   160         conv2d_13[0][0]                  
__________________________________________________________________________________________________
activation_13 (Activation)      (None, 56, 56, 40)   0           batch_normalization_13[0][0]     
__________________________________________________________________________________________________
conv2d_14 (Conv2D)              (None, 56, 56, 40)   14440       activation_13[0][0]              
__________________________________________________________________________________________________
batch_normalization_14 (BatchNo (None, 56, 56, 40)   160         conv2d_14[0][0]                  
__________________________________________________________________________________________________
activation_14 (Activation)      (None, 56, 56, 40)   0           batch_normalization_14[0][0]     
__________________________________________________________________________________________________
dropout_7 (Dropout)             (None, 56, 56, 40)   0           activation_14[0][0]              
__________________________________________________________________________________________________
conv2d_15 (Conv2D)              (None, 56, 56, 13)   533         dropout_7[0][0]                  
==================================================================================================
Total params: 3,014,773
Trainable params: 3,011,253
Non-trainable params: 3,520
__________________________________________________________________________________________________
 --- initialized from Model_7T /array/ssd/msmajdi/experiments/keras/exp6/models/sE12_Cascade_FM40_U-Net4_NL4_LS_MyBCE_US1_Main_Init_3T_CV_a/MultiClass_24567891011121314/sd1
…
Error in label values min 0.0 max 3.0      9-LGN
Error in label values min 0.0 max 2.0      10-MGN
Error in label values min 0.0 max 2.0      11-CM
Error in label values min 0.0 max 5.0      12-MD-Pf
Error in label values min 0.0 max 30.0      13-Hb
Error in label values min 0.0 max 4.0      14-MTT
__________________________________________________________________________________________________
Layer (type)                    Output Shape         Param #     Connected to                     
==================================================================================================
input_1 (InputLayer)            (None, 80, 56, 1)    0                                            
__________________________________________________________________________________________________
conv2d_1 (Conv2D)               (None, 80, 56, 40)   400         input_1[0][0]                    
__________________________________________________________________________________________________
batch_normalization_1 (BatchNor (None, 80, 56, 40)   160         conv2d_1[0][0]                   
__________________________________________________________________________________________________
activation_1 (Activation)       (None, 80, 56, 40)   0           batch_normalization_1[0][0]      
__________________________________________________________________________________________________
conv2d_2 (Conv2D)               (None, 80, 56, 40)   14440       activation_1[0][0]               
__________________________________________________________________________________________________
batch_normalization_2 (BatchNor (None, 80, 56, 40)   160         conv2d_2[0][0]                   
__________________________________________________________________________________________________
activation_2 (Activation)       (None, 80, 56, 40)   0           batch_normalization_2[0][0]      
__________________________________________________________________________________________________
max_pooling2d_1 (MaxPooling2D)  (None, 40, 28, 40)   0           activation_2[0][0]               
__________________________________________________________________________________________________
dropout_1 (Dropout)             (None, 40, 28, 40)   0           max_pooling2d_1[0][0]            
__________________________________________________________________________________________________
conv2d_3 (Conv2D)               (None, 40, 28, 80)   28880       dropout_1[0][0]                  
__________________________________________________________________________________________________
batch_normalization_3 (BatchNor (None, 40, 28, 80)   320         conv2d_3[0][0]                   
__________________________________________________________________________________________________
activation_3 (Activation)       (None, 40, 28, 80)   0           batch_normalization_3[0][0]      
__________________________________________________________________________________________________
conv2d_4 (Conv2D)               (None, 40, 28, 80)   57680       activation_3[0][0]               
__________________________________________________________________________________________________
batch_normalization_4 (BatchNor (None, 40, 28, 80)   320         conv2d_4[0][0]                   
__________________________________________________________________________________________________
activation_4 (Activation)       (None, 40, 28, 80)   0           batch_normalization_4[0][0]      
__________________________________________________________________________________________________
max_pooling2d_2 (MaxPooling2D)  (None, 20, 14, 80)   0           activation_4[0][0]               
__________________________________________________________________________________________________
dropout_2 (Dropout)             (None, 20, 14, 80)   0           max_pooling2d_2[0][0]            
__________________________________________________________________________________________________
conv2d_5 (Conv2D)               (None, 20, 14, 160)  115360      dropout_2[0][0]                  
__________________________________________________________________________________________________
batch_normalization_5 (BatchNor (None, 20, 14, 160)  640         conv2d_5[0][0]                   
__________________________________________________________________________________________________
activation_5 (Activation)       (None, 20, 14, 160)  0           batch_normalization_5[0][0]      
__________________________________________________________________________________________________
conv2d_6 (Conv2D)               (None, 20, 14, 160)  230560      activation_5[0][0]               
__________________________________________________________________________________________________
batch_normalization_6 (BatchNor (None, 20, 14, 160)  640         conv2d_6[0][0]                   
__________________________________________________________________________________________________
activation_6 (Activation)       (None, 20, 14, 160)  0           batch_normalization_6[0][0]      
__________________________________________________________________________________________________
max_pooling2d_3 (MaxPooling2D)  (None, 10, 7, 160)   0           activation_6[0][0]               
__________________________________________________________________________________________________
dropout_3 (Dropout)             (None, 10, 7, 160)   0           max_pooling2d_3[0][0]            
__________________________________________________________________________________________________
conv2d_7 (Conv2D)               (None, 10, 7, 320)   461120      dropout_3[0][0]                  
__________________________________________________________________________________________________
batch_normalization_7 (BatchNor (None, 10, 7, 320)   1280        conv2d_7[0][0]                   
__________________________________________________________________________________________________
activation_7 (Activation)       (None, 10, 7, 320)   0           batch_normalization_7[0][0]      
__________________________________________________________________________________________________
conv2d_8 (Conv2D)               (None, 10, 7, 320)   921920      activation_7[0][0]               
__________________________________________________________________________________________________
batch_normalization_8 (BatchNor (None, 10, 7, 320)   1280        conv2d_8[0][0]                   
__________________________________________________________________________________________________
activation_8 (Activation)       (None, 10, 7, 320)   0           batch_normalization_8[0][0]      
__________________________________________________________________________________________________
dropout_4 (Dropout)             (None, 10, 7, 320)   0           activation_8[0][0]               
__________________________________________________________________________________________________
conv2d_transpose_1 (Conv2DTrans (None, 20, 14, 160)  204960      dropout_4[0][0]                  
__________________________________________________________________________________________________
concatenate_1 (Concatenate)     (None, 20, 14, 320)  0           conv2d_transpose_1[0][0]         
                                                                 activation_6[0][0]               
__________________________________________________________________________________________________
conv2d_9 (Conv2D)               (None, 20, 14, 160)  460960      concatenate_1[0][0]              
__________________________________________________________________________________________________
batch_normalization_9 (BatchNor (None, 20, 14, 160)  640         conv2d_9[0][0]                   
__________________________________________________________________________________________________
activation_9 (Activation)       (None, 20, 14, 160)  0           batch_normalization_9[0][0]      
__________________________________________________________________________________________________
conv2d_10 (Conv2D)              (None, 20, 14, 160)  230560      activation_9[0][0]               
__________________________________________________________________________________________________
batch_normalization_10 (BatchNo (None, 20, 14, 160)  640         conv2d_10[0][0]                  
__________________________________________________________________________________________________
activation_10 (Activation)      (None, 20, 14, 160)  0           batch_normalization_10[0][0]     
__________________________________________________________________________________________________
dropout_5 (Dropout)             (None, 20, 14, 160)  0           activation_10[0][0]              
__________________________________________________________________________________________________
conv2d_transpose_2 (Conv2DTrans (None, 40, 28, 80)   51280       dropout_5[0][0]                  
__________________________________________________________________________________________________
concatenate_2 (Concatenate)     (None, 40, 28, 160)  0           conv2d_transpose_2[0][0]         
                                                                 activation_4[0][0]               
__________________________________________________________________________________________________
conv2d_11 (Conv2D)              (None, 40, 28, 80)   115280      concatenate_2[0][0]              
__________________________________________________________________________________________________2019-07-01 04:03:24.310246: I tensorflow/core/common_runtime/gpu/gpu_device.cc:1471] Adding visible gpu devices: 0
2019-07-01 04:03:24.310325: I tensorflow/core/common_runtime/gpu/gpu_device.cc:952] Device interconnect StreamExecutor with strength 1 edge matrix:
2019-07-01 04:03:24.310338: I tensorflow/core/common_runtime/gpu/gpu_device.cc:958]      0 
2019-07-01 04:03:24.310346: I tensorflow/core/common_runtime/gpu/gpu_device.cc:971] 0:   N 
2019-07-01 04:03:24.310720: I tensorflow/core/common_runtime/gpu/gpu_device.cc:1084] Created TensorFlow device (/job:localhost/replica:0/task:0/device:GPU:0 with 15123 MB memory) -> physical GPU (device: 0, name: Tesla P100-PCIE-16GB, pci bus id: 0000:04:00.0, compute capability: 6.0)

batch_normalization_11 (BatchNo (None, 40, 28, 80)   320         conv2d_11[0][0]                  
__________________________________________________________________________________________________
activation_11 (Activation)      (None, 40, 28, 80)   0           batch_normalization_11[0][0]     
__________________________________________________________________________________________________
conv2d_12 (Conv2D)              (None, 40, 28, 80)   57680       activation_11[0][0]              
__________________________________________________________________________________________________
batch_normalization_12 (BatchNo (None, 40, 28, 80)   320         conv2d_12[0][0]                  
__________________________________________________________________________________________________
activation_12 (Activation)      (None, 40, 28, 80)   0           batch_normalization_12[0][0]     
__________________________________________________________________________________________________
dropout_6 (Dropout)             (None, 40, 28, 80)   0           activation_12[0][0]              
__________________________________________________________________________________________________
conv2d_transpose_3 (Conv2DTrans (None, 80, 56, 40)   12840       dropout_6[0][0]                  
__________________________________________________________________________________________________
concatenate_3 (Concatenate)     (None, 80, 56, 80)   0           conv2d_transpose_3[0][0]         
                                                                 activation_2[0][0]               
__________________________________________________________________________________________________
conv2d_13 (Conv2D)              (None, 80, 56, 40)   28840       concatenate_3[0][0]              
__________________________________________________________________________________________________
batch_normalization_13 (BatchNo (None, 80, 56, 40)   160         conv2d_13[0][0]                  
__________________________________________________________________________________________________
activation_13 (Activation)      (None, 80, 56, 40)   0           batch_normalization_13[0][0]     
__________________________________________________________________________________________________
conv2d_14 (Conv2D)              (None, 80, 56, 40)   14440       activation_13[0][0]              
__________________________________________________________________________________________________
batch_normalization_14 (BatchNo (None, 80, 56, 40)   160         conv2d_14[0][0]                  
__________________________________________________________________________________________________
activation_14 (Activation)      (None, 80, 56, 40)   0           batch_normalization_14[0][0]     
__________________________________________________________________________________________________
dropout_7 (Dropout)             (None, 80, 56, 40)   0           activation_14[0][0]              
__________________________________________________________________________________________________
conv2d_15 (Conv2D)              (None, 80, 56, 13)   533         dropout_7[0][0]                  
==================================================================================================
Total params: 3,014,773
Trainable params: 3,011,253
Non-trainable params: 3,520
__________________________________________________________________________________________________
 --- initialized from Model_7T /array/ssd/msmajdi/experiments/keras/exp6/models/sE12_Cascade_FM40_U-Net4_NL4_LS_MyBCE_US1_Main_Init_3T_CV_a/MultiClass_24567891011121314/sd0
…
