…
 Nucleus: [2, 4, 5, 6, 7, 8, 9, 10, 11, 12, 13, 14]  | GPU: 7  | SD 2  | Dropout 0.3  | LR 0.001  | NL 3  |  Cascade |  FM 30 |  Upsample 1
Experiment: exp6
SubExperiment: sE8_Cascade_FM30_Res_Unet2_NL3_LS_MyJoint_US1
---------------------------------------------------------------
__________________________________________________________________________________________________
Layer (type)                    Output Shape         Param #     Connected to                     
==================================================================================================
input_1 (InputLayer)            (None, 56, 84, 1)    0                                            
__________________________________________________________________________________________________
conv2d_1 (Conv2D)               (None, 56, 84, 30)   300         input_1[0][0]                    
__________________________________________________________________________________________________
batch_normalization_1 (BatchNor (None, 56, 84, 30)   120         conv2d_1[0][0]                   
__________________________________________________________________________________________________
activation_1 (Activation)       (None, 56, 84, 30)   0           batch_normalization_1[0][0]      
__________________________________________________________________________________________________
conv2d_2 (Conv2D)               (None, 56, 84, 30)   8130        activation_1[0][0]               
__________________________________________________________________________________________________
batch_normalization_2 (BatchNor (None, 56, 84, 30)   120         conv2d_2[0][0]                   
__________________________________________________________________________________________________
activation_2 (Activation)       (None, 56, 84, 30)   0           batch_normalization_2[0][0]      
__________________________________________________________________________________________________
max_pooling2d_1 (MaxPooling2D)  (None, 28, 42, 30)   0           activation_2[0][0]               
__________________________________________________________________________________________________
dropout_1 (Dropout)             (None, 28, 42, 30)   0           max_pooling2d_1[0][0]            
__________________________________________________________________________________________________
conv2d_3 (Conv2D)               (None, 28, 42, 60)   16260       dropout_1[0][0]                  
__________________________________________________________________________________________________
batch_normalization_3 (BatchNor (None, 28, 42, 60)   240         conv2d_3[0][0]                   
__________________________________________________________________________________________________
activation_3 (Activation)       (None, 28, 42, 60)   0           batch_normalization_3[0][0]      
__________________________________________________________________________________________________
conv2d_4 (Conv2D)               (None, 28, 42, 60)   32460       activation_3[0][0]               
__________________________________________________________________________________________________
batch_normalization_4 (BatchNor (None, 28, 42, 60)   240         conv2d_4[0][0]                   
__________________________________________________________________________________________________
activation_4 (Activation)       (None, 28, 42, 60)   0           batch_normalization_4[0][0]      
__________________________________________________________________________________________________
concatenate_1 (Concatenate)     (None, 28, 42, 90)   0           dropout_1[0][0]                  
                                                                 activation_4[0][0]               
__________________________________________________________________________________________________
max_pooling2d_2 (MaxPooling2D)  (None, 14, 21, 90)   0           concatenate_1[0][0]              
__________________________________________________________________________________________________
dropout_2 (Dropout)             (None, 14, 21, 90)   0           max_pooling2d_2[0][0]            
__________________________________________________________________________________________________
conv2d_5 (Conv2D)               (None, 14, 21, 120)  97320       dropout_2[0][0]                  
__________________________________________________________________________________________________
batch_normalization_5 (BatchNor (None, 14, 21, 120)  480         conv2d_5[0][0]                   
__________________________________________________________________________________________________
activation_5 (Activation)       (None, 14, 21, 120)  0           batch_normalization_5[0][0]      
__________________________________________________________________________________________________
conv2d_6 (Conv2D)               (None, 14, 21, 120)  129720      activation_5[0][0]               
__________________________________________________________________________________________________
batch_normalization_6 (BatchNor (None, 14, 21, 120)  480         conv2d_6[0][0]                   
__________________________________________________________________________________________________
activation_6 (Activation)       (None, 14, 21, 120)  0           batch_normalization_6[0][0]      
__________________________________________________________________________________________________
concatenate_2 (Concatenate)     (None, 14, 21, 210)  0           dropout_2[0][0]                  
                                                                 activation_6[0][0]               
__________________________________________________________________________________________________
dropout_3 (Dropout)             (None, 14, 21, 210)  0           concatenate_2[0][0]              
__________________________________________________________________________________________________
conv2d_transpose_1 (Conv2DTrans (None, 28, 42, 60)   50460       dropout_3[0][0]                  
__________________________________________________________________________________________________
concatenate_3 (Concatenate)     (None, 28, 42, 150)  0           conv2d_transpose_1[0][0]         
                                                                 concatenate_1[0][0]              
__________________________________________________________________________________________________
conv2d_7 (Conv2D)               (None, 28, 42, 60)   81060       concatenate_3[0][0]              
__________________________________________________________________________________________________
batch_normalization_7 (BatchNor (None, 28, 42, 60)   240         conv2d_7[0][0]                   
__________________________________________________________________________________________________
activation_7 (Activation)       (None, 28, 42, 60)   0           batch_normalization_7[0][0]      
__________________________________________________________________________________________________
conv2d_8 (Conv2D)               (None, 28, 42, 60)   32460       activation_7[0][0]               
__________________________________________________________________________________________________
batch_normalization_8 (BatchNor (None, 28, 42, 60)   240         conv2d_8[0][0]                   
__________________________________________________________________________________________________
activation_8 (Activation)       (None, 28, 42, 60)   0           batch_normalization_8[0][0]      
__________________________________________________________________________________________________
concatenate_4 (Concatenate)     (None, 28, 42, 210)  0           concatenate_3[0][0]              
                                                                 activation_8[0][0]               
__________________________________________________________________________________________________
dropout_4 (Dropout)             (None, 28, 42, 210)  0           concatenate_4[0][0]              
__________________________________________________________________________________________________
conv2d_transpose_2 (Conv2DTrans (None, 56, 84, 30)   25230       dropout_4[0][0]                  
__________________________________________________________________________________________________
concatenate_5 (Concatenate)     (None, 56, 84, 60)   0           conv2d_transpose_2[0][0]         
                                                                 activation_2[0][0]               
__________________________________________________________________________________________________
conv2d_9 (Conv2D)               (None, 56, 84, 30)   16230       concatenate_5[0][0]              
__________________________________________________________________________________________________
batch_normalization_9 (BatchNor (None, 56, 84, 30)   120         conv2d_9[0][0]                   
__________________________________________________________________________________________________
activation_9 (Activation)       (None, 56, 84, 30)   0           batch_normalization_9[0][0]      
__________________________________________________________________________________________________
conv2d_10 (Conv2D)              (None, 56, 84, 30)   8130        activation_9[0][0]               
__________________________________________________________________________________________________
batch_normalization_10 (BatchNo (None, 56, 84, 30)   120         conv2d_10[0][0]                  
__________________________________________________________________________________________________
activation_10 (Activation)      (None, 56, 84, 30)   0           batch_normalization_10[0][0]     
__________________________________________________________________________________________________
concatenate_6 (Concatenate)     (None, 56, 84, 90)   0           concatenate_5[0][0]              
                                                                 activation_10[0][0]              
__________________________________________________________________________________________________
dropout_5 (Dropout)             (None, 56, 84, 90)   0           concatenate_6[0][0]              
__________________________________________________________________________________________________
conv2d_11 (Conv2D)              (None, 56, 84, 13)   1183        dropout_5[0][0]                  
==================================================================================================
Total params: 501,343
Trainable params: 500,143
Non-trainable params: 1,200
__________________________________________________________________________________________________
------------------------------------------------------------------
class_weights [6.53383120e-02 2.88786827e-02 1.16652967e-01 1.00133292e-02
…
 Nucleus: [2, 4, 5, 6, 7, 8, 9, 10, 11, 12, 13, 14]  | GPU: 7  | SD 1  | Dropout 0.3  | LR 0.001  | NL 3  |  Cascade |  FM 30 |  Upsample 1
Experiment: exp6
SubExperiment: sE8_Cascade_FM30_Res_Unet2_NL3_LS_MyJoint_US1
---------------------------------------------------------------
__________________________________________________________________________________________________
Layer (type)                    Output Shape         Param #     Connected to                     
==================================================================================================
input_1 (InputLayer)            (None, 56, 56, 1)    0                                            
__________________________________________________________________________________________________
conv2d_1 (Conv2D)               (None, 56, 56, 30)   300         input_1[0][0]                    
__________________________________________________________________________________________________
batch_normalization_1 (BatchNor (None, 56, 56, 30)   120         conv2d_1[0][0]                   
__________________________________________________________________________________________________
activation_1 (Activation)       (None, 56, 56, 30)   0           batch_normalization_1[0][0]      
__________________________________________________________________________________________________
conv2d_2 (Conv2D)               (None, 56, 56, 30)   8130        activation_1[0][0]               
__________________________________________________________________________________________________
batch_normalization_2 (BatchNor (None, 56, 56, 30)   120         conv2d_2[0][0]                   
__________________________________________________________________________________________________
activation_2 (Activation)       (None, 56, 56, 30)   0           batch_normalization_2[0][0]      
__________________________________________________________________________________________________
max_pooling2d_1 (MaxPooling2D)  (None, 28, 28, 30)   0           activation_2[0][0]               
__________________________________________________________________________________________________
dropout_1 (Dropout)             (None, 28, 28, 30)   0           max_pooling2d_1[0][0]            
__________________________________________________________________________________________________
conv2d_3 (Conv2D)               (None, 28, 28, 60)   16260       dropout_1[0][0]                  
__________________________________________________________________________________________________
batch_normalization_3 (BatchNor (None, 28, 28, 60)   240         conv2d_3[0][0]                   
__________________________________________________________________________________________________
activation_3 (Activation)       (None, 28, 28, 60)   0           batch_normalization_3[0][0]      
__________________________________________________________________________________________________
conv2d_4 (Conv2D)               (None, 28, 28, 60)   32460       activation_3[0][0]               
__________________________________________________________________________________________________
batch_normalization_4 (BatchNor (None, 28, 28, 60)   240         conv2d_4[0][0]                   
__________________________________________________________________________________________________
activation_4 (Activation)       (None, 28, 28, 60)   0           batch_normalization_4[0][0]      
__________________________________________________________________________________________________
concatenate_1 (Concatenate)     (None, 28, 28, 90)   0           dropout_1[0][0]                  
                                                                 activation_4[0][0]               
__________________________________________________________________________________________________
max_pooling2d_2 (MaxPooling2D)  (None, 14, 14, 90)   0           concatenate_1[0][0]              
__________________________________________________________________________________________________
dropout_2 (Dropout)             (None, 14, 14, 90)   0           max_pooling2d_2[0][0]            
__________________________________________________________________________________________________
conv2d_5 (Conv2D)               (None, 14, 14, 120)  97320       dropout_2[0][0]                  
__________________________________________________________________________________________________
batch_normalization_5 (BatchNor (None, 14, 14, 120)  480         conv2d_5[0][0]                   
__________________________________________________________________________________________________
activation_5 (Activation)       (None, 14, 14, 120)  0           batch_normalization_5[0][0]      
__________________________________________________________________________________________________
conv2d_6 (Conv2D)               (None, 14, 14, 120)  129720      activation_5[0][0]               
__________________________________________________________________________________________________
batch_normalization_6 (BatchNor (None, 14, 14, 120)  480         conv2d_6[0][0]                   
__________________________________________________________________________________________________
activation_6 (Activation)       (None, 14, 14, 120)  0           batch_normalization_6[0][0]      
__________________________________________________________________________________________________
concatenate_2 (Concatenate)     (None, 14, 14, 210)  0           dropout_2[0][0]                  
                                                                 activation_6[0][0]               
__________________________________________________________________________________________________
dropout_3 (Dropout)             (None, 14, 14, 210)  0           concatenate_2[0][0]              
__________________________________________________________________________________________________
conv2d_transpose_1 (Conv2DTrans (None, 28, 28, 60)   50460       dropout_3[0][0]                  
__________________________________________________________________________________________________
concatenate_3 (Concatenate)     (None, 28, 28, 150)  0           conv2d_transpose_1[0][0]         
                                                                 concatenate_1[0][0]              
__________________________________________________________________________________________________
conv2d_7 (Conv2D)               (None, 28, 28, 60)   81060       concatenate_3[0][0]              
__________________________________________________________________________________________________
batch_normalization_7 (BatchNor (None, 28, 28, 60)   240         conv2d_7[0][0]                   
__________________________________________________________________________________________________
activation_7 (Activation)       (None, 28, 28, 60)   0           batch_normalization_7[0][0]      
__________________________________________________________________________________________________
conv2d_8 (Conv2D)               (None, 28, 28, 60)   32460       activation_7[0][0]               
__________________________________________________________________________________________________
batch_normalization_8 (BatchNor (None, 28, 28, 60)   240         conv2d_8[0][0]                   
__________________________________________________________________________________________________
activation_8 (Activation)       (None, 28, 28, 60)   0           batch_normalization_8[0][0]      
__________________________________________________________________________________________________
concatenate_4 (Concatenate)     (None, 28, 28, 210)  0           concatenate_3[0][0]              
                                                                 activation_8[0][0]               
__________________________________________________________________________________________________
dropout_4 (Dropout)             (None, 28, 28, 210)  0           concatenate_4[0][0]              
__________________________________________________________________________________________________
conv2d_transpose_2 (Conv2DTrans (None, 56, 56, 30)   25230       dropout_4[0][0]                  2019-07-08 00:08:28.900570: I tensorflow/core/common_runtime/gpu/gpu_device.cc:1471] Adding visible gpu devices: 0
2019-07-08 00:08:28.900676: I tensorflow/core/common_runtime/gpu/gpu_device.cc:952] Device interconnect StreamExecutor with strength 1 edge matrix:
2019-07-08 00:08:28.900691: I tensorflow/core/common_runtime/gpu/gpu_device.cc:958]      0 
2019-07-08 00:08:28.900702: I tensorflow/core/common_runtime/gpu/gpu_device.cc:971] 0:   N 
2019-07-08 00:08:28.901128: I tensorflow/core/common_runtime/gpu/gpu_device.cc:1084] Created TensorFlow device (/job:localhost/replica:0/task:0/device:GPU:0 with 15123 MB memory) -> physical GPU (device: 0, name: Tesla P100-PCIE-16GB, pci bus id: 0000:89:00.0, compute capability: 6.0)

__________________________________________________________________________________________________
concatenate_5 (Concatenate)     (None, 56, 56, 60)   0           conv2d_transpose_2[0][0]         
                                                                 activation_2[0][0]               
__________________________________________________________________________________________________
conv2d_9 (Conv2D)               (None, 56, 56, 30)   16230       concatenate_5[0][0]              
__________________________________________________________________________________________________
batch_normalization_9 (BatchNor (None, 56, 56, 30)   120         conv2d_9[0][0]                   
__________________________________________________________________________________________________
activation_9 (Activation)       (None, 56, 56, 30)   0           batch_normalization_9[0][0]      
__________________________________________________________________________________________________
conv2d_10 (Conv2D)              (None, 56, 56, 30)   8130        activation_9[0][0]               
__________________________________________________________________________________________________
batch_normalization_10 (BatchNo (None, 56, 56, 30)   120         conv2d_10[0][0]                  
__________________________________________________________________________________________________
activation_10 (Activation)      (None, 56, 56, 30)   0           batch_normalization_10[0][0]     
__________________________________________________________________________________________________
concatenate_6 (Concatenate)     (None, 56, 56, 90)   0           concatenate_5[0][0]              
                                                                 activation_10[0][0]              
__________________________________________________________________________________________________
dropout_5 (Dropout)             (None, 56, 56, 90)   0           concatenate_6[0][0]              
__________________________________________________________________________________________________
conv2d_11 (Conv2D)              (None, 56, 56, 13)   1183        dropout_5[0][0]                  
==================================================================================================
Total params: 501,343
Trainable params: 500,143
Non-trainable params: 1,200
__________________________________________________________________________________________________
------------------------------------------------------------------
class_weights [6.53974061e-02 2.89048015e-02 1.16758472e-01 1.00223856e-02
…
 Nucleus: [2, 4, 5, 6, 7, 8, 9, 10, 11, 12, 13, 14]  | GPU: 7  | SD 0  | Dropout 0.3  | LR 0.001  | NL 3  |  Cascade |  FM 30 |  Upsample 1
Experiment: exp6
SubExperiment: sE8_Cascade_FM30_Res_Unet2_NL3_LS_MyJoint_US1
---------------------------------------------------------------
__________________________________________________________________________________________________
Layer (type)                    Output Shape         Param #     Connected to                     
==================================================================================================
input_1 (InputLayer)            (None, 84, 56, 1)    0                                            
__________________________________________________________________________________________________
conv2d_1 (Conv2D)               (None, 84, 56, 30)   300         input_1[0][0]                    
__________________________________________________________________________________________________
batch_normalization_1 (BatchNor (None, 84, 56, 30)   120         conv2d_1[0][0]                   
__________________________________________________________________________________________________
activation_1 (Activation)       (None, 84, 56, 30)   0           batch_normalization_1[0][0]      
__________________________________________________________________________________________________
conv2d_2 (Conv2D)               (None, 84, 56, 30)   8130        activation_1[0][0]               
__________________________________________________________________________________________________
batch_normalization_2 (BatchNor (None, 84, 56, 30)   120         conv2d_2[0][0]                   
__________________________________________________________________________________________________
activation_2 (Activation)       (None, 84, 56, 30)   0           batch_normalization_2[0][0]      
__________________________________________________________________________________________________
max_pooling2d_1 (MaxPooling2D)  (None, 42, 28, 30)   0           activation_2[0][0]               
__________________________________________________________________________________________________
dropout_1 (Dropout)             (None, 42, 28, 30)   0           max_pooling2d_1[0][0]            
__________________________________________________________________________________________________
conv2d_3 (Conv2D)               (None, 42, 28, 60)   16260       dropout_1[0][0]                  
__________________________________________________________________________________________________
batch_normalization_3 (BatchNor (None, 42, 28, 60)   240         conv2d_3[0][0]                   
__________________________________________________________________________________________________
activation_3 (Activation)       (None, 42, 28, 60)   0           batch_normalization_3[0][0]      
__________________________________________________________________________________________________
conv2d_4 (Conv2D)               (None, 42, 28, 60)   32460       activation_3[0][0]               
__________________________________________________________________________________________________
batch_normalization_4 (BatchNor (None, 42, 28, 60)   240         conv2d_4[0][0]                   
__________________________________________________________________________________________________
activation_4 (Activation)       (None, 42, 28, 60)   0           batch_normalization_4[0][0]      
__________________________________________________________________________________________________
concatenate_1 (Concatenate)     (None, 42, 28, 90)   0           dropout_1[0][0]                  
                                                                 activation_4[0][0]               
__________________________________________________________________________________________________
max_pooling2d_2 (MaxPooling2D)  (None, 21, 14, 90)   0           concatenate_1[0][0]              
__________________________________________________________________________________________________
dropout_2 (Dropout)             (None, 21, 14, 90)   0           max_pooling2d_2[0][0]            
__________________________________________________________________________________________________
conv2d_5 (Conv2D)               (None, 21, 14, 120)  97320       dropout_2[0][0]                  
__________________________________________________________________________________________________
batch_normalization_5 (BatchNor (None, 21, 14, 120)  480         conv2d_5[0][0]                   
__________________________________________________________________________________________________
activation_5 (Activation)       (None, 21, 14, 120)  0           batch_normalization_5[0][0]      
__________________________________________________________________________________________________
conv2d_6 (Conv2D)               (None, 21, 14, 120)  129720      activation_5[0][0]               
__________________________________________________________________________________________________
batch_normalization_6 (BatchNor (None, 21, 14, 120)  480         conv2d_6[0][0]                   
__________________________________________________________________________________________________
activation_6 (Activation)       (None, 21, 14, 120)  0           batch_normalization_6[0][0]      
__________________________________________________________________________________________________
concatenate_2 (Concatenate)     (None, 21, 14, 210)  0           dropout_2[0][0]                  
                                                                 activation_6[0][0]               
__________________________________________________________________________________________________
dropout_3 (Dropout)             (None, 21, 14, 210)  0           concatenate_2[0][0]              
__________________________________________________________________________________________________
conv2d_transpose_1 (Conv2DTrans (None, 42, 28, 60)   50460       dropout_3[0][0]                  
__________________________________________________________________________________________________
concatenate_3 (Concatenate)     (None, 42, 28, 150)  0           conv2d_transpose_1[0][0]         
                                                                 concatenate_1[0][0]              
__________________________________________________________________________________________________
conv2d_7 (Conv2D)               (None, 42, 28, 60)   81060       concatenate_3[0][0]              
__________________________________________________________________________________________________
batch_normalization_7 (BatchNor (None, 42, 28, 60)   240         conv2d_7[0][0]                   
__________________________________________________________________________________________________
activation_7 (Activation)       (None, 42, 28, 60)   0           batch_normalization_7[0][0]      
__________________________________________________________________________________________________
conv2d_8 (Conv2D)               (None, 42, 28, 60)   32460       activation_7[0][0]               
__________________________________________________________________________________________________
batch_normalization_8 (BatchNor (None, 42, 28, 60)   240         conv2d_8[0][0]                   
__________________________________________________________________________________________________
activation_8 (Activation)       (None, 42, 28, 60)   0           batch_normalization_8[0][0]      
__________________________________________________________________________________________________
concatenate_4 (Concatenate)     (None, 42, 28, 210)  0           concatenate_3[0][0]              
                                                                 activation_8[0][0]               
__________________________________________________________________________________________________
dropout_4 (Dropout)             (None, 42, 28, 210)  0           concatenate_4[0][0]              
__________________________________________________________________________________________________
conv2d_transpose_2 (Conv2DTrans (None, 84, 56, 30)   25230       dropout_4[0][0]                  
__________________________________________________________________________________________________
concatenate_5 (Concatenate)     (None, 84, 56, 60)   0           conv2d_transpose_2[0][0]         
                                                                 activation_2[0][0]               
__________________________________________________________________________________________________
conv2d_9 (Conv2D)               (None, 84, 56, 30)   16230       concatenate_5[0][0]              
__________________________________________________________________________________________________
batch_normalization_9 (BatchNor (None, 84, 56, 30)   120         conv2d_9[0][0]                   
__________________________________________________________________________________________________
activation_9 (Activation)       (None, 84, 56, 30)   0           batch_normalization_9[0][0]      
__________________________________________________________________________________________________
conv2d_10 (Conv2D)              (None, 84, 56, 30)   8130        activation_9[0][0]               
__________________________________________________________________________________________________
batch_normalization_10 (BatchNo (None, 84, 56, 30)   120         conv2d_10[0][0]                  
__________________________________________________________________________________________________2019-07-08 01:06:36.756310: I tensorflow/core/common_runtime/gpu/gpu_device.cc:1471] Adding visible gpu devices: 0
2019-07-08 01:06:36.756422: I tensorflow/core/common_runtime/gpu/gpu_device.cc:952] Device interconnect StreamExecutor with strength 1 edge matrix:
…
 Nucleus: [2, 4, 5, 6, 7, 8, 9, 10, 11, 12, 13, 14]  | GPU: 7  | SD 2  | Dropout 0.3  | LR 0.001  | NL 3  |  Cascade |  FM 40 |  Upsample 1
Experiment: exp6
SubExperiment: sE8_Cascade_FM40_Res_Unet2_NL3_LS_MyJoint_US1
---------------------------------------------------------------
__________________________________________________________________________________________________
Layer (type)                    Output Shape         Param #     Connected to                     
==================================================================================================
input_1 (InputLayer)            (None, 56, 84, 1)    0                                            
__________________________________________________________________________________________________
conv2d_1 (Conv2D)               (None, 56, 84, 40)   400         input_1[0][0]                    
__________________________________________________________________________________________________
batch_normalization_1 (BatchNor (None, 56, 84, 40)   160         conv2d_1[0][0]                   
__________________________________________________________________________________________________
activation_1 (Activation)       (None, 56, 84, 40)   0           batch_normalization_1[0][0]      
__________________________________________________________________________________________________
conv2d_2 (Conv2D)               (None, 56, 84, 40)   14440       activation_1[0][0]               
__________________________________________________________________________________________________
batch_normalization_2 (BatchNor (None, 56, 84, 40)   160         conv2d_2[0][0]                   
__________________________________________________________________________________________________
activation_2 (Activation)       (None, 56, 84, 40)   0           batch_normalization_2[0][0]      
__________________________________________________________________________________________________
max_pooling2d_1 (MaxPooling2D)  (None, 28, 42, 40)   0           activation_2[0][0]               
__________________________________________________________________________________________________
dropout_1 (Dropout)             (None, 28, 42, 40)   0           max_pooling2d_1[0][0]            
__________________________________________________________________________________________________
conv2d_3 (Conv2D)               (None, 28, 42, 80)   28880       dropout_1[0][0]                  
__________________________________________________________________________________________________
batch_normalization_3 (BatchNor (None, 28, 42, 80)   320         conv2d_3[0][0]                   
__________________________________________________________________________________________________
activation_3 (Activation)       (None, 28, 42, 80)   0           batch_normalization_3[0][0]      
__________________________________________________________________________________________________
conv2d_4 (Conv2D)               (None, 28, 42, 80)   57680       activation_3[0][0]               
__________________________________________________________________________________________________
batch_normalization_4 (BatchNor (None, 28, 42, 80)   320         conv2d_4[0][0]                   
__________________________________________________________________________________________________
activation_4 (Activation)       (None, 28, 42, 80)   0           batch_normalization_4[0][0]      
__________________________________________________________________________________________________
concatenate_1 (Concatenate)     (None, 28, 42, 120)  0           dropout_1[0][0]                  
                                                                 activation_4[0][0]               
__________________________________________________________________________________________________
max_pooling2d_2 (MaxPooling2D)  (None, 14, 21, 120)  0           concatenate_1[0][0]              
__________________________________________________________________________________________________
dropout_2 (Dropout)             (None, 14, 21, 120)  0           max_pooling2d_2[0][0]            
__________________________________________________________________________________________________
conv2d_5 (Conv2D)               (None, 14, 21, 160)  172960      dropout_2[0][0]                  
__________________________________________________________________________________________________
batch_normalization_5 (BatchNor (None, 14, 21, 160)  640         conv2d_5[0][0]                   
__________________________________________________________________________________________________
activation_5 (Activation)       (None, 14, 21, 160)  0           batch_normalization_5[0][0]      
__________________________________________________________________________________________________
conv2d_6 (Conv2D)               (None, 14, 21, 160)  230560      activation_5[0][0]               
__________________________________________________________________________________________________
batch_normalization_6 (BatchNor (None, 14, 21, 160)  640         conv2d_6[0][0]                   
__________________________________________________________________________________________________
activation_6 (Activation)       (None, 14, 21, 160)  0           batch_normalization_6[0][0]      
__________________________________________________________________________________________________
concatenate_2 (Concatenate)     (None, 14, 21, 280)  0           dropout_2[0][0]                  
                                                                 activation_6[0][0]               
__________________________________________________________________________________________________
dropout_3 (Dropout)             (None, 14, 21, 280)  0           concatenate_2[0][0]              
__________________________________________________________________________________________________
conv2d_transpose_1 (Conv2DTrans (None, 28, 42, 80)   89680       dropout_3[0][0]                  
__________________________________________________________________________________________________
concatenate_3 (Concatenate)     (None, 28, 42, 200)  0           conv2d_transpose_1[0][0]         
                                                                 concatenate_1[0][0]              
__________________________________________________________________________________________________
conv2d_7 (Conv2D)               (None, 28, 42, 80)   144080      concatenate_3[0][0]              
__________________________________________________________________________________________________
batch_normalization_7 (BatchNor (None, 28, 42, 80)   320         conv2d_7[0][0]                   
__________________________________________________________________________________________________
activation_7 (Activation)       (None, 28, 42, 80)   0           batch_normalization_7[0][0]      
__________________________________________________________________________________________________
conv2d_8 (Conv2D)               (None, 28, 42, 80)   57680       activation_7[0][0]               2019-07-08 02:58:01.068860: I tensorflow/core/common_runtime/gpu/gpu_device.cc:1471] Adding visible gpu devices: 0
2019-07-08 02:58:01.068964: I tensorflow/core/common_runtime/gpu/gpu_device.cc:952] Device interconnect StreamExecutor with strength 1 edge matrix:
2019-07-08 02:58:01.068979: I tensorflow/core/common_runtime/gpu/gpu_device.cc:958]      0 
2019-07-08 02:58:01.068989: I tensorflow/core/common_runtime/gpu/gpu_device.cc:971] 0:   N 
2019-07-08 02:58:01.069395: I tensorflow/core/common_runtime/gpu/gpu_device.cc:1084] Created TensorFlow device (/job:localhost/replica:0/task:0/device:GPU:0 with 15123 MB memory) -> physical GPU (device: 0, name: Tesla P100-PCIE-16GB, pci bus id: 0000:89:00.0, compute capability: 6.0)

__________________________________________________________________________________________________
batch_normalization_8 (BatchNor (None, 28, 42, 80)   320         conv2d_8[0][0]                   
__________________________________________________________________________________________________
activation_8 (Activation)       (None, 28, 42, 80)   0           batch_normalization_8[0][0]      
__________________________________________________________________________________________________
concatenate_4 (Concatenate)     (None, 28, 42, 280)  0           concatenate_3[0][0]              
                                                                 activation_8[0][0]               
__________________________________________________________________________________________________
dropout_4 (Dropout)             (None, 28, 42, 280)  0           concatenate_4[0][0]              
__________________________________________________________________________________________________
conv2d_transpose_2 (Conv2DTrans (None, 56, 84, 40)   44840       dropout_4[0][0]                  
__________________________________________________________________________________________________
concatenate_5 (Concatenate)     (None, 56, 84, 80)   0           conv2d_transpose_2[0][0]         
                                                                 activation_2[0][0]               
__________________________________________________________________________________________________
conv2d_9 (Conv2D)               (None, 56, 84, 40)   28840       concatenate_5[0][0]              
__________________________________________________________________________________________________
batch_normalization_9 (BatchNor (None, 56, 84, 40)   160         conv2d_9[0][0]                   
__________________________________________________________________________________________________
activation_9 (Activation)       (None, 56, 84, 40)   0           batch_normalization_9[0][0]      
__________________________________________________________________________________________________
conv2d_10 (Conv2D)              (None, 56, 84, 40)   14440       activation_9[0][0]               
__________________________________________________________________________________________________
batch_normalization_10 (BatchNo (None, 56, 84, 40)   160         conv2d_10[0][0]                  
__________________________________________________________________________________________________
activation_10 (Activation)      (None, 56, 84, 40)   0           batch_normalization_10[0][0]     
__________________________________________________________________________________________________
concatenate_6 (Concatenate)     (None, 56, 84, 120)  0           concatenate_5[0][0]              
                                                                 activation_10[0][0]              
__________________________________________________________________________________________________
dropout_5 (Dropout)             (None, 56, 84, 120)  0           concatenate_6[0][0]              
__________________________________________________________________________________________________
conv2d_11 (Conv2D)              (None, 56, 84, 13)   1573        dropout_5[0][0]                  
==================================================================================================
Total params: 889,253
Trainable params: 887,653
Non-trainable params: 1,600
__________________________________________________________________________________________________
------------------------------------------------------------------
class_weights [6.53383120e-02 2.88786827e-02 1.16652967e-01 1.00133292e-02
…
 Nucleus: [2, 4, 5, 6, 7, 8, 9, 10, 11, 12, 13, 14]  | GPU: 7  | SD 1  | Dropout 0.3  | LR 0.001  | NL 3  |  Cascade |  FM 40 |  Upsample 1
Experiment: exp6
SubExperiment: sE8_Cascade_FM40_Res_Unet2_NL3_LS_MyJoint_US1
---------------------------------------------------------------
__________________________________________________________________________________________________
Layer (type)                    Output Shape         Param #     Connected to                     
==================================================================================================
input_1 (InputLayer)            (None, 56, 56, 1)    0                                            
__________________________________________________________________________________________________
conv2d_1 (Conv2D)               (None, 56, 56, 40)   400         input_1[0][0]                    
__________________________________________________________________________________________________
batch_normalization_1 (BatchNor (None, 56, 56, 40)   160         conv2d_1[0][0]                   
__________________________________________________________________________________________________
activation_1 (Activation)       (None, 56, 56, 40)   0           batch_normalization_1[0][0]      
__________________________________________________________________________________________________
conv2d_2 (Conv2D)               (None, 56, 56, 40)   14440       activation_1[0][0]               
__________________________________________________________________________________________________
batch_normalization_2 (BatchNor (None, 56, 56, 40)   160         conv2d_2[0][0]                   
__________________________________________________________________________________________________
activation_2 (Activation)       (None, 56, 56, 40)   0           batch_normalization_2[0][0]      
__________________________________________________________________________________________________
max_pooling2d_1 (MaxPooling2D)  (None, 28, 28, 40)   0           activation_2[0][0]               
__________________________________________________________________________________________________
dropout_1 (Dropout)             (None, 28, 28, 40)   0           max_pooling2d_1[0][0]            
__________________________________________________________________________________________________
conv2d_3 (Conv2D)               (None, 28, 28, 80)   28880       dropout_1[0][0]                  
__________________________________________________________________________________________________
batch_normalization_3 (BatchNor (None, 28, 28, 80)   320         conv2d_3[0][0]                   
__________________________________________________________________________________________________
activation_3 (Activation)       (None, 28, 28, 80)   0           batch_normalization_3[0][0]      
__________________________________________________________________________________________________
conv2d_4 (Conv2D)               (None, 28, 28, 80)   57680       activation_3[0][0]               
__________________________________________________________________________________________________
batch_normalization_4 (BatchNor (None, 28, 28, 80)   320         conv2d_4[0][0]                   
__________________________________________________________________________________________________
activation_4 (Activation)       (None, 28, 28, 80)   0           batch_normalization_4[0][0]      
__________________________________________________________________________________________________
concatenate_1 (Concatenate)     (None, 28, 28, 120)  0           dropout_1[0][0]                  
                                                                 activation_4[0][0]               
__________________________________________________________________________________________________
max_pooling2d_2 (MaxPooling2D)  (None, 14, 14, 120)  0           concatenate_1[0][0]              
__________________________________________________________________________________________________
dropout_2 (Dropout)             (None, 14, 14, 120)  0           max_pooling2d_2[0][0]            
__________________________________________________________________________________________________
conv2d_5 (Conv2D)               (None, 14, 14, 160)  172960      dropout_2[0][0]                  
__________________________________________________________________________________________________
batch_normalization_5 (BatchNor (None, 14, 14, 160)  640         conv2d_5[0][0]                   
__________________________________________________________________________________________________
activation_5 (Activation)       (None, 14, 14, 160)  0           batch_normalization_5[0][0]      
__________________________________________________________________________________________________
conv2d_6 (Conv2D)               (None, 14, 14, 160)  230560      activation_5[0][0]               
__________________________________________________________________________________________________
batch_normalization_6 (BatchNor (None, 14, 14, 160)  640         conv2d_6[0][0]                   
__________________________________________________________________________________________________
activation_6 (Activation)       (None, 14, 14, 160)  0           batch_normalization_6[0][0]      
__________________________________________________________________________________________________
concatenate_2 (Concatenate)     (None, 14, 14, 280)  0           dropout_2[0][0]                  
                                                                 activation_6[0][0]               
__________________________________________________________________________________________________
dropout_3 (Dropout)             (None, 14, 14, 280)  0           concatenate_2[0][0]              
__________________________________________________________________________________________________
conv2d_transpose_1 (Conv2DTrans (None, 28, 28, 80)   89680       dropout_3[0][0]                  
__________________________________________________________________________________________________
concatenate_3 (Concatenate)     (None, 28, 28, 200)  0           conv2d_transpose_1[0][0]         
                                                                 concatenate_1[0][0]              
__________________________________________________________________________________________________
conv2d_7 (Conv2D)               (None, 28, 28, 80)   144080      concatenate_3[0][0]              
__________________________________________________________________________________________________
batch_normalization_7 (BatchNor (None, 28, 28, 80)   320         conv2d_7[0][0]                   
__________________________________________________________________________________________________
activation_7 (Activation)       (None, 28, 28, 80)   0           batch_normalization_7[0][0]      
__________________________________________________________________________________________________
conv2d_8 (Conv2D)               (None, 28, 28, 80)   57680       activation_7[0][0]               
__________________________________________________________________________________________________
batch_normalization_8 (BatchNor (None, 28, 28, 80)   320         conv2d_8[0][0]                   
__________________________________________________________________________________________________
activation_8 (Activation)       (None, 28, 28, 80)   0           batch_normalization_8[0][0]      
__________________________________________________________________________________________________
concatenate_4 (Concatenate)     (None, 28, 28, 280)  0           concatenate_3[0][0]              
                                                                 activation_8[0][0]               
__________________________________________________________________________________________________
dropout_4 (Dropout)             (None, 28, 28, 280)  0           concatenate_4[0][0]              
__________________________________________________________________________________________________
conv2d_transpose_2 (Conv2DTrans (None, 56, 56, 40)   44840       dropout_4[0][0]                  2019-07-08 04:31:40.877546: I tensorflow/core/common_runtime/gpu/gpu_device.cc:1471] Adding visible gpu devices: 0
2019-07-08 04:31:40.877677: I tensorflow/core/common_runtime/gpu/gpu_device.cc:952] Device interconnect StreamExecutor with strength 1 edge matrix:
2019-07-08 04:31:40.877696: I tensorflow/core/common_runtime/gpu/gpu_device.cc:958]      0 
2019-07-08 04:31:40.877710: I tensorflow/core/common_runtime/gpu/gpu_device.cc:971] 0:   N 
2019-07-08 04:31:40.878187: I tensorflow/core/common_runtime/gpu/gpu_device.cc:1084] Created TensorFlow device (/job:localhost/replica:0/task:0/device:GPU:0 with 15123 MB memory) -> physical GPU (device: 0, name: Tesla P100-PCIE-16GB, pci bus id: 0000:89:00.0, compute capability: 6.0)

__________________________________________________________________________________________________
concatenate_5 (Concatenate)     (None, 56, 56, 80)   0           conv2d_transpose_2[0][0]         
                                                                 activation_2[0][0]               
__________________________________________________________________________________________________
conv2d_9 (Conv2D)               (None, 56, 56, 40)   28840       concatenate_5[0][0]              
__________________________________________________________________________________________________
batch_normalization_9 (BatchNor (None, 56, 56, 40)   160         conv2d_9[0][0]                   
__________________________________________________________________________________________________
activation_9 (Activation)       (None, 56, 56, 40)   0           batch_normalization_9[0][0]      
__________________________________________________________________________________________________
conv2d_10 (Conv2D)              (None, 56, 56, 40)   14440       activation_9[0][0]               
__________________________________________________________________________________________________
batch_normalization_10 (BatchNo (None, 56, 56, 40)   160         conv2d_10[0][0]                  
__________________________________________________________________________________________________
activation_10 (Activation)      (None, 56, 56, 40)   0           batch_normalization_10[0][0]     
__________________________________________________________________________________________________
concatenate_6 (Concatenate)     (None, 56, 56, 120)  0           concatenate_5[0][0]              
                                                                 activation_10[0][0]              
__________________________________________________________________________________________________
dropout_5 (Dropout)             (None, 56, 56, 120)  0           concatenate_6[0][0]              
__________________________________________________________________________________________________
conv2d_11 (Conv2D)              (None, 56, 56, 13)   1573        dropout_5[0][0]                  
==================================================================================================
Total params: 889,253
Trainable params: 887,653
Non-trainable params: 1,600
__________________________________________________________________________________________________
------------------------------------------------------------------
class_weights [6.53974061e-02 2.89048015e-02 1.16758472e-01 1.00223856e-02
…
 Nucleus: [2, 4, 5, 6, 7, 8, 9, 10, 11, 12, 13, 14]  | GPU: 7  | SD 0  | Dropout 0.3  | LR 0.001  | NL 3  |  Cascade |  FM 40 |  Upsample 1
Experiment: exp6
SubExperiment: sE8_Cascade_FM40_Res_Unet2_NL3_LS_MyJoint_US1
---------------------------------------------------------------
__________________________________________________________________________________________________
Layer (type)                    Output Shape         Param #     Connected to                     
==================================================================================================
input_1 (InputLayer)            (None, 84, 56, 1)    0                                            
__________________________________________________________________________________________________
conv2d_1 (Conv2D)               (None, 84, 56, 40)   400         input_1[0][0]                    
__________________________________________________________________________________________________
batch_normalization_1 (BatchNor (None, 84, 56, 40)   160         conv2d_1[0][0]                   
__________________________________________________________________________________________________
activation_1 (Activation)       (None, 84, 56, 40)   0           batch_normalization_1[0][0]      
__________________________________________________________________________________________________
conv2d_2 (Conv2D)               (None, 84, 56, 40)   14440       activation_1[0][0]               
__________________________________________________________________________________________________
batch_normalization_2 (BatchNor (None, 84, 56, 40)   160         conv2d_2[0][0]                   
__________________________________________________________________________________________________
activation_2 (Activation)       (None, 84, 56, 40)   0           batch_normalization_2[0][0]      
__________________________________________________________________________________________________
max_pooling2d_1 (MaxPooling2D)  (None, 42, 28, 40)   0           activation_2[0][0]               
__________________________________________________________________________________________________
dropout_1 (Dropout)             (None, 42, 28, 40)   0           max_pooling2d_1[0][0]            
__________________________________________________________________________________________________
conv2d_3 (Conv2D)               (None, 42, 28, 80)   28880       dropout_1[0][0]                  
__________________________________________________________________________________________________
batch_normalization_3 (BatchNor (None, 42, 28, 80)   320         conv2d_3[0][0]                   
__________________________________________________________________________________________________
activation_3 (Activation)       (None, 42, 28, 80)   0           batch_normalization_3[0][0]      
__________________________________________________________________________________________________
conv2d_4 (Conv2D)               (None, 42, 28, 80)   57680       activation_3[0][0]               
__________________________________________________________________________________________________
batch_normalization_4 (BatchNor (None, 42, 28, 80)   320         conv2d_4[0][0]                   
__________________________________________________________________________________________________
activation_4 (Activation)       (None, 42, 28, 80)   0           batch_normalization_4[0][0]      
__________________________________________________________________________________________________
concatenate_1 (Concatenate)     (None, 42, 28, 120)  0           dropout_1[0][0]                  
                                                                 activation_4[0][0]               
__________________________________________________________________________________________________
max_pooling2d_2 (MaxPooling2D)  (None, 21, 14, 120)  0           concatenate_1[0][0]              
__________________________________________________________________________________________________
dropout_2 (Dropout)             (None, 21, 14, 120)  0           max_pooling2d_2[0][0]            
__________________________________________________________________________________________________
conv2d_5 (Conv2D)               (None, 21, 14, 160)  172960      dropout_2[0][0]                  
__________________________________________________________________________________________________
batch_normalization_5 (BatchNor (None, 21, 14, 160)  640         conv2d_5[0][0]                   
__________________________________________________________________________________________________
activation_5 (Activation)       (None, 21, 14, 160)  0           batch_normalization_5[0][0]      
__________________________________________________________________________________________________
conv2d_6 (Conv2D)               (None, 21, 14, 160)  230560      activation_5[0][0]               
__________________________________________________________________________________________________
batch_normalization_6 (BatchNor (None, 21, 14, 160)  640         conv2d_6[0][0]                   
__________________________________________________________________________________________________
activation_6 (Activation)       (None, 21, 14, 160)  0           batch_normalization_6[0][0]      
__________________________________________________________________________________________________
concatenate_2 (Concatenate)     (None, 21, 14, 280)  0           dropout_2[0][0]                  
                                                                 activation_6[0][0]               
__________________________________________________________________________________________________
dropout_3 (Dropout)             (None, 21, 14, 280)  0           concatenate_2[0][0]              
__________________________________________________________________________________________________
conv2d_transpose_1 (Conv2DTrans (None, 42, 28, 80)   89680       dropout_3[0][0]                  
__________________________________________________________________________________________________
concatenate_3 (Concatenate)     (None, 42, 28, 200)  0           conv2d_transpose_1[0][0]         
                                                                 concatenate_1[0][0]              
__________________________________________________________________________________________________
conv2d_7 (Conv2D)               (None, 42, 28, 80)   144080      concatenate_3[0][0]              
__________________________________________________________________________________________________
batch_normalization_7 (BatchNor (None, 42, 28, 80)   320         conv2d_7[0][0]                   
__________________________________________________________________________________________________
activation_7 (Activation)       (None, 42, 28, 80)   0           batch_normalization_7[0][0]      
__________________________________________________________________________________________________
conv2d_8 (Conv2D)               (None, 42, 28, 80)   57680       activation_7[0][0]               
__________________________________________________________________________________________________
batch_normalization_8 (BatchNor (None, 42, 28, 80)   320         conv2d_8[0][0]                   
__________________________________________________________________________________________________
activation_8 (Activation)       (None, 42, 28, 80)   0           batch_normalization_8[0][0]      
__________________________________________________________________________________________________
concatenate_4 (Concatenate)     (None, 42, 28, 280)  0           concatenate_3[0][0]              
                                                                 activation_8[0][0]               
__________________________________________________________________________________________________
dropout_4 (Dropout)             (None, 42, 28, 280)  0           concatenate_4[0][0]              
__________________________________________________________________________________________________
conv2d_transpose_2 (Conv2DTrans (None, 84, 56, 40)   44840       dropout_4[0][0]                  
__________________________________________________________________________________________________
concatenate_5 (Concatenate)     (None, 84, 56, 80)   0           conv2d_transpose_2[0][0]         
                                                                 activation_2[0][0]               
__________________________________________________________________________________________________
conv2d_9 (Conv2D)               (None, 84, 56, 40)   28840       concatenate_5[0][0]              
__________________________________________________________________________________________________
batch_normalization_9 (BatchNor (None, 84, 56, 40)   160         conv2d_9[0][0]                   
__________________________________________________________________________________________________
activation_9 (Activation)       (None, 84, 56, 40)   0           batch_normalization_9[0][0]      
__________________________________________________________________________________________________
conv2d_10 (Conv2D)              (None, 84, 56, 40)   14440       activation_9[0][0]               
__________________________________________________________________________________________________
batch_normalization_10 (BatchNo (None, 84, 56, 40)   160         conv2d_10[0][0]                  2019-07-08 05:41:23.874925: I tensorflow/core/common_runtime/gpu/gpu_device.cc:1471] Adding visible gpu devices: 0
2019-07-08 05:41:23.875070: I tensorflow/core/common_runtime/gpu/gpu_device.cc:952] Device interconnect StreamExecutor with strength 1 edge matrix:
2019-07-08 05:41:23.875086: I tensorflow/core/common_runtime/gpu/gpu_device.cc:958]      0 
2019-07-08 05:41:23.875097: I tensorflow/core/common_runtime/gpu/gpu_device.cc:971] 0:   N 
…
 Nucleus: [2, 4, 5, 6, 7, 8, 9, 10, 11, 12, 13, 14]  | GPU: 7  | SD 2  | Dropout 0.3  | LR 0.001  | NL 3  |  Cascade |  FM 30 |  Upsample 1
Experiment: exp6
SubExperiment: sE12_Cascade_FM30_Res_Unet2_NL3_LS_MyJoint_US1_Main_Init_3T_CV_a
---------------------------------------------------------------
__________________________________________________________________________________________________
Layer (type)                    Output Shape         Param #     Connected to                     
==================================================================================================
input_1 (InputLayer)            (None, 56, 88, 1)    0                                            
__________________________________________________________________________________________________
conv2d_1 (Conv2D)               (None, 56, 88, 30)   300         input_1[0][0]                    
__________________________________________________________________________________________________
batch_normalization_1 (BatchNor (None, 56, 88, 30)   120         conv2d_1[0][0]                   
__________________________________________________________________________________________________
activation_1 (Activation)       (None, 56, 88, 30)   0           batch_normalization_1[0][0]      
__________________________________________________________________________________________________
conv2d_2 (Conv2D)               (None, 56, 88, 30)   8130        activation_1[0][0]               
__________________________________________________________________________________________________
batch_normalization_2 (BatchNor (None, 56, 88, 30)   120         conv2d_2[0][0]                   
__________________________________________________________________________________________________
activation_2 (Activation)       (None, 56, 88, 30)   0           batch_normalization_2[0][0]      
__________________________________________________________________________________________________
max_pooling2d_1 (MaxPooling2D)  (None, 28, 44, 30)   0           activation_2[0][0]               
__________________________________________________________________________________________________
dropout_1 (Dropout)             (None, 28, 44, 30)   0           max_pooling2d_1[0][0]            
__________________________________________________________________________________________________
conv2d_3 (Conv2D)               (None, 28, 44, 60)   16260       dropout_1[0][0]                  
__________________________________________________________________________________________________
batch_normalization_3 (BatchNor (None, 28, 44, 60)   240         conv2d_3[0][0]                   
__________________________________________________________________________________________________
activation_3 (Activation)       (None, 28, 44, 60)   0           batch_normalization_3[0][0]      
__________________________________________________________________________________________________
conv2d_4 (Conv2D)               (None, 28, 44, 60)   32460       activation_3[0][0]               
__________________________________________________________________________________________________
batch_normalization_4 (BatchNor (None, 28, 44, 60)   240         conv2d_4[0][0]                   
__________________________________________________________________________________________________
activation_4 (Activation)       (None, 28, 44, 60)   0           batch_normalization_4[0][0]      
__________________________________________________________________________________________________
concatenate_1 (Concatenate)     (None, 28, 44, 90)   0           dropout_1[0][0]                  
                                                                 activation_4[0][0]               
__________________________________________________________________________________________________
max_pooling2d_2 (MaxPooling2D)  (None, 14, 22, 90)   0           concatenate_1[0][0]              
__________________________________________________________________________________________________
dropout_2 (Dropout)             (None, 14, 22, 90)   0           max_pooling2d_2[0][0]            
__________________________________________________________________________________________________
conv2d_5 (Conv2D)               (None, 14, 22, 120)  97320       dropout_2[0][0]                  
__________________________________________________________________________________________________
batch_normalization_5 (BatchNor (None, 14, 22, 120)  480         conv2d_5[0][0]                   
__________________________________________________________________________________________________
activation_5 (Activation)       (None, 14, 22, 120)  0           batch_normalization_5[0][0]      
__________________________________________________________________________________________________
conv2d_6 (Conv2D)               (None, 14, 22, 120)  129720      activation_5[0][0]               
__________________________________________________________________________________________________
batch_normalization_6 (BatchNor (None, 14, 22, 120)  480         conv2d_6[0][0]                   
__________________________________________________________________________________________________
activation_6 (Activation)       (None, 14, 22, 120)  0           batch_normalization_6[0][0]      
__________________________________________________________________________________________________
concatenate_2 (Concatenate)     (None, 14, 22, 210)  0           dropout_2[0][0]                  
                                                                 activation_6[0][0]               
__________________________________________________________________________________________________
dropout_3 (Dropout)             (None, 14, 22, 210)  0           concatenate_2[0][0]              
__________________________________________________________________________________________________
conv2d_transpose_1 (Conv2DTrans (None, 28, 44, 60)   50460       dropout_3[0][0]                  
__________________________________________________________________________________________________
concatenate_3 (Concatenate)     (None, 28, 44, 150)  0           conv2d_transpose_1[0][0]         
                                                                 concatenate_1[0][0]              
__________________________________________________________________________________________________
conv2d_7 (Conv2D)               (None, 28, 44, 60)   81060       concatenate_3[0][0]              
__________________________________________________________________________________________________
batch_normalization_7 (BatchNor (None, 28, 44, 60)   240         conv2d_7[0][0]                   
__________________________________________________________________________________________________
activation_7 (Activation)       (None, 28, 44, 60)   0           batch_normalization_7[0][0]      
__________________________________________________________________________________________________
conv2d_8 (Conv2D)               (None, 28, 44, 60)   32460       activation_7[0][0]               2019-07-08 07:17:55.628662: I tensorflow/core/common_runtime/gpu/gpu_device.cc:1471] Adding visible gpu devices: 0
2019-07-08 07:17:55.628770: I tensorflow/core/common_runtime/gpu/gpu_device.cc:952] Device interconnect StreamExecutor with strength 1 edge matrix:
2019-07-08 07:17:55.628786: I tensorflow/core/common_runtime/gpu/gpu_device.cc:958]      0 
2019-07-08 07:17:55.628799: I tensorflow/core/common_runtime/gpu/gpu_device.cc:971] 0:   N 
2019-07-08 07:17:55.629167: I tensorflow/core/common_runtime/gpu/gpu_device.cc:1084] Created TensorFlow device (/job:localhost/replica:0/task:0/device:GPU:0 with 15123 MB memory) -> physical GPU (device: 0, name: Tesla P100-PCIE-16GB, pci bus id: 0000:89:00.0, compute capability: 6.0)

__________________________________________________________________________________________________
batch_normalization_8 (BatchNor (None, 28, 44, 60)   240         conv2d_8[0][0]                   
__________________________________________________________________________________________________
activation_8 (Activation)       (None, 28, 44, 60)   0           batch_normalization_8[0][0]      
__________________________________________________________________________________________________
concatenate_4 (Concatenate)     (None, 28, 44, 210)  0           concatenate_3[0][0]              
                                                                 activation_8[0][0]               
__________________________________________________________________________________________________
dropout_4 (Dropout)             (None, 28, 44, 210)  0           concatenate_4[0][0]              
__________________________________________________________________________________________________
conv2d_transpose_2 (Conv2DTrans (None, 56, 88, 30)   25230       dropout_4[0][0]                  
__________________________________________________________________________________________________
concatenate_5 (Concatenate)     (None, 56, 88, 60)   0           conv2d_transpose_2[0][0]         
                                                                 activation_2[0][0]               
__________________________________________________________________________________________________
conv2d_9 (Conv2D)               (None, 56, 88, 30)   16230       concatenate_5[0][0]              
__________________________________________________________________________________________________
batch_normalization_9 (BatchNor (None, 56, 88, 30)   120         conv2d_9[0][0]                   
__________________________________________________________________________________________________
activation_9 (Activation)       (None, 56, 88, 30)   0           batch_normalization_9[0][0]      
__________________________________________________________________________________________________
conv2d_10 (Conv2D)              (None, 56, 88, 30)   8130        activation_9[0][0]               
__________________________________________________________________________________________________
batch_normalization_10 (BatchNo (None, 56, 88, 30)   120         conv2d_10[0][0]                  
__________________________________________________________________________________________________
activation_10 (Activation)      (None, 56, 88, 30)   0           batch_normalization_10[0][0]     
__________________________________________________________________________________________________
concatenate_6 (Concatenate)     (None, 56, 88, 90)   0           concatenate_5[0][0]              
                                                                 activation_10[0][0]              
__________________________________________________________________________________________________
dropout_5 (Dropout)             (None, 56, 88, 90)   0           concatenate_6[0][0]              
__________________________________________________________________________________________________
conv2d_11 (Conv2D)              (None, 56, 88, 13)   1183        dropout_5[0][0]                  
==================================================================================================
Total params: 501,343
Trainable params: 500,143
Non-trainable params: 1,200
__________________________________________________________________________________________________
----- /array/ssd/msmajdi/experiments/keras/exp6/models/sE8_Cascade_FM30_Res_Unet2_NL3_LS_MyJoint_US1/MultiClass_24567891011121314/sd2/model_weights.h5
…
 Nucleus: [2, 4, 5, 6, 7, 8, 9, 10, 11, 12, 13, 14]  | GPU: 7  | SD 1  | Dropout 0.3  | LR 0.001  | NL 3  |  Cascade |  FM 30 |  Upsample 1
Experiment: exp6
SubExperiment: sE12_Cascade_FM30_Res_Unet2_NL3_LS_MyJoint_US1_Main_Init_3T_CV_a
---------------------------------------------------------------
__________________________________________________________________________________________________
Layer (type)                    Output Shape         Param #     Connected to                     
==================================================================================================
input_1 (InputLayer)            (None, 56, 56, 1)    0                                            
__________________________________________________________________________________________________
conv2d_1 (Conv2D)               (None, 56, 56, 30)   300         input_1[0][0]                    
__________________________________________________________________________________________________
batch_normalization_1 (BatchNor (None, 56, 56, 30)   120         conv2d_1[0][0]                   
__________________________________________________________________________________________________
activation_1 (Activation)       (None, 56, 56, 30)   0           batch_normalization_1[0][0]      
__________________________________________________________________________________________________
conv2d_2 (Conv2D)               (None, 56, 56, 30)   8130        activation_1[0][0]               
__________________________________________________________________________________________________
batch_normalization_2 (BatchNor (None, 56, 56, 30)   120         conv2d_2[0][0]                   
__________________________________________________________________________________________________
activation_2 (Activation)       (None, 56, 56, 30)   0           batch_normalization_2[0][0]      
__________________________________________________________________________________________________
max_pooling2d_1 (MaxPooling2D)  (None, 28, 28, 30)   0           activation_2[0][0]               
__________________________________________________________________________________________________
dropout_1 (Dropout)             (None, 28, 28, 30)   0           max_pooling2d_1[0][0]            
__________________________________________________________________________________________________
conv2d_3 (Conv2D)               (None, 28, 28, 60)   16260       dropout_1[0][0]                  
__________________________________________________________________________________________________
batch_normalization_3 (BatchNor (None, 28, 28, 60)   240         conv2d_3[0][0]                   
__________________________________________________________________________________________________
activation_3 (Activation)       (None, 28, 28, 60)   0           batch_normalization_3[0][0]      
__________________________________________________________________________________________________
conv2d_4 (Conv2D)               (None, 28, 28, 60)   32460       activation_3[0][0]               
__________________________________________________________________________________________________
batch_normalization_4 (BatchNor (None, 28, 28, 60)   240         conv2d_4[0][0]                   
__________________________________________________________________________________________________
activation_4 (Activation)       (None, 28, 28, 60)   0           batch_normalization_4[0][0]      
__________________________________________________________________________________________________
concatenate_1 (Concatenate)     (None, 28, 28, 90)   0           dropout_1[0][0]                  
                                                                 activation_4[0][0]               
__________________________________________________________________________________________________
max_pooling2d_2 (MaxPooling2D)  (None, 14, 14, 90)   0           concatenate_1[0][0]              
__________________________________________________________________________________________________
dropout_2 (Dropout)             (None, 14, 14, 90)   0           max_pooling2d_2[0][0]            
__________________________________________________________________________________________________2019-07-08 07:53:09.379884: I tensorflow/core/common_runtime/gpu/gpu_device.cc:1471] Adding visible gpu devices: 0
2019-07-08 07:53:09.380023: I tensorflow/core/common_runtime/gpu/gpu_device.cc:952] Device interconnect StreamExecutor with strength 1 edge matrix:
2019-07-08 07:53:09.380043: I tensorflow/core/common_runtime/gpu/gpu_device.cc:958]      0 
2019-07-08 07:53:09.380057: I tensorflow/core/common_runtime/gpu/gpu_device.cc:971] 0:   N 
2019-07-08 07:53:09.380487: I tensorflow/core/common_runtime/gpu/gpu_device.cc:1084] Created TensorFlow device (/job:localhost/replica:0/task:0/device:GPU:0 with 15123 MB memory) -> physical GPU (device: 0, name: Tesla P100-PCIE-16GB, pci bus id: 0000:89:00.0, compute capability: 6.0)

conv2d_5 (Conv2D)               (None, 14, 14, 120)  97320       dropout_2[0][0]                  
__________________________________________________________________________________________________
batch_normalization_5 (BatchNor (None, 14, 14, 120)  480         conv2d_5[0][0]                   
__________________________________________________________________________________________________
activation_5 (Activation)       (None, 14, 14, 120)  0           batch_normalization_5[0][0]      
__________________________________________________________________________________________________
conv2d_6 (Conv2D)               (None, 14, 14, 120)  129720      activation_5[0][0]               
__________________________________________________________________________________________________
batch_normalization_6 (BatchNor (None, 14, 14, 120)  480         conv2d_6[0][0]                   
__________________________________________________________________________________________________
activation_6 (Activation)       (None, 14, 14, 120)  0           batch_normalization_6[0][0]      
__________________________________________________________________________________________________
concatenate_2 (Concatenate)     (None, 14, 14, 210)  0           dropout_2[0][0]                  
                                                                 activation_6[0][0]               
__________________________________________________________________________________________________
dropout_3 (Dropout)             (None, 14, 14, 210)  0           concatenate_2[0][0]              
__________________________________________________________________________________________________
conv2d_transpose_1 (Conv2DTrans (None, 28, 28, 60)   50460       dropout_3[0][0]                  
__________________________________________________________________________________________________
concatenate_3 (Concatenate)     (None, 28, 28, 150)  0           conv2d_transpose_1[0][0]         
                                                                 concatenate_1[0][0]              
__________________________________________________________________________________________________
conv2d_7 (Conv2D)               (None, 28, 28, 60)   81060       concatenate_3[0][0]              
__________________________________________________________________________________________________
batch_normalization_7 (BatchNor (None, 28, 28, 60)   240         conv2d_7[0][0]                   
__________________________________________________________________________________________________
activation_7 (Activation)       (None, 28, 28, 60)   0           batch_normalization_7[0][0]      
__________________________________________________________________________________________________
conv2d_8 (Conv2D)               (None, 28, 28, 60)   32460       activation_7[0][0]               
__________________________________________________________________________________________________
batch_normalization_8 (BatchNor (None, 28, 28, 60)   240         conv2d_8[0][0]                   
__________________________________________________________________________________________________
activation_8 (Activation)       (None, 28, 28, 60)   0           batch_normalization_8[0][0]      
__________________________________________________________________________________________________
concatenate_4 (Concatenate)     (None, 28, 28, 210)  0           concatenate_3[0][0]              
                                                                 activation_8[0][0]               
__________________________________________________________________________________________________
dropout_4 (Dropout)             (None, 28, 28, 210)  0           concatenate_4[0][0]              
__________________________________________________________________________________________________
conv2d_transpose_2 (Conv2DTrans (None, 56, 56, 30)   25230       dropout_4[0][0]                  
__________________________________________________________________________________________________
concatenate_5 (Concatenate)     (None, 56, 56, 60)   0           conv2d_transpose_2[0][0]         
                                                                 activation_2[0][0]               
__________________________________________________________________________________________________
conv2d_9 (Conv2D)               (None, 56, 56, 30)   16230       concatenate_5[0][0]              
__________________________________________________________________________________________________
batch_normalization_9 (BatchNor (None, 56, 56, 30)   120         conv2d_9[0][0]                   
__________________________________________________________________________________________________
activation_9 (Activation)       (None, 56, 56, 30)   0           batch_normalization_9[0][0]      
__________________________________________________________________________________________________
conv2d_10 (Conv2D)              (None, 56, 56, 30)   8130        activation_9[0][0]               
__________________________________________________________________________________________________
batch_normalization_10 (BatchNo (None, 56, 56, 30)   120         conv2d_10[0][0]                  
__________________________________________________________________________________________________
activation_10 (Activation)      (None, 56, 56, 30)   0           batch_normalization_10[0][0]     
__________________________________________________________________________________________________
concatenate_6 (Concatenate)     (None, 56, 56, 90)   0           concatenate_5[0][0]              
                                                                 activation_10[0][0]              
__________________________________________________________________________________________________
dropout_5 (Dropout)             (None, 56, 56, 90)   0           concatenate_6[0][0]              
__________________________________________________________________________________________________
conv2d_11 (Conv2D)              (None, 56, 56, 13)   1183        dropout_5[0][0]                  
==================================================================================================
Total params: 501,343
Trainable params: 500,143
Non-trainable params: 1,200
__________________________________________________________________________________________________
----- /array/ssd/msmajdi/experiments/keras/exp6/models/sE8_Cascade_FM30_Res_Unet2_NL3_LS_MyJoint_US1/MultiClass_24567891011121314/sd1/model_weights.h5
…
 Nucleus: [2, 4, 5, 6, 7, 8, 9, 10, 11, 12, 13, 14]  | GPU: 7  | SD 0  | Dropout 0.3  | LR 0.001  | NL 3  |  Cascade |  FM 30 |  Upsample 1
Experiment: exp6
SubExperiment: sE12_Cascade_FM30_Res_Unet2_NL3_LS_MyJoint_US1_Main_Init_3T_CV_a
---------------------------------------------------------------
__________________________________________________________________________________________________
Layer (type)                    Output Shape         Param #     Connected to                     
==================================================================================================
input_1 (InputLayer)            (None, 88, 56, 1)    0                                            
__________________________________________________________________________________________________
conv2d_1 (Conv2D)               (None, 88, 56, 30)   300         input_1[0][0]                    
__________________________________________________________________________________________________
batch_normalization_1 (BatchNor (None, 88, 56, 30)   120         conv2d_1[0][0]                   
__________________________________________________________________________________________________
activation_1 (Activation)       (None, 88, 56, 30)   0           batch_normalization_1[0][0]      
__________________________________________________________________________________________________
conv2d_2 (Conv2D)               (None, 88, 56, 30)   8130        activation_1[0][0]               
__________________________________________________________________________________________________
batch_normalization_2 (BatchNor (None, 88, 56, 30)   120         conv2d_2[0][0]                   
__________________________________________________________________________________________________
activation_2 (Activation)       (None, 88, 56, 30)   0           batch_normalization_2[0][0]      
__________________________________________________________________________________________________
max_pooling2d_1 (MaxPooling2D)  (None, 44, 28, 30)   0           activation_2[0][0]               
__________________________________________________________________________________________________
dropout_1 (Dropout)             (None, 44, 28, 30)   0           max_pooling2d_1[0][0]            
__________________________________________________________________________________________________
conv2d_3 (Conv2D)               (None, 44, 28, 60)   16260       dropout_1[0][0]                  
__________________________________________________________________________________________________
batch_normalization_3 (BatchNor (None, 44, 28, 60)   240         conv2d_3[0][0]                   
__________________________________________________________________________________________________
activation_3 (Activation)       (None, 44, 28, 60)   0           batch_normalization_3[0][0]      
__________________________________________________________________________________________________
conv2d_4 (Conv2D)               (None, 44, 28, 60)   32460       activation_3[0][0]               
__________________________________________________________________________________________________
batch_normalization_4 (BatchNor (None, 44, 28, 60)   240         conv2d_4[0][0]                   
__________________________________________________________________________________________________
activation_4 (Activation)       (None, 44, 28, 60)   0           batch_normalization_4[0][0]      
__________________________________________________________________________________________________
concatenate_1 (Concatenate)     (None, 44, 28, 90)   0           dropout_1[0][0]                  
                                                                 activation_4[0][0]               
__________________________________________________________________________________________________
max_pooling2d_2 (MaxPooling2D)  (None, 22, 14, 90)   0           concatenate_1[0][0]              
__________________________________________________________________________________________________
dropout_2 (Dropout)             (None, 22, 14, 90)   0           max_pooling2d_2[0][0]            
__________________________________________________________________________________________________2019-07-08 08:25:29.060530: I tensorflow/core/common_runtime/gpu/gpu_device.cc:1471] Adding visible gpu devices: 0
2019-07-08 08:25:29.060656: I tensorflow/core/common_runtime/gpu/gpu_device.cc:952] Device interconnect StreamExecutor with strength 1 edge matrix:
2019-07-08 08:25:29.060673: I tensorflow/core/common_runtime/gpu/gpu_device.cc:958]      0 
2019-07-08 08:25:29.060682: I tensorflow/core/common_runtime/gpu/gpu_device.cc:971] 0:   N 
2019-07-08 08:25:29.061062: I tensorflow/core/common_runtime/gpu/gpu_device.cc:1084] Created TensorFlow device (/job:localhost/replica:0/task:0/device:GPU:0 with 15123 MB memory) -> physical GPU (device: 0, name: Tesla P100-PCIE-16GB, pci bus id: 0000:89:00.0, compute capability: 6.0)

conv2d_5 (Conv2D)               (None, 22, 14, 120)  97320       dropout_2[0][0]                  
__________________________________________________________________________________________________
batch_normalization_5 (BatchNor (None, 22, 14, 120)  480         conv2d_5[0][0]                   
__________________________________________________________________________________________________
activation_5 (Activation)       (None, 22, 14, 120)  0           batch_normalization_5[0][0]      
__________________________________________________________________________________________________
conv2d_6 (Conv2D)               (None, 22, 14, 120)  129720      activation_5[0][0]               
__________________________________________________________________________________________________
batch_normalization_6 (BatchNor (None, 22, 14, 120)  480         conv2d_6[0][0]                   
__________________________________________________________________________________________________
activation_6 (Activation)       (None, 22, 14, 120)  0           batch_normalization_6[0][0]      
__________________________________________________________________________________________________
concatenate_2 (Concatenate)     (None, 22, 14, 210)  0           dropout_2[0][0]                  
                                                                 activation_6[0][0]               
__________________________________________________________________________________________________
dropout_3 (Dropout)             (None, 22, 14, 210)  0           concatenate_2[0][0]              
__________________________________________________________________________________________________
conv2d_transpose_1 (Conv2DTrans (None, 44, 28, 60)   50460       dropout_3[0][0]                  
__________________________________________________________________________________________________
concatenate_3 (Concatenate)     (None, 44, 28, 150)  0           conv2d_transpose_1[0][0]         
                                                                 concatenate_1[0][0]              
__________________________________________________________________________________________________
conv2d_7 (Conv2D)               (None, 44, 28, 60)   81060       concatenate_3[0][0]              
__________________________________________________________________________________________________
batch_normalization_7 (BatchNor (None, 44, 28, 60)   240         conv2d_7[0][0]                   
__________________________________________________________________________________________________
activation_7 (Activation)       (None, 44, 28, 60)   0           batch_normalization_7[0][0]      
__________________________________________________________________________________________________
conv2d_8 (Conv2D)               (None, 44, 28, 60)   32460       activation_7[0][0]               
__________________________________________________________________________________________________
batch_normalization_8 (BatchNor (None, 44, 28, 60)   240         conv2d_8[0][0]                   
__________________________________________________________________________________________________
activation_8 (Activation)       (None, 44, 28, 60)   0           batch_normalization_8[0][0]      
__________________________________________________________________________________________________
concatenate_4 (Concatenate)     (None, 44, 28, 210)  0           concatenate_3[0][0]              
                                                                 activation_8[0][0]               
__________________________________________________________________________________________________
dropout_4 (Dropout)             (None, 44, 28, 210)  0           concatenate_4[0][0]              
__________________________________________________________________________________________________
conv2d_transpose_2 (Conv2DTrans (None, 88, 56, 30)   25230       dropout_4[0][0]                  
__________________________________________________________________________________________________
concatenate_5 (Concatenate)     (None, 88, 56, 60)   0           conv2d_transpose_2[0][0]         
                                                                 activation_2[0][0]               
__________________________________________________________________________________________________
conv2d_9 (Conv2D)               (None, 88, 56, 30)   16230       concatenate_5[0][0]              
__________________________________________________________________________________________________
batch_normalization_9 (BatchNor (None, 88, 56, 30)   120         conv2d_9[0][0]                   
__________________________________________________________________________________________________
activation_9 (Activation)       (None, 88, 56, 30)   0           batch_normalization_9[0][0]      
__________________________________________________________________________________________________
conv2d_10 (Conv2D)              (None, 88, 56, 30)   8130        activation_9[0][0]               
__________________________________________________________________________________________________
batch_normalization_10 (BatchNo (None, 88, 56, 30)   120         conv2d_10[0][0]                  
__________________________________________________________________________________________________
activation_10 (Activation)      (None, 88, 56, 30)   0           batch_normalization_10[0][0]     
__________________________________________________________________________________________________
concatenate_6 (Concatenate)     (None, 88, 56, 90)   0           concatenate_5[0][0]              
                                                                 activation_10[0][0]              
__________________________________________________________________________________________________
dropout_5 (Dropout)             (None, 88, 56, 90)   0           concatenate_6[0][0]              
__________________________________________________________________________________________________
conv2d_11 (Conv2D)              (None, 88, 56, 13)   1183        dropout_5[0][0]                  
==================================================================================================
Total params: 501,343
Trainable params: 500,143
Non-trainable params: 1,200
__________________________________________________________________________________________________
----- /array/ssd/msmajdi/experiments/keras/exp6/models/sE8_Cascade_FM30_Res_Unet2_NL3_LS_MyJoint_US1/MultiClass_24567891011121314/sd0/model_weights.h5
…
 Nucleus: [2, 4, 5, 6, 7, 8, 9, 10, 11, 12, 13, 14]  | GPU: 7  | SD 2  | Dropout 0.3  | LR 0.001  | NL 3  |  Cascade |  FM 40 |  Upsample 1
Experiment: exp6
SubExperiment: sE12_Cascade_FM40_Res_Unet2_NL3_LS_MyJoint_US1_Main_Init_3T_CV_a
---------------------------------------------------------------
__________________________________________________________________________________________________
Layer (type)                    Output Shape         Param #     Connected to                     
==================================================================================================
input_1 (InputLayer)            (None, 56, 88, 1)    0                                            
__________________________________________________________________________________________________
conv2d_1 (Conv2D)               (None, 56, 88, 40)   400         input_1[0][0]                    
__________________________________________________________________________________________________
batch_normalization_1 (BatchNor (None, 56, 88, 40)   160         conv2d_1[0][0]                   
__________________________________________________________________________________________________
activation_1 (Activation)       (None, 56, 88, 40)   0           batch_normalization_1[0][0]      
__________________________________________________________________________________________________
conv2d_2 (Conv2D)               (None, 56, 88, 40)   14440       activation_1[0][0]               
__________________________________________________________________________________________________
batch_normalization_2 (BatchNor (None, 56, 88, 40)   160         conv2d_2[0][0]                   
__________________________________________________________________________________________________
activation_2 (Activation)       (None, 56, 88, 40)   0           batch_normalization_2[0][0]      
__________________________________________________________________________________________________
max_pooling2d_1 (MaxPooling2D)  (None, 28, 44, 40)   0           activation_2[0][0]               
__________________________________________________________________________________________________
dropout_1 (Dropout)             (None, 28, 44, 40)   0           max_pooling2d_1[0][0]            
__________________________________________________________________________________________________
conv2d_3 (Conv2D)               (None, 28, 44, 80)   28880       dropout_1[0][0]                  
__________________________________________________________________________________________________
batch_normalization_3 (BatchNor (None, 28, 44, 80)   320         conv2d_3[0][0]                   
__________________________________________________________________________________________________
activation_3 (Activation)       (None, 28, 44, 80)   0           batch_normalization_3[0][0]      
__________________________________________________________________________________________________
conv2d_4 (Conv2D)               (None, 28, 44, 80)   57680       activation_3[0][0]               2019-07-08 08:56:11.098808: I tensorflow/core/common_runtime/gpu/gpu_device.cc:1471] Adding visible gpu devices: 0
2019-07-08 08:56:11.098919: I tensorflow/core/common_runtime/gpu/gpu_device.cc:952] Device interconnect StreamExecutor with strength 1 edge matrix:
2019-07-08 08:56:11.098937: I tensorflow/core/common_runtime/gpu/gpu_device.cc:958]      0 
2019-07-08 08:56:11.098947: I tensorflow/core/common_runtime/gpu/gpu_device.cc:971] 0:   N 
2019-07-08 08:56:11.099294: I tensorflow/core/common_runtime/gpu/gpu_device.cc:1084] Created TensorFlow device (/job:localhost/replica:0/task:0/device:GPU:0 with 15123 MB memory) -> physical GPU (device: 0, name: Tesla P100-PCIE-16GB, pci bus id: 0000:89:00.0, compute capability: 6.0)

__________________________________________________________________________________________________
batch_normalization_4 (BatchNor (None, 28, 44, 80)   320         conv2d_4[0][0]                   
__________________________________________________________________________________________________
activation_4 (Activation)       (None, 28, 44, 80)   0           batch_normalization_4[0][0]      
__________________________________________________________________________________________________
concatenate_1 (Concatenate)     (None, 28, 44, 120)  0           dropout_1[0][0]                  
                                                                 activation_4[0][0]               
__________________________________________________________________________________________________
max_pooling2d_2 (MaxPooling2D)  (None, 14, 22, 120)  0           concatenate_1[0][0]              
__________________________________________________________________________________________________
dropout_2 (Dropout)             (None, 14, 22, 120)  0           max_pooling2d_2[0][0]            
__________________________________________________________________________________________________
conv2d_5 (Conv2D)               (None, 14, 22, 160)  172960      dropout_2[0][0]                  
__________________________________________________________________________________________________
batch_normalization_5 (BatchNor (None, 14, 22, 160)  640         conv2d_5[0][0]                   
__________________________________________________________________________________________________
activation_5 (Activation)       (None, 14, 22, 160)  0           batch_normalization_5[0][0]      
__________________________________________________________________________________________________
conv2d_6 (Conv2D)               (None, 14, 22, 160)  230560      activation_5[0][0]               
__________________________________________________________________________________________________
batch_normalization_6 (BatchNor (None, 14, 22, 160)  640         conv2d_6[0][0]                   
__________________________________________________________________________________________________
activation_6 (Activation)       (None, 14, 22, 160)  0           batch_normalization_6[0][0]      
__________________________________________________________________________________________________
concatenate_2 (Concatenate)     (None, 14, 22, 280)  0           dropout_2[0][0]                  
                                                                 activation_6[0][0]               
__________________________________________________________________________________________________
dropout_3 (Dropout)             (None, 14, 22, 280)  0           concatenate_2[0][0]              
__________________________________________________________________________________________________
conv2d_transpose_1 (Conv2DTrans (None, 28, 44, 80)   89680       dropout_3[0][0]                  
__________________________________________________________________________________________________
concatenate_3 (Concatenate)     (None, 28, 44, 200)  0           conv2d_transpose_1[0][0]         
                                                                 concatenate_1[0][0]              
__________________________________________________________________________________________________
conv2d_7 (Conv2D)               (None, 28, 44, 80)   144080      concatenate_3[0][0]              
__________________________________________________________________________________________________
batch_normalization_7 (BatchNor (None, 28, 44, 80)   320         conv2d_7[0][0]                   
__________________________________________________________________________________________________
activation_7 (Activation)       (None, 28, 44, 80)   0           batch_normalization_7[0][0]      
__________________________________________________________________________________________________
conv2d_8 (Conv2D)               (None, 28, 44, 80)   57680       activation_7[0][0]               
__________________________________________________________________________________________________
batch_normalization_8 (BatchNor (None, 28, 44, 80)   320         conv2d_8[0][0]                   
__________________________________________________________________________________________________
activation_8 (Activation)       (None, 28, 44, 80)   0           batch_normalization_8[0][0]      
__________________________________________________________________________________________________
concatenate_4 (Concatenate)     (None, 28, 44, 280)  0           concatenate_3[0][0]              
                                                                 activation_8[0][0]               
__________________________________________________________________________________________________
dropout_4 (Dropout)             (None, 28, 44, 280)  0           concatenate_4[0][0]              
__________________________________________________________________________________________________
conv2d_transpose_2 (Conv2DTrans (None, 56, 88, 40)   44840       dropout_4[0][0]                  
__________________________________________________________________________________________________
concatenate_5 (Concatenate)     (None, 56, 88, 80)   0           conv2d_transpose_2[0][0]         
                                                                 activation_2[0][0]               
__________________________________________________________________________________________________
conv2d_9 (Conv2D)               (None, 56, 88, 40)   28840       concatenate_5[0][0]              
__________________________________________________________________________________________________
batch_normalization_9 (BatchNor (None, 56, 88, 40)   160         conv2d_9[0][0]                   
__________________________________________________________________________________________________
activation_9 (Activation)       (None, 56, 88, 40)   0           batch_normalization_9[0][0]      
__________________________________________________________________________________________________
conv2d_10 (Conv2D)              (None, 56, 88, 40)   14440       activation_9[0][0]               
__________________________________________________________________________________________________
batch_normalization_10 (BatchNo (None, 56, 88, 40)   160         conv2d_10[0][0]                  
__________________________________________________________________________________________________
activation_10 (Activation)      (None, 56, 88, 40)   0           batch_normalization_10[0][0]     
__________________________________________________________________________________________________
concatenate_6 (Concatenate)     (None, 56, 88, 120)  0           concatenate_5[0][0]              
                                                                 activation_10[0][0]              
__________________________________________________________________________________________________
dropout_5 (Dropout)             (None, 56, 88, 120)  0           concatenate_6[0][0]              
__________________________________________________________________________________________________
conv2d_11 (Conv2D)              (None, 56, 88, 13)   1573        dropout_5[0][0]                  
==================================================================================================
Total params: 889,253
Trainable params: 887,653
Non-trainable params: 1,600
__________________________________________________________________________________________________
----- /array/ssd/msmajdi/experiments/keras/exp6/models/sE8_Cascade_FM40_Res_Unet2_NL3_LS_MyJoint_US1/MultiClass_24567891011121314/sd2/model_weights.h5
…
 Nucleus: [2, 4, 5, 6, 7, 8, 9, 10, 11, 12, 13, 14]  | GPU: 7  | SD 1  | Dropout 0.3  | LR 0.001  | NL 3  |  Cascade |  FM 40 |  Upsample 1
Experiment: exp6
SubExperiment: sE12_Cascade_FM40_Res_Unet2_NL3_LS_MyJoint_US1_Main_Init_3T_CV_a
---------------------------------------------------------------
__________________________________________________________________________________________________
Layer (type)                    Output Shape         Param #     Connected to                     
==================================================================================================
input_1 (InputLayer)            (None, 56, 56, 1)    0                                            
__________________________________________________________________________________________________
conv2d_1 (Conv2D)               (None, 56, 56, 40)   400         input_1[0][0]                    
__________________________________________________________________________________________________
batch_normalization_1 (BatchNor (None, 56, 56, 40)   160         conv2d_1[0][0]                   
__________________________________________________________________________________________________
activation_1 (Activation)       (None, 56, 56, 40)   0           batch_normalization_1[0][0]      
__________________________________________________________________________________________________
conv2d_2 (Conv2D)               (None, 56, 56, 40)   14440       activation_1[0][0]               
__________________________________________________________________________________________________
batch_normalization_2 (BatchNor (None, 56, 56, 40)   160         conv2d_2[0][0]                   
__________________________________________________________________________________________________
activation_2 (Activation)       (None, 56, 56, 40)   0           batch_normalization_2[0][0]      
__________________________________________________________________________________________________
max_pooling2d_1 (MaxPooling2D)  (None, 28, 28, 40)   0           activation_2[0][0]               
__________________________________________________________________________________________________
dropout_1 (Dropout)             (None, 28, 28, 40)   0           max_pooling2d_1[0][0]            
__________________________________________________________________________________________________
conv2d_3 (Conv2D)               (None, 28, 28, 80)   28880       dropout_1[0][0]                  
__________________________________________________________________________________________________
batch_normalization_3 (BatchNor (None, 28, 28, 80)   320         conv2d_3[0][0]                   
__________________________________________________________________________________________________
activation_3 (Activation)       (None, 28, 28, 80)   0           batch_normalization_3[0][0]      
__________________________________________________________________________________________________
conv2d_4 (Conv2D)               (None, 28, 28, 80)   57680       activation_3[0][0]               
__________________________________________________________________________________________________
batch_normalization_4 (BatchNor (None, 28, 28, 80)   320         conv2d_4[0][0]                   
__________________________________________________________________________________________________
activation_4 (Activation)       (None, 28, 28, 80)   0           batch_normalization_4[0][0]      
__________________________________________________________________________________________________
concatenate_1 (Concatenate)     (None, 28, 28, 120)  0           dropout_1[0][0]                  
                                                                 activation_4[0][0]               
__________________________________________________________________________________________________
max_pooling2d_2 (MaxPooling2D)  (None, 14, 14, 120)  0           concatenate_1[0][0]              
__________________________________________________________________________________________________
dropout_2 (Dropout)             (None, 14, 14, 120)  0           max_pooling2d_2[0][0]            
__________________________________________________________________________________________________2019-07-08 09:33:06.465039: I tensorflow/core/common_runtime/gpu/gpu_device.cc:1471] Adding visible gpu devices: 0
2019-07-08 09:33:06.465140: I tensorflow/core/common_runtime/gpu/gpu_device.cc:952] Device interconnect StreamExecutor with strength 1 edge matrix:
2019-07-08 09:33:06.465156: I tensorflow/core/common_runtime/gpu/gpu_device.cc:958]      0 
2019-07-08 09:33:06.465165: I tensorflow/core/common_runtime/gpu/gpu_device.cc:971] 0:   N 
2019-07-08 09:33:06.465512: I tensorflow/core/common_runtime/gpu/gpu_device.cc:1084] Created TensorFlow device (/job:localhost/replica:0/task:0/device:GPU:0 with 15123 MB memory) -> physical GPU (device: 0, name: Tesla P100-PCIE-16GB, pci bus id: 0000:89:00.0, compute capability: 6.0)

conv2d_5 (Conv2D)               (None, 14, 14, 160)  172960      dropout_2[0][0]                  
__________________________________________________________________________________________________
batch_normalization_5 (BatchNor (None, 14, 14, 160)  640         conv2d_5[0][0]                   
__________________________________________________________________________________________________
activation_5 (Activation)       (None, 14, 14, 160)  0           batch_normalization_5[0][0]      
__________________________________________________________________________________________________
conv2d_6 (Conv2D)               (None, 14, 14, 160)  230560      activation_5[0][0]               
__________________________________________________________________________________________________
batch_normalization_6 (BatchNor (None, 14, 14, 160)  640         conv2d_6[0][0]                   
__________________________________________________________________________________________________
activation_6 (Activation)       (None, 14, 14, 160)  0           batch_normalization_6[0][0]      
__________________________________________________________________________________________________
concatenate_2 (Concatenate)     (None, 14, 14, 280)  0           dropout_2[0][0]                  
                                                                 activation_6[0][0]               
__________________________________________________________________________________________________
dropout_3 (Dropout)             (None, 14, 14, 280)  0           concatenate_2[0][0]              
__________________________________________________________________________________________________
conv2d_transpose_1 (Conv2DTrans (None, 28, 28, 80)   89680       dropout_3[0][0]                  
__________________________________________________________________________________________________
concatenate_3 (Concatenate)     (None, 28, 28, 200)  0           conv2d_transpose_1[0][0]         
                                                                 concatenate_1[0][0]              
__________________________________________________________________________________________________
conv2d_7 (Conv2D)               (None, 28, 28, 80)   144080      concatenate_3[0][0]              
__________________________________________________________________________________________________
batch_normalization_7 (BatchNor (None, 28, 28, 80)   320         conv2d_7[0][0]                   
__________________________________________________________________________________________________
activation_7 (Activation)       (None, 28, 28, 80)   0           batch_normalization_7[0][0]      
__________________________________________________________________________________________________
conv2d_8 (Conv2D)               (None, 28, 28, 80)   57680       activation_7[0][0]               
__________________________________________________________________________________________________
batch_normalization_8 (BatchNor (None, 28, 28, 80)   320         conv2d_8[0][0]                   
__________________________________________________________________________________________________
activation_8 (Activation)       (None, 28, 28, 80)   0           batch_normalization_8[0][0]      
__________________________________________________________________________________________________
concatenate_4 (Concatenate)     (None, 28, 28, 280)  0           concatenate_3[0][0]              
                                                                 activation_8[0][0]               
__________________________________________________________________________________________________
dropout_4 (Dropout)             (None, 28, 28, 280)  0           concatenate_4[0][0]              
__________________________________________________________________________________________________
conv2d_transpose_2 (Conv2DTrans (None, 56, 56, 40)   44840       dropout_4[0][0]                  
__________________________________________________________________________________________________
concatenate_5 (Concatenate)     (None, 56, 56, 80)   0           conv2d_transpose_2[0][0]         
                                                                 activation_2[0][0]               
__________________________________________________________________________________________________
conv2d_9 (Conv2D)               (None, 56, 56, 40)   28840       concatenate_5[0][0]              
__________________________________________________________________________________________________
batch_normalization_9 (BatchNor (None, 56, 56, 40)   160         conv2d_9[0][0]                   
__________________________________________________________________________________________________
activation_9 (Activation)       (None, 56, 56, 40)   0           batch_normalization_9[0][0]      
__________________________________________________________________________________________________
conv2d_10 (Conv2D)              (None, 56, 56, 40)   14440       activation_9[0][0]               
__________________________________________________________________________________________________
batch_normalization_10 (BatchNo (None, 56, 56, 40)   160         conv2d_10[0][0]                  
__________________________________________________________________________________________________
activation_10 (Activation)      (None, 56, 56, 40)   0           batch_normalization_10[0][0]     
__________________________________________________________________________________________________
concatenate_6 (Concatenate)     (None, 56, 56, 120)  0           concatenate_5[0][0]              
                                                                 activation_10[0][0]              
__________________________________________________________________________________________________
dropout_5 (Dropout)             (None, 56, 56, 120)  0           concatenate_6[0][0]              
__________________________________________________________________________________________________
conv2d_11 (Conv2D)              (None, 56, 56, 13)   1573        dropout_5[0][0]                  
==================================================================================================
Total params: 889,253
Trainable params: 887,653
Non-trainable params: 1,600
__________________________________________________________________________________________________
----- /array/ssd/msmajdi/experiments/keras/exp6/models/sE8_Cascade_FM40_Res_Unet2_NL3_LS_MyJoint_US1/MultiClass_24567891011121314/sd1/model_weights.h5
…
 Nucleus: [2, 4, 5, 6, 7, 8, 9, 10, 11, 12, 13, 14]  | GPU: 7  | SD 0  | Dropout 0.3  | LR 0.001  | NL 3  |  Cascade |  FM 40 |  Upsample 1
Experiment: exp6
SubExperiment: sE12_Cascade_FM40_Res_Unet2_NL3_LS_MyJoint_US1_Main_Init_3T_CV_a
---------------------------------------------------------------
__________________________________________________________________________________________________
Layer (type)                    Output Shape         Param #     Connected to                     
==================================================================================================
input_1 (InputLayer)            (None, 88, 56, 1)    0                                            
__________________________________________________________________________________________________
conv2d_1 (Conv2D)               (None, 88, 56, 40)   400         input_1[0][0]                    
__________________________________________________________________________________________________
batch_normalization_1 (BatchNor (None, 88, 56, 40)   160         conv2d_1[0][0]                   
__________________________________________________________________________________________________
activation_1 (Activation)       (None, 88, 56, 40)   0           batch_normalization_1[0][0]      
__________________________________________________________________________________________________
conv2d_2 (Conv2D)               (None, 88, 56, 40)   14440       activation_1[0][0]               
__________________________________________________________________________________________________
batch_normalization_2 (BatchNor (None, 88, 56, 40)   160         conv2d_2[0][0]                   
__________________________________________________________________________________________________
activation_2 (Activation)       (None, 88, 56, 40)   0           batch_normalization_2[0][0]      
__________________________________________________________________________________________________
max_pooling2d_1 (MaxPooling2D)  (None, 44, 28, 40)   0           activation_2[0][0]               
__________________________________________________________________________________________________
dropout_1 (Dropout)             (None, 44, 28, 40)   0           max_pooling2d_1[0][0]            
__________________________________________________________________________________________________
conv2d_3 (Conv2D)               (None, 44, 28, 80)   28880       dropout_1[0][0]                  
__________________________________________________________________________________________________
batch_normalization_3 (BatchNor (None, 44, 28, 80)   320         conv2d_3[0][0]                   
__________________________________________________________________________________________________
activation_3 (Activation)       (None, 44, 28, 80)   0           batch_normalization_3[0][0]      
__________________________________________________________________________________________________
conv2d_4 (Conv2D)               (None, 44, 28, 80)   57680       activation_3[0][0]               
__________________________________________________________________________________________________
batch_normalization_4 (BatchNor (None, 44, 28, 80)   320         conv2d_4[0][0]                   
__________________________________________________________________________________________________
activation_4 (Activation)       (None, 44, 28, 80)   0           batch_normalization_4[0][0]      
__________________________________________________________________________________________________
concatenate_1 (Concatenate)     (None, 44, 28, 120)  0           dropout_1[0][0]                  
                                                                 activation_4[0][0]               
__________________________________________________________________________________________________
max_pooling2d_2 (MaxPooling2D)  (None, 22, 14, 120)  0           concatenate_1[0][0]              
__________________________________________________________________________________________________
dropout_2 (Dropout)             (None, 22, 14, 120)  0           max_pooling2d_2[0][0]            2019-07-08 10:15:27.476943: I tensorflow/core/common_runtime/gpu/gpu_device.cc:1471] Adding visible gpu devices: 0
2019-07-08 10:15:27.477056: I tensorflow/core/common_runtime/gpu/gpu_device.cc:952] Device interconnect StreamExecutor with strength 1 edge matrix:
2019-07-08 10:15:27.477071: I tensorflow/core/common_runtime/gpu/gpu_device.cc:958]      0 
2019-07-08 10:15:27.477081: I tensorflow/core/common_runtime/gpu/gpu_device.cc:971] 0:   N 
2019-07-08 10:15:27.477436: I tensorflow/core/common_runtime/gpu/gpu_device.cc:1084] Created TensorFlow device (/job:localhost/replica:0/task:0/device:GPU:0 with 15123 MB memory) -> physical GPU (device: 0, name: Tesla P100-PCIE-16GB, pci bus id: 0000:89:00.0, compute capability: 6.0)

__________________________________________________________________________________________________
conv2d_5 (Conv2D)               (None, 22, 14, 160)  172960      dropout_2[0][0]                  
__________________________________________________________________________________________________
batch_normalization_5 (BatchNor (None, 22, 14, 160)  640         conv2d_5[0][0]                   
__________________________________________________________________________________________________
activation_5 (Activation)       (None, 22, 14, 160)  0           batch_normalization_5[0][0]      
__________________________________________________________________________________________________
conv2d_6 (Conv2D)               (None, 22, 14, 160)  230560      activation_5[0][0]               
__________________________________________________________________________________________________
batch_normalization_6 (BatchNor (None, 22, 14, 160)  640         conv2d_6[0][0]                   
__________________________________________________________________________________________________
activation_6 (Activation)       (None, 22, 14, 160)  0           batch_normalization_6[0][0]      
__________________________________________________________________________________________________
concatenate_2 (Concatenate)     (None, 22, 14, 280)  0           dropout_2[0][0]                  
                                                                 activation_6[0][0]               
__________________________________________________________________________________________________
dropout_3 (Dropout)             (None, 22, 14, 280)  0           concatenate_2[0][0]              
__________________________________________________________________________________________________
conv2d_transpose_1 (Conv2DTrans (None, 44, 28, 80)   89680       dropout_3[0][0]                  
__________________________________________________________________________________________________
concatenate_3 (Concatenate)     (None, 44, 28, 200)  0           conv2d_transpose_1[0][0]         
                                                                 concatenate_1[0][0]              
__________________________________________________________________________________________________
conv2d_7 (Conv2D)               (None, 44, 28, 80)   144080      concatenate_3[0][0]              
__________________________________________________________________________________________________
batch_normalization_7 (BatchNor (None, 44, 28, 80)   320         conv2d_7[0][0]                   
__________________________________________________________________________________________________
activation_7 (Activation)       (None, 44, 28, 80)   0           batch_normalization_7[0][0]      
__________________________________________________________________________________________________
conv2d_8 (Conv2D)               (None, 44, 28, 80)   57680       activation_7[0][0]               
__________________________________________________________________________________________________
batch_normalization_8 (BatchNor (None, 44, 28, 80)   320         conv2d_8[0][0]                   
__________________________________________________________________________________________________
activation_8 (Activation)       (None, 44, 28, 80)   0           batch_normalization_8[0][0]      
__________________________________________________________________________________________________
concatenate_4 (Concatenate)     (None, 44, 28, 280)  0           concatenate_3[0][0]              
                                                                 activation_8[0][0]               
__________________________________________________________________________________________________
dropout_4 (Dropout)             (None, 44, 28, 280)  0           concatenate_4[0][0]              
__________________________________________________________________________________________________
conv2d_transpose_2 (Conv2DTrans (None, 88, 56, 40)   44840       dropout_4[0][0]                  
__________________________________________________________________________________________________
concatenate_5 (Concatenate)     (None, 88, 56, 80)   0           conv2d_transpose_2[0][0]         
                                                                 activation_2[0][0]               
__________________________________________________________________________________________________
conv2d_9 (Conv2D)               (None, 88, 56, 40)   28840       concatenate_5[0][0]              
__________________________________________________________________________________________________
batch_normalization_9 (BatchNor (None, 88, 56, 40)   160         conv2d_9[0][0]                   
__________________________________________________________________________________________________
activation_9 (Activation)       (None, 88, 56, 40)   0           batch_normalization_9[0][0]      
__________________________________________________________________________________________________
conv2d_10 (Conv2D)              (None, 88, 56, 40)   14440       activation_9[0][0]               
__________________________________________________________________________________________________
batch_normalization_10 (BatchNo (None, 88, 56, 40)   160         conv2d_10[0][0]                  
__________________________________________________________________________________________________
activation_10 (Activation)      (None, 88, 56, 40)   0           batch_normalization_10[0][0]     
__________________________________________________________________________________________________
concatenate_6 (Concatenate)     (None, 88, 56, 120)  0           concatenate_5[0][0]              
                                                                 activation_10[0][0]              
__________________________________________________________________________________________________
dropout_5 (Dropout)             (None, 88, 56, 120)  0           concatenate_6[0][0]              
__________________________________________________________________________________________________
conv2d_11 (Conv2D)              (None, 88, 56, 13)   1573        dropout_5[0][0]                  
==================================================================================================
Total params: 889,253
Trainable params: 887,653
Non-trainable params: 1,600
__________________________________________________________________________________________________
----- /array/ssd/msmajdi/experiments/keras/exp6/models/sE8_Cascade_FM40_Res_Unet2_NL3_LS_MyJoint_US1/MultiClass_24567891011121314/sd0/model_weights.h5
…
 Nucleus: [2, 4, 5, 6, 7, 8, 9, 10, 11, 12, 13, 14]  | GPU: 7  | SD 2  | Dropout 0.3  | LR 0.001  | NL 3  |  Cascade |  FM 30 |  Upsample 1
Experiment: exp6
SubExperiment: sE12_Cascade_FM30_Res_Unet2_NL3_LS_MyJoint_US1_ET_Init_Main_CV_a
---------------------------------------------------------------
__________________________________________________________________________________________________
Layer (type)                    Output Shape         Param #     Connected to                     
==================================================================================================
input_1 (InputLayer)            (None, 52, 80, 1)    0                                            
__________________________________________________________________________________________________
conv2d_1 (Conv2D)               (None, 52, 80, 30)   300         input_1[0][0]                    
__________________________________________________________________________________________________
batch_normalization_1 (BatchNor (None, 52, 80, 30)   120         conv2d_1[0][0]                   
__________________________________________________________________________________________________
activation_1 (Activation)       (None, 52, 80, 30)   0           batch_normalization_1[0][0]      
__________________________________________________________________________________________________
conv2d_2 (Conv2D)               (None, 52, 80, 30)   8130        activation_1[0][0]               
__________________________________________________________________________________________________
batch_normalization_2 (BatchNor (None, 52, 80, 30)   120         conv2d_2[0][0]                   
__________________________________________________________________________________________________
activation_2 (Activation)       (None, 52, 80, 30)   0           batch_normalization_2[0][0]      
__________________________________________________________________________________________________
max_pooling2d_1 (MaxPooling2D)  (None, 26, 40, 30)   0           activation_2[0][0]               
__________________________________________________________________________________________________
dropout_1 (Dropout)             (None, 26, 40, 30)   0           max_pooling2d_1[0][0]            
__________________________________________________________________________________________________
conv2d_3 (Conv2D)               (None, 26, 40, 60)   16260       dropout_1[0][0]                  
__________________________________________________________________________________________________
batch_normalization_3 (BatchNor (None, 26, 40, 60)   240         conv2d_3[0][0]                   
__________________________________________________________________________________________________
activation_3 (Activation)       (None, 26, 40, 60)   0           batch_normalization_3[0][0]      
__________________________________________________________________________________________________
conv2d_4 (Conv2D)               (None, 26, 40, 60)   32460       activation_3[0][0]               
__________________________________________________________________________________________________2019-07-08 10:50:53.619276: I tensorflow/core/common_runtime/gpu/gpu_device.cc:1471] Adding visible gpu devices: 0
2019-07-08 10:50:53.619398: I tensorflow/core/common_runtime/gpu/gpu_device.cc:952] Device interconnect StreamExecutor with strength 1 edge matrix:
2019-07-08 10:50:53.619417: I tensorflow/core/common_runtime/gpu/gpu_device.cc:958]      0 
2019-07-08 10:50:53.619430: I tensorflow/core/common_runtime/gpu/gpu_device.cc:971] 0:   N 
2019-07-08 10:50:53.619885: I tensorflow/core/common_runtime/gpu/gpu_device.cc:1084] Created TensorFlow device (/job:localhost/replica:0/task:0/device:GPU:0 with 15123 MB memory) -> physical GPU (device: 0, name: Tesla P100-PCIE-16GB, pci bus id: 0000:89:00.0, compute capability: 6.0)

batch_normalization_4 (BatchNor (None, 26, 40, 60)   240         conv2d_4[0][0]                   
__________________________________________________________________________________________________
activation_4 (Activation)       (None, 26, 40, 60)   0           batch_normalization_4[0][0]      
__________________________________________________________________________________________________
concatenate_1 (Concatenate)     (None, 26, 40, 90)   0           dropout_1[0][0]                  
                                                                 activation_4[0][0]               
__________________________________________________________________________________________________
max_pooling2d_2 (MaxPooling2D)  (None, 13, 20, 90)   0           concatenate_1[0][0]              
__________________________________________________________________________________________________
dropout_2 (Dropout)             (None, 13, 20, 90)   0           max_pooling2d_2[0][0]            
__________________________________________________________________________________________________
conv2d_5 (Conv2D)               (None, 13, 20, 120)  97320       dropout_2[0][0]                  
__________________________________________________________________________________________________
batch_normalization_5 (BatchNor (None, 13, 20, 120)  480         conv2d_5[0][0]                   
__________________________________________________________________________________________________
activation_5 (Activation)       (None, 13, 20, 120)  0           batch_normalization_5[0][0]      
__________________________________________________________________________________________________
conv2d_6 (Conv2D)               (None, 13, 20, 120)  129720      activation_5[0][0]               
__________________________________________________________________________________________________
batch_normalization_6 (BatchNor (None, 13, 20, 120)  480         conv2d_6[0][0]                   
__________________________________________________________________________________________________
activation_6 (Activation)       (None, 13, 20, 120)  0           batch_normalization_6[0][0]      
__________________________________________________________________________________________________
concatenate_2 (Concatenate)     (None, 13, 20, 210)  0           dropout_2[0][0]                  
                                                                 activation_6[0][0]               
__________________________________________________________________________________________________
dropout_3 (Dropout)             (None, 13, 20, 210)  0           concatenate_2[0][0]              
__________________________________________________________________________________________________
conv2d_transpose_1 (Conv2DTrans (None, 26, 40, 60)   50460       dropout_3[0][0]                  
__________________________________________________________________________________________________
concatenate_3 (Concatenate)     (None, 26, 40, 150)  0           conv2d_transpose_1[0][0]         
                                                                 concatenate_1[0][0]              
__________________________________________________________________________________________________
conv2d_7 (Conv2D)               (None, 26, 40, 60)   81060       concatenate_3[0][0]              
__________________________________________________________________________________________________
batch_normalization_7 (BatchNor (None, 26, 40, 60)   240         conv2d_7[0][0]                   
__________________________________________________________________________________________________
activation_7 (Activation)       (None, 26, 40, 60)   0           batch_normalization_7[0][0]      
__________________________________________________________________________________________________
conv2d_8 (Conv2D)               (None, 26, 40, 60)   32460       activation_7[0][0]               
__________________________________________________________________________________________________
batch_normalization_8 (BatchNor (None, 26, 40, 60)   240         conv2d_8[0][0]                   
__________________________________________________________________________________________________
activation_8 (Activation)       (None, 26, 40, 60)   0           batch_normalization_8[0][0]      
__________________________________________________________________________________________________
concatenate_4 (Concatenate)     (None, 26, 40, 210)  0           concatenate_3[0][0]              
                                                                 activation_8[0][0]               
__________________________________________________________________________________________________
dropout_4 (Dropout)             (None, 26, 40, 210)  0           concatenate_4[0][0]              
__________________________________________________________________________________________________
conv2d_transpose_2 (Conv2DTrans (None, 52, 80, 30)   25230       dropout_4[0][0]                  
__________________________________________________________________________________________________
concatenate_5 (Concatenate)     (None, 52, 80, 60)   0           conv2d_transpose_2[0][0]         
                                                                 activation_2[0][0]               
__________________________________________________________________________________________________
conv2d_9 (Conv2D)               (None, 52, 80, 30)   16230       concatenate_5[0][0]              
__________________________________________________________________________________________________
batch_normalization_9 (BatchNor (None, 52, 80, 30)   120         conv2d_9[0][0]                   
__________________________________________________________________________________________________
activation_9 (Activation)       (None, 52, 80, 30)   0           batch_normalization_9[0][0]      
__________________________________________________________________________________________________
conv2d_10 (Conv2D)              (None, 52, 80, 30)   8130        activation_9[0][0]               
__________________________________________________________________________________________________
batch_normalization_10 (BatchNo (None, 52, 80, 30)   120         conv2d_10[0][0]                  
__________________________________________________________________________________________________
activation_10 (Activation)      (None, 52, 80, 30)   0           batch_normalization_10[0][0]     
__________________________________________________________________________________________________
concatenate_6 (Concatenate)     (None, 52, 80, 90)   0           concatenate_5[0][0]              
                                                                 activation_10[0][0]              
__________________________________________________________________________________________________
dropout_5 (Dropout)             (None, 52, 80, 90)   0           concatenate_6[0][0]              
__________________________________________________________________________________________________
conv2d_11 (Conv2D)              (None, 52, 80, 13)   1183        dropout_5[0][0]                  
==================================================================================================
Total params: 501,343
Trainable params: 500,143
Non-trainable params: 1,200
__________________________________________________________________________________________________
 --- initialized from Model_7T /array/ssd/msmajdi/experiments/keras/exp6/models/sE12_Cascade_FM30_Res_Unet2_NL3_LS_MyJoint_US1_Main_Init_3T_CV_a/MultiClass_24567891011121314/sd2
…
 Nucleus: [2, 4, 5, 6, 7, 8, 9, 10, 11, 12, 13, 14]  | GPU: 7  | SD 1  | Dropout 0.3  | LR 0.001  | NL 3  |  Cascade |  FM 30 |  Upsample 1
Experiment: exp6
SubExperiment: sE12_Cascade_FM30_Res_Unet2_NL3_LS_MyJoint_US1_ET_Init_Main_CV_a
---------------------------------------------------------------
__________________________________________________________________________________________________
Layer (type)                    Output Shape         Param #     Connected to                     
==================================================================================================
input_1 (InputLayer)            (None, 52, 52, 1)    0                                            
__________________________________________________________________________________________________
conv2d_1 (Conv2D)               (None, 52, 52, 30)   300         input_1[0][0]                    
__________________________________________________________________________________________________
batch_normalization_1 (BatchNor (None, 52, 52, 30)   120         conv2d_1[0][0]                   
__________________________________________________________________________________________________
activation_1 (Activation)       (None, 52, 52, 30)   0           batch_normalization_1[0][0]      
__________________________________________________________________________________________________
conv2d_2 (Conv2D)               (None, 52, 52, 30)   8130        activation_1[0][0]               
__________________________________________________________________________________________________
batch_normalization_2 (BatchNor (None, 52, 52, 30)   120         conv2d_2[0][0]                   
__________________________________________________________________________________________________
activation_2 (Activation)       (None, 52, 52, 30)   0           batch_normalization_2[0][0]      
__________________________________________________________________________________________________
max_pooling2d_1 (MaxPooling2D)  (None, 26, 26, 30)   0           activation_2[0][0]               
__________________________________________________________________________________________________
dropout_1 (Dropout)             (None, 26, 26, 30)   0           max_pooling2d_1[0][0]            
__________________________________________________________________________________________________
conv2d_3 (Conv2D)               (None, 26, 26, 60)   16260       dropout_1[0][0]                  
__________________________________________________________________________________________________
batch_normalization_3 (BatchNor (None, 26, 26, 60)   240         conv2d_3[0][0]                   
__________________________________________________________________________________________________
activation_3 (Activation)       (None, 26, 26, 60)   0           batch_normalization_3[0][0]      
__________________________________________________________________________________________________
conv2d_4 (Conv2D)               (None, 26, 26, 60)   32460       activation_3[0][0]               
__________________________________________________________________________________________________
batch_normalization_4 (BatchNor (None, 26, 26, 60)   240         conv2d_4[0][0]                   
__________________________________________________________________________________________________
activation_4 (Activation)       (None, 26, 26, 60)   0           batch_normalization_4[0][0]      
__________________________________________________________________________________________________
concatenate_1 (Concatenate)     (None, 26, 26, 90)   0           dropout_1[0][0]                  
                                                                 activation_4[0][0]               
__________________________________________________________________________________________________
…
__________________________________________________________________________________________________
batch_normalization_8 (BatchNor (None, 26, 26, 60)   240         conv2d_8[0][0]                   
__________________________________________________________________________________________________
activation_8 (Activation)       (None, 26, 26, 60)   0           batch_normalization_8[0][0]      
__________________________________________________________________________________________________
concatenate_4 (Concatenate)     (None, 26, 26, 210)  0           concatenate_3[0][0]              
                                                                 activation_8[0][0]               
__________________________________________________________________________________________________
dropout_4 (Dropout)             (None, 26, 26, 210)  0           concatenate_4[0][0]              
__________________________________________________________________________________________________
conv2d_transpose_2 (Conv2DTrans (None, 52, 52, 30)   25230       dropout_4[0][0]                  
__________________________________________________________________________________________________
concatenate_5 (Concatenate)     (None, 52, 52, 60)   0           conv2d_transpose_2[0][0]         
                                                                 activation_2[0][0]               
__________________________________________________________________________________________________
conv2d_9 (Conv2D)               (None, 52, 52, 30)   16230       concatenate_5[0][0]              
__________________________________________________________________________________________________
batch_normalization_9 (BatchNor (None, 52, 52, 30)   120         conv2d_9[0][0]                   
__________________________________________________________________________________________________
activation_9 (Activation)       (None, 52, 52, 30)   0           batch_normalization_9[0][0]      
__________________________________________________________________________________________________
conv2d_10 (Conv2D)              (None, 52, 52, 30)   8130        activation_9[0][0]               
__________________________________________________________________________________________________
batch_normalization_10 (BatchNo (None, 52, 52, 30)   120         conv2d_10[0][0]                  
__________________________________________________________________________________________________
activation_10 (Activation)      (None, 52, 52, 30)   0           batch_normalization_10[0][0]     
__________________________________________________________________________________________________
concatenate_6 (Concatenate)     (None, 52, 52, 90)   0           concatenate_5[0][0]              
                                                                 activation_10[0][0]              
__________________________________________________________________________________________________
dropout_5 (Dropout)             (None, 52, 52, 90)   0           concatenate_6[0][0]              
__________________________________________________________________________________________________
conv2d_11 (Conv2D)              (None, 52, 52, 13)   1183        dropout_5[0][0]                  
==================================================================================================
Total params: 501,343
Trainable params: 500,143
Non-trainable params: 1,200
__________________________________________________________________________________________________
 --- initialized from Model_7T /array/ssd/msmajdi/experiments/keras/exp6/models/sE12_Cascade_FM30_Res_Unet2_NL3_LS_MyJoint_US1_Main_Init_3T_CV_a/MultiClass_24567891011121314/sd1
…
 Nucleus: [2, 4, 5, 6, 7, 8, 9, 10, 11, 12, 13, 14]  | GPU: 7  | SD 0  | Dropout 0.3  | LR 0.001  | NL 3  |  Cascade |  FM 30 |  Upsample 1
Experiment: exp6
SubExperiment: sE12_Cascade_FM30_Res_Unet2_NL3_LS_MyJoint_US1_ET_Init_Main_CV_a
---------------------------------------------------------------
__________________________________________________________________________________________________
Layer (type)                    Output Shape         Param #     Connected to                     
==================================================================================================
input_1 (InputLayer)            (None, 80, 52, 1)    0                                            
__________________________________________________________________________________________________
conv2d_1 (Conv2D)               (None, 80, 52, 30)   300         input_1[0][0]                    
__________________________________________________________________________________________________
batch_normalization_1 (BatchNor (None, 80, 52, 30)   120         conv2d_1[0][0]                   
__________________________________________________________________________________________________
activation_1 (Activation)       (None, 80, 52, 30)   0           batch_normalization_1[0][0]      
__________________________________________________________________________________________________
conv2d_2 (Conv2D)               (None, 80, 52, 30)   8130        activation_1[0][0]               
__________________________________________________________________________________________________
batch_normalization_2 (BatchNor (None, 80, 52, 30)   120         conv2d_2[0][0]                   
__________________________________________________________________________________________________
activation_2 (Activation)       (None, 80, 52, 30)   0           batch_normalization_2[0][0]      
__________________________________________________________________________________________________
max_pooling2d_1 (MaxPooling2D)  (None, 40, 26, 30)   0           activation_2[0][0]               
__________________________________________________________________________________________________
dropout_1 (Dropout)             (None, 40, 26, 30)   0           max_pooling2d_1[0][0]            
__________________________________________________________________________________________________
conv2d_3 (Conv2D)               (None, 40, 26, 60)   16260       dropout_1[0][0]                  
__________________________________________________________________________________________________
batch_normalization_3 (BatchNor (None, 40, 26, 60)   240         conv2d_3[0][0]                   
__________________________________________________________________________________________________
activation_3 (Activation)       (None, 40, 26, 60)   0           batch_normalization_3[0][0]      
__________________________________________________________________________________________________
conv2d_4 (Conv2D)               (None, 40, 26, 60)   32460       activation_3[0][0]               
__________________________________________________________________________________________________
batch_normalization_4 (BatchNor (None, 40, 26, 60)   240         conv2d_4[0][0]                   
__________________________________________________________________________________________________
activation_4 (Activation)       (None, 40, 26, 60)   0           batch_normalization_4[0][0]      
__________________________________________________________________________________________________
concatenate_1 (Concatenate)     (None, 40, 26, 90)   0           dropout_1[0][0]                  
                                                                 activation_4[0][0]               
__________________________________________________________________________________________________
max_pooling2d_2 (MaxPooling2D)  (None, 20, 13, 90)   0           concatenate_1[0][0]              
__________________________________________________________________________________________________
dropout_2 (Dropout)             (None, 20, 13, 90)   0           max_pooling2d_2[0][0]            2019-07-08 11:48:35.655564: I tensorflow/core/common_runtime/gpu/gpu_device.cc:1471] Adding visible gpu devices: 0
2019-07-08 11:48:35.655678: I tensorflow/core/common_runtime/gpu/gpu_device.cc:952] Device interconnect StreamExecutor with strength 1 edge matrix:
2019-07-08 11:48:35.655694: I tensorflow/core/common_runtime/gpu/gpu_device.cc:958]      0 
2019-07-08 11:48:35.655704: I tensorflow/core/common_runtime/gpu/gpu_device.cc:971] 0:   N 
2019-07-08 11:48:35.656060: I tensorflow/core/common_runtime/gpu/gpu_device.cc:1084] Created TensorFlow device (/job:localhost/replica:0/task:0/device:GPU:0 with 15123 MB memory) -> physical GPU (device: 0, name: Tesla P100-PCIE-16GB, pci bus id: 0000:89:00.0, compute capability: 6.0)

__________________________________________________________________________________________________
conv2d_5 (Conv2D)               (None, 20, 13, 120)  97320       dropout_2[0][0]                  
__________________________________________________________________________________________________
batch_normalization_5 (BatchNor (None, 20, 13, 120)  480         conv2d_5[0][0]                   
__________________________________________________________________________________________________
activation_5 (Activation)       (None, 20, 13, 120)  0           batch_normalization_5[0][0]      
__________________________________________________________________________________________________
conv2d_6 (Conv2D)               (None, 20, 13, 120)  129720      activation_5[0][0]               
__________________________________________________________________________________________________
batch_normalization_6 (BatchNor (None, 20, 13, 120)  480         conv2d_6[0][0]                   
__________________________________________________________________________________________________
activation_6 (Activation)       (None, 20, 13, 120)  0           batch_normalization_6[0][0]      
__________________________________________________________________________________________________
concatenate_2 (Concatenate)     (None, 20, 13, 210)  0           dropout_2[0][0]                  
                                                                 activation_6[0][0]               
__________________________________________________________________________________________________
dropout_3 (Dropout)             (None, 20, 13, 210)  0           concatenate_2[0][0]              
__________________________________________________________________________________________________
conv2d_transpose_1 (Conv2DTrans (None, 40, 26, 60)   50460       dropout_3[0][0]                  
__________________________________________________________________________________________________
concatenate_3 (Concatenate)     (None, 40, 26, 150)  0           conv2d_transpose_1[0][0]         
                                                                 concatenate_1[0][0]              
__________________________________________________________________________________________________
conv2d_7 (Conv2D)               (None, 40, 26, 60)   81060       concatenate_3[0][0]              
__________________________________________________________________________________________________
batch_normalization_7 (BatchNor (None, 40, 26, 60)   240         conv2d_7[0][0]                   
__________________________________________________________________________________________________
activation_7 (Activation)       (None, 40, 26, 60)   0           batch_normalization_7[0][0]      
__________________________________________________________________________________________________
conv2d_8 (Conv2D)               (None, 40, 26, 60)   32460       activation_7[0][0]               
__________________________________________________________________________________________________
batch_normalization_8 (BatchNor (None, 40, 26, 60)   240         conv2d_8[0][0]                   
__________________________________________________________________________________________________
activation_8 (Activation)       (None, 40, 26, 60)   0           batch_normalization_8[0][0]      
__________________________________________________________________________________________________
concatenate_4 (Concatenate)     (None, 40, 26, 210)  0           concatenate_3[0][0]              
                                                                 activation_8[0][0]               
__________________________________________________________________________________________________
dropout_4 (Dropout)             (None, 40, 26, 210)  0           concatenate_4[0][0]              
__________________________________________________________________________________________________
conv2d_transpose_2 (Conv2DTrans (None, 80, 52, 30)   25230       dropout_4[0][0]                  
__________________________________________________________________________________________________
concatenate_5 (Concatenate)     (None, 80, 52, 60)   0           conv2d_transpose_2[0][0]         
                                                                 activation_2[0][0]               
__________________________________________________________________________________________________
conv2d_9 (Conv2D)               (None, 80, 52, 30)   16230       concatenate_5[0][0]              
__________________________________________________________________________________________________
batch_normalization_9 (BatchNor (None, 80, 52, 30)   120         conv2d_9[0][0]                   
__________________________________________________________________________________________________
activation_9 (Activation)       (None, 80, 52, 30)   0           batch_normalization_9[0][0]      
__________________________________________________________________________________________________
conv2d_10 (Conv2D)              (None, 80, 52, 30)   8130        activation_9[0][0]               
__________________________________________________________________________________________________
batch_normalization_10 (BatchNo (None, 80, 52, 30)   120         conv2d_10[0][0]                  
__________________________________________________________________________________________________
activation_10 (Activation)      (None, 80, 52, 30)   0           batch_normalization_10[0][0]     
__________________________________________________________________________________________________
concatenate_6 (Concatenate)     (None, 80, 52, 90)   0           concatenate_5[0][0]              
                                                                 activation_10[0][0]              
__________________________________________________________________________________________________
dropout_5 (Dropout)             (None, 80, 52, 90)   0           concatenate_6[0][0]              
__________________________________________________________________________________________________
conv2d_11 (Conv2D)              (None, 80, 52, 13)   1183        dropout_5[0][0]                  
==================================================================================================
Total params: 501,343
Trainable params: 500,143
Non-trainable params: 1,200
__________________________________________________________________________________________________
 --- initialized from Model_7T /array/ssd/msmajdi/experiments/keras/exp6/models/sE12_Cascade_FM30_Res_Unet2_NL3_LS_MyJoint_US1_Main_Init_3T_CV_a/MultiClass_24567891011121314/sd0
…
 Nucleus: [2, 4, 5, 6, 7, 8, 9, 10, 11, 12, 13, 14]  | GPU: 7  | SD 2  | Dropout 0.3  | LR 0.001  | NL 3  |  Cascade |  FM 40 |  Upsample 1
Experiment: exp6
SubExperiment: sE12_Cascade_FM40_Res_Unet2_NL3_LS_MyJoint_US1_ET_Init_Main_CV_a
---------------------------------------------------------------
__________________________________________________________________________________________________
Layer (type)                    Output Shape         Param #     Connected to                     
==================================================================================================
input_1 (InputLayer)            (None, 52, 80, 1)    0                                            
__________________________________________________________________________________________________
conv2d_1 (Conv2D)               (None, 52, 80, 40)   400         input_1[0][0]                    
__________________________________________________________________________________________________
batch_normalization_1 (BatchNor (None, 52, 80, 40)   160         conv2d_1[0][0]                   
__________________________________________________________________________________________________
activation_1 (Activation)       (None, 52, 80, 40)   0           batch_normalization_1[0][0]      
__________________________________________________________________________________________________
conv2d_2 (Conv2D)               (None, 52, 80, 40)   14440       activation_1[0][0]               
__________________________________________________________________________________________________
batch_normalization_2 (BatchNor (None, 52, 80, 40)   160         conv2d_2[0][0]                   
__________________________________________________________________________________________________
activation_2 (Activation)       (None, 52, 80, 40)   0           batch_normalization_2[0][0]      
__________________________________________________________________________________________________
max_pooling2d_1 (MaxPooling2D)  (None, 26, 40, 40)   0           activation_2[0][0]               
__________________________________________________________________________________________________
dropout_1 (Dropout)             (None, 26, 40, 40)   0           max_pooling2d_1[0][0]            
__________________________________________________________________________________________________
conv2d_3 (Conv2D)               (None, 26, 40, 80)   28880       dropout_1[0][0]                  
__________________________________________________________________________________________________
batch_normalization_3 (BatchNor (None, 26, 40, 80)   320         conv2d_3[0][0]                   
__________________________________________________________________________________________________
activation_3 (Activation)       (None, 26, 40, 80)   0           batch_normalization_3[0][0]      
__________________________________________________________________________________________________
conv2d_4 (Conv2D)               (None, 26, 40, 80)   57680       activation_3[0][0]               
__________________________________________________________________________________________________2019-07-08 12:16:40.452568: I tensorflow/core/common_runtime/gpu/gpu_device.cc:1471] Adding visible gpu devices: 0
2019-07-08 12:16:40.452725: I tensorflow/core/common_runtime/gpu/gpu_device.cc:952] Device interconnect StreamExecutor with strength 1 edge matrix:
2019-07-08 12:16:40.452743: I tensorflow/core/common_runtime/gpu/gpu_device.cc:958]      0 
2019-07-08 12:16:40.452753: I tensorflow/core/common_runtime/gpu/gpu_device.cc:971] 0:   N 
2019-07-08 12:16:40.453127: I tensorflow/core/common_runtime/gpu/gpu_device.cc:1084] Created TensorFlow device (/job:localhost/replica:0/task:0/device:GPU:0 with 15123 MB memory) -> physical GPU (device: 0, name: Tesla P100-PCIE-16GB, pci bus id: 0000:89:00.0, compute capability: 6.0)

batch_normalization_4 (BatchNor (None, 26, 40, 80)   320         conv2d_4[0][0]                   
__________________________________________________________________________________________________
activation_4 (Activation)       (None, 26, 40, 80)   0           batch_normalization_4[0][0]      
__________________________________________________________________________________________________
concatenate_1 (Concatenate)     (None, 26, 40, 120)  0           dropout_1[0][0]                  
                                                                 activation_4[0][0]               
__________________________________________________________________________________________________
max_pooling2d_2 (MaxPooling2D)  (None, 13, 20, 120)  0           concatenate_1[0][0]              
__________________________________________________________________________________________________
dropout_2 (Dropout)             (None, 13, 20, 120)  0           max_pooling2d_2[0][0]            
__________________________________________________________________________________________________
conv2d_5 (Conv2D)               (None, 13, 20, 160)  172960      dropout_2[0][0]                  
__________________________________________________________________________________________________
batch_normalization_5 (BatchNor (None, 13, 20, 160)  640         conv2d_5[0][0]                   
__________________________________________________________________________________________________
activation_5 (Activation)       (None, 13, 20, 160)  0           batch_normalization_5[0][0]      
__________________________________________________________________________________________________
conv2d_6 (Conv2D)               (None, 13, 20, 160)  230560      activation_5[0][0]               
__________________________________________________________________________________________________
batch_normalization_6 (BatchNor (None, 13, 20, 160)  640         conv2d_6[0][0]                   
__________________________________________________________________________________________________
activation_6 (Activation)       (None, 13, 20, 160)  0           batch_normalization_6[0][0]      
__________________________________________________________________________________________________
concatenate_2 (Concatenate)     (None, 13, 20, 280)  0           dropout_2[0][0]                  
                                                                 activation_6[0][0]               
__________________________________________________________________________________________________
dropout_3 (Dropout)             (None, 13, 20, 280)  0           concatenate_2[0][0]              
__________________________________________________________________________________________________
conv2d_transpose_1 (Conv2DTrans (None, 26, 40, 80)   89680       dropout_3[0][0]                  
__________________________________________________________________________________________________
concatenate_3 (Concatenate)     (None, 26, 40, 200)  0           conv2d_transpose_1[0][0]         
                                                                 concatenate_1[0][0]              
__________________________________________________________________________________________________
conv2d_7 (Conv2D)               (None, 26, 40, 80)   144080      concatenate_3[0][0]              
__________________________________________________________________________________________________
batch_normalization_7 (BatchNor (None, 26, 40, 80)   320         conv2d_7[0][0]                   
__________________________________________________________________________________________________
activation_7 (Activation)       (None, 26, 40, 80)   0           batch_normalization_7[0][0]      
__________________________________________________________________________________________________
conv2d_8 (Conv2D)               (None, 26, 40, 80)   57680       activation_7[0][0]               
__________________________________________________________________________________________________
batch_normalization_8 (BatchNor (None, 26, 40, 80)   320         conv2d_8[0][0]                   
__________________________________________________________________________________________________
activation_8 (Activation)       (None, 26, 40, 80)   0           batch_normalization_8[0][0]      
__________________________________________________________________________________________________
concatenate_4 (Concatenate)     (None, 26, 40, 280)  0           concatenate_3[0][0]              
                                                                 activation_8[0][0]               
__________________________________________________________________________________________________
dropout_4 (Dropout)             (None, 26, 40, 280)  0           concatenate_4[0][0]              
__________________________________________________________________________________________________
conv2d_transpose_2 (Conv2DTrans (None, 52, 80, 40)   44840       dropout_4[0][0]                  
__________________________________________________________________________________________________
concatenate_5 (Concatenate)     (None, 52, 80, 80)   0           conv2d_transpose_2[0][0]         
                                                                 activation_2[0][0]               
__________________________________________________________________________________________________
conv2d_9 (Conv2D)               (None, 52, 80, 40)   28840       concatenate_5[0][0]              
__________________________________________________________________________________________________
batch_normalization_9 (BatchNor (None, 52, 80, 40)   160         conv2d_9[0][0]                   
__________________________________________________________________________________________________
activation_9 (Activation)       (None, 52, 80, 40)   0           batch_normalization_9[0][0]      
__________________________________________________________________________________________________
conv2d_10 (Conv2D)              (None, 52, 80, 40)   14440       activation_9[0][0]               
__________________________________________________________________________________________________
batch_normalization_10 (BatchNo (None, 52, 80, 40)   160         conv2d_10[0][0]                  
__________________________________________________________________________________________________
activation_10 (Activation)      (None, 52, 80, 40)   0           batch_normalization_10[0][0]     
__________________________________________________________________________________________________
concatenate_6 (Concatenate)     (None, 52, 80, 120)  0           concatenate_5[0][0]              
                                                                 activation_10[0][0]              
__________________________________________________________________________________________________
dropout_5 (Dropout)             (None, 52, 80, 120)  0           concatenate_6[0][0]              
__________________________________________________________________________________________________
conv2d_11 (Conv2D)              (None, 52, 80, 13)   1573        dropout_5[0][0]                  
==================================================================================================
Total params: 889,253
Trainable params: 887,653
Non-trainable params: 1,600
__________________________________________________________________________________________________
 --- initialized from Model_7T /array/ssd/msmajdi/experiments/keras/exp6/models/sE12_Cascade_FM40_Res_Unet2_NL3_LS_MyJoint_US1_Main_Init_3T_CV_a/MultiClass_24567891011121314/sd2
…
 Nucleus: [2, 4, 5, 6, 7, 8, 9, 10, 11, 12, 13, 14]  | GPU: 7  | SD 1  | Dropout 0.3  | LR 0.001  | NL 3  |  Cascade |  FM 40 |  Upsample 1
Experiment: exp6
SubExperiment: sE12_Cascade_FM40_Res_Unet2_NL3_LS_MyJoint_US1_ET_Init_Main_CV_a
---------------------------------------------------------------
__________________________________________________________________________________________________
Layer (type)                    Output Shape         Param #     Connected to                     
==================================================================================================
input_1 (InputLayer)            (None, 52, 52, 1)    0                                            
__________________________________________________________________________________________________
conv2d_1 (Conv2D)               (None, 52, 52, 40)   400         input_1[0][0]                    
__________________________________________________________________________________________________
batch_normalization_1 (BatchNor (None, 52, 52, 40)   160         conv2d_1[0][0]                   
__________________________________________________________________________________________________
activation_1 (Activation)       (None, 52, 52, 40)   0           batch_normalization_1[0][0]      
__________________________________________________________________________________________________
conv2d_2 (Conv2D)               (None, 52, 52, 40)   14440       activation_1[0][0]               
__________________________________________________________________________________________________
batch_normalization_2 (BatchNor (None, 52, 52, 40)   160         conv2d_2[0][0]                   
__________________________________________________________________________________________________
activation_2 (Activation)       (None, 52, 52, 40)   0           batch_normalization_2[0][0]      
__________________________________________________________________________________________________
max_pooling2d_1 (MaxPooling2D)  (None, 26, 26, 40)   0           activation_2[0][0]               
__________________________________________________________________________________________________
dropout_1 (Dropout)             (None, 26, 26, 40)   0           max_pooling2d_1[0][0]            
__________________________________________________________________________________________________
conv2d_3 (Conv2D)               (None, 26, 26, 80)   28880       dropout_1[0][0]                  
__________________________________________________________________________________________________
batch_normalization_3 (BatchNor (None, 26, 26, 80)   320         conv2d_3[0][0]                   
__________________________________________________________________________________________________
activation_3 (Activation)       (None, 26, 26, 80)   0           batch_normalization_3[0][0]      
__________________________________________________________________________________________________
conv2d_4 (Conv2D)               (None, 26, 26, 80)   57680       activation_3[0][0]               
__________________________________________________________________________________________________
batch_normalization_4 (BatchNor (None, 26, 26, 80)   320         conv2d_4[0][0]                   
__________________________________________________________________________________________________
activation_4 (Activation)       (None, 26, 26, 80)   0           batch_normalization_4[0][0]      
__________________________________________________________________________________________________
concatenate_1 (Concatenate)     (None, 26, 26, 120)  0           dropout_1[0][0]                  
                                                                 activation_4[0][0]               
__________________________________________________________________________________________________
max_pooling2d_2 (MaxPooling2D)  (None, 13, 13, 120)  0           concatenate_1[0][0]              
__________________________________________________________________________________________________
dropout_2 (Dropout)             (None, 13, 13, 120)  0           max_pooling2d_2[0][0]            
__________________________________________________________________________________________________2019-07-08 12:48:22.253963: I tensorflow/core/common_runtime/gpu/gpu_device.cc:1471] Adding visible gpu devices: 0
2019-07-08 12:48:22.254074: I tensorflow/core/common_runtime/gpu/gpu_device.cc:952] Device interconnect StreamExecutor with strength 1 edge matrix:
2019-07-08 12:48:22.254092: I tensorflow/core/common_runtime/gpu/gpu_device.cc:958]      0 
2019-07-08 12:48:22.254101: I tensorflow/core/common_runtime/gpu/gpu_device.cc:971] 0:   N 
2019-07-08 12:48:22.257925: I tensorflow/core/common_runtime/gpu/gpu_device.cc:1084] Created TensorFlow device (/job:localhost/replica:0/task:0/device:GPU:0 with 15123 MB memory) -> physical GPU (device: 0, name: Tesla P100-PCIE-16GB, pci bus id: 0000:89:00.0, compute capability: 6.0)

conv2d_5 (Conv2D)               (None, 13, 13, 160)  172960      dropout_2[0][0]                  
__________________________________________________________________________________________________
batch_normalization_5 (BatchNor (None, 13, 13, 160)  640         conv2d_5[0][0]                   
__________________________________________________________________________________________________
activation_5 (Activation)       (None, 13, 13, 160)  0           batch_normalization_5[0][0]      
__________________________________________________________________________________________________
conv2d_6 (Conv2D)               (None, 13, 13, 160)  230560      activation_5[0][0]               
__________________________________________________________________________________________________
batch_normalization_6 (BatchNor (None, 13, 13, 160)  640         conv2d_6[0][0]                   
__________________________________________________________________________________________________
activation_6 (Activation)       (None, 13, 13, 160)  0           batch_normalization_6[0][0]      
__________________________________________________________________________________________________
concatenate_2 (Concatenate)     (None, 13, 13, 280)  0           dropout_2[0][0]                  
                                                                 activation_6[0][0]               
__________________________________________________________________________________________________
dropout_3 (Dropout)             (None, 13, 13, 280)  0           concatenate_2[0][0]              
__________________________________________________________________________________________________
conv2d_transpose_1 (Conv2DTrans (None, 26, 26, 80)   89680       dropout_3[0][0]                  
__________________________________________________________________________________________________
concatenate_3 (Concatenate)     (None, 26, 26, 200)  0           conv2d_transpose_1[0][0]         
                                                                 concatenate_1[0][0]              
__________________________________________________________________________________________________
conv2d_7 (Conv2D)               (None, 26, 26, 80)   144080      concatenate_3[0][0]              
__________________________________________________________________________________________________
batch_normalization_7 (BatchNor (None, 26, 26, 80)   320         conv2d_7[0][0]                   
__________________________________________________________________________________________________
activation_7 (Activation)       (None, 26, 26, 80)   0           batch_normalization_7[0][0]      
__________________________________________________________________________________________________
conv2d_8 (Conv2D)               (None, 26, 26, 80)   57680       activation_7[0][0]               
__________________________________________________________________________________________________
batch_normalization_8 (BatchNor (None, 26, 26, 80)   320         conv2d_8[0][0]                   
__________________________________________________________________________________________________
activation_8 (Activation)       (None, 26, 26, 80)   0           batch_normalization_8[0][0]      
__________________________________________________________________________________________________
concatenate_4 (Concatenate)     (None, 26, 26, 280)  0           concatenate_3[0][0]              
                                                                 activation_8[0][0]               
__________________________________________________________________________________________________
dropout_4 (Dropout)             (None, 26, 26, 280)  0           concatenate_4[0][0]              
__________________________________________________________________________________________________
conv2d_transpose_2 (Conv2DTrans (None, 52, 52, 40)   44840       dropout_4[0][0]                  
__________________________________________________________________________________________________
concatenate_5 (Concatenate)     (None, 52, 52, 80)   0           conv2d_transpose_2[0][0]         
                                                                 activation_2[0][0]               
__________________________________________________________________________________________________
conv2d_9 (Conv2D)               (None, 52, 52, 40)   28840       concatenate_5[0][0]              
__________________________________________________________________________________________________
batch_normalization_9 (BatchNor (None, 52, 52, 40)   160         conv2d_9[0][0]                   
__________________________________________________________________________________________________
activation_9 (Activation)       (None, 52, 52, 40)   0           batch_normalization_9[0][0]      
__________________________________________________________________________________________________
conv2d_10 (Conv2D)              (None, 52, 52, 40)   14440       activation_9[0][0]               
__________________________________________________________________________________________________
batch_normalization_10 (BatchNo (None, 52, 52, 40)   160         conv2d_10[0][0]                  
__________________________________________________________________________________________________
activation_10 (Activation)      (None, 52, 52, 40)   0           batch_normalization_10[0][0]     
__________________________________________________________________________________________________
concatenate_6 (Concatenate)     (None, 52, 52, 120)  0           concatenate_5[0][0]              
                                                                 activation_10[0][0]              
__________________________________________________________________________________________________
dropout_5 (Dropout)             (None, 52, 52, 120)  0           concatenate_6[0][0]              
__________________________________________________________________________________________________
conv2d_11 (Conv2D)              (None, 52, 52, 13)   1573        dropout_5[0][0]                  
==================================================================================================
Total params: 889,253
Trainable params: 887,653
Non-trainable params: 1,600
__________________________________________________________________________________________________
 --- initialized from Model_7T /array/ssd/msmajdi/experiments/keras/exp6/models/sE12_Cascade_FM40_Res_Unet2_NL3_LS_MyJoint_US1_Main_Init_3T_CV_a/MultiClass_24567891011121314/sd1
…
 Nucleus: [2, 4, 5, 6, 7, 8, 9, 10, 11, 12, 13, 14]  | GPU: 7  | SD 0  | Dropout 0.3  | LR 0.001  | NL 3  |  Cascade |  FM 40 |  Upsample 1
Experiment: exp6
SubExperiment: sE12_Cascade_FM40_Res_Unet2_NL3_LS_MyJoint_US1_ET_Init_Main_CV_a
---------------------------------------------------------------
__________________________________________________________________________________________________
Layer (type)                    Output Shape         Param #     Connected to                     
==================================================================================================
input_1 (InputLayer)            (None, 80, 52, 1)    0                                            
__________________________________________________________________________________________________
conv2d_1 (Conv2D)               (None, 80, 52, 40)   400         input_1[0][0]                    
__________________________________________________________________________________________________
batch_normalization_1 (BatchNor (None, 80, 52, 40)   160         conv2d_1[0][0]                   
__________________________________________________________________________________________________
activation_1 (Activation)       (None, 80, 52, 40)   0           batch_normalization_1[0][0]      
__________________________________________________________________________________________________
conv2d_2 (Conv2D)               (None, 80, 52, 40)   14440       activation_1[0][0]               
__________________________________________________________________________________________________
batch_normalization_2 (BatchNor (None, 80, 52, 40)   160         conv2d_2[0][0]                   
__________________________________________________________________________________________________
activation_2 (Activation)       (None, 80, 52, 40)   0           batch_normalization_2[0][0]      
__________________________________________________________________________________________________
max_pooling2d_1 (MaxPooling2D)  (None, 40, 26, 40)   0           activation_2[0][0]               
__________________________________________________________________________________________________
dropout_1 (Dropout)             (None, 40, 26, 40)   0           max_pooling2d_1[0][0]            
__________________________________________________________________________________________________
conv2d_3 (Conv2D)               (None, 40, 26, 80)   28880       dropout_1[0][0]                  
__________________________________________________________________________________________________
batch_normalization_3 (BatchNor (None, 40, 26, 80)   320         conv2d_3[0][0]                   
__________________________________________________________________________________________________
activation_3 (Activation)       (None, 40, 26, 80)   0           batch_normalization_3[0][0]      
__________________________________________________________________________________________________
conv2d_4 (Conv2D)               (None, 40, 26, 80)   57680       activation_3[0][0]               
__________________________________________________________________________________________________
batch_normalization_4 (BatchNor (None, 40, 26, 80)   320         conv2d_4[0][0]                   
__________________________________________________________________________________________________
activation_4 (Activation)       (None, 40, 26, 80)   0           batch_normalization_4[0][0]      
__________________________________________________________________________________________________
concatenate_1 (Concatenate)     (None, 40, 26, 120)  0           dropout_1[0][0]                  
                                                                 activation_4[0][0]               
__________________________________________________________________________________________________
max_pooling2d_2 (MaxPooling2D)  (None, 20, 13, 120)  0           concatenate_1[0][0]              
__________________________________________________________________________________________________
dropout_2 (Dropout)             (None, 20, 13, 120)  0           max_pooling2d_2[0][0]            
__________________________________________________________________________________________________2019-07-08 13:29:20.314850: I tensorflow/core/common_runtime/gpu/gpu_device.cc:1471] Adding visible gpu devices: 0
2019-07-08 13:29:20.314954: I tensorflow/core/common_runtime/gpu/gpu_device.cc:952] Device interconnect StreamExecutor with strength 1 edge matrix:
2019-07-08 13:29:20.314970: I tensorflow/core/common_runtime/gpu/gpu_device.cc:958]      0 
2019-07-08 13:29:20.314979: I tensorflow/core/common_runtime/gpu/gpu_device.cc:971] 0:   N 
2019-07-08 13:29:20.315326: I tensorflow/core/common_runtime/gpu/gpu_device.cc:1084] Created TensorFlow device (/job:localhost/replica:0/task:0/device:GPU:0 with 15123 MB memory) -> physical GPU (device: 0, name: Tesla P100-PCIE-16GB, pci bus id: 0000:89:00.0, compute capability: 6.0)

conv2d_5 (Conv2D)               (None, 20, 13, 160)  172960      dropout_2[0][0]                  
__________________________________________________________________________________________________
batch_normalization_5 (BatchNor (None, 20, 13, 160)  640         conv2d_5[0][0]                   
__________________________________________________________________________________________________
activation_5 (Activation)       (None, 20, 13, 160)  0           batch_normalization_5[0][0]      
__________________________________________________________________________________________________
conv2d_6 (Conv2D)               (None, 20, 13, 160)  230560      activation_5[0][0]               
__________________________________________________________________________________________________
batch_normalization_6 (BatchNor (None, 20, 13, 160)  640         conv2d_6[0][0]                   
__________________________________________________________________________________________________
activation_6 (Activation)       (None, 20, 13, 160)  0           batch_normalization_6[0][0]      
__________________________________________________________________________________________________
concatenate_2 (Concatenate)     (None, 20, 13, 280)  0           dropout_2[0][0]                  
                                                                 activation_6[0][0]               
__________________________________________________________________________________________________
dropout_3 (Dropout)             (None, 20, 13, 280)  0           concatenate_2[0][0]              
__________________________________________________________________________________________________
conv2d_transpose_1 (Conv2DTrans (None, 40, 26, 80)   89680       dropout_3[0][0]                  
__________________________________________________________________________________________________
concatenate_3 (Concatenate)     (None, 40, 26, 200)  0           conv2d_transpose_1[0][0]         
                                                                 concatenate_1[0][0]              
__________________________________________________________________________________________________
conv2d_7 (Conv2D)               (None, 40, 26, 80)   144080      concatenate_3[0][0]              
__________________________________________________________________________________________________
batch_normalization_7 (BatchNor (None, 40, 26, 80)   320         conv2d_7[0][0]                   
__________________________________________________________________________________________________
activation_7 (Activation)       (None, 40, 26, 80)   0           batch_normalization_7[0][0]      
__________________________________________________________________________________________________
conv2d_8 (Conv2D)               (None, 40, 26, 80)   57680       activation_7[0][0]               
__________________________________________________________________________________________________
batch_normalization_8 (BatchNor (None, 40, 26, 80)   320         conv2d_8[0][0]                   
__________________________________________________________________________________________________
activation_8 (Activation)       (None, 40, 26, 80)   0           batch_normalization_8[0][0]      
__________________________________________________________________________________________________
concatenate_4 (Concatenate)     (None, 40, 26, 280)  0           concatenate_3[0][0]              
                                                                 activation_8[0][0]               
__________________________________________________________________________________________________
dropout_4 (Dropout)             (None, 40, 26, 280)  0           concatenate_4[0][0]              
__________________________________________________________________________________________________
conv2d_transpose_2 (Conv2DTrans (None, 80, 52, 40)   44840       dropout_4[0][0]                  
__________________________________________________________________________________________________
concatenate_5 (Concatenate)     (None, 80, 52, 80)   0           conv2d_transpose_2[0][0]         
                                                                 activation_2[0][0]               
__________________________________________________________________________________________________
conv2d_9 (Conv2D)               (None, 80, 52, 40)   28840       concatenate_5[0][0]              
__________________________________________________________________________________________________
batch_normalization_9 (BatchNor (None, 80, 52, 40)   160         conv2d_9[0][0]                   
__________________________________________________________________________________________________
activation_9 (Activation)       (None, 80, 52, 40)   0           batch_normalization_9[0][0]      
__________________________________________________________________________________________________
conv2d_10 (Conv2D)              (None, 80, 52, 40)   14440       activation_9[0][0]               
__________________________________________________________________________________________________
batch_normalization_10 (BatchNo (None, 80, 52, 40)   160         conv2d_10[0][0]                  
__________________________________________________________________________________________________
activation_10 (Activation)      (None, 80, 52, 40)   0           batch_normalization_10[0][0]     
__________________________________________________________________________________________________
concatenate_6 (Concatenate)     (None, 80, 52, 120)  0           concatenate_5[0][0]              
                                                                 activation_10[0][0]              
__________________________________________________________________________________________________
dropout_5 (Dropout)             (None, 80, 52, 120)  0           concatenate_6[0][0]              
__________________________________________________________________________________________________
conv2d_11 (Conv2D)              (None, 80, 52, 13)   1573        dropout_5[0][0]                  
==================================================================================================
Total params: 889,253
Trainable params: 887,653
Non-trainable params: 1,600
__________________________________________________________________________________________________
 --- initialized from Model_7T /array/ssd/msmajdi/experiments/keras/exp6/models/sE12_Cascade_FM40_Res_Unet2_NL3_LS_MyJoint_US1_Main_Init_3T_CV_a/MultiClass_24567891011121314/sd0
…
