…
---------------------------------------------------------------
 Nucleus: [2]  | GPU: 5  | SD 2  | Dropout 0.3  | LR 0.001  | NL 3  |  mUnet |  FM 20 |  Upsample 1
Experiment: exp6
SubExperiment: sE8_mUnet_FM20_U-Net4_NL3_LS_MyBCE_US1_SingleClass
---------------------------------------------------------------
__________________________________________________________________________________________________
Layer (type)                    Output Shape         Param #     Connected to                     
==================================================================================================
input_1 (InputLayer)            (None, 112, 148, 1)  0                                            
__________________________________________________________________________________________________
conv2d_1 (Conv2D)               (None, 112, 148, 20) 200         input_1[0][0]                    
__________________________________________________________________________________________________
batch_normalization_1 (BatchNor (None, 112, 148, 20) 80          conv2d_1[0][0]                   
__________________________________________________________________________________________________
activation_1 (Activation)       (None, 112, 148, 20) 0           batch_normalization_1[0][0]      
__________________________________________________________________________________________________
conv2d_2 (Conv2D)               (None, 112, 148, 20) 3620        activation_1[0][0]               
__________________________________________________________________________________________________
batch_normalization_2 (BatchNor (None, 112, 148, 20) 80          conv2d_2[0][0]                   
__________________________________________________________________________________________________
activation_2 (Activation)       (None, 112, 148, 20) 0           batch_normalization_2[0][0]      
__________________________________________________________________________________________________
max_pooling2d_1 (MaxPooling2D)  (None, 56, 74, 20)   0           activation_2[0][0]               
__________________________________________________________________________________________________
dropout_1 (Dropout)             (None, 56, 74, 20)   0           max_pooling2d_1[0][0]            
__________________________________________________________________________________________________
conv2d_3 (Conv2D)               (None, 56, 74, 40)   7240        dropout_1[0][0]                  
__________________________________________________________________________________________________
batch_normalization_3 (BatchNor (None, 56, 74, 40)   160         conv2d_3[0][0]                   
__________________________________________________________________________________________________
activation_3 (Activation)       (None, 56, 74, 40)   0           batch_normalization_3[0][0]      
__________________________________________________________________________________________________
conv2d_4 (Conv2D)               (None, 56, 74, 40)   14440       activation_3[0][0]               
__________________________________________________________________________________________________
batch_normalization_4 (BatchNor (None, 56, 74, 40)   160         conv2d_4[0][0]                   
__________________________________________________________________________________________________
activation_4 (Activation)       (None, 56, 74, 40)   0           batch_normalization_4[0][0]      
__________________________________________________________________________________________________
max_pooling2d_2 (MaxPooling2D)  (None, 28, 37, 40)   0           activation_4[0][0]               
__________________________________________________________________________________________________
dropout_2 (Dropout)             (None, 28, 37, 40)   0           max_pooling2d_2[0][0]            
__________________________________________________________________________________________________
conv2d_5 (Conv2D)               (None, 28, 37, 80)   28880       dropout_2[0][0]                  
__________________________________________________________________________________________________
batch_normalization_5 (BatchNor (None, 28, 37, 80)   320         conv2d_5[0][0]                   
__________________________________________________________________________________________________
activation_5 (Activation)       (None, 28, 37, 80)   0           batch_normalization_5[0][0]      
__________________________________________________________________________________________________
conv2d_6 (Conv2D)               (None, 28, 37, 80)   57680       activation_5[0][0]               
__________________________________________________________________________________________________
batch_normalization_6 (BatchNor (None, 28, 37, 80)   320         conv2d_6[0][0]                   
__________________________________________________________________________________________________
activation_6 (Activation)       (None, 28, 37, 80)   0           batch_normalization_6[0][0]      
__________________________________________________________________________________________________
dropout_3 (Dropout)             (None, 28, 37, 80)   0           activation_6[0][0]               
__________________________________________________________________________________________________
conv2d_transpose_1 (Conv2DTrans (None, 56, 74, 40)   12840       dropout_3[0][0]                  
__________________________________________________________________________________________________
concatenate_1 (Concatenate)     (None, 56, 74, 80)   0           conv2d_transpose_1[0][0]         
                                                                 activation_4[0][0]               
__________________________________________________________________________________________________
conv2d_7 (Conv2D)               (None, 56, 74, 40)   28840       concatenate_1[0][0]              
__________________________________________________________________________________________________
batch_normalization_7 (BatchNor (None, 56, 74, 40)   160         conv2d_7[0][0]                   
__________________________________________________________________________________________________
activation_7 (Activation)       (None, 56, 74, 40)   0           batch_normalization_7[0][0]      
__________________________________________________________________________________________________
conv2d_8 (Conv2D)               (None, 56, 74, 40)   14440       activation_7[0][0]               
__________________________________________________________________________________________________
batch_normalization_8 (BatchNor (None, 56, 74, 40)   160         conv2d_8[0][0]                   
__________________________________________________________________________________________________
activation_8 (Activation)       (None, 56, 74, 40)   0           batch_normalization_8[0][0]      
__________________________________________________________________________________________________
dropout_4 (Dropout)             (None, 56, 74, 40)   0           activation_8[0][0]               
__________________________________________________________________________________________________
conv2d_transpose_2 (Conv2DTrans (None, 112, 148, 20) 3220        dropout_4[0][0]                  
__________________________________________________________________________________________________
concatenate_2 (Concatenate)     (None, 112, 148, 40) 0           conv2d_transpose_2[0][0]         
                                                                 activation_2[0][0]               
__________________________________________________________________________________________________
conv2d_9 (Conv2D)               (None, 112, 148, 20) 7220        concatenate_2[0][0]              
__________________________________________________________________________________________________
batch_normalization_9 (BatchNor (None, 112, 148, 20) 80          conv2d_9[0][0]                   
__________________________________________________________________________________________________
activation_9 (Activation)       (None, 112, 148, 20) 0           batch_normalization_9[0][0]      
__________________________________________________________________________________________________
conv2d_10 (Conv2D)              (None, 112, 148, 20) 3620        activation_9[0][0]               
__________________________________________________________________________________________________
batch_normalization_10 (BatchNo (None, 112, 148, 20) 80          conv2d_10[0][0]                  
__________________________________________________________________________________________________
activation_10 (Activation)      (None, 112, 148, 20) 0           batch_normalization_10[0][0]     
__________________________________________________________________________________________________
dropout_5 (Dropout)             (None, 112, 148, 20) 0           activation_10[0][0]              
__________________________________________________________________________________________________
conv2d_11 (Conv2D)              (None, 112, 148, 2)  42          dropout_5[0][0]                  
==================================================================================================
Total params: 183,882
Trainable params: 183,082
Non-trainable params: 800
__________________________________________________________________________________________________
------------------------------------------------------------------
class_weights [9.99566705e-01 4.33295218e-04]
…
---------------------------------------------------------------
 Nucleus: [2]  | GPU: 5  | SD 1  | Dropout 0.3  | LR 0.001  | NL 3  |  mUnet |  FM 20 |  Upsample 1
Experiment: exp6
SubExperiment: sE8_mUnet_FM20_U-Net4_NL3_LS_MyBCE_US1_SingleClass
---------------------------------------------------------------
__________________________________________________________________________________________________
Layer (type)                    Output Shape         Param #     Connected to                     
==================================================================================================
input_1 (InputLayer)            (None, 84, 112, 1)   0                                            
__________________________________________________________________________________________________
conv2d_1 (Conv2D)               (None, 84, 112, 20)  200         input_1[0][0]                    
__________________________________________________________________________________________________
batch_normalization_1 (BatchNor (None, 84, 112, 20)  80          conv2d_1[0][0]                   
__________________________________________________________________________________________________
activation_1 (Activation)       (None, 84, 112, 20)  0           batch_normalization_1[0][0]      
__________________________________________________________________________________________________
conv2d_2 (Conv2D)               (None, 84, 112, 20)  3620        activation_1[0][0]               
__________________________________________________________________________________________________
batch_normalization_2 (BatchNor (None, 84, 112, 20)  80          conv2d_2[0][0]                   
__________________________________________________________________________________________________
activation_2 (Activation)       (None, 84, 112, 20)  0           batch_normalization_2[0][0]      
__________________________________________________________________________________________________
max_pooling2d_1 (MaxPooling2D)  (None, 42, 56, 20)   0           activation_2[0][0]               
__________________________________________________________________________________________________
dropout_1 (Dropout)             (None, 42, 56, 20)   0           max_pooling2d_1[0][0]            
__________________________________________________________________________________________________
conv2d_3 (Conv2D)               (None, 42, 56, 40)   7240        dropout_1[0][0]                  
__________________________________________________________________________________________________
batch_normalization_3 (BatchNor (None, 42, 56, 40)   160         conv2d_3[0][0]                   
__________________________________________________________________________________________________
activation_3 (Activation)       (None, 42, 56, 40)   0           batch_normalization_3[0][0]      
__________________________________________________________________________________________________
conv2d_4 (Conv2D)               (None, 42, 56, 40)   14440       activation_3[0][0]               
__________________________________________________________________________________________________
batch_normalization_4 (BatchNor (None, 42, 56, 40)   160         conv2d_4[0][0]                   
__________________________________________________________________________________________________
activation_4 (Activation)       (None, 42, 56, 40)   0           batch_normalization_4[0][0]      
__________________________________________________________________________________________________
max_pooling2d_2 (MaxPooling2D)  (None, 21, 28, 40)   0           activation_4[0][0]               
__________________________________________________________________________________________________
dropout_2 (Dropout)             (None, 21, 28, 40)   0           max_pooling2d_2[0][0]            
__________________________________________________________________________________________________
conv2d_5 (Conv2D)               (None, 21, 28, 80)   28880       dropout_2[0][0]                  
__________________________________________________________________________________________________
batch_normalization_5 (BatchNor (None, 21, 28, 80)   320         conv2d_5[0][0]                   
__________________________________________________________________________________________________
activation_5 (Activation)       (None, 21, 28, 80)   0           batch_normalization_5[0][0]      
__________________________________________________________________________________________________
conv2d_6 (Conv2D)               (None, 21, 28, 80)   57680       activation_5[0][0]               
__________________________________________________________________________________________________
batch_normalization_6 (BatchNor (None, 21, 28, 80)   320         conv2d_6[0][0]                   
__________________________________________________________________________________________________
activation_6 (Activation)       (None, 21, 28, 80)   0           batch_normalization_6[0][0]      
__________________________________________________________________________________________________
dropout_3 (Dropout)             (None, 21, 28, 80)   0           activation_6[0][0]               
__________________________________________________________________________________________________
conv2d_transpose_1 (Conv2DTrans (None, 42, 56, 40)   12840       dropout_3[0][0]                  
__________________________________________________________________________________________________
concatenate_1 (Concatenate)     (None, 42, 56, 80)   0           conv2d_transpose_1[0][0]         
                                                                 activation_4[0][0]               
__________________________________________________________________________________________________
conv2d_7 (Conv2D)               (None, 42, 56, 40)   28840       concatenate_1[0][0]              
__________________________________________________________________________________________________
batch_normalization_7 (BatchNor (None, 42, 56, 40)   160         conv2d_7[0][0]                   
__________________________________________________________________________________________________
activation_7 (Activation)       (None, 42, 56, 40)   0           batch_normalization_7[0][0]      
__________________________________________________________________________________________________
conv2d_8 (Conv2D)               (None, 42, 56, 40)   14440       activation_7[0][0]               
__________________________________________________________________________________________________
batch_normalization_8 (BatchNor (None, 42, 56, 40)   160         conv2d_8[0][0]                   
__________________________________________________________________________________________________
activation_8 (Activation)       (None, 42, 56, 40)   0           batch_normalization_8[0][0]      
__________________________________________________________________________________________________
dropout_4 (Dropout)             (None, 42, 56, 40)   0           activation_8[0][0]               
__________________________________________________________________________________________________
conv2d_transpose_2 (Conv2DTrans (None, 84, 112, 20)  3220        dropout_4[0][0]                  
__________________________________________________________________________________________________
concatenate_2 (Concatenate)     (None, 84, 112, 40)  0           conv2d_transpose_2[0][0]         
                                                                 activation_2[0][0]               
__________________________________________________________________________________________________
conv2d_9 (Conv2D)               (None, 84, 112, 20)  7220        concatenate_2[0][0]              
__________________________________________________________________________________________________
batch_normalization_9 (BatchNor (None, 84, 112, 20)  80          conv2d_9[0][0]                   
__________________________________________________________________________________________________
activation_9 (Activation)       (None, 84, 112, 20)  0           batch_normalization_9[0][0]      2019-07-06 19:39:06.502414: I tensorflow/core/common_runtime/gpu/gpu_device.cc:1471] Adding visible gpu devices: 0
2019-07-06 19:39:06.502535: I tensorflow/core/common_runtime/gpu/gpu_device.cc:952] Device interconnect StreamExecutor with strength 1 edge matrix:
2019-07-06 19:39:06.502551: I tensorflow/core/common_runtime/gpu/gpu_device.cc:958]      0 
2019-07-06 19:39:06.502560: I tensorflow/core/common_runtime/gpu/gpu_device.cc:971] 0:   N 
2019-07-06 19:39:06.502996: I tensorflow/core/common_runtime/gpu/gpu_device.cc:1084] Created TensorFlow device (/job:localhost/replica:0/task:0/device:GPU:0 with 15123 MB memory) -> physical GPU (device: 0, name: Tesla P100-PCIE-16GB, pci bus id: 0000:85:00.0, compute capability: 6.0)

__________________________________________________________________________________________________
conv2d_10 (Conv2D)              (None, 84, 112, 20)  3620        activation_9[0][0]               
__________________________________________________________________________________________________
batch_normalization_10 (BatchNo (None, 84, 112, 20)  80          conv2d_10[0][0]                  
__________________________________________________________________________________________________
activation_10 (Activation)      (None, 84, 112, 20)  0           batch_normalization_10[0][0]     
__________________________________________________________________________________________________
dropout_5 (Dropout)             (None, 84, 112, 20)  0           activation_10[0][0]              
__________________________________________________________________________________________________
conv2d_11 (Conv2D)              (None, 84, 112, 2)   42          dropout_5[0][0]                  
==================================================================================================
Total params: 183,882
Trainable params: 183,082
Non-trainable params: 800
__________________________________________________________________________________________________
------------------------------------------------------------------
class_weights [9.99523905e-01 4.76094823e-04]
…
{'val_loss': [… 'val_acc': [… 'val_mDice': [… 'loss': [… 'acc': [… 'mDice': [… ---------------------------------------------------------------
 Nucleus: [2]  | GPU: 5  | SD 0  | Dropout 0.3  | LR 0.001  | NL 3  |  mUnet |  FM 20 |  Upsample 1
Experiment: exp6
SubExperiment: sE8_mUnet_FM20_U-Net4_NL3_LS_MyBCE_US1_SingleClass
---------------------------------------------------------------
__________________________________________________________________________________________________
Layer (type)                    Output Shape         Param #     Connected to                     
==================================================================================================
input_1 (InputLayer)            (None, 148, 84, 1)   0                                            
__________________________________________________________________________________________________
conv2d_1 (Conv2D)               (None, 148, 84, 20)  200         input_1[0][0]                    
__________________________________________________________________________________________________
batch_normalization_1 (BatchNor (None, 148, 84, 20)  80          conv2d_1[0][0]                   
__________________________________________________________________________________________________
activation_1 (Activation)       (None, 148, 84, 20)  0           batch_normalization_1[0][0]      
__________________________________________________________________________________________________
conv2d_2 (Conv2D)               (None, 148, 84, 20)  3620        activation_1[0][0]               
__________________________________________________________________________________________________2019-07-06 20:54:51.960935: I tensorflow/core/common_runtime/gpu/gpu_device.cc:1471] Adding visible gpu devices: 0
2019-07-06 20:54:51.961062: I tensorflow/core/common_runtime/gpu/gpu_device.cc:952] Device interconnect StreamExecutor with strength 1 edge matrix:
2019-07-06 20:54:51.961080: I tensorflow/core/common_runtime/gpu/gpu_device.cc:958]      0 
2019-07-06 20:54:51.961090: I tensorflow/core/common_runtime/gpu/gpu_device.cc:971] 0:   N 
2019-07-06 20:54:51.961475: I tensorflow/core/common_runtime/gpu/gpu_device.cc:1084] Created TensorFlow device (/job:localhost/replica:0/task:0/device:GPU:0 with 15123 MB memory) -> physical GPU (device: 0, name: Tesla P100-PCIE-16GB, pci bus id: 0000:85:00.0, compute capability: 6.0)

batch_normalization_2 (BatchNor (None, 148, 84, 20)  80          conv2d_2[0][0]                   
__________________________________________________________________________________________________
activation_2 (Activation)       (None, 148, 84, 20)  0           batch_normalization_2[0][0]      
__________________________________________________________________________________________________
max_pooling2d_1 (MaxPooling2D)  (None, 74, 42, 20)   0           activation_2[0][0]               
__________________________________________________________________________________________________
dropout_1 (Dropout)             (None, 74, 42, 20)   0           max_pooling2d_1[0][0]            
__________________________________________________________________________________________________
conv2d_3 (Conv2D)               (None, 74, 42, 40)   7240        dropout_1[0][0]                  
__________________________________________________________________________________________________
batch_normalization_3 (BatchNor (None, 74, 42, 40)   160         conv2d_3[0][0]                   
__________________________________________________________________________________________________
activation_3 (Activation)       (None, 74, 42, 40)   0           batch_normalization_3[0][0]      
__________________________________________________________________________________________________
conv2d_4 (Conv2D)               (None, 74, 42, 40)   14440       activation_3[0][0]               
__________________________________________________________________________________________________
batch_normalization_4 (BatchNor (None, 74, 42, 40)   160         conv2d_4[0][0]                   
__________________________________________________________________________________________________
activation_4 (Activation)       (None, 74, 42, 40)   0           batch_normalization_4[0][0]      
__________________________________________________________________________________________________
max_pooling2d_2 (MaxPooling2D)  (None, 37, 21, 40)   0           activation_4[0][0]               
__________________________________________________________________________________________________
dropout_2 (Dropout)             (None, 37, 21, 40)   0           max_pooling2d_2[0][0]            
__________________________________________________________________________________________________
conv2d_5 (Conv2D)               (None, 37, 21, 80)   28880       dropout_2[0][0]                  
__________________________________________________________________________________________________
batch_normalization_5 (BatchNor (None, 37, 21, 80)   320         conv2d_5[0][0]                   
__________________________________________________________________________________________________
activation_5 (Activation)       (None, 37, 21, 80)   0           batch_normalization_5[0][0]      
__________________________________________________________________________________________________
conv2d_6 (Conv2D)               (None, 37, 21, 80)   57680       activation_5[0][0]               
__________________________________________________________________________________________________
batch_normalization_6 (BatchNor (None, 37, 21, 80)   320         conv2d_6[0][0]                   
__________________________________________________________________________________________________
activation_6 (Activation)       (None, 37, 21, 80)   0           batch_normalization_6[0][0]      
__________________________________________________________________________________________________
dropout_3 (Dropout)             (None, 37, 21, 80)   0           activation_6[0][0]               
__________________________________________________________________________________________________
conv2d_transpose_1 (Conv2DTrans (None, 74, 42, 40)   12840       dropout_3[0][0]                  
__________________________________________________________________________________________________
concatenate_1 (Concatenate)     (None, 74, 42, 80)   0           conv2d_transpose_1[0][0]         
                                                                 activation_4[0][0]               
__________________________________________________________________________________________________
conv2d_7 (Conv2D)               (None, 74, 42, 40)   28840       concatenate_1[0][0]              
__________________________________________________________________________________________________
batch_normalization_7 (BatchNor (None, 74, 42, 40)   160         conv2d_7[0][0]                   
__________________________________________________________________________________________________
activation_7 (Activation)       (None, 74, 42, 40)   0           batch_normalization_7[0][0]      
__________________________________________________________________________________________________
conv2d_8 (Conv2D)               (None, 74, 42, 40)   14440       activation_7[0][0]               
__________________________________________________________________________________________________
batch_normalization_8 (BatchNor (None, 74, 42, 40)   160         conv2d_8[0][0]                   
__________________________________________________________________________________________________
activation_8 (Activation)       (None, 74, 42, 40)   0           batch_normalization_8[0][0]      
__________________________________________________________________________________________________
dropout_4 (Dropout)             (None, 74, 42, 40)   0           activation_8[0][0]               
__________________________________________________________________________________________________
conv2d_transpose_2 (Conv2DTrans (None, 148, 84, 20)  3220        dropout_4[0][0]                  
__________________________________________________________________________________________________
concatenate_2 (Concatenate)     (None, 148, 84, 40)  0           conv2d_transpose_2[0][0]         
                                                                 activation_2[0][0]               
__________________________________________________________________________________________________
conv2d_9 (Conv2D)               (None, 148, 84, 20)  7220        concatenate_2[0][0]              
__________________________________________________________________________________________________
batch_normalization_9 (BatchNor (None, 148, 84, 20)  80          conv2d_9[0][0]                   
__________________________________________________________________________________________________
activation_9 (Activation)       (None, 148, 84, 20)  0           batch_normalization_9[0][0]      
__________________________________________________________________________________________________
conv2d_10 (Conv2D)              (None, 148, 84, 20)  3620        activation_9[0][0]               
__________________________________________________________________________________________________
batch_normalization_10 (BatchNo (None, 148, 84, 20)  80          conv2d_10[0][0]                  
__________________________________________________________________________________________________
activation_10 (Activation)      (None, 148, 84, 20)  0           batch_normalization_10[0][0]     
__________________________________________________________________________________________________
dropout_5 (Dropout)             (None, 148, 84, 20)  0           activation_10[0][0]              
__________________________________________________________________________________________________
conv2d_11 (Conv2D)              (None, 148, 84, 2)   42          dropout_5[0][0]                  
==================================================================================================
Total params: 183,882
Trainable params: 183,082
Non-trainable params: 800
__________________________________________________________________________________________________
------------------------------------------------------------------
class_weights [9.99601883e-01 3.98116724e-04]
…
concatenating: validation:   0%|          | 0/15 [00:00<?, ?it/s]concatenating: validation:  27%|██▋       | 4/15 [00:00<00:00, 30.79it/s]concatenating: validation: 100%|██████████| 15/15 [00:00<00:00, 67.01it/s] 20 |  Upsample 1
Experiment: exp6
SubExperiment: sE8_mUnet_FM20_U-Net4_NL3_LS_MyBCE_US1_SingleClass
---------------------------------------------------------------
__________________________________________________________________________________________________
Layer (type)                    Output Shape         Param #     Connected to                     
==================================================================================================
input_1 (InputLayer)            (None, 112, 148, 1)  0                                            
__________________________________________________________________________________________________
conv2d_1 (Conv2D)               (None, 112, 148, 20) 200         input_1[0][0]                    
__________________________________________________________________________________________________
batch_normalization_1 (BatchNor (None, 112, 148, 20) 80          conv2d_1[0][0]                   
__________________________________________________________________________________________________
activation_1 (Activation)       (None, 112, 148, 20) 0           batch_normalization_1[0][0]      
__________________________________________________________________________________________________
conv2d_2 (Conv2D)               (None, 112, 148, 20) 3620        activation_1[0][0]               
__________________________________________________________________________________________________
batch_normalization_2 (BatchNor (None, 112, 148, 20) 80          conv2d_2[0][0]                   
__________________________________________________________________________________________________
activation_2 (Activation)       (None, 112, 148, 20) 0           batch_normalization_2[0][0]      
__________________________________________________________________________________________________
max_pooling2d_1 (MaxPooling2D)  (None, 56, 74, 20)   0           activation_2[0][0]               
__________________________________________________________________________________________________
dropout_1 (Dropout)             (None, 56, 74, 20)   0           max_pooling2d_1[0][0]            
__________________________________________________________________________________________________
conv2d_3 (Conv2D)               (None, 56, 74, 40)   7240        dropout_1[0][0]                  
__________________________________________________________________________________________________
batch_normalization_3 (BatchNor (None, 56, 74, 40)   160         conv2d_3[0][0]                   
__________________________________________________________________________________________________
activation_3 (Activation)       (None, 56, 74, 40)   0           batch_normalization_3[0][0]      
__________________________________________________________________________________________________
conv2d_4 (Conv2D)               (None, 56, 74, 40)   14440       activation_3[0][0]               
__________________________________________________________________________________________________
batch_normalization_4 (BatchNor (None, 56, 74, 40)   160         conv2d_4[0][0]                   
__________________________________________________________________________________________________
activation_4 (Activation)       (None, 56, 74, 40)   0           batch_normalization_4[0][0]      
__________________________________________________________________________________________________
max_pooling2d_2 (MaxPooling2D)  (None, 28, 37, 40)   0           activation_4[0][0]               
__________________________________________________________________________________________________
dropout_2 (Dropout)             (None, 28, 37, 40)   0           max_pooling2d_2[0][0]            
__________________________________________________________________________________________________
conv2d_5 (Conv2D)               (None, 28, 37, 80)   28880       dropout_2[0][0]                  
__________________________________________________________________________________________________
batch_normalization_5 (BatchNor (None, 28, 37, 80)   320         conv2d_5[0][0]                   
__________________________________________________________________________________________________
activation_5 (Activation)       (None, 28, 37, 80)   0           batch_normalization_5[0][0]      
__________________________________________________________________________________________________
conv2d_6 (Conv2D)               (None, 28, 37, 80)   57680       activation_5[0][0]               
__________________________________________________________________________________________________
batch_normalization_6 (BatchNor (None, 28, 37, 80)   320         conv2d_6[0][0]                   
__________________________________________________________________________________________________
activation_6 (Activation)       (None, 28, 37, 80)   0           batch_normalization_6[0][0]      
__________________________________________________________________________________________________
dropout_3 (Dropout)             (None, 28, 37, 80)   0           activation_6[0][0]               
__________________________________________________________________________________________________
conv2d_transpose_1 (Conv2DTrans (None, 56, 74, 40)   12840       dropout_3[0][0]                  
__________________________________________________________________________________________________
concatenate_1 (Concatenate)     (None, 56, 74, 80)   0           conv2d_transpose_1[0][0]         
                                                                 activation_4[0][0]               
__________________________________________________________________________________________________
conv2d_7 (Conv2D)               (None, 56, 74, 40)   28840       concatenate_1[0][0]              
__________________________________________________________________________________________________
batch_normalization_7 (BatchNor (None, 56, 74, 40)   160         conv2d_7[0][0]                   
__________________________________________________________________________________________________
activation_7 (Activation)       (None, 56, 74, 40)   0           batch_normalization_7[0][0]      
__________________________________________________________________________________________________
conv2d_8 (Conv2D)               (None, 56, 74, 40)   14440       activation_7[0][0]               
__________________________________________________________________________________________________
batch_normalization_8 (BatchNor (None, 56, 74, 40)   160         conv2d_8[0][0]                   
__________________________________________________________________________________________________
activation_8 (Activation)       (None, 56, 74, 40)   0           batch_normalization_8[0][0]      
__________________________________________________________________________________________________
dropout_4 (Dropout)             (None, 56, 74, 40)   0           activation_8[0][0]               
__________________________________________________________________________________________________
conv2d_transpose_2 (Conv2DTrans (None, 112, 148, 20) 3220        dropout_4[0][0]                  
__________________________________________________________________________________________________
concatenate_2 (Concatenate)     (None, 112, 148, 40) 0           conv2d_transpose_2[0][0]         
                                                                 activation_2[0][0]               
__________________________________________________________________________________________________
conv2d_9 (Conv2D)               (None, 112, 148, 20) 7220        concatenate_2[0][0]              
__________________________________________________________________________________________________
batch_normalization_9 (BatchNor (None, 112, 148, 20) 80          conv2d_9[0][0]                   
__________________________________________________________________________________________________
activation_9 (Activation)       (None, 112, 148, 20) 0           batch_normalization_9[0][0]      
__________________________________________________________________________________________________
conv2d_10 (Conv2D)              (None, 112, 148, 20) 3620        activation_9[0][0]               2019-07-06 22:33:10.039108: I tensorflow/core/common_runtime/gpu/gpu_device.cc:1471] Adding visible gpu devices: 0
2019-07-06 22:33:10.039222: I tensorflow/core/common_runtime/gpu/gpu_device.cc:952] Device interconnect StreamExecutor with strength 1 edge matrix:
2019-07-06 22:33:10.039237: I tensorflow/core/common_runtime/gpu/gpu_device.cc:958]      0 
2019-07-06 22:33:10.039246: I tensorflow/core/common_runtime/gpu/gpu_device.cc:971] 0:   N 
…
{'val_loss': [… 'val_acc': [… 'val_mDice': [… 'loss': [… 'acc': [… 'mDice': [… ---------------------------------------------------------------
 Nucleus: [4]  | GPU: 5  | SD 1  | Dropout 0.3  | LR 0.001  | NL 3  |  mUnet |  FM 20 |  Upsample 1
Experiment: exp6
SubExperiment: sE8_mUnet_FM20_U-Net4_NL3_LS_MyBCE_US1_SingleClass
---------------------------------------------------------------
__________________________________________________________________________________________________
Layer (type)                    Output Shape         Param #     Connected to                     
==================================================================================================
input_1 (InputLayer)            (None, 84, 112, 1)   0                                            
__________________________________________________________________________________________________
conv2d_1 (Conv2D)               (None, 84, 112, 20)  200         input_1[0][0]                    
__________________________________________________________________________________________________
batch_normalization_1 (BatchNor (None, 84, 112, 20)  80          conv2d_1[0][0]                   
__________________________________________________________________________________________________
activation_1 (Activation)       (None, 84, 112, 20)  0           batch_normalization_1[0][0]      
__________________________________________________________________________________________________
conv2d_2 (Conv2D)               (None, 84, 112, 20)  3620        activation_1[0][0]               
__________________________________________________________________________________________________
batch_normalization_2 (BatchNor (None, 84, 112, 20)  80          conv2d_2[0][0]                   
__________________________________________________________________________________________________
activation_2 (Activation)       (None, 84, 112, 20)  0           batch_normalization_2[0][0]      
__________________________________________________________________________________________________
max_pooling2d_1 (MaxPooling2D)  (None, 42, 56, 20)   0           activation_2[0][0]               
__________________________________________________________________________________________________
dropout_1 (Dropout)             (None, 42, 56, 20)   0           max_pooling2d_1[0][0]            
__________________________________________________________________________________________________
conv2d_3 (Conv2D)               (None, 42, 56, 40)   7240        dropout_1[0][0]                  
__________________________________________________________________________________________________
batch_normalization_3 (BatchNor (None, 42, 56, 40)   160         conv2d_3[0][0]                   
__________________________________________________________________________________________________
2019-07-06 23:43:29.089706: I tensorflow/core/common_runtime/gpu/gpu_device.cc:1471] Adding visible gpu devices: 0
2019-07-06 23:43:29.089807: I tensorflow/core/common_runtime/gpu/gpu_device.cc:952] Device interconnect StreamExecutor with strength 1 edge matrix:
2019-07-06 23:43:29.089822: I tensorflow/core/common_runtime/gpu/gpu_device.cc:958]      0 
2019-07-06 23:43:29.089831: I tensorflow/core/common_runtime/gpu/gpu_device.cc:971] 0:   N 
2019-07-06 23:43:29.090245: I tensorflow/core/common_runtime/gpu/gpu_device.cc:1084] Created TensorFlow device (/job:localhost/replica:0/task:0/device:GPU:0 with 15123 MB memory) -> physical GPU (device: 0, name: Tesla P100-PCIE-16GB, pci bus id: 0000:85:00.0, compute capability: 6.0)
activation_3 (Activation)       (None, 42, 56, 40)   0           batch_normalization_3[0][0]      
__________________________________________________________________________________________________
conv2d_4 (Conv2D)               (None, 42, 56, 40)   14440       activation_3[0][0]               
__________________________________________________________________________________________________
batch_normalization_4 (BatchNor (None, 42, 56, 40)   160         conv2d_4[0][0]                   
__________________________________________________________________________________________________
activation_4 (Activation)       (None, 42, 56, 40)   0           batch_normalization_4[0][0]      
__________________________________________________________________________________________________
max_pooling2d_2 (MaxPooling2D)  (None, 21, 28, 40)   0           activation_4[0][0]               
__________________________________________________________________________________________________
dropout_2 (Dropout)             (None, 21, 28, 40)   0           max_pooling2d_2[0][0]            
__________________________________________________________________________________________________
conv2d_5 (Conv2D)               (None, 21, 28, 80)   28880       dropout_2[0][0]                  
__________________________________________________________________________________________________
batch_normalization_5 (BatchNor (None, 21, 28, 80)   320         conv2d_5[0][0]                   
__________________________________________________________________________________________________
activation_5 (Activation)       (None, 21, 28, 80)   0           batch_normalization_5[0][0]      
__________________________________________________________________________________________________
conv2d_6 (Conv2D)               (None, 21, 28, 80)   57680       activation_5[0][0]               
__________________________________________________________________________________________________
batch_normalization_6 (BatchNor (None, 21, 28, 80)   320         conv2d_6[0][0]                   
__________________________________________________________________________________________________
activation_6 (Activation)       (None, 21, 28, 80)   0           batch_normalization_6[0][0]      
__________________________________________________________________________________________________
dropout_3 (Dropout)             (None, 21, 28, 80)   0           activation_6[0][0]               
__________________________________________________________________________________________________
conv2d_transpose_1 (Conv2DTrans (None, 42, 56, 40)   12840       dropout_3[0][0]                  
__________________________________________________________________________________________________
concatenate_1 (Concatenate)     (None, 42, 56, 80)   0           conv2d_transpose_1[0][0]         
                                                                 activation_4[0][0]               
__________________________________________________________________________________________________
conv2d_7 (Conv2D)               (None, 42, 56, 40)   28840       concatenate_1[0][0]              
__________________________________________________________________________________________________
batch_normalization_7 (BatchNor (None, 42, 56, 40)   160         conv2d_7[0][0]                   
__________________________________________________________________________________________________
activation_7 (Activation)       (None, 42, 56, 40)   0           batch_normalization_7[0][0]      
__________________________________________________________________________________________________
conv2d_8 (Conv2D)               (None, 42, 56, 40)   14440       activation_7[0][0]               
__________________________________________________________________________________________________
batch_normalization_8 (BatchNor (None, 42, 56, 40)   160         conv2d_8[0][0]                   
__________________________________________________________________________________________________
activation_8 (Activation)       (None, 42, 56, 40)   0           batch_normalization_8[0][0]      
__________________________________________________________________________________________________
dropout_4 (Dropout)             (None, 42, 56, 40)   0           activation_8[0][0]               
__________________________________________________________________________________________________
conv2d_transpose_2 (Conv2DTrans (None, 84, 112, 20)  3220        dropout_4[0][0]                  
__________________________________________________________________________________________________
concatenate_2 (Concatenate)     (None, 84, 112, 40)  0           conv2d_transpose_2[0][0]         
                                                                 activation_2[0][0]               
__________________________________________________________________________________________________
conv2d_9 (Conv2D)               (None, 84, 112, 20)  7220        concatenate_2[0][0]              
__________________________________________________________________________________________________
batch_normalization_9 (BatchNor (None, 84, 112, 20)  80          conv2d_9[0][0]                   
__________________________________________________________________________________________________
activation_9 (Activation)       (None, 84, 112, 20)  0           batch_normalization_9[0][0]      
__________________________________________________________________________________________________
conv2d_10 (Conv2D)              (None, 84, 112, 20)  3620        activation_9[0][0]               
__________________________________________________________________________________________________
batch_normalization_10 (BatchNo (None, 84, 112, 20)  80          conv2d_10[0][0]                  
__________________________________________________________________________________________________
activation_10 (Activation)      (None, 84, 112, 20)  0           batch_normalization_10[0][0]     
__________________________________________________________________________________________________
dropout_5 (Dropout)             (None, 84, 112, 20)  0           activation_10[0][0]              
__________________________________________________________________________________________________
conv2d_11 (Conv2D)              (None, 84, 112, 2)   42          dropout_5[0][0]                  
==================================================================================================
Total params: 183,882
Trainable params: 183,082
Non-trainable params: 800
__________________________________________________________________________________________________
------------------------------------------------------------------
class_weights [0.99892265 0.00107735]
…
---------------------------------------------------------------
 Nucleus: [4]  | GPU: 5  | SD 0  | Dropout 0.3  | LR 0.001  | NL 3  |  mUnet |  FM 20 |  Upsample 1
Experiment: exp6
SubExperiment: sE8_mUnet_FM20_U-Net4_NL3_LS_MyBCE_US1_SingleClass
---------------------------------------------------------------
__________________________________________________________________________________________________
Layer (type)                    Output Shape         Param #     Connected to                     
==================================================================================================
input_1 (InputLayer)            (None, 148, 84, 1)   0                                            
__________________________________________________________________________________________________
conv2d_1 (Conv2D)               (None, 148, 84, 20)  200         input_1[0][0]                    
__________________________________________________________________________________________________
batch_normalization_1 (BatchNor (None, 148, 84, 20)  80          conv2d_1[0][0]                   
__________________________________________________________________________________________________
activation_1 (Activation)       (None, 148, 84, 20)  0           batch_normalization_1[0][0]      
__________________________________________________________________________________________________
conv2d_2 (Conv2D)               (None, 148, 84, 20)  3620        activation_1[0][0]               
__________________________________________________________________________________________________
batch_normalization_2 (BatchNor (None, 148, 84, 20)  80          conv2d_2[0][0]                   
__________________________________________________________________________________________________
activation_2 (Activation)       (None, 148, 84, 20)  0           batch_normalization_2[0][0]      
__________________________________________________________________________________________________
max_pooling2d_1 (MaxPooling2D)  (None, 74, 42, 20)   0           activation_2[0][0]               
__________________________________________________________________________________________________
dropout_1 (Dropout)             (None, 74, 42, 20)   0           max_pooling2d_1[0][0]            
__________________________________________________________________________________________________
conv2d_3 (Conv2D)               (None, 74, 42, 40)   7240        dropout_1[0][0]                  
__________________________________________________________________________________________________
batch_normalization_3 (BatchNor (None, 74, 42, 40)   160         conv2d_3[0][0]                   
__________________________________________________________________________________________________
activation_3 (Activation)       (None, 74, 42, 40)   0           batch_normalization_3[0][0]      
__________________________________________________________________________________________________
conv2d_4 (Conv2D)               (None, 74, 42, 40)   14440       activation_3[0][0]               
__________________________________________________________________________________________________
batch_normalization_4 (BatchNor (None, 74, 42, 40)   160         conv2d_4[0][0]                   
__________________________________________________________________________________________________
activation_4 (Activation)       (None, 74, 42, 40)   0           batch_normalization_4[0][0]      
__________________________________________________________________________________________________
max_pooling2d_2 (MaxPooling2D)  (None, 37, 21, 40)   0           activation_4[0][0]               
__________________________________________________________________________________________________
dropout_2 (Dropout)             (None, 37, 21, 40)   0           max_pooling2d_2[0][0]            
__________________________________________________________________________________________________
conv2d_5 (Conv2D)               (None, 37, 21, 80)   28880       dropout_2[0][0]                  
__________________________________________________________________________________________________
batch_normalization_5 (BatchNor (None, 37, 21, 80)   320         conv2d_5[0][0]                   
__________________________________________________________________________________________________
activation_5 (Activation)       (None, 37, 21, 80)   0           batch_normalization_5[0][0]      
__________________________________________________________________________________________________
conv2d_6 (Conv2D)               (None, 37, 21, 80)   57680       activation_5[0][0]               
__________________________________________________________________________________________________
batch_normalization_6 (BatchNor (None, 37, 21, 80)   320         conv2d_6[0][0]                   
__________________________________________________________________________________________________
activation_6 (Activation)       (None, 37, 21, 80)   0           batch_normalization_6[0][0]      
__________________________________________________________________________________________________
dropout_3 (Dropout)             (None, 37, 21, 80)   0           activation_6[0][0]               
__________________________________________________________________________________________________
conv2d_transpose_1 (Conv2DTrans (None, 74, 42, 40)   12840       dropout_3[0][0]                  
__________________________________________________________________________________________________
concatenate_1 (Concatenate)     (None, 74, 42, 80)   0           conv2d_transpose_1[0][0]         
                                                                 activation_4[0][0]               
__________________________________________________________________________________________________
conv2d_7 (Conv2D)               (None, 74, 42, 40)   28840       concatenate_1[0][0]              
__________________________________________________________________________________________________
batch_normalization_7 (BatchNor (None, 74, 42, 40)   160         conv2d_7[0][0]                   
__________________________________________________________________________________________________
activation_7 (Activation)       (None, 74, 42, 40)   0           batch_normalization_7[0][0]      
__________________________________________________________________________________________________
conv2d_8 (Conv2D)               (None, 74, 42, 40)   14440       activation_7[0][0]               
__________________________________________________________________________________________________
batch_normalization_8 (BatchNor (None, 74, 42, 40)   160         conv2d_8[0][0]                   
__________________________________________________________________________________________________
activation_8 (Activation)       (None, 74, 42, 40)   0           batch_normalization_8[0][0]      
__________________________________________________________________________________________________
dropout_4 (Dropout)             (None, 74, 42, 40)   0           activation_8[0][0]               
__________________________________________________________________________________________________
conv2d_transpose_2 (Conv2DTrans (None, 148, 84, 20)  3220        dropout_4[0][0]                  
__________________________________________________________________________________________________
concatenate_2 (Concatenate)     (None, 148, 84, 40)  0           conv2d_transpose_2[0][0]         
                                                                 activation_2[0][0]               
__________________________________________________________________________________________________
conv2d_9 (Conv2D)               (None, 148, 84, 20)  7220        concatenate_2[0][0]              
__________________________________________________________________________________________________
batch_normalization_9 (BatchNor (None, 148, 84, 20)  80          conv2d_9[0][0]                   
__________________________________________________________________________________________________
activation_9 (Activation)       (None, 148, 84, 20)  0           batch_normalization_9[0][0]      2019-07-07 01:50:37.972593: I tensorflow/core/common_runtime/gpu/gpu_device.cc:1471] Adding visible gpu devices: 0
2019-07-07 01:50:37.972698: I tensorflow/core/common_runtime/gpu/gpu_device.cc:952] Device interconnect StreamExecutor with strength 1 edge matrix:
2019-07-07 01:50:37.972712: I tensorflow/core/common_runtime/gpu/gpu_device.cc:958]      0 
2019-07-07 01:50:37.972721: I tensorflow/core/common_runtime/gpu/gpu_device.cc:971] 0:   N 
2019-07-07 01:50:37.973117: I tensorflow/core/common_runtime/gpu/gpu_device.cc:1084] Created TensorFlow device (/job:localhost/replica:0/task:0/device:GPU:0 with 15123 MB memory) -> physical GPU (device: 0, name: Tesla P100-PCIE-16GB, pci bus id: 0000:85:00.0, compute capability: 6.0)

__________________________________________________________________________________________________
conv2d_10 (Conv2D)              (None, 148, 84, 20)  3620        activation_9[0][0]               
__________________________________________________________________________________________________
batch_normalization_10 (BatchNo (None, 148, 84, 20)  80          conv2d_10[0][0]                  
__________________________________________________________________________________________________
activation_10 (Activation)      (None, 148, 84, 20)  0           batch_normalization_10[0][0]     
__________________________________________________________________________________________________
dropout_5 (Dropout)             (None, 148, 84, 20)  0           activation_10[0][0]              
__________________________________________________________________________________________________
conv2d_11 (Conv2D)              (None, 148, 84, 2)   42          dropout_5[0][0]                  
==================================================================================================
Total params: 183,882
Trainable params: 183,082
Non-trainable params: 800
__________________________________________________________________________________________________
------------------------------------------------------------------
class_weights [9.99099133e-01 9.00867250e-04]
…
---------------------------------------------------------------
 Nucleus: [5]  | GPU: 5  | SD 2  | Dropout 0.3  | LR 0.001  | NL 3  |  mUnet |  FM 20 |  Upsample 1
Experiment: exp6
SubExperiment: sE8_mUnet_FM20_U-Net4_NL3_LS_MyBCE_US1_SingleClass
---------------------------------------------------------------
__________________________________________________________________________________________________
Layer (type)                    Output Shape         Param #     Connected to                     
==================================================================================================
input_1 (InputLayer)            (None, 112, 148, 1)  0                                            
__________________________________________________________________________________________________
conv2d_1 (Conv2D)               (None, 112, 148, 20) 200         input_1[0][0]                    
__________________________________________________________________________________________________
batch_normalization_1 (BatchNor (None, 112, 148, 20) 80          conv2d_1[0][0]                   
__________________________________________________________________________________________________
activation_1 (Activation)       (None, 112, 148, 20) 0           batch_normalization_1[0][0]      
__________________________________________________________________________________________________
conv2d_2 (Conv2D)               (None, 112, 148, 20) 3620        activation_1[0][0]               
__________________________________________________________________________________________________
batch_normalization_2 (BatchNor (None, 112, 148, 20) 80          conv2d_2[0][0]                   
__________________________________________________________________________________________________
activation_2 (Activation)       (None, 112, 148, 20) 0           batch_normalization_2[0][0]      
__________________________________________________________________________________________________
max_pooling2d_1 (MaxPooling2D)  (None, 56, 74, 20)   0           activation_2[0][0]               
__________________________________________________________________________________________________
dropout_1 (Dropout)             (None, 56, 74, 20)   0           max_pooling2d_1[0][0]            
__________________________________________________________________________________________________
conv2d_3 (Conv2D)               (None, 56, 74, 40)   7240        dropout_1[0][0]                  
__________________________________________________________________________________________________
batch_normalization_3 (BatchNor (None, 56, 74, 40)   160         conv2d_3[0][0]                   
__________________________________________________________________________________________________
activation_3 (Activation)       (None, 56, 74, 40)   0           batch_normalization_3[0][0]      
__________________________________________________________________________________________________
conv2d_4 (Conv2D)               (None, 56, 74, 40)   14440       activation_3[0][0]               
__________________________________________________________________________________________________
batch_normalization_4 (BatchNor (None, 56, 74, 40)   160         conv2d_4[0][0]                   
__________________________________________________________________________________________________
activation_4 (Activation)       (None, 56, 74, 40)   0           batch_normalization_4[0][0]      
__________________________________________________________________________________________________
max_pooling2d_2 (MaxPooling2D)  (None, 28, 37, 40)   0           activation_4[0][0]               
__________________________________________________________________________________________________
dropout_2 (Dropout)             (None, 28, 37, 40)   0           max_pooling2d_2[0][0]            
__________________________________________________________________________________________________
conv2d_5 (Conv2D)               (None, 28, 37, 80)   28880       dropout_2[0][0]                  
__________________________________________________________________________________________________
batch_normalization_5 (BatchNor (None, 28, 37, 80)   320         conv2d_5[0][0]                   
__________________________________________________________________________________________________
activation_5 (Activation)       (None, 28, 37, 80)   0           batch_normalization_5[0][0]      
__________________________________________________________________________________________________
conv2d_6 (Conv2D)               (None, 28, 37, 80)   57680       activation_5[0][0]               
__________________________________________________________________________________________________
batch_normalization_6 (BatchNor (None, 28, 37, 80)   320         conv2d_6[0][0]                   
__________________________________________________________________________________________________
activation_6 (Activation)       (None, 28, 37, 80)   0           batch_normalization_6[0][0]      
__________________________________________________________________________________________________
dropout_3 (Dropout)             (None, 28, 37, 80)   0           activation_6[0][0]               
__________________________________________________________________________________________________
conv2d_transpose_1 (Conv2DTrans (None, 56, 74, 40)   12840       dropout_3[0][0]                  
__________________________________________________________________________________________________
concatenate_1 (Concatenate)     (None, 56, 74, 80)   0           conv2d_transpose_1[0][0]         
                                                                 activation_4[0][0]               
__________________________________________________________________________________________________
conv2d_7 (Conv2D)               (None, 56, 74, 40)   28840       concatenate_1[0][0]              
__________________________________________________________________________________________________
batch_normalization_7 (BatchNor (None, 56, 74, 40)   160         conv2d_7[0][0]                   
__________________________________________________________________________________________________
activation_7 (Activation)       (None, 56, 74, 40)   0           batch_normalization_7[0][0]      
__________________________________________________________________________________________________
conv2d_8 (Conv2D)               (None, 56, 74, 40)   14440       activation_7[0][0]               
__________________________________________________________________________________________________
batch_normalization_8 (BatchNor (None, 56, 74, 40)   160         conv2d_8[0][0]                   
__________________________________________________________________________________________________
activation_8 (Activation)       (None, 56, 74, 40)   0           batch_normalization_8[0][0]      
__________________________________________________________________________________________________
dropout_4 (Dropout)             (None, 56, 74, 40)   0           activation_8[0][0]               
__________________________________________________________________________________________________
conv2d_transpose_2 (Conv2DTrans (None, 112, 148, 20) 3220        dropout_4[0][0]                  
__________________________________________________________________________________________________
concatenate_2 (Concatenate)     (None, 112, 148, 40) 0           conv2d_transpose_2[0][0]         
                                                                 activation_2[0][0]               
__________________________________________________________________________________________________
conv2d_9 (Conv2D)               (None, 112, 148, 20) 7220        concatenate_2[0][0]              
__________________________________________________________________________________________________
batch_normalization_9 (BatchNor (None, 112, 148, 20) 80          conv2d_9[0][0]                   2019-07-07 04:50:31.418467: I tensorflow/core/common_runtime/gpu/gpu_device.cc:1471] Adding visible gpu devices: 0
2019-07-07 04:50:31.418571: I tensorflow/core/common_runtime/gpu/gpu_device.cc:952] Device interconnect StreamExecutor with strength 1 edge matrix:
2019-07-07 04:50:31.418586: I tensorflow/core/common_runtime/gpu/gpu_device.cc:958]      0 
2019-07-07 04:50:31.418596: I tensorflow/core/common_runtime/gpu/gpu_device.cc:971] 0:   N 
2019-07-07 04:50:31.418994: I tensorflow/core/common_runtime/gpu/gpu_device.cc:1084] Created TensorFlow device (/job:localhost/replica:0/task:0/device:GPU:0 with 15123 MB memory) -> physical GPU (device: 0, name: Tesla P100-PCIE-16GB, pci bus id: 0000:85:00.0, compute capability: 6.0)

__________________________________________________________________________________________________
activation_9 (Activation)       (None, 112, 148, 20) 0           batch_normalization_9[0][0]      
__________________________________________________________________________________________________
conv2d_10 (Conv2D)              (None, 112, 148, 20) 3620        activation_9[0][0]               
__________________________________________________________________________________________________
batch_normalization_10 (BatchNo (None, 112, 148, 20) 80          conv2d_10[0][0]                  
__________________________________________________________________________________________________
activation_10 (Activation)      (None, 112, 148, 20) 0           batch_normalization_10[0][0]     
__________________________________________________________________________________________________
dropout_5 (Dropout)             (None, 112, 148, 20) 0           activation_10[0][0]              
__________________________________________________________________________________________________
conv2d_11 (Conv2D)              (None, 112, 148, 2)  42          dropout_5[0][0]                  
==================================================================================================
Total params: 183,882
Trainable params: 183,082
Non-trainable params: 800
__________________________________________________________________________________________________
------------------------------------------------------------------
class_weights [9.99757321e-01 2.42679038e-04]
…
{'val_loss': [… 'val_acc': [… 'val_mDice': [… 'loss': [… 'acc': [… 'mDice': [… ---------------------------------------------------------------
 Nucleus: [6]  | GPU: 5  | SD 1  | Dropout 0.3  | LR 0.001  | NL 3  |  mUnet |  FM 20 |  Upsample 1
Experiment: exp6
SubExperiment: sE8_mUnet_FM20_U-Net4_NL3_LS_MyBCE_US1_SingleClass
---------------------------------------------------------------
__________________________________________________________________________________________________
Layer (type)                    Output Shape         Param #     Connected to                     
==================================================================================================
input_1 (InputLayer)            (None, 84, 112, 1)   0                                            
__________________________________________________________________________________________________
conv2d_1 (Conv2D)               (None, 84, 112, 20)  200         input_1[0][0]                    
__________________________________________________________________________________________________
batch_normalization_1 (BatchNor (None, 84, 112, 20)  80          conv2d_1[0][0]                   
__________________________________________________________________________________________________
activation_1 (Activation)       (None, 84, 112, 20)  0           batch_normalization_1[0][0]      
__________________________________________________________________________________________________
conv2d_2 (Conv2D)               (None, 84, 112, 20)  3620        activation_1[0][0]               
__________________________________________________________________________________________________
batch_normalization_2 (BatchNor (None, 84, 112, 20)  80          conv2d_2[0][0]                   
__________________________________________________________________________________________________
activation_2 (Activation)       (None, 84, 112, 20)  0           batch_normalization_2[0][0]      
__________________________________________________________________________________________________
max_pooling2d_1 (MaxPooling2D)  (None, 42, 56, 20)   0           activation_2[0][0]               
__________________________________________________________________________________________________
dropout_1 (Dropout)             (None, 42, 56, 20)   0           max_pooling2d_1[0][0]            
__________________________________________________________________________________________________
conv2d_3 (Conv2D)               (None, 42, 56, 40)   7240        dropout_1[0][0]                  2019-07-07 12:26:09.343665: I tensorflow/core/common_runtime/gpu/gpu_device.cc:1471] Adding visible gpu devices: 0
2019-07-07 12:26:09.343765: I tensorflow/core/common_runtime/gpu/gpu_device.cc:952] Device interconnect StreamExecutor with strength 1 edge matrix:
2019-07-07 12:26:09.343781: I tensorflow/core/common_runtime/gpu/gpu_device.cc:958]      0 
2019-07-07 12:26:09.343791: I tensorflow/core/common_runtime/gpu/gpu_device.cc:971] 0:   N 
2019-07-07 12:26:09.344138: I tensorflow/core/common_runtime/gpu/gpu_device.cc:1084] Created TensorFlow device (/job:localhost/replica:0/task:0/device:GPU:0 with 15123 MB memory) -> physical GPU (device: 0, name: Tesla P100-PCIE-16GB, pci bus id: 0000:85:00.0, compute capability: 6.0)

__________________________________________________________________________________________________
batch_normalization_3 (BatchNor (None, 42, 56, 40)   160         conv2d_3[0][0]                   
__________________________________________________________________________________________________
activation_3 (Activation)       (None, 42, 56, 40)   0           batch_normalization_3[0][0]      
__________________________________________________________________________________________________
conv2d_4 (Conv2D)               (None, 42, 56, 40)   14440       activation_3[0][0]               
__________________________________________________________________________________________________
batch_normalization_4 (BatchNor (None, 42, 56, 40)   160         conv2d_4[0][0]                   
__________________________________________________________________________________________________
activation_4 (Activation)       (None, 42, 56, 40)   0           batch_normalization_4[0][0]      
__________________________________________________________________________________________________
max_pooling2d_2 (MaxPooling2D)  (None, 21, 28, 40)   0           activation_4[0][0]               
__________________________________________________________________________________________________
dropout_2 (Dropout)             (None, 21, 28, 40)   0           max_pooling2d_2[0][0]            
__________________________________________________________________________________________________
conv2d_5 (Conv2D)               (None, 21, 28, 80)   28880       dropout_2[0][0]                  
__________________________________________________________________________________________________
batch_normalization_5 (BatchNor (None, 21, 28, 80)   320         conv2d_5[0][0]                   
__________________________________________________________________________________________________
activation_5 (Activation)       (None, 21, 28, 80)   0           batch_normalization_5[0][0]      
__________________________________________________________________________________________________
conv2d_6 (Conv2D)               (None, 21, 28, 80)   57680       activation_5[0][0]               
__________________________________________________________________________________________________
batch_normalization_6 (BatchNor (None, 21, 28, 80)   320         conv2d_6[0][0]                   
__________________________________________________________________________________________________
activation_6 (Activation)       (None, 21, 28, 80)   0           batch_normalization_6[0][0]      
__________________________________________________________________________________________________
dropout_3 (Dropout)             (None, 21, 28, 80)   0           activation_6[0][0]               
__________________________________________________________________________________________________
conv2d_transpose_1 (Conv2DTrans (None, 42, 56, 40)   12840       dropout_3[0][0]                  
__________________________________________________________________________________________________
concatenate_1 (Concatenate)     (None, 42, 56, 80)   0           conv2d_transpose_1[0][0]         
                                                                 activation_4[0][0]               
__________________________________________________________________________________________________
conv2d_7 (Conv2D)               (None, 42, 56, 40)   28840       concatenate_1[0][0]              
__________________________________________________________________________________________________
batch_normalization_7 (BatchNor (None, 42, 56, 40)   160         conv2d_7[0][0]                   
__________________________________________________________________________________________________
activation_7 (Activation)       (None, 42, 56, 40)   0           batch_normalization_7[0][0]      
__________________________________________________________________________________________________
conv2d_8 (Conv2D)               (None, 42, 56, 40)   14440       activation_7[0][0]               
__________________________________________________________________________________________________
batch_normalization_8 (BatchNor (None, 42, 56, 40)   160         conv2d_8[0][0]                   
__________________________________________________________________________________________________
activation_8 (Activation)       (None, 42, 56, 40)   0           batch_normalization_8[0][0]      
__________________________________________________________________________________________________
dropout_4 (Dropout)             (None, 42, 56, 40)   0           activation_8[0][0]               
__________________________________________________________________________________________________
conv2d_transpose_2 (Conv2DTrans (None, 84, 112, 20)  3220        dropout_4[0][0]                  
__________________________________________________________________________________________________
concatenate_2 (Concatenate)     (None, 84, 112, 40)  0           conv2d_transpose_2[0][0]         
                                                                 activation_2[0][0]               
__________________________________________________________________________________________________
conv2d_9 (Conv2D)               (None, 84, 112, 20)  7220        concatenate_2[0][0]              
__________________________________________________________________________________________________
batch_normalization_9 (BatchNor (None, 84, 112, 20)  80          conv2d_9[0][0]                   
__________________________________________________________________________________________________
activation_9 (Activation)       (None, 84, 112, 20)  0           batch_normalization_9[0][0]      
__________________________________________________________________________________________________
conv2d_10 (Conv2D)              (None, 84, 112, 20)  3620        activation_9[0][0]               
__________________________________________________________________________________________________
batch_normalization_10 (BatchNo (None, 84, 112, 20)  80          conv2d_10[0][0]                  
__________________________________________________________________________________________________
activation_10 (Activation)      (None, 84, 112, 20)  0           batch_normalization_10[0][0]     
__________________________________________________________________________________________________
dropout_5 (Dropout)             (None, 84, 112, 20)  0           activation_10[0][0]              
__________________________________________________________________________________________________
conv2d_11 (Conv2D)              (None, 84, 112, 2)   42          dropout_5[0][0]                  
==================================================================================================
Total params: 183,882
Trainable params: 183,082
Non-trainable params: 800
__________________________________________________________________________________________________
------------------------------------------------------------------
class_weights [0.99689201 0.00310799]
…
{'val_loss': [… 'val_acc': [… 'val_mDice': [… 'loss': [… 'acc': [… 'mDice': [… ---------------------------------------------------------------
 Nucleus: [10]  | GPU: 5  | SD 0  | Dropout 0.3  | LR 0.001  | NL 3  |  mUnet |  FM 20 |  Upsample 1
Experiment: exp6
SubExperiment: sE8_mUnet_FM20_U-Net4_NL3_LS_MyBCE_US1_SingleClass
---------------------------------------------------------------
__________________________________________________________________________________________________
Layer (type)                    Output Shape         Param #     Connected to                     
==================================================================================================
input_1 (InputLayer)            (None, 148, 84, 1)   0                                            
__________________________________________________________________________________________________
conv2d_1 (Conv2D)               (None, 148, 84, 20)  200         input_1[0][0]                    
__________________________________________________________________________________________________
batch_normalization_1 (BatchNor (None, 148, 84, 20)  80          conv2d_1[0][0]                   
__________________________________________________________________________________________________
activation_1 (Activation)       (None, 148, 84, 20)  0           batch_normalization_1[0][0]      
__________________________________________________________________________________________________
conv2d_2 (Conv2D)               (None, 148, 84, 20)  3620        activation_1[0][0]               
__________________________________________________________________________________________________
batch_normalization_2 (BatchNor (None, 148, 84, 20)  80          conv2d_2[0][0]                   
__________________________________________________________________________________________________
activation_2 (Activation)       (None, 148, 84, 20)  0           batch_normalization_2[0][0]      
__________________________________________________________________________________________________
max_pooling2d_1 (MaxPooling2D)  (None, 74, 42, 20)   0           activation_2[0][0]               
__________________________________________________________________________________________________
dropout_1 (Dropout)             (None, 74, 42, 20)   0           max_pooling2d_1[0][0]            
__________________________________________________________________________________________________
conv2d_3 (Conv2D)               (None, 74, 42, 40)   7240        dropout_1[0][0]                  
__________________________________________________________________________________________________
batch_normalization_3 (BatchNor (None, 74, 42, 40)   160         conv2d_3[0][0]                   
__________________________________________________________________________________________________
activation_3 (Activation)       (None, 74, 42, 40)   0           batch_normalization_3[0][0]      2019-07-08 23:52:27.816223: I tensorflow/core/common_runtime/gpu/gpu_device.cc:1471] Adding visible gpu devices: 0
2019-07-08 23:52:27.816339: I tensorflow/core/common_runtime/gpu/gpu_device.cc:952] Device interconnect StreamExecutor with strength 1 edge matrix:
2019-07-08 23:52:27.816356: I tensorflow/core/common_runtime/gpu/gpu_device.cc:958]      0 
2019-07-08 23:52:27.816366: I tensorflow/core/common_runtime/gpu/gpu_device.cc:971] 0:   N 
2019-07-08 23:52:27.816824: I tensorflow/core/common_runtime/gpu/gpu_device.cc:1084] Created TensorFlow device (/job:localhost/replica:0/task:0/device:GPU:0 with 15123 MB memory) -> physical GPU (device: 0, name: Tesla P100-PCIE-16GB, pci bus id: 0000:85:00.0, compute capability: 6.0)

__________________________________________________________________________________________________
conv2d_4 (Conv2D)               (None, 74, 42, 40)   14440       activation_3[0][0]               
__________________________________________________________________________________________________
batch_normalization_4 (BatchNor (None, 74, 42, 40)   160         conv2d_4[0][0]                   
__________________________________________________________________________________________________
activation_4 (Activation)       (None, 74, 42, 40)   0           batch_normalization_4[0][0]      
__________________________________________________________________________________________________
max_pooling2d_2 (MaxPooling2D)  (None, 37, 21, 40)   0           activation_4[0][0]               
__________________________________________________________________________________________________
dropout_2 (Dropout)             (None, 37, 21, 40)   0           max_pooling2d_2[0][0]            
__________________________________________________________________________________________________
conv2d_5 (Conv2D)               (None, 37, 21, 80)   28880       dropout_2[0][0]                  
__________________________________________________________________________________________________
batch_normalization_5 (BatchNor (None, 37, 21, 80)   320         conv2d_5[0][0]                   
__________________________________________________________________________________________________
activation_5 (Activation)       (None, 37, 21, 80)   0           batch_normalization_5[0][0]      
__________________________________________________________________________________________________
conv2d_6 (Conv2D)               (None, 37, 21, 80)   57680       activation_5[0][0]               
__________________________________________________________________________________________________
batch_normalization_6 (BatchNor (None, 37, 21, 80)   320         conv2d_6[0][0]                   
__________________________________________________________________________________________________
activation_6 (Activation)       (None, 37, 21, 80)   0           batch_normalization_6[0][0]      
__________________________________________________________________________________________________
dropout_3 (Dropout)             (None, 37, 21, 80)   0           activation_6[0][0]               
__________________________________________________________________________________________________
conv2d_transpose_1 (Conv2DTrans (None, 74, 42, 40)   12840       dropout_3[0][0]                  
__________________________________________________________________________________________________
concatenate_1 (Concatenate)     (None, 74, 42, 80)   0           conv2d_transpose_1[0][0]         
                                                                 activation_4[0][0]               
__________________________________________________________________________________________________
conv2d_7 (Conv2D)               (None, 74, 42, 40)   28840       concatenate_1[0][0]              
__________________________________________________________________________________________________
batch_normalization_7 (BatchNor (None, 74, 42, 40)   160         conv2d_7[0][0]                   
__________________________________________________________________________________________________
activation_7 (Activation)       (None, 74, 42, 40)   0           batch_normalization_7[0][0]      
__________________________________________________________________________________________________
conv2d_8 (Conv2D)               (None, 74, 42, 40)   14440       activation_7[0][0]               
__________________________________________________________________________________________________
batch_normalization_8 (BatchNor (None, 74, 42, 40)   160         conv2d_8[0][0]                   
__________________________________________________________________________________________________
activation_8 (Activation)       (None, 74, 42, 40)   0           batch_normalization_8[0][0]      
__________________________________________________________________________________________________
dropout_4 (Dropout)             (None, 74, 42, 40)   0           activation_8[0][0]               
__________________________________________________________________________________________________
conv2d_transpose_2 (Conv2DTrans (None, 148, 84, 20)  3220        dropout_4[0][0]                  
__________________________________________________________________________________________________
concatenate_2 (Concatenate)     (None, 148, 84, 40)  0           conv2d_transpose_2[0][0]         
                                                                 activation_2[0][0]               
__________________________________________________________________________________________________
conv2d_9 (Conv2D)               (None, 148, 84, 20)  7220        concatenate_2[0][0]              
__________________________________________________________________________________________________
batch_normalization_9 (BatchNor (None, 148, 84, 20)  80          conv2d_9[0][0]                   
__________________________________________________________________________________________________
activation_9 (Activation)       (None, 148, 84, 20)  0           batch_normalization_9[0][0]      
__________________________________________________________________________________________________
conv2d_10 (Conv2D)              (None, 148, 84, 20)  3620        activation_9[0][0]               
__________________________________________________________________________________________________
batch_normalization_10 (BatchNo (None, 148, 84, 20)  80          conv2d_10[0][0]                  
__________________________________________________________________________________________________
activation_10 (Activation)      (None, 148, 84, 20)  0           batch_normalization_10[0][0]     
__________________________________________________________________________________________________
dropout_5 (Dropout)             (None, 148, 84, 20)  0           activation_10[0][0]              
__________________________________________________________________________________________________
conv2d_11 (Conv2D)              (None, 148, 84, 2)   42          dropout_5[0][0]                  
==================================================================================================
Total params: 183,882
Trainable params: 183,082
Non-trainable params: 800
__________________________________________________________________________________________________
------------------------------------------------------------------
class_weights [9.99797023e-01 2.02976779e-04]
…
