…
Error in label values min 0.0 max 3.0      9-LGN
Error in label values min 0.0 max 2.0      10-MGN
Error in label values min 0.0 max 2.0      11-CM
Error in label values min 0.0 max 5.0      12-MD-Pf
Error in label values min 0.0 max 30.0      13-Hb
Error in label values min 0.0 max 4.0      14-MTT
__________________________________________________________________________________________________
Layer (type)                    Output Shape         Param #     Connected to                     
==================================================================================================
input_1 (InputLayer)            (None, 52, 80, 1)    0                                            
__________________________________________________________________________________________________
conv2d_1 (Conv2D)               (None, 52, 80, 10)   100         input_1[0][0]                    
__________________________________________________________________________________________________
batch_normalization_1 (BatchNor (None, 52, 80, 10)   40          conv2d_1[0][0]                   
__________________________________________________________________________________________________
activation_1 (Activation)       (None, 52, 80, 10)   0           batch_normalization_1[0][0]      
__________________________________________________________________________________________________
dropout_1 (Dropout)             (None, 52, 80, 10)   0           activation_1[0][0]               
__________________________________________________________________________________________________
conv2d_2 (Conv2D)               (None, 52, 80, 10)   910         dropout_1[0][0]                  
__________________________________________________________________________________________________
batch_normalization_2 (BatchNor (None, 52, 80, 10)   40          conv2d_2[0][0]                   
__________________________________________________________________________________________________
activation_2 (Activation)       (None, 52, 80, 10)   0           batch_normalization_2[0][0]      
__________________________________________________________________________________________________
dropout_2 (Dropout)             (None, 52, 80, 10)   0           activation_2[0][0]               
__________________________________________________________________________________________________
conv2d_3 (Conv2D)               (None, 52, 80, 10)   910         dropout_2[0][0]                  
__________________________________________________________________________________________________
batch_normalization_3 (BatchNor (None, 52, 80, 10)   40          conv2d_3[0][0]                   
__________________________________________________________________________________________________
activation_3 (Activation)       (None, 52, 80, 10)   0           batch_normalization_3[0][0]      
__________________________________________________________________________________________________
dropout_3 (Dropout)             (None, 52, 80, 10)   0           activation_3[0][0]               
__________________________________________________________________________________________________
conv2d_4 (Conv2D)               (None, 52, 80, 20)   1820        dropout_3[0][0]                  
__________________________________________________________________________________________________
batch_normalization_4 (BatchNor (None, 52, 80, 20)   80          conv2d_4[0][0]                   
__________________________________________________________________________________________________
activation_4 (Activation)       (None, 52, 80, 20)   0           batch_normalization_4[0][0]      
__________________________________________________________________________________________________
conv2d_5 (Conv2D)               (None, 52, 80, 20)   3620        activation_4[0][0]               
__________________________________________________________________________________________________
batch_normalization_5 (BatchNor (None, 52, 80, 20)   80          conv2d_5[0][0]                   
__________________________________________________________________________________________________
activation_5 (Activation)       (None, 52, 80, 20)   0           batch_normalization_5[0][0]      
__________________________________________________________________________________________________
max_pooling2d_1 (MaxPooling2D)  (None, 26, 40, 20)   0           activation_5[0][0]               
__________________________________________________________________________________________________
dropout_4 (Dropout)             (None, 26, 40, 20)   0           max_pooling2d_1[0][0]            
__________________________________________________________________________________________________
conv2d_6 (Conv2D)               (None, 26, 40, 40)   7240        dropout_4[0][0]                  
__________________________________________________________________________________________________
batch_normalization_6 (BatchNor (None, 26, 40, 40)   160         conv2d_6[0][0]                   
__________________________________________________________________________________________________
activation_6 (Activation)       (None, 26, 40, 40)   0           batch_normalization_6[0][0]      
__________________________________________________________________________________________________
conv2d_7 (Conv2D)               (None, 26, 40, 40)   14440       activation_6[0][0]               
__________________________________________________________________________________________________
batch_normalization_7 (BatchNor (None, 26, 40, 40)   160         conv2d_7[0][0]                   
__________________________________________________________________________________________________
activation_7 (Activation)       (None, 26, 40, 40)   0           batch_normalization_7[0][0]      
__________________________________________________________________________________________________
max_pooling2d_2 (MaxPooling2D)  (None, 13, 20, 40)   0           activation_7[0][0]               
__________________________________________________________________________________________________
dropout_5 (Dropout)             (None, 13, 20, 40)   0           max_pooling2d_2[0][0]            
__________________________________________________________________________________________________
conv2d_8 (Conv2D)               (None, 13, 20, 80)   28880       dropout_5[0][0]                  
__________________________________________________________________________________________________
batch_normalization_8 (BatchNor (None, 13, 20, 80)   320         conv2d_8[0][0]                   
__________________________________________________________________________________________________
activation_8 (Activation)       (None, 13, 20, 80)   0           batch_normalization_8[0][0]      
__________________________________________________________________________________________________
conv2d_9 (Conv2D)               (None, 13, 20, 80)   57680       activation_8[0][0]               
__________________________________________________________________________________________________
batch_normalization_9 (BatchNor (None, 13, 20, 80)   320         conv2d_9[0][0]                   
__________________________________________________________________________________________________
activation_9 (Activation)       (None, 13, 20, 80)   0           batch_normalization_9[0][0]      
__________________________________________________________________________________________________
dropout_6 (Dropout)             (None, 13, 20, 80)   0           activation_9[0][0]               
__________________________________________________________________________________________________
conv2d_transpose_1 (Conv2DTrans (None, 26, 40, 40)   12840       dropout_6[0][0]                  
__________________________________________________________________________________________________
concatenate_1 (Concatenate)     (None, 26, 40, 80)   0           conv2d_transpose_1[0][0]         
                                                                 activation_7[0][0]               
__________________________________________________________________________________________________
conv2d_10 (Conv2D)              (None, 26, 40, 40)   28840       concatenate_1[0][0]              
__________________________________________________________________________________________________
batch_normalization_10 (BatchNo (None, 26, 40, 40)   160         conv2d_10[0][0]                  
__________________________________________________________________________________________________
activation_10 (Activation)      (None, 26, 40, 40)   0           batch_normalization_10[0][0]     
__________________________________________________________________________________________________
conv2d_11 (Conv2D)              (None, 26, 40, 40)   14440       activation_10[0][0]              
__________________________________________________________________________________________________
batch_normalization_11 (BatchNo (None, 26, 40, 40)   160         conv2d_11[0][0]                  
__________________________________________________________________________________________________
activation_11 (Activation)      (None, 26, 40, 40)   0           batch_normalization_11[0][0]     
__________________________________________________________________________________________________
dropout_7 (Dropout)             (None, 26, 40, 40)   0           activation_11[0][0]              
__________________________________________________________________________________________________
conv2d_transpose_2 (Conv2DTrans (None, 52, 80, 20)   3220        dropout_7[0][0]                  
__________________________________________________________________________________________________
concatenate_2 (Concatenate)     (None, 52, 80, 40)   0           conv2d_transpose_2[0][0]         
                                                                 activation_5[0][0]               
__________________________________________________________________________________________________
conv2d_12 (Conv2D)              (None, 52, 80, 20)   7220        concatenate_2[0][0]              
__________________________________________________________________________________________________
batch_normalization_12 (BatchNo (None, 52, 80, 20)   80          conv2d_12[0][0]                  
__________________________________________________________________________________________________
activation_12 (Activation)      (None, 52, 80, 20)   0           batch_normalization_12[0][0]     
__________________________________________________________________________________________________
conv2d_13 (Conv2D)              (None, 52, 80, 20)   3620        activation_12[0][0]              
__________________________________________________________________________________________________
batch_normalization_13 (BatchNo (None, 52, 80, 20)   80          conv2d_13[0][0]                  
__________________________________________________________________________________________________
activation_13 (Activation)      (None, 52, 80, 20)   0           batch_normalization_13[0][0]     
__________________________________________________________________________________________________
dropout_8 (Dropout)             (None, 52, 80, 20)   0           activation_13[0][0]              
__________________________________________________________________________________________________
conv2d_14 (Conv2D)              (None, 52, 80, 13)   273         dropout_8[0][0]                  
==================================================================================================
Total params: 187,773
Trainable params: 44,233
Non-trainable params: 143,540
__________________________________________________________________________________________________
------------------------------------------------------------------
class_weights [6.47467835e-02 3.18797950e-02 7.48227142e-02 9.29948699e-03
…
Error in label values min 0.0 max 3.0      9-LGN
Error in label values min 0.0 max 2.0      10-MGN
Error in label values min 0.0 max 2.0      11-CM
Error in label values min 0.0 max 5.0      12-MD-Pf
Error in label values min 0.0 max 30.0      13-Hb
Error in label values min 0.0 max 4.0      14-MTT
__________________________________________________________________________________________________
Layer (type)                    Output Shape         Param #     Connected to                     
==================================================================================================
input_2 (InputLayer)            (None, 52, 80, 1)    0                                            
__________________________________________________________________________________________________
conv2d_12 (Conv2D)              (None, 52, 80, 20)   200         input_2[0][0]                    
__________________________________________________________________________________________________
batch_normalization_12 (BatchNo (None, 52, 80, 20)   80          conv2d_12[0][0]                  
__________________________________________________________________________________________________
activation_12 (Activation)      (None, 52, 80, 20)   0           batch_normalization_12[0][0]     
__________________________________________________________________________________________________
dropout_8 (Dropout)             (None, 52, 80, 20)   0           activation_12[0][0]              
__________________________________________________________________________________________________
conv2d_13 (Conv2D)              (None, 52, 80, 20)   3620        dropout_8[0][0]                  
__________________________________________________________________________________________________
batch_normalization_13 (BatchNo (None, 52, 80, 20)   80          conv2d_13[0][0]                  
__________________________________________________________________________________________________
activation_13 (Activation)      (None, 52, 80, 20)   0           batch_normalization_13[0][0]     
__________________________________________________________________________________________________
dropout_9 (Dropout)             (None, 52, 80, 20)   0           activation_13[0][0]              
__________________________________________________________________________________________________
conv2d_14 (Conv2D)              (None, 52, 80, 20)   3620        dropout_9[0][0]                  
__________________________________________________________________________________________________
batch_normalization_14 (BatchNo (None, 52, 80, 20)   80          conv2d_14[0][0]                  
__________________________________________________________________________________________________
activation_14 (Activation)      (None, 52, 80, 20)   0           batch_normalization_14[0][0]     
__________________________________________________________________________________________________
dropout_10 (Dropout)            (None, 52, 80, 20)   0           activation_14[0][0]              
__________________________________________________________________________________________________
conv2d_15 (Conv2D)              (None, 52, 80, 20)   3620        dropout_10[0][0]                 
__________________________________________________________________________________________________
batch_normalization_15 (BatchNo (None, 52, 80, 20)   80          conv2d_15[0][0]                  
__________________________________________________________________________________________________
activation_15 (Activation)      (None, 52, 80, 20)   0           batch_normalization_15[0][0]     
__________________________________________________________________________________________________
conv2d_16 (Conv2D)              (None, 52, 80, 20)   3620        activation_15[0][0]              
__________________________________________________________________________________________________
batch_normalization_16 (BatchNo (None, 52, 80, 20)   80          conv2d_16[0][0]                  
__________________________________________________________________________________________________
activation_16 (Activation)      (None, 52, 80, 20)   0           batch_normalization_16[0][0]     
__________________________________________________________________________________________________
max_pooling2d_4 (MaxPooling2D)  (None, 26, 40, 20)   0           activation_16[0][0]              
__________________________________________________________________________________________________
dropout_11 (Dropout)            (None, 26, 40, 20)   0           max_pooling2d_4[0][0]            
__________________________________________________________________________________________________
conv2d_17 (Conv2D)              (None, 26, 40, 40)   7240        dropout_11[0][0]                 
__________________________________________________________________________________________________
batch_normalization_17 (BatchNo (None, 26, 40, 40)   160         conv2d_17[0][0]                  
__________________________________________________________________________________________________
activation_17 (Activation)      (None, 26, 40, 40)   0           batch_normalization_17[0][0]     
__________________________________________________________________________________________________
conv2d_18 (Conv2D)              (None, 26, 40, 40)   14440       activation_17[0][0]              
__________________________________________________________________________________________________
batch_normalization_18 (BatchNo (None, 26, 40, 40)   160         conv2d_18[0][0]                  
__________________________________________________________________________________________________
activation_18 (Activation)      (None, 26, 40, 40)   0           batch_normalization_18[0][0]     
__________________________________________________________________________________________________
max_pooling2d_5 (MaxPooling2D)  (None, 13, 20, 40)   0           activation_18[0][0]              
__________________________________________________________________________________________________
dropout_12 (Dropout)            (None, 13, 20, 40)   0           max_pooling2d_5[0][0]            
__________________________________________________________________________________________________
conv2d_19 (Conv2D)              (None, 13, 20, 80)   28880       dropout_12[0][0]                 
__________________________________________________________________________________________________
batch_normalization_19 (BatchNo (None, 13, 20, 80)   320         conv2d_19[0][0]                  
__________________________________________________________________________________________________
activation_19 (Activation)      (None, 13, 20, 80)   0           batch_normalization_19[0][0]     
__________________________________________________________________________________________________
conv2d_20 (Conv2D)              (None, 13, 20, 80)   57680       activation_19[0][0]              
__________________________________________________________________________________________________
batch_normalization_20 (BatchNo (None, 13, 20, 80)   320         conv2d_20[0][0]                  
__________________________________________________________________________________________________
activation_20 (Activation)      (None, 13, 20, 80)   0           batch_normalization_20[0][0]     
__________________________________________________________________________________________________
dropout_13 (Dropout)            (None, 13, 20, 80)   0           activation_20[0][0]              
__________________________________________________________________________________________________
conv2d_transpose_2 (Conv2DTrans (None, 26, 40, 40)   12840       dropout_13[0][0]                 
__________________________________________________________________________________________________
concatenate_2 (Concatenate)     (None, 26, 40, 80)   0           conv2d_transpose_2[0][0]         
                                                                 activation_18[0][0]              
__________________________________________________________________________________________________
conv2d_21 (Conv2D)              (None, 26, 40, 40)   28840       concatenate_2[0][0]              
__________________________________________________________________________________________________
batch_normalization_21 (BatchNo (None, 26, 40, 40)   160         conv2d_21[0][0]                  
__________________________________________________________________________________________________
activation_21 (Activation)      (None, 26, 40, 40)   0           batch_normalization_21[0][0]     
__________________________________________________________________________________________________
conv2d_22 (Conv2D)              (None, 26, 40, 40)   14440       activation_21[0][0]              
__________________________________________________________________________________________________
batch_normalization_22 (BatchNo (None, 26, 40, 40)   160         conv2d_22[0][0]                  
__________________________________________________________________________________________________
activation_22 (Activation)      (None, 26, 40, 40)   0           batch_normalization_22[0][0]     
__________________________________________________________________________________________________
dropout_14 (Dropout)            (None, 26, 40, 40)   0           activation_22[0][0]              
__________________________________________________________________________________________________
conv2d_transpose_3 (Conv2DTrans (None, 52, 80, 20)   3220        dropout_14[0][0]                 
__________________________________________________________________________________________________
concatenate_3 (Concatenate)     (None, 52, 80, 40)   0           conv2d_transpose_3[0][0]         
                                                                 activation_16[0][0]              
__________________________________________________________________________________________________
conv2d_23 (Conv2D)              (None, 52, 80, 20)   7220        concatenate_3[0][0]              
__________________________________________________________________________________________________
batch_normalization_23 (BatchNo (None, 52, 80, 20)   80          conv2d_23[0][0]                  
__________________________________________________________________________________________________
activation_23 (Activation)      (None, 52, 80, 20)   0           batch_normalization_23[0][0]     
__________________________________________________________________________________________________
conv2d_24 (Conv2D)              (None, 52, 80, 20)   3620        activation_23[0][0]              
__________________________________________________________________________________________________
batch_normalization_24 (BatchNo (None, 52, 80, 20)   80          conv2d_24[0][0]                  
__________________________________________________________________________________________________
activation_24 (Activation)      (None, 52, 80, 20)   0           batch_normalization_24[0][0]     
__________________________________________________________________________________________________
dropout_15 (Dropout)            (None, 52, 80, 20)   0           activation_24[0][0]              
__________________________________________________________________________________________________
conv2d_25 (Conv2D)              (None, 52, 80, 13)   273         dropout_15[0][0]                 
==================================================================================================
Total params: 195,213
Trainable params: 51,613
Non-trainable params: 143,600
__________________________________________________________________________________________________
------------------------------------------------------------------
class_weights [6.47467835e-02 3.18797950e-02 7.48227142e-02 9.29948699e-03
…
Error in label values min 0.0 max 3.0      9-LGN
Error in label values min 0.0 max 2.0      10-MGN
Error in label values min 0.0 max 2.0      11-CM
Error in label values min 0.0 max 5.0      12-MD-Pf
Error in label values min 0.0 max 30.0      13-Hb
Error in label values min 0.0 max 4.0      14-MTT
__________________________________________________________________________________________________
Layer (type)                    Output Shape         Param #     Connected to                     
==================================================================================================
input_2 (InputLayer)            (None, 52, 80, 1)    0                                            
__________________________________________________________________________________________________
conv2d_12 (Conv2D)              (None, 52, 80, 30)   300         input_2[0][0]                    
__________________________________________________________________________________________________
batch_normalization_12 (BatchNo (None, 52, 80, 30)   120         conv2d_12[0][0]                  
__________________________________________________________________________________________________
activation_12 (Activation)      (None, 52, 80, 30)   0           batch_normalization_12[0][0]     
__________________________________________________________________________________________________
dropout_8 (Dropout)             (None, 52, 80, 30)   0           activation_12[0][0]              
__________________________________________________________________________________________________
conv2d_13 (Conv2D)              (None, 52, 80, 30)   8130        dropout_8[0][0]                  
__________________________________________________________________________________________________
batch_normalization_13 (BatchNo (None, 52, 80, 30)   120         conv2d_13[0][0]                  
__________________________________________________________________________________________________
activation_13 (Activation)      (None, 52, 80, 30)   0           batch_normalization_13[0][0]     
__________________________________________________________________________________________________
dropout_9 (Dropout)             (None, 52, 80, 30)   0           activation_13[0][0]              
__________________________________________________________________________________________________
conv2d_14 (Conv2D)              (None, 52, 80, 30)   8130        dropout_9[0][0]                  
__________________________________________________________________________________________________
batch_normalization_14 (BatchNo (None, 52, 80, 30)   120         conv2d_14[0][0]                  
__________________________________________________________________________________________________
activation_14 (Activation)      (None, 52, 80, 30)   0           batch_normalization_14[0][0]     
__________________________________________________________________________________________________
dropout_10 (Dropout)            (None, 52, 80, 30)   0           activation_14[0][0]              
__________________________________________________________________________________________________
conv2d_15 (Conv2D)              (None, 52, 80, 20)   5420        dropout_10[0][0]                 
__________________________________________________________________________________________________
batch_normalization_15 (BatchNo (None, 52, 80, 20)   80          conv2d_15[0][0]                  
__________________________________________________________________________________________________
activation_15 (Activation)      (None, 52, 80, 20)   0           batch_normalization_15[0][0]     
__________________________________________________________________________________________________
conv2d_16 (Conv2D)              (None, 52, 80, 20)   3620        activation_15[0][0]              
__________________________________________________________________________________________________
batch_normalization_16 (BatchNo (None, 52, 80, 20)   80          conv2d_16[0][0]                  
__________________________________________________________________________________________________
activation_16 (Activation)      (None, 52, 80, 20)   0           batch_normalization_16[0][0]     
__________________________________________________________________________________________________
max_pooling2d_4 (MaxPooling2D)  (None, 26, 40, 20)   0           activation_16[0][0]              
__________________________________________________________________________________________________
dropout_11 (Dropout)            (None, 26, 40, 20)   0           max_pooling2d_4[0][0]            
__________________________________________________________________________________________________
conv2d_17 (Conv2D)              (None, 26, 40, 40)   7240        dropout_11[0][0]                 
__________________________________________________________________________________________________
batch_normalization_17 (BatchNo (None, 26, 40, 40)   160         conv2d_17[0][0]                  
__________________________________________________________________________________________________
activation_17 (Activation)      (None, 26, 40, 40)   0           batch_normalization_17[0][0]     
__________________________________________________________________________________________________
conv2d_18 (Conv2D)              (None, 26, 40, 40)   14440       activation_17[0][0]              
__________________________________________________________________________________________________
batch_normalization_18 (BatchNo (None, 26, 40, 40)   160         conv2d_18[0][0]                  
__________________________________________________________________________________________________
activation_18 (Activation)      (None, 26, 40, 40)   0           batch_normalization_18[0][0]     
__________________________________________________________________________________________________
max_pooling2d_5 (MaxPooling2D)  (None, 13, 20, 40)   0           activation_18[0][0]              
__________________________________________________________________________________________________
dropout_12 (Dropout)            (None, 13, 20, 40)   0           max_pooling2d_5[0][0]            
__________________________________________________________________________________________________
conv2d_19 (Conv2D)              (None, 13, 20, 80)   28880       dropout_12[0][0]                 
__________________________________________________________________________________________________
batch_normalization_19 (BatchNo (None, 13, 20, 80)   320         conv2d_19[0][0]                  
__________________________________________________________________________________________________
activation_19 (Activation)      (None, 13, 20, 80)   0           batch_normalization_19[0][0]     
__________________________________________________________________________________________________
conv2d_20 (Conv2D)              (None, 13, 20, 80)   57680       activation_19[0][0]              
__________________________________________________________________________________________________
batch_normalization_20 (BatchNo (None, 13, 20, 80)   320         conv2d_20[0][0]                  
__________________________________________________________________________________________________
activation_20 (Activation)      (None, 13, 20, 80)   0           batch_normalization_20[0][0]     
__________________________________________________________________________________________________
dropout_13 (Dropout)            (None, 13, 20, 80)   0           activation_20[0][0]              
__________________________________________________________________________________________________
conv2d_transpose_2 (Conv2DTrans (None, 26, 40, 40)   12840       dropout_13[0][0]                 
__________________________________________________________________________________________________
concatenate_2 (Concatenate)     (None, 26, 40, 80)   0           conv2d_transpose_2[0][0]         
                                                                 activation_18[0][0]              
__________________________________________________________________________________________________
conv2d_21 (Conv2D)              (None, 26, 40, 40)   28840       concatenate_2[0][0]              
__________________________________________________________________________________________________
batch_normalization_21 (BatchNo (None, 26, 40, 40)   160         conv2d_21[0][0]                  
__________________________________________________________________________________________________
activation_21 (Activation)      (None, 26, 40, 40)   0           batch_normalization_21[0][0]     
__________________________________________________________________________________________________
conv2d_22 (Conv2D)              (None, 26, 40, 40)   14440       activation_21[0][0]              
__________________________________________________________________________________________________
batch_normalization_22 (BatchNo (None, 26, 40, 40)   160         conv2d_22[0][0]                  
__________________________________________________________________________________________________
activation_22 (Activation)      (None, 26, 40, 40)   0           batch_normalization_22[0][0]     
__________________________________________________________________________________________________
dropout_14 (Dropout)            (None, 26, 40, 40)   0           activation_22[0][0]              
__________________________________________________________________________________________________
conv2d_transpose_3 (Conv2DTrans (None, 52, 80, 20)   3220        dropout_14[0][0]                 
__________________________________________________________________________________________________
concatenate_3 (Concatenate)     (None, 52, 80, 40)   0           conv2d_transpose_3[0][0]         
                                                                 activation_16[0][0]              
__________________________________________________________________________________________________
conv2d_23 (Conv2D)              (None, 52, 80, 20)   7220        concatenate_3[0][0]              
__________________________________________________________________________________________________
batch_normalization_23 (BatchNo (None, 52, 80, 20)   80          conv2d_23[0][0]                  
__________________________________________________________________________________________________
activation_23 (Activation)      (None, 52, 80, 20)   0           batch_normalization_23[0][0]     
__________________________________________________________________________________________________
conv2d_24 (Conv2D)              (None, 52, 80, 20)   3620        activation_23[0][0]              
__________________________________________________________________________________________________
batch_normalization_24 (BatchNo (None, 52, 80, 20)   80          conv2d_24[0][0]                  
__________________________________________________________________________________________________
activation_24 (Activation)      (None, 52, 80, 20)   0           batch_normalization_24[0][0]     
__________________________________________________________________________________________________
dropout_15 (Dropout)            (None, 52, 80, 20)   0           activation_24[0][0]              
__________________________________________________________________________________________________
conv2d_25 (Conv2D)              (None, 52, 80, 13)   273         dropout_15[0][0]                 
==================================================================================================
Total params: 206,253
Trainable params: 62,593
Non-trainable params: 143,660
__________________________________________________________________________________________________
------------------------------------------------------------------
class_weights [6.47467835e-02 3.18797950e-02 7.48227142e-02 9.29948699e-03
…
Error in label values min 0.0 max 3.0      9-LGN
Error in label values min 0.0 max 2.0      10-MGN
Error in label values min 0.0 max 2.0      11-CM
Error in label values min 0.0 max 5.0      12-MD-Pf
Error in label values min 0.0 max 30.0      13-Hb
Error in label values min 0.0 max 4.0      14-MTT
__________________________________________________________________________________________________
Layer (type)                    Output Shape         Param #     Connected to                     
==================================================================================================
input_2 (InputLayer)            (None, 52, 80, 1)    0                                            
__________________________________________________________________________________________________
conv2d_12 (Conv2D)              (None, 52, 80, 40)   400         input_2[0][0]                    
__________________________________________________________________________________________________
batch_normalization_12 (BatchNo (None, 52, 80, 40)   160         conv2d_12[0][0]                  
__________________________________________________________________________________________________
activation_12 (Activation)      (None, 52, 80, 40)   0           batch_normalization_12[0][0]     
__________________________________________________________________________________________________
dropout_8 (Dropout)             (None, 52, 80, 40)   0           activation_12[0][0]              
__________________________________________________________________________________________________
conv2d_13 (Conv2D)              (None, 52, 80, 40)   14440       dropout_8[0][0]                  
__________________________________________________________________________________________________
batch_normalization_13 (BatchNo (None, 52, 80, 40)   160         conv2d_13[0][0]                  
__________________________________________________________________________________________________
activation_13 (Activation)      (None, 52, 80, 40)   0           batch_normalization_13[0][0]     
__________________________________________________________________________________________________
dropout_9 (Dropout)             (None, 52, 80, 40)   0           activation_13[0][0]              
__________________________________________________________________________________________________
conv2d_14 (Conv2D)              (None, 52, 80, 40)   14440       dropout_9[0][0]                  
__________________________________________________________________________________________________
batch_normalization_14 (BatchNo (None, 52, 80, 40)   160         conv2d_14[0][0]                  
__________________________________________________________________________________________________
activation_14 (Activation)      (None, 52, 80, 40)   0           batch_normalization_14[0][0]     
__________________________________________________________________________________________________
dropout_10 (Dropout)            (None, 52, 80, 40)   0           activation_14[0][0]              
__________________________________________________________________________________________________
conv2d_15 (Conv2D)              (None, 52, 80, 20)   7220        dropout_10[0][0]                 
__________________________________________________________________________________________________
batch_normalization_15 (BatchNo (None, 52, 80, 20)   80          conv2d_15[0][0]                  
__________________________________________________________________________________________________
activation_15 (Activation)      (None, 52, 80, 20)   0           batch_normalization_15[0][0]     
__________________________________________________________________________________________________
conv2d_16 (Conv2D)              (None, 52, 80, 20)   3620        activation_15[0][0]              
__________________________________________________________________________________________________
batch_normalization_16 (BatchNo (None, 52, 80, 20)   80          conv2d_16[0][0]                  
__________________________________________________________________________________________________
activation_16 (Activation)      (None, 52, 80, 20)   0           batch_normalization_16[0][0]     
__________________________________________________________________________________________________
max_pooling2d_4 (MaxPooling2D)  (None, 26, 40, 20)   0           activation_16[0][0]              
__________________________________________________________________________________________________
dropout_11 (Dropout)            (None, 26, 40, 20)   0           max_pooling2d_4[0][0]            
__________________________________________________________________________________________________
conv2d_17 (Conv2D)              (None, 26, 40, 40)   7240        dropout_11[0][0]                 
__________________________________________________________________________________________________
batch_normalization_17 (BatchNo (None, 26, 40, 40)   160         conv2d_17[0][0]                  
__________________________________________________________________________________________________
activation_17 (Activation)      (None, 26, 40, 40)   0           batch_normalization_17[0][0]     
__________________________________________________________________________________________________
conv2d_18 (Conv2D)              (None, 26, 40, 40)   14440       activation_17[0][0]              
__________________________________________________________________________________________________
batch_normalization_18 (BatchNo (None, 26, 40, 40)   160         conv2d_18[0][0]                  
__________________________________________________________________________________________________
activation_18 (Activation)      (None, 26, 40, 40)   0           batch_normalization_18[0][0]     
__________________________________________________________________________________________________
max_pooling2d_5 (MaxPooling2D)  (None, 13, 20, 40)   0           activation_18[0][0]              
__________________________________________________________________________________________________
dropout_12 (Dropout)            (None, 13, 20, 40)   0           max_pooling2d_5[0][0]            
__________________________________________________________________________________________________
conv2d_19 (Conv2D)              (None, 13, 20, 80)   28880       dropout_12[0][0]                 
__________________________________________________________________________________________________
batch_normalization_19 (BatchNo (None, 13, 20, 80)   320         conv2d_19[0][0]                  
__________________________________________________________________________________________________
activation_19 (Activation)      (None, 13, 20, 80)   0           batch_normalization_19[0][0]     
__________________________________________________________________________________________________
conv2d_20 (Conv2D)              (None, 13, 20, 80)   57680       activation_19[0][0]              
__________________________________________________________________________________________________
batch_normalization_20 (BatchNo (None, 13, 20, 80)   320         conv2d_20[0][0]                  
__________________________________________________________________________________________________
activation_20 (Activation)      (None, 13, 20, 80)   0           batch_normalization_20[0][0]     
__________________________________________________________________________________________________
dropout_13 (Dropout)            (None, 13, 20, 80)   0           activation_20[0][0]              
__________________________________________________________________________________________________
conv2d_transpose_2 (Conv2DTrans (None, 26, 40, 40)   12840       dropout_13[0][0]                 
__________________________________________________________________________________________________
concatenate_2 (Concatenate)     (None, 26, 40, 80)   0           conv2d_transpose_2[0][0]         
                                                                 activation_18[0][0]              
__________________________________________________________________________________________________
conv2d_21 (Conv2D)              (None, 26, 40, 40)   28840       concatenate_2[0][0]              
__________________________________________________________________________________________________
batch_normalization_21 (BatchNo (None, 26, 40, 40)   160         conv2d_21[0][0]                  
__________________________________________________________________________________________________
activation_21 (Activation)      (None, 26, 40, 40)   0           batch_normalization_21[0][0]     
__________________________________________________________________________________________________
conv2d_22 (Conv2D)              (None, 26, 40, 40)   14440       activation_21[0][0]              
__________________________________________________________________________________________________
batch_normalization_22 (BatchNo (None, 26, 40, 40)   160         conv2d_22[0][0]                  
__________________________________________________________________________________________________
activation_22 (Activation)      (None, 26, 40, 40)   0           batch_normalization_22[0][0]     
__________________________________________________________________________________________________
dropout_14 (Dropout)            (None, 26, 40, 40)   0           activation_22[0][0]              
__________________________________________________________________________________________________
conv2d_transpose_3 (Conv2DTrans (None, 52, 80, 20)   3220        dropout_14[0][0]                 
__________________________________________________________________________________________________
concatenate_3 (Concatenate)     (None, 52, 80, 40)   0           conv2d_transpose_3[0][0]         
                                                                 activation_16[0][0]              
__________________________________________________________________________________________________
conv2d_23 (Conv2D)              (None, 52, 80, 20)   7220        concatenate_3[0][0]              
__________________________________________________________________________________________________
batch_normalization_23 (BatchNo (None, 52, 80, 20)   80          conv2d_23[0][0]                  
__________________________________________________________________________________________________
activation_23 (Activation)      (None, 52, 80, 20)   0           batch_normalization_23[0][0]     
__________________________________________________________________________________________________
conv2d_24 (Conv2D)              (None, 52, 80, 20)   3620        activation_23[0][0]              
__________________________________________________________________________________________________
batch_normalization_24 (BatchNo (None, 52, 80, 20)   80          conv2d_24[0][0]                  
__________________________________________________________________________________________________
activation_24 (Activation)      (None, 52, 80, 20)   0           batch_normalization_24[0][0]     
__________________________________________________________________________________________________
dropout_15 (Dropout)            (None, 52, 80, 20)   0           activation_24[0][0]              
__________________________________________________________________________________________________
conv2d_25 (Conv2D)              (None, 52, 80, 13)   273         dropout_15[0][0]                 
==================================================================================================
Total params: 220,893
Trainable params: 77,173
Non-trainable params: 143,720
__________________________________________________________________________________________________
------------------------------------------------------------------
class_weights [6.47467835e-02 3.18797950e-02 7.48227142e-02 9.29948699e-03
…
Error in label values min 0.0 max 3.0      9-LGN
Error in label values min 0.0 max 2.0      10-MGN
Error in label values min 0.0 max 2.0      11-CM
Error in label values min 0.0 max 5.0      12-MD-Pf
Error in label values min 0.0 max 30.0      13-Hb
Error in label values min 0.0 max 4.0      14-MTT
__________________________________________________________________________________________________
Layer (type)                    Output Shape         Param #     Connected to                     
==================================================================================================
input_2 (InputLayer)            (None, 52, 80, 1)    0                                            
__________________________________________________________________________________________________
conv2d_12 (Conv2D)              (None, 52, 80, 50)   500         input_2[0][0]                    
__________________________________________________________________________________________________
batch_normalization_12 (BatchNo (None, 52, 80, 50)   200         conv2d_12[0][0]                  
__________________________________________________________________________________________________
activation_12 (Activation)      (None, 52, 80, 50)   0           batch_normalization_12[0][0]     
__________________________________________________________________________________________________
dropout_8 (Dropout)             (None, 52, 80, 50)   0           activation_12[0][0]              
__________________________________________________________________________________________________
conv2d_13 (Conv2D)              (None, 52, 80, 50)   22550       dropout_8[0][0]                  
__________________________________________________________________________________________________
batch_normalization_13 (BatchNo (None, 52, 80, 50)   200         conv2d_13[0][0]                  
__________________________________________________________________________________________________
activation_13 (Activation)      (None, 52, 80, 50)   0           batch_normalization_13[0][0]     
__________________________________________________________________________________________________
dropout_9 (Dropout)             (None, 52, 80, 50)   0           activation_13[0][0]              
__________________________________________________________________________________________________
conv2d_14 (Conv2D)              (None, 52, 80, 50)   22550       dropout_9[0][0]                  
__________________________________________________________________________________________________
batch_normalization_14 (BatchNo (None, 52, 80, 50)   200         conv2d_14[0][0]                  
__________________________________________________________________________________________________
activation_14 (Activation)      (None, 52, 80, 50)   0           batch_normalization_14[0][0]     
__________________________________________________________________________________________________
dropout_10 (Dropout)            (None, 52, 80, 50)   0           activation_14[0][0]              
__________________________________________________________________________________________________
conv2d_15 (Conv2D)              (None, 52, 80, 20)   9020        dropout_10[0][0]                 
__________________________________________________________________________________________________
batch_normalization_15 (BatchNo (None, 52, 80, 20)   80          conv2d_15[0][0]                  
__________________________________________________________________________________________________
activation_15 (Activation)      (None, 52, 80, 20)   0           batch_normalization_15[0][0]     
__________________________________________________________________________________________________
conv2d_16 (Conv2D)              (None, 52, 80, 20)   3620        activation_15[0][0]              
__________________________________________________________________________________________________
batch_normalization_16 (BatchNo (None, 52, 80, 20)   80          conv2d_16[0][0]                  
__________________________________________________________________________________________________
activation_16 (Activation)      (None, 52, 80, 20)   0           batch_normalization_16[0][0]     
__________________________________________________________________________________________________
max_pooling2d_4 (MaxPooling2D)  (None, 26, 40, 20)   0           activation_16[0][0]              
__________________________________________________________________________________________________
dropout_11 (Dropout)            (None, 26, 40, 20)   0           max_pooling2d_4[0][0]            
__________________________________________________________________________________________________
conv2d_17 (Conv2D)              (None, 26, 40, 40)   7240        dropout_11[0][0]                 
__________________________________________________________________________________________________
batch_normalization_17 (BatchNo (None, 26, 40, 40)   160         conv2d_17[0][0]                  
__________________________________________________________________________________________________
activation_17 (Activation)      (None, 26, 40, 40)   0           batch_normalization_17[0][0]     
__________________________________________________________________________________________________
conv2d_18 (Conv2D)              (None, 26, 40, 40)   14440       activation_17[0][0]              
__________________________________________________________________________________________________
batch_normalization_18 (BatchNo (None, 26, 40, 40)   160         conv2d_18[0][0]                  
__________________________________________________________________________________________________
activation_18 (Activation)      (None, 26, 40, 40)   0           batch_normalization_18[0][0]     
__________________________________________________________________________________________________
max_pooling2d_5 (MaxPooling2D)  (None, 13, 20, 40)   0           activation_18[0][0]              
__________________________________________________________________________________________________
dropout_12 (Dropout)            (None, 13, 20, 40)   0           max_pooling2d_5[0][0]            
__________________________________________________________________________________________________
conv2d_19 (Conv2D)              (None, 13, 20, 80)   28880       dropout_12[0][0]                 
__________________________________________________________________________________________________
batch_normalization_19 (BatchNo (None, 13, 20, 80)   320         conv2d_19[0][0]                  
__________________________________________________________________________________________________
activation_19 (Activation)      (None, 13, 20, 80)   0           batch_normalization_19[0][0]     
__________________________________________________________________________________________________
conv2d_20 (Conv2D)              (None, 13, 20, 80)   57680       activation_19[0][0]              
__________________________________________________________________________________________________
batch_normalization_20 (BatchNo (None, 13, 20, 80)   320         conv2d_20[0][0]                  
__________________________________________________________________________________________________
activation_20 (Activation)      (None, 13, 20, 80)   0           batch_normalization_20[0][0]     
__________________________________________________________________________________________________
dropout_13 (Dropout)            (None, 13, 20, 80)   0           activation_20[0][0]              
__________________________________________________________________________________________________
conv2d_transpose_2 (Conv2DTrans (None, 26, 40, 40)   12840       dropout_13[0][0]                 
__________________________________________________________________________________________________
concatenate_2 (Concatenate)     (None, 26, 40, 80)   0           conv2d_transpose_2[0][0]         
                                                                 activation_18[0][0]              
__________________________________________________________________________________________________
conv2d_21 (Conv2D)              (None, 26, 40, 40)   28840       concatenate_2[0][0]              
__________________________________________________________________________________________________
batch_normalization_21 (BatchNo (None, 26, 40, 40)   160         conv2d_21[0][0]                  
__________________________________________________________________________________________________
activation_21 (Activation)      (None, 26, 40, 40)   0           batch_normalization_21[0][0]     
__________________________________________________________________________________________________
conv2d_22 (Conv2D)              (None, 26, 40, 40)   14440       activation_21[0][0]              
__________________________________________________________________________________________________
batch_normalization_22 (BatchNo (None, 26, 40, 40)   160         conv2d_22[0][0]                  
__________________________________________________________________________________________________
activation_22 (Activation)      (None, 26, 40, 40)   0           batch_normalization_22[0][0]     
__________________________________________________________________________________________________
dropout_14 (Dropout)            (None, 26, 40, 40)   0           activation_22[0][0]              
__________________________________________________________________________________________________
conv2d_transpose_3 (Conv2DTrans (None, 52, 80, 20)   3220        dropout_14[0][0]                 
__________________________________________________________________________________________________
concatenate_3 (Concatenate)     (None, 52, 80, 40)   0           conv2d_transpose_3[0][0]         
                                                                 activation_16[0][0]              
__________________________________________________________________________________________________
conv2d_23 (Conv2D)              (None, 52, 80, 20)   7220        concatenate_3[0][0]              
__________________________________________________________________________________________________
batch_normalization_23 (BatchNo (None, 52, 80, 20)   80          conv2d_23[0][0]                  
__________________________________________________________________________________________________
activation_23 (Activation)      (None, 52, 80, 20)   0           batch_normalization_23[0][0]     
__________________________________________________________________________________________________
conv2d_24 (Conv2D)              (None, 52, 80, 20)   3620        activation_23[0][0]              
__________________________________________________________________________________________________
batch_normalization_24 (BatchNo (None, 52, 80, 20)   80          conv2d_24[0][0]                  
__________________________________________________________________________________________________
activation_24 (Activation)      (None, 52, 80, 20)   0           batch_normalization_24[0][0]     
__________________________________________________________________________________________________
dropout_15 (Dropout)            (None, 52, 80, 20)   0           activation_24[0][0]              
__________________________________________________________________________________________________
conv2d_25 (Conv2D)              (None, 52, 80, 13)   273         dropout_15[0][0]                 
==================================================================================================
Total params: 239,133
Trainable params: 95,353
Non-trainable params: 143,780
__________________________________________________________________________________________________
------------------------------------------------------------------
class_weights [6.47467835e-02 3.18797950e-02 7.48227142e-02 9.29948699e-03
…
