…
 Nucleus: [1.1, 1.2, 1.3, 2]  | GPU: 1  | SD 2  | Dropout 0.3  | LR 0.001  | NL 3  |  HCascade |  FM 20 |  Upsample 1
Experiment: exp6
SubExperiment: sE12_HCascade_FM20_U-Net4_NL3_LS_MyBCE_US1_ET_Init_Main_CV_a
---------------------------------------------------------------
__________________________________________________________________________________________________
Layer (type)                    Output Shape         Param #     Connected to                     
==================================================================================================
input_1 (InputLayer)            (None, 52, 80, 1)    0                                            
__________________________________________________________________________________________________
conv2d_1 (Conv2D)               (None, 52, 80, 20)   200         input_1[0][0]                    
__________________________________________________________________________________________________
batch_normalization_1 (BatchNor (None, 52, 80, 20)   80          conv2d_1[0][0]                   
__________________________________________________________________________________________________
activation_1 (Activation)       (None, 52, 80, 20)   0           batch_normalization_1[0][0]      
__________________________________________________________________________________________________
conv2d_2 (Conv2D)               (None, 52, 80, 20)   3620        activation_1[0][0]               
__________________________________________________________________________________________________
batch_normalization_2 (BatchNor (None, 52, 80, 20)   80          conv2d_2[0][0]                   
__________________________________________________________________________________________________
activation_2 (Activation)       (None, 52, 80, 20)   0           batch_normalization_2[0][0]      
__________________________________________________________________________________________________
max_pooling2d_1 (MaxPooling2D)  (None, 26, 40, 20)   0           activation_2[0][0]               
__________________________________________________________________________________________________
dropout_1 (Dropout)             (None, 26, 40, 20)   0           max_pooling2d_1[0][0]            
__________________________________________________________________________________________________
conv2d_3 (Conv2D)               (None, 26, 40, 40)   7240        dropout_1[0][0]                  
__________________________________________________________________________________________________
batch_normalization_3 (BatchNor (None, 26, 40, 40)   160         conv2d_3[0][0]                   
__________________________________________________________________________________________________
activation_3 (Activation)       (None, 26, 40, 40)   0           batch_normalization_3[0][0]      
__________________________________________________________________________________________________
conv2d_4 (Conv2D)               (None, 26, 40, 40)   14440       activation_3[0][0]               
__________________________________________________________________________________________________
batch_normalization_4 (BatchNor (None, 26, 40, 40)   160         conv2d_4[0][0]                   
__________________________________________________________________________________________________
activation_4 (Activation)       (None, 26, 40, 40)   0           batch_normalization_4[0][0]      
__________________________________________________________________________________________________
max_pooling2d_2 (MaxPooling2D)  (None, 13, 20, 40)   0           activation_4[0][0]               
__________________________________________________________________________________________________
dropout_2 (Dropout)             (None, 13, 20, 40)   0           max_pooling2d_2[0][0]            
__________________________________________________________________________________________________
conv2d_5 (Conv2D)               (None, 13, 20, 80)   28880       dropout_2[0][0]                  
__________________________________________________________________________________________________
batch_normalization_5 (BatchNor (None, 13, 20, 80)   320         conv2d_5[0][0]                   
__________________________________________________________________________________________________
activation_5 (Activation)       (None, 13, 20, 80)   0           batch_normalization_5[0][0]      
__________________________________________________________________________________________________
conv2d_6 (Conv2D)               (None, 13, 20, 80)   57680       activation_5[0][0]               
__________________________________________________________________________________________________
batch_normalization_6 (BatchNor (None, 13, 20, 80)   320         conv2d_6[0][0]                   
__________________________________________________________________________________________________
activation_6 (Activation)       (None, 13, 20, 80)   0           batch_normalization_6[0][0]      
__________________________________________________________________________________________________
dropout_3 (Dropout)             (None, 13, 20, 80)   0           activation_6[0][0]               
__________________________________________________________________________________________________
conv2d_transpose_1 (Conv2DTrans (None, 26, 40, 40)   12840       dropout_3[0][0]                  
__________________________________________________________________________________________________
concatenate_1 (Concatenate)     (None, 26, 40, 80)   0           conv2d_transpose_1[0][0]         
                                                                 activation_4[0][0]               
__________________________________________________________________________________________________
conv2d_7 (Conv2D)               (None, 26, 40, 40)   28840       concatenate_1[0][0]              
__________________________________________________________________________________________________
batch_normalization_7 (BatchNor (None, 26, 40, 40)   160         conv2d_7[0][0]                   
__________________________________________________________________________________________________
activation_7 (Activation)       (None, 26, 40, 40)   0           batch_normalization_7[0][0]      
__________________________________________________________________________________________________
conv2d_8 (Conv2D)               (None, 26, 40, 40)   14440       activation_7[0][0]               
__________________________________________________________________________________________________
batch_normalization_8 (BatchNor (None, 26, 40, 40)   160         conv2d_8[0][0]                   
__________________________________________________________________________________________________
activation_8 (Activation)       (None, 26, 40, 40)   0           batch_normalization_8[0][0]      
__________________________________________________________________________________________________
dropout_4 (Dropout)             (None, 26, 40, 40)   0           activation_8[0][0]               
__________________________________________________________________________________________________
conv2d_transpose_2 (Conv2DTrans (None, 52, 80, 20)   3220        dropout_4[0][0]                  
__________________________________________________________________________________________________
concatenate_2 (Concatenate)     (None, 52, 80, 40)   0           conv2d_transpose_2[0][0]         
                                                                 activation_2[0][0]               
__________________________________________________________________________________________________
conv2d_9 (Conv2D)               (None, 52, 80, 20)   7220        concatenate_2[0][0]              
__________________________________________________________________________________________________
batch_normalization_9 (BatchNor (None, 52, 80, 20)   80          conv2d_9[0][0]                   
__________________________________________________________________________________________________
activation_9 (Activation)       (None, 52, 80, 20)   0           batch_normalization_9[0][0]      
__________________________________________________________________________________________________
conv2d_10 (Conv2D)              (None, 52, 80, 20)   3620        activation_9[0][0]               
__________________________________________________________________________________________________
batch_normalization_10 (BatchNo (None, 52, 80, 20)   80          conv2d_10[0][0]                  
__________________________________________________________________________________________________
activation_10 (Activation)      (None, 52, 80, 20)   0           batch_normalization_10[0][0]     
__________________________________________________________________________________________________
dropout_5 (Dropout)             (None, 52, 80, 20)   0           activation_10[0][0]              
__________________________________________________________________________________________________
conv2d_11 (Conv2D)              (None, 52, 80, 5)    105         dropout_5[0][0]                  
==================================================================================================
Total params: 183,945
Trainable params: 183,145
Non-trainable params: 800
__________________________________________________________________________________________________
 --- initialized from Model_7T /array/ssd/msmajdi/experiments/keras/exp6/models/sE12_HCascade_FM20_U-Net4_NL3_LS_MyBCE_US1_Main_Init_3T_CV_a/MultiClass_HCascade_Groups/sd2
…
 Nucleus: [1.1, 1.2, 1.3, 2]  | GPU: 1  | SD 1  | Dropout 0.3  | LR 0.001  | NL 3  |  HCascade |  FM 20 |  Upsample 1
Experiment: exp6
SubExperiment: sE12_HCascade_FM20_U-Net4_NL3_LS_MyBCE_US1_ET_Init_Main_CV_a
---------------------------------------------------------------
__________________________________________________________________________________________________
Layer (type)                    Output Shape         Param #     Connected to                     
==================================================================================================
input_1 (InputLayer)            (None, 52, 52, 1)    0                                            
__________________________________________________________________________________________________
conv2d_1 (Conv2D)               (None, 52, 52, 20)   200         input_1[0][0]                    
__________________________________________________________________________________________________
batch_normalization_1 (BatchNor (None, 52, 52, 20)   80          conv2d_1[0][0]                   
__________________________________________________________________________________________________
activation_1 (Activation)       (None, 52, 52, 20)   0           batch_normalization_1[0][0]      
__________________________________________________________________________________________________
conv2d_2 (Conv2D)               (None, 52, 52, 20)   3620        activation_1[0][0]               
__________________________________________________________________________________________________
batch_normalization_2 (BatchNor (None, 52, 52, 20)   80          conv2d_2[0][0]                   
__________________________________________________________________________________________________
activation_2 (Activation)       (None, 52, 52, 20)   0           batch_normalization_2[0][0]      
__________________________________________________________________________________________________
max_pooling2d_1 (MaxPooling2D)  (None, 26, 26, 20)   0           activation_2[0][0]               
__________________________________________________________________________________________________
dropout_1 (Dropout)             (None, 26, 26, 20)   0           max_pooling2d_1[0][0]            
__________________________________________________________________________________________________
conv2d_3 (Conv2D)               (None, 26, 26, 40)   7240        dropout_1[0][0]                  
__________________________________________________________________________________________________
batch_normalization_3 (BatchNor (None, 26, 26, 40)   160         conv2d_3[0][0]                   
__________________________________________________________________________________________________
activation_3 (Activation)       (None, 26, 26, 40)   0           batch_normalization_3[0][0]      
__________________________________________________________________________________________________
conv2d_4 (Conv2D)               (None, 26, 26, 40)   14440       activation_3[0][0]               
__________________________________________________________________________________________________
batch_normalization_4 (BatchNor (None, 26, 26, 40)   160         conv2d_4[0][0]                   
__________________________________________________________________________________________________
activation_4 (Activation)       (None, 26, 26, 40)   0           batch_normalization_4[0][0]      
__________________________________________________________________________________________________
max_pooling2d_2 (MaxPooling2D)  (None, 13, 13, 40)   0           activation_4[0][0]               
__________________________________________________________________________________________________
dropout_2 (Dropout)             (None, 13, 13, 40)   0           max_pooling2d_2[0][0]            
__________________________________________________________________________________________________
conv2d_5 (Conv2D)               (None, 13, 13, 80)   28880       dropout_2[0][0]                  
__________________________________________________________________________________________________
batch_normalization_5 (BatchNor (None, 13, 13, 80)   320         conv2d_5[0][0]                   
__________________________________________________________________________________________________2019-06-30 15:17:42.860554: I tensorflow/core/common_runtime/gpu/gpu_device.cc:1471] Adding visible gpu devices: 0
2019-06-30 15:17:42.860684: I tensorflow/core/common_runtime/gpu/gpu_device.cc:952] Device interconnect StreamExecutor with strength 1 edge matrix:
2019-06-30 15:17:42.860702: I tensorflow/core/common_runtime/gpu/gpu_device.cc:958]      0 
2019-06-30 15:17:42.860712: I tensorflow/core/common_runtime/gpu/gpu_device.cc:971] 0:   N 
2019-06-30 15:17:43.006897: I tensorflow/core/common_runtime/gpu/gpu_device.cc:1084] Created TensorFlow device (/job:localhost/replica:0/task:0/device:GPU:0 with 15123 MB memory) -> physical GPU (device: 0, name: Tesla P100-PCIE-16GB, pci bus id: 0000:05:00.0, compute capability: 6.0)

activation_5 (Activation)       (None, 13, 13, 80)   0           batch_normalization_5[0][0]      
__________________________________________________________________________________________________
conv2d_6 (Conv2D)               (None, 13, 13, 80)   57680       activation_5[0][0]               
__________________________________________________________________________________________________
batch_normalization_6 (BatchNor (None, 13, 13, 80)   320         conv2d_6[0][0]                   
__________________________________________________________________________________________________
activation_6 (Activation)       (None, 13, 13, 80)   0           batch_normalization_6[0][0]      
__________________________________________________________________________________________________
dropout_3 (Dropout)             (None, 13, 13, 80)   0           activation_6[0][0]               
__________________________________________________________________________________________________
conv2d_transpose_1 (Conv2DTrans (None, 26, 26, 40)   12840       dropout_3[0][0]                  
__________________________________________________________________________________________________
concatenate_1 (Concatenate)     (None, 26, 26, 80)   0           conv2d_transpose_1[0][0]         
                                                                 activation_4[0][0]               
__________________________________________________________________________________________________
conv2d_7 (Conv2D)               (None, 26, 26, 40)   28840       concatenate_1[0][0]              
__________________________________________________________________________________________________
batch_normalization_7 (BatchNor (None, 26, 26, 40)   160         conv2d_7[0][0]                   
__________________________________________________________________________________________________
activation_7 (Activation)       (None, 26, 26, 40)   0           batch_normalization_7[0][0]      
__________________________________________________________________________________________________
conv2d_8 (Conv2D)               (None, 26, 26, 40)   14440       activation_7[0][0]               
__________________________________________________________________________________________________
batch_normalization_8 (BatchNor (None, 26, 26, 40)   160         conv2d_8[0][0]                   
__________________________________________________________________________________________________
activation_8 (Activation)       (None, 26, 26, 40)   0           batch_normalization_8[0][0]      
__________________________________________________________________________________________________
dropout_4 (Dropout)             (None, 26, 26, 40)   0           activation_8[0][0]               
__________________________________________________________________________________________________
conv2d_transpose_2 (Conv2DTrans (None, 52, 52, 20)   3220        dropout_4[0][0]                  
__________________________________________________________________________________________________
concatenate_2 (Concatenate)     (None, 52, 52, 40)   0           conv2d_transpose_2[0][0]         
                                                                 activation_2[0][0]               
__________________________________________________________________________________________________
conv2d_9 (Conv2D)               (None, 52, 52, 20)   7220        concatenate_2[0][0]              
__________________________________________________________________________________________________
batch_normalization_9 (BatchNor (None, 52, 52, 20)   80          conv2d_9[0][0]                   
__________________________________________________________________________________________________
activation_9 (Activation)       (None, 52, 52, 20)   0           batch_normalization_9[0][0]      
__________________________________________________________________________________________________
conv2d_10 (Conv2D)              (None, 52, 52, 20)   3620        activation_9[0][0]               
__________________________________________________________________________________________________
batch_normalization_10 (BatchNo (None, 52, 52, 20)   80          conv2d_10[0][0]                  
__________________________________________________________________________________________________
activation_10 (Activation)      (None, 52, 52, 20)   0           batch_normalization_10[0][0]     
__________________________________________________________________________________________________
dropout_5 (Dropout)             (None, 52, 52, 20)   0           activation_10[0][0]              
__________________________________________________________________________________________________
conv2d_11 (Conv2D)              (None, 52, 52, 5)    105         dropout_5[0][0]                  
==================================================================================================
Total params: 183,945
Trainable params: 183,145
Non-trainable params: 800
__________________________________________________________________________________________________
 --- initialized from Model_7T /array/ssd/msmajdi/experiments/keras/exp6/models/sE12_HCascade_FM20_U-Net4_NL3_LS_MyBCE_US1_Main_Init_3T_CV_a/MultiClass_HCascade_Groups/sd1
…
 Nucleus: [1.1, 1.2, 1.3, 2]  | GPU: 1  | SD 0  | Dropout 0.3  | LR 0.001  | NL 3  |  HCascade |  FM 20 |  Upsample 1
Experiment: exp6
SubExperiment: sE12_HCascade_FM20_U-Net4_NL3_LS_MyBCE_US1_ET_Init_Main_CV_a
---------------------------------------------------------------
__________________________________________________________________________________________________
Layer (type)                    Output Shape         Param #     Connected to                     
==================================================================================================
input_1 (InputLayer)            (None, 80, 52, 1)    0                                            
__________________________________________________________________________________________________
conv2d_1 (Conv2D)               (None, 80, 52, 20)   200         input_1[0][0]                    
__________________________________________________________________________________________________
batch_normalization_1 (BatchNor (None, 80, 52, 20)   80          conv2d_1[0][0]                   
__________________________________________________________________________________________________
activation_1 (Activation)       (None, 80, 52, 20)   0           batch_normalization_1[0][0]      
__________________________________________________________________________________________________
conv2d_2 (Conv2D)               (None, 80, 52, 20)   3620        activation_1[0][0]               
__________________________________________________________________________________________________
batch_normalization_2 (BatchNor (None, 80, 52, 20)   80          conv2d_2[0][0]                   
__________________________________________________________________________________________________
activation_2 (Activation)       (None, 80, 52, 20)   0           batch_normalization_2[0][0]      
__________________________________________________________________________________________________
max_pooling2d_1 (MaxPooling2D)  (None, 40, 26, 20)   0           activation_2[0][0]               
__________________________________________________________________________________________________
dropout_1 (Dropout)             (None, 40, 26, 20)   0           max_pooling2d_1[0][0]            
__________________________________________________________________________________________________
conv2d_3 (Conv2D)               (None, 40, 26, 40)   7240        dropout_1[0][0]                  
__________________________________________________________________________________________________
batch_normalization_3 (BatchNor (None, 40, 26, 40)   160         conv2d_3[0][0]                   
__________________________________________________________________________________________________
activation_3 (Activation)       (None, 40, 26, 40)   0           batch_normalization_3[0][0]      
__________________________________________________________________________________________________
conv2d_4 (Conv2D)               (None, 40, 26, 40)   14440       activation_3[0][0]               
__________________________________________________________________________________________________
batch_normalization_4 (BatchNor (None, 40, 26, 40)   160         conv2d_4[0][0]                   
__________________________________________________________________________________________________
activation_4 (Activation)       (None, 40, 26, 40)   0           batch_normalization_4[0][0]      
__________________________________________________________________________________________________
max_pooling2d_2 (MaxPooling2D)  (None, 20, 13, 40)   0           activation_4[0][0]               
__________________________________________________________________________________________________
dropout_2 (Dropout)             (None, 20, 13, 40)   0           max_pooling2d_2[0][0]            
__________________________________________________________________________________________________
conv2d_5 (Conv2D)               (None, 20, 13, 80)   28880       dropout_2[0][0]                  
__________________________________________________________________________________________________
batch_normalization_5 (BatchNor (None, 20, 13, 80)   320         conv2d_5[0][0]                   
__________________________________________________________________________________________________
activation_5 (Activation)       (None, 20, 13, 80)   0           batch_normalization_5[0][0]      
__________________________________________________________________________________________________
conv2d_6 (Conv2D)               (None, 20, 13, 80)   57680       activation_5[0][0]               
__________________________________________________________________________________________________
batch_normalization_6 (BatchNor (None, 20, 13, 80)   320         conv2d_6[0][0]                   
__________________________________________________________________________________________________
activation_6 (Activation)       (None, 20, 13, 80)   0           batch_normalization_6[0][0]      
__________________________________________________________________________________________________
dropout_3 (Dropout)             (None, 20, 13, 80)   0           activation_6[0][0]               
__________________________________________________________________________________________________
conv2d_transpose_1 (Conv2DTrans (None, 40, 26, 40)   12840       dropout_3[0][0]                  
__________________________________________________________________________________________________
concatenate_1 (Concatenate)     (None, 40, 26, 80)   0           conv2d_transpose_1[0][0]         
                                                                 activation_4[0][0]               
__________________________________________________________________________________________________
conv2d_7 (Conv2D)               (None, 40, 26, 40)   28840       concatenate_1[0][0]              
__________________________________________________________________________________________________
batch_normalization_7 (BatchNor (None, 40, 26, 40)   160         conv2d_7[0][0]                   
__________________________________________________________________________________________________
activation_7 (Activation)       (None, 40, 26, 40)   0           batch_normalization_7[0][0]      
__________________________________________________________________________________________________
conv2d_8 (Conv2D)               (None, 40, 26, 40)   14440       activation_7[0][0]               
__________________________________________________________________________________________________
batch_normalization_8 (BatchNor (None, 40, 26, 40)   160         conv2d_8[0][0]                   
__________________________________________________________________________________________________
activation_8 (Activation)       (None, 40, 26, 40)   0           batch_normalization_8[0][0]      
__________________________________________________________________________________________________
dropout_4 (Dropout)             (None, 40, 26, 40)   0           activation_8[0][0]               
__________________________________________________________________________________________________
conv2d_transpose_2 (Conv2DTrans (None, 80, 52, 20)   3220        dropout_4[0][0]                  
__________________________________________________________________________________________________
concatenate_2 (Concatenate)     (None, 80, 52, 40)   0           conv2d_transpose_2[0][0]         
                                                                 activation_2[0][0]               
__________________________________________________________________________________________________
conv2d_9 (Conv2D)               (None, 80, 52, 20)   7220        concatenate_2[0][0]              
__________________________________________________________________________________________________
batch_normalization_9 (BatchNor (None, 80, 52, 20)   80          conv2d_9[0][0]                   
__________________________________________________________________________________________________
activation_9 (Activation)       (None, 80, 52, 20)   0           batch_normalization_9[0][0]      2019-06-30 15:38:23.308748: I tensorflow/core/common_runtime/gpu/gpu_device.cc:1471] Adding visible gpu devices: 0
2019-06-30 15:38:23.308858: I tensorflow/core/common_runtime/gpu/gpu_device.cc:952] Device interconnect StreamExecutor with strength 1 edge matrix:
2019-06-30 15:38:23.308876: I tensorflow/core/common_runtime/gpu/gpu_device.cc:958]      0 
2019-06-30 15:38:23.308887: I tensorflow/core/common_runtime/gpu/gpu_device.cc:971] 0:   N 
2019-06-30 15:38:23.949070: I tensorflow/core/common_runtime/gpu/gpu_device.cc:1084] Created TensorFlow device (/job:localhost/replica:0/task:0/device:GPU:0 with 15123 MB memory) -> physical GPU (device: 0, name: Tesla P100-PCIE-16GB, pci bus id: 0000:05:00.0, compute capability: 6.0)

__________________________________________________________________________________________________
conv2d_10 (Conv2D)              (None, 80, 52, 20)   3620        activation_9[0][0]               
__________________________________________________________________________________________________
batch_normalization_10 (BatchNo (None, 80, 52, 20)   80          conv2d_10[0][0]                  
__________________________________________________________________________________________________
activation_10 (Activation)      (None, 80, 52, 20)   0           batch_normalization_10[0][0]     
__________________________________________________________________________________________________
dropout_5 (Dropout)             (None, 80, 52, 20)   0           activation_10[0][0]              
__________________________________________________________________________________________________
conv2d_11 (Conv2D)              (None, 80, 52, 5)    105         dropout_5[0][0]                  
==================================================================================================
Total params: 183,945
Trainable params: 183,145
Non-trainable params: 800
__________________________________________________________________________________________________
 --- initialized from Model_7T /array/ssd/msmajdi/experiments/keras/exp6/models/sE12_HCascade_FM20_U-Net4_NL3_LS_MyBCE_US1_Main_Init_3T_CV_a/MultiClass_HCascade_Groups/sd0
…
 Nucleus: [1.1, 1.2, 1.3, 2]  | GPU: 1  | SD 2  | Dropout 0.3  | LR 0.001  | NL 3  |  HCascade |  FM 30 |  Upsample 1
Experiment: exp6
SubExperiment: sE12_HCascade_FM30_U-Net4_NL3_LS_MyBCE_US1_ET_Init_Main_CV_a
---------------------------------------------------------------
__________________________________________________________________________________________________
Layer (type)                    Output Shape         Param #     Connected to                     
==================================================================================================
input_1 (InputLayer)            (None, 52, 80, 1)    0                                            
__________________________________________________________________________________________________
conv2d_1 (Conv2D)               (None, 52, 80, 30)   300         input_1[0][0]                    
__________________________________________________________________________________________________
batch_normalization_1 (BatchNor (None, 52, 80, 30)   120         conv2d_1[0][0]                   
__________________________________________________________________________________________________
activation_1 (Activation)       (None, 52, 80, 30)   0           batch_normalization_1[0][0]      
__________________________________________________________________________________________________
conv2d_2 (Conv2D)               (None, 52, 80, 30)   8130        activation_1[0][0]               
__________________________________________________________________________________________________2019-06-30 15:52:49.857534: I tensorflow/core/common_runtime/gpu/gpu_device.cc:1471] Adding visible gpu devices: 0
2019-06-30 15:52:49.857671: I tensorflow/core/common_runtime/gpu/gpu_device.cc:952] Device interconnect StreamExecutor with strength 1 edge matrix:
2019-06-30 15:52:49.857696: I tensorflow/core/common_runtime/gpu/gpu_device.cc:958]      0 
2019-06-30 15:52:49.857711: I tensorflow/core/common_runtime/gpu/gpu_device.cc:971] 0:   N 
2019-06-30 15:52:49.858293: I tensorflow/core/common_runtime/gpu/gpu_device.cc:1084] Created TensorFlow device (/job:localhost/replica:0/task:0/device:GPU:0 with 15123 MB memory) -> physical GPU (device: 0, name: Tesla P100-PCIE-16GB, pci bus id: 0000:05:00.0, compute capability: 6.0)

batch_normalization_2 (BatchNor (None, 52, 80, 30)   120         conv2d_2[0][0]                   
__________________________________________________________________________________________________
activation_2 (Activation)       (None, 52, 80, 30)   0           batch_normalization_2[0][0]      
__________________________________________________________________________________________________
max_pooling2d_1 (MaxPooling2D)  (None, 26, 40, 30)   0           activation_2[0][0]               
__________________________________________________________________________________________________
dropout_1 (Dropout)             (None, 26, 40, 30)   0           max_pooling2d_1[0][0]            
__________________________________________________________________________________________________
conv2d_3 (Conv2D)               (None, 26, 40, 60)   16260       dropout_1[0][0]                  
__________________________________________________________________________________________________
batch_normalization_3 (BatchNor (None, 26, 40, 60)   240         conv2d_3[0][0]                   
__________________________________________________________________________________________________
activation_3 (Activation)       (None, 26, 40, 60)   0           batch_normalization_3[0][0]      
__________________________________________________________________________________________________
conv2d_4 (Conv2D)               (None, 26, 40, 60)   32460       activation_3[0][0]               
__________________________________________________________________________________________________
batch_normalization_4 (BatchNor (None, 26, 40, 60)   240         conv2d_4[0][0]                   
__________________________________________________________________________________________________
activation_4 (Activation)       (None, 26, 40, 60)   0           batch_normalization_4[0][0]      
__________________________________________________________________________________________________
max_pooling2d_2 (MaxPooling2D)  (None, 13, 20, 60)   0           activation_4[0][0]               
__________________________________________________________________________________________________
dropout_2 (Dropout)             (None, 13, 20, 60)   0           max_pooling2d_2[0][0]            
__________________________________________________________________________________________________
conv2d_5 (Conv2D)               (None, 13, 20, 120)  64920       dropout_2[0][0]                  
__________________________________________________________________________________________________
batch_normalization_5 (BatchNor (None, 13, 20, 120)  480         conv2d_5[0][0]                   
__________________________________________________________________________________________________
activation_5 (Activation)       (None, 13, 20, 120)  0           batch_normalization_5[0][0]      
__________________________________________________________________________________________________
conv2d_6 (Conv2D)               (None, 13, 20, 120)  129720      activation_5[0][0]               
__________________________________________________________________________________________________
batch_normalization_6 (BatchNor (None, 13, 20, 120)  480         conv2d_6[0][0]                   
__________________________________________________________________________________________________
activation_6 (Activation)       (None, 13, 20, 120)  0           batch_normalization_6[0][0]      
__________________________________________________________________________________________________
dropout_3 (Dropout)             (None, 13, 20, 120)  0           activation_6[0][0]               
__________________________________________________________________________________________________
conv2d_transpose_1 (Conv2DTrans (None, 26, 40, 60)   28860       dropout_3[0][0]                  
__________________________________________________________________________________________________
concatenate_1 (Concatenate)     (None, 26, 40, 120)  0           conv2d_transpose_1[0][0]         
                                                                 activation_4[0][0]               
__________________________________________________________________________________________________
conv2d_7 (Conv2D)               (None, 26, 40, 60)   64860       concatenate_1[0][0]              
__________________________________________________________________________________________________
batch_normalization_7 (BatchNor (None, 26, 40, 60)   240         conv2d_7[0][0]                   
__________________________________________________________________________________________________
activation_7 (Activation)       (None, 26, 40, 60)   0           batch_normalization_7[0][0]      
__________________________________________________________________________________________________
conv2d_8 (Conv2D)               (None, 26, 40, 60)   32460       activation_7[0][0]               
__________________________________________________________________________________________________
batch_normalization_8 (BatchNor (None, 26, 40, 60)   240         conv2d_8[0][0]                   
__________________________________________________________________________________________________
activation_8 (Activation)       (None, 26, 40, 60)   0           batch_normalization_8[0][0]      
__________________________________________________________________________________________________
dropout_4 (Dropout)             (None, 26, 40, 60)   0           activation_8[0][0]               
__________________________________________________________________________________________________
conv2d_transpose_2 (Conv2DTrans (None, 52, 80, 30)   7230        dropout_4[0][0]                  
__________________________________________________________________________________________________
concatenate_2 (Concatenate)     (None, 52, 80, 60)   0           conv2d_transpose_2[0][0]         
                                                                 activation_2[0][0]               
__________________________________________________________________________________________________
conv2d_9 (Conv2D)               (None, 52, 80, 30)   16230       concatenate_2[0][0]              
__________________________________________________________________________________________________
batch_normalization_9 (BatchNor (None, 52, 80, 30)   120         conv2d_9[0][0]                   
__________________________________________________________________________________________________
activation_9 (Activation)       (None, 52, 80, 30)   0           batch_normalization_9[0][0]      
__________________________________________________________________________________________________
conv2d_10 (Conv2D)              (None, 52, 80, 30)   8130        activation_9[0][0]               
__________________________________________________________________________________________________
batch_normalization_10 (BatchNo (None, 52, 80, 30)   120         conv2d_10[0][0]                  
__________________________________________________________________________________________________
activation_10 (Activation)      (None, 52, 80, 30)   0           batch_normalization_10[0][0]     
__________________________________________________________________________________________________
dropout_5 (Dropout)             (None, 52, 80, 30)   0           activation_10[0][0]              
__________________________________________________________________________________________________
conv2d_11 (Conv2D)              (None, 52, 80, 5)    155         dropout_5[0][0]                  
==================================================================================================
Total params: 412,115
Trainable params: 410,915
Non-trainable params: 1,200
__________________________________________________________________________________________________
 --- initialized from Model_7T /array/ssd/msmajdi/experiments/keras/exp6/models/sE12_HCascade_FM30_U-Net4_NL3_LS_MyBCE_US1_Main_Init_3T_CV_a/MultiClass_HCascade_Groups/sd2
…
 Nucleus: [1.1, 1.2, 1.3, 2]  | GPU: 1  | SD 1  | Dropout 0.3  | LR 0.001  | NL 3  |  HCascade |  FM 30 |  Upsample 1
Experiment: exp6
SubExperiment: sE12_HCascade_FM30_U-Net4_NL3_LS_MyBCE_US1_ET_Init_Main_CV_a
---------------------------------------------------------------
__________________________________________________________________________________________________
Layer (type)                    Output Shape         Param #     Connected to                     
==================================================================================================
input_1 (InputLayer)            (None, 52, 52, 1)    0                                            
__________________________________________________________________________________________________
conv2d_1 (Conv2D)               (None, 52, 52, 30)   300         input_1[0][0]                    
__________________________________________________________________________________________________
batch_normalization_1 (BatchNor (None, 52, 52, 30)   120         conv2d_1[0][0]                   
__________________________________________________________________________________________________
activation_1 (Activation)       (None, 52, 52, 30)   0           batch_normalization_1[0][0]      
__________________________________________________________________________________________________
conv2d_2 (Conv2D)               (None, 52, 52, 30)   8130        activation_1[0][0]               
__________________________________________________________________________________________________
batch_normalization_2 (BatchNor (None, 52, 52, 30)   120         conv2d_2[0][0]                   
__________________________________________________________________________________________________
activation_2 (Activation)       (None, 52, 52, 30)   0           batch_normalization_2[0][0]      
__________________________________________________________________________________________________
max_pooling2d_1 (MaxPooling2D)  (None, 26, 26, 30)   0           activation_2[0][0]               
__________________________________________________________________________________________________
dropout_1 (Dropout)             (None, 26, 26, 30)   0           max_pooling2d_1[0][0]            
__________________________________________________________________________________________________
conv2d_3 (Conv2D)               (None, 26, 26, 60)   16260       dropout_1[0][0]                  
__________________________________________________________________________________________________
batch_normalization_3 (BatchNor (None, 26, 26, 60)   240         conv2d_3[0][0]                   
__________________________________________________________________________________________________
activation_3 (Activation)       (None, 26, 26, 60)   0           batch_normalization_3[0][0]      
__________________________________________________________________________________________________
conv2d_4 (Conv2D)               (None, 26, 26, 60)   32460       activation_3[0][0]               
__________________________________________________________________________________________________
batch_normalization_4 (BatchNor (None, 26, 26, 60)   240         conv2d_4[0][0]                   
__________________________________________________________________________________________________
activation_4 (Activation)       (None, 26, 26, 60)   0           batch_normalization_4[0][0]      
__________________________________________________________________________________________________
max_pooling2d_2 (MaxPooling2D)  (None, 13, 13, 60)   0           activation_4[0][0]               
__________________________________________________________________________________________________
dropout_2 (Dropout)             (None, 13, 13, 60)   0           max_pooling2d_2[0][0]            
__________________________________________________________________________________________________
conv2d_5 (Conv2D)               (None, 13, 13, 120)  64920       dropout_2[0][0]                  
__________________________________________________________________________________________________
batch_normalization_5 (BatchNor (None, 13, 13, 120)  480         conv2d_5[0][0]                   
__________________________________________________________________________________________________
activation_5 (Activation)       (None, 13, 13, 120)  0           batch_normalization_5[0][0]      
__________________________________________________________________________________________________
conv2d_6 (Conv2D)               (None, 13, 13, 120)  129720      activation_5[0][0]               
__________________________________________________________________________________________________
batch_normalization_6 (BatchNor (None, 13, 13, 120)  480         conv2d_6[0][0]                   
__________________________________________________________________________________________________
activation_6 (Activation)       (None, 13, 13, 120)  0           batch_normalization_6[0][0]      
__________________________________________________________________________________________________
dropout_3 (Dropout)             (None, 13, 13, 120)  0           activation_6[0][0]               
__________________________________________________________________________________________________
conv2d_transpose_1 (Conv2DTrans (None, 26, 26, 60)   28860       dropout_3[0][0]                  
__________________________________________________________________________________________________
concatenate_1 (Concatenate)     (None, 26, 26, 120)  0           conv2d_transpose_1[0][0]         
                                                                 activation_4[0][0]               
__________________________________________________________________________________________________
conv2d_7 (Conv2D)               (None, 26, 26, 60)   64860       concatenate_1[0][0]              
__________________________________________________________________________________________________
batch_normalization_7 (BatchNor (None, 26, 26, 60)   240         conv2d_7[0][0]                   
__________________________________________________________________________________________________
activation_7 (Activation)       (None, 26, 26, 60)   0           batch_normalization_7[0][0]      
__________________________________________________________________________________________________
conv2d_8 (Conv2D)               (None, 26, 26, 60)   32460       activation_7[0][0]               
__________________________________________________________________________________________________
batch_normalization_8 (BatchNor (None, 26, 26, 60)   240         conv2d_8[0][0]                   
__________________________________________________________________________________________________
activation_8 (Activation)       (None, 26, 26, 60)   0           batch_normalization_8[0][0]      
__________________________________________________________________________________________________
dropout_4 (Dropout)             (None, 26, 26, 60)   0           activation_8[0][0]               
__________________________________________________________________________________________________
conv2d_transpose_2 (Conv2DTrans (None, 52, 52, 30)   7230        dropout_4[0][0]                  
__________________________________________________________________________________________________
concatenate_2 (Concatenate)     (None, 52, 52, 60)   0           conv2d_transpose_2[0][0]         
                                                                 activation_2[0][0]               
__________________________________________________________________________________________________
conv2d_9 (Conv2D)               (None, 52, 52, 30)   16230       concatenate_2[0][0]              
__________________________________________________________________________________________________
batch_normalization_9 (BatchNor (None, 52, 52, 30)   120         conv2d_9[0][0]                   
__________________________________________________________________________________________________
activation_9 (Activation)       (None, 52, 52, 30)   0           batch_normalization_9[0][0]      2019-06-30 16:15:29.364656: I tensorflow/core/common_runtime/gpu/gpu_device.cc:1471] Adding visible gpu devices: 0
2019-06-30 16:15:29.364768: I tensorflow/core/common_runtime/gpu/gpu_device.cc:952] Device interconnect StreamExecutor with strength 1 edge matrix:
2019-06-30 16:15:29.364787: I tensorflow/core/common_runtime/gpu/gpu_device.cc:958]      0 
2019-06-30 16:15:29.364798: I tensorflow/core/common_runtime/gpu/gpu_device.cc:971] 0:   N 
2019-06-30 16:15:29.365227: I tensorflow/core/common_runtime/gpu/gpu_device.cc:1084] Created TensorFlow device (/job:localhost/replica:0/task:0/device:GPU:0 with 15123 MB memory) -> physical GPU (device: 0, name: Tesla P100-PCIE-16GB, pci bus id: 0000:05:00.0, compute capability: 6.0)

__________________________________________________________________________________________________
conv2d_10 (Conv2D)              (None, 52, 52, 30)   8130        activation_9[0][0]               
__________________________________________________________________________________________________
batch_normalization_10 (BatchNo (None, 52, 52, 30)   120         conv2d_10[0][0]                  
__________________________________________________________________________________________________
activation_10 (Activation)      (None, 52, 52, 30)   0           batch_normalization_10[0][0]     
__________________________________________________________________________________________________
dropout_5 (Dropout)             (None, 52, 52, 30)   0           activation_10[0][0]              
__________________________________________________________________________________________________
conv2d_11 (Conv2D)              (None, 52, 52, 5)    155         dropout_5[0][0]                  
==================================================================================================
Total params: 412,115
Trainable params: 410,915
Non-trainable params: 1,200
__________________________________________________________________________________________________
 --- initialized from Model_7T /array/ssd/msmajdi/experiments/keras/exp6/models/sE12_HCascade_FM30_U-Net4_NL3_LS_MyBCE_US1_Main_Init_3T_CV_a/MultiClass_HCascade_Groups/sd1
…
 Nucleus: [1.1, 1.2, 1.3, 2]  | GPU: 1  | SD 0  | Dropout 0.3  | LR 0.001  | NL 3  |  HCascade |  FM 30 |  Upsample 1
Experiment: exp6
SubExperiment: sE12_HCascade_FM30_U-Net4_NL3_LS_MyBCE_US1_ET_Init_Main_CV_a
---------------------------------------------------------------
__________________________________________________________________________________________________
Layer (type)                    Output Shape         Param #     Connected to                     
==================================================================================================
input_1 (InputLayer)            (None, 80, 52, 1)    0                                            
__________________________________________________________________________________________________
conv2d_1 (Conv2D)               (None, 80, 52, 30)   300         input_1[0][0]                    
__________________________________________________________________________________________________
batch_normalization_1 (BatchNor (None, 80, 52, 30)   120         conv2d_1[0][0]                   
__________________________________________________________________________________________________
activation_1 (Activation)       (None, 80, 52, 30)   0           batch_normalization_1[0][0]      
__________________________________________________________________________________________________
conv2d_2 (Conv2D)               (None, 80, 52, 30)   8130        activation_1[0][0]               
__________________________________________________________________________________________________
batch_normalization_2 (BatchNor (None, 80, 52, 30)   120         conv2d_2[0][0]                   
__________________________________________________________________________________________________
activation_2 (Activation)       (None, 80, 52, 30)   0           batch_normalization_2[0][0]      
__________________________________________________________________________________________________
max_pooling2d_1 (MaxPooling2D)  (None, 40, 26, 30)   0           activation_2[0][0]               
__________________________________________________________________________________________________
dropout_1 (Dropout)             (None, 40, 26, 30)   0           max_pooling2d_1[0][0]            
__________________________________________________________________________________________________
conv2d_3 (Conv2D)               (None, 40, 26, 60)   16260       dropout_1[0][0]                  
__________________________________________________________________________________________________
batch_normalization_3 (BatchNor (None, 40, 26, 60)   240         conv2d_3[0][0]                   
__________________________________________________________________________________________________
activation_3 (Activation)       (None, 40, 26, 60)   0           batch_normalization_3[0][0]      
__________________________________________________________________________________________________
conv2d_4 (Conv2D)               (None, 40, 26, 60)   32460       activation_3[0][0]               
__________________________________________________________________________________________________
batch_normalization_4 (BatchNor (None, 40, 26, 60)   240         conv2d_4[0][0]                   
__________________________________________________________________________________________________
activation_4 (Activation)       (None, 40, 26, 60)   0           batch_normalization_4[0][0]      
__________________________________________________________________________________________________
max_pooling2d_2 (MaxPooling2D)  (None, 20, 13, 60)   0           activation_4[0][0]               
__________________________________________________________________________________________________
dropout_2 (Dropout)             (None, 20, 13, 60)   0           max_pooling2d_2[0][0]            
__________________________________________________________________________________________________
conv2d_5 (Conv2D)               (None, 20, 13, 120)  64920       dropout_2[0][0]                  
__________________________________________________________________________________________________
batch_normalization_5 (BatchNor (None, 20, 13, 120)  480         conv2d_5[0][0]                   
__________________________________________________________________________________________________
activation_5 (Activation)       (None, 20, 13, 120)  0           batch_normalization_5[0][0]      
__________________________________________________________________________________________________
conv2d_6 (Conv2D)               (None, 20, 13, 120)  129720      activation_5[0][0]               
__________________________________________________________________________________________________
batch_normalization_6 (BatchNor (None, 20, 13, 120)  480         conv2d_6[0][0]                   
__________________________________________________________________________________________________
activation_6 (Activation)       (None, 20, 13, 120)  0           batch_normalization_6[0][0]      
__________________________________________________________________________________________________
dropout_3 (Dropout)             (None, 20, 13, 120)  0           activation_6[0][0]               
__________________________________________________________________________________________________
conv2d_transpose_1 (Conv2DTrans (None, 40, 26, 60)   28860       dropout_3[0][0]                  
__________________________________________________________________________________________________
concatenate_1 (Concatenate)     (None, 40, 26, 120)  0           conv2d_transpose_1[0][0]         
                                                                 activation_4[0][0]               
__________________________________________________________________________________________________
conv2d_7 (Conv2D)               (None, 40, 26, 60)   64860       concatenate_1[0][0]              
__________________________________________________________________________________________________
batch_normalization_7 (BatchNor (None, 40, 26, 60)   240         conv2d_7[0][0]                   
__________________________________________________________________________________________________
activation_7 (Activation)       (None, 40, 26, 60)   0           batch_normalization_7[0][0]      
__________________________________________________________________________________________________
conv2d_8 (Conv2D)               (None, 40, 26, 60)   32460       activation_7[0][0]               
__________________________________________________________________________________________________
batch_normalization_8 (BatchNor (None, 40, 26, 60)   240         conv2d_8[0][0]                   
__________________________________________________________________________________________________
activation_8 (Activation)       (None, 40, 26, 60)   0           batch_normalization_8[0][0]      
__________________________________________________________________________________________________
dropout_4 (Dropout)             (None, 40, 26, 60)   0           activation_8[0][0]               
__________________________________________________________________________________________________
conv2d_transpose_2 (Conv2DTrans (None, 80, 52, 30)   7230        dropout_4[0][0]                  
__________________________________________________________________________________________________
concatenate_2 (Concatenate)     (None, 80, 52, 60)   0           conv2d_transpose_2[0][0]         
                                                                 activation_2[0][0]               
__________________________________________________________________________________________________
conv2d_9 (Conv2D)               (None, 80, 52, 30)   16230       concatenate_2[0][0]              
__________________________________________________________________________________________________
batch_normalization_9 (BatchNor (None, 80, 52, 30)   120         conv2d_9[0][0]                   
__________________________________________________________________________________________________
activation_9 (Activation)       (None, 80, 52, 30)   0           batch_normalization_9[0][0]      2019-06-30 16:41:41.837742: I tensorflow/core/common_runtime/gpu/gpu_device.cc:1471] Adding visible gpu devices: 0
2019-06-30 16:41:41.837842: I tensorflow/core/common_runtime/gpu/gpu_device.cc:952] Device interconnect StreamExecutor with strength 1 edge matrix:
2019-06-30 16:41:41.837859: I tensorflow/core/common_runtime/gpu/gpu_device.cc:958]      0 
2019-06-30 16:41:41.837869: I tensorflow/core/common_runtime/gpu/gpu_device.cc:971] 0:   N 
2019-06-30 16:41:42.032723: I tensorflow/core/common_runtime/gpu/gpu_device.cc:1084] Created TensorFlow device (/job:localhost/replica:0/task:0/device:GPU:0 with 15123 MB memory) -> physical GPU (device: 0, name: Tesla P100-PCIE-16GB, pci bus id: 0000:05:00.0, compute capability: 6.0)

__________________________________________________________________________________________________
conv2d_10 (Conv2D)              (None, 80, 52, 30)   8130        activation_9[0][0]               
__________________________________________________________________________________________________
batch_normalization_10 (BatchNo (None, 80, 52, 30)   120         conv2d_10[0][0]                  
__________________________________________________________________________________________________
activation_10 (Activation)      (None, 80, 52, 30)   0           batch_normalization_10[0][0]     
__________________________________________________________________________________________________
dropout_5 (Dropout)             (None, 80, 52, 30)   0           activation_10[0][0]              
__________________________________________________________________________________________________
conv2d_11 (Conv2D)              (None, 80, 52, 5)    155         dropout_5[0][0]                  
==================================================================================================
Total params: 412,115
Trainable params: 410,915
Non-trainable params: 1,200
__________________________________________________________________________________________________
 --- initialized from Model_7T /array/ssd/msmajdi/experiments/keras/exp6/models/sE12_HCascade_FM30_U-Net4_NL3_LS_MyBCE_US1_Main_Init_3T_CV_a/MultiClass_HCascade_Groups/sd0
…
 Nucleus: [1.1, 1.2, 1.3, 2]  | GPU: 1  | SD 2  | Dropout 0.3  | LR 0.001  | NL 3  |  HCascade |  FM 40 |  Upsample 1
Experiment: exp6
SubExperiment: sE12_HCascade_FM40_U-Net4_NL3_LS_MyBCE_US1_ET_Init_Main_CV_a
---------------------------------------------------------------
__________________________________________________________________________________________________
Layer (type)                    Output Shape         Param #     Connected to                     
==================================================================================================
input_1 (InputLayer)            (None, 52, 80, 1)    0                                            
__________________________________________________________________________________________________
conv2d_1 (Conv2D)               (None, 52, 80, 40)   400         input_1[0][0]                    
__________________________________________________________________________________________________
batch_normalization_1 (BatchNor (None, 52, 80, 40)   160         conv2d_1[0][0]                   
__________________________________________________________________________________________________
activation_1 (Activation)       (None, 52, 80, 40)   0           batch_normalization_1[0][0]      
__________________________________________________________________________________________________
conv2d_2 (Conv2D)               (None, 52, 80, 40)   14440       activation_1[0][0]               
__________________________________________________________________________________________________
batch_normalization_2 (BatchNor (None, 52, 80, 40)   160         conv2d_2[0][0]                   
__________________________________________________________________________________________________
activation_2 (Activation)       (None, 52, 80, 40)   0           batch_normalization_2[0][0]      
__________________________________________________________________________________________________
max_pooling2d_1 (MaxPooling2D)  (None, 26, 40, 40)   0           activation_2[0][0]               
__________________________________________________________________________________________________
dropout_1 (Dropout)             (None, 26, 40, 40)   0           max_pooling2d_1[0][0]            
__________________________________________________________________________________________________
conv2d_3 (Conv2D)               (None, 26, 40, 80)   28880       dropout_1[0][0]                  
__________________________________________________________________________________________________
batch_normalization_3 (BatchNor (None, 26, 40, 80)   320         conv2d_3[0][0]                   
__________________________________________________________________________________________________
activation_3 (Activation)       (None, 26, 40, 80)   0           batch_normalization_3[0][0]      
__________________________________________________________________________________________________
conv2d_4 (Conv2D)               (None, 26, 40, 80)   57680       activation_3[0][0]               
__________________________________________________________________________________________________
batch_normalization_4 (BatchNor (None, 26, 40, 80)   320         conv2d_4[0][0]                   
__________________________________________________________________________________________________
activation_4 (Activation)       (None, 26, 40, 80)   0           batch_normalization_4[0][0]      
__________________________________________________________________________________________________
max_pooling2d_2 (MaxPooling2D)  (None, 13, 20, 80)   0           activation_4[0][0]               
__________________________________________________________________________________________________
dropout_2 (Dropout)             (None, 13, 20, 80)   0           max_pooling2d_2[0][0]            
__________________________________________________________________________________________________
conv2d_5 (Conv2D)               (None, 13, 20, 160)  115360      dropout_2[0][0]                  
__________________________________________________________________________________________________
batch_normalization_5 (BatchNor (None, 13, 20, 160)  640         conv2d_5[0][0]                   
__________________________________________________________________________________________________
activation_5 (Activation)       (None, 13, 20, 160)  0           batch_normalization_5[0][0]      
__________________________________________________________________________________________________
conv2d_6 (Conv2D)               (None, 13, 20, 160)  230560      activation_5[0][0]               
__________________________________________________________________________________________________
batch_normalization_6 (BatchNor (None, 13, 20, 160)  640         conv2d_6[0][0]                   
__________________________________________________________________________________________________
activation_6 (Activation)       (None, 13, 20, 160)  0           batch_normalization_6[0][0]      
__________________________________________________________________________________________________
dropout_3 (Dropout)             (None, 13, 20, 160)  0           activation_6[0][0]               
__________________________________________________________________________________________________
conv2d_transpose_1 (Conv2DTrans (None, 26, 40, 80)   51280       dropout_3[0][0]                  
__________________________________________________________________________________________________
concatenate_1 (Concatenate)     (None, 26, 40, 160)  0           conv2d_transpose_1[0][0]         
                                                                 activation_4[0][0]               
__________________________________________________________________________________________________
conv2d_7 (Conv2D)               (None, 26, 40, 80)   115280      concatenate_1[0][0]              
__________________________________________________________________________________________________
batch_normalization_7 (BatchNor (None, 26, 40, 80)   320         conv2d_7[0][0]                   
__________________________________________________________________________________________________
activation_7 (Activation)       (None, 26, 40, 80)   0           batch_normalization_7[0][0]      
__________________________________________________________________________________________________
conv2d_8 (Conv2D)               (None, 26, 40, 80)   57680       activation_7[0][0]               
__________________________________________________________________________________________________
batch_normalization_8 (BatchNor (None, 26, 40, 80)   320         conv2d_8[0][0]                   
__________________________________________________________________________________________________
activation_8 (Activation)       (None, 26, 40, 80)   0           batch_normalization_8[0][0]      
__________________________________________________________________________________________________2019-06-30 17:08:05.043224: I tensorflow/core/common_runtime/gpu/gpu_device.cc:1471] Adding visible gpu devices: 0
2019-06-30 17:08:05.043326: I tensorflow/core/common_runtime/gpu/gpu_device.cc:952] Device interconnect StreamExecutor with strength 1 edge matrix:
2019-06-30 17:08:05.043343: I tensorflow/core/common_runtime/gpu/gpu_device.cc:958]      0 
2019-06-30 17:08:05.043352: I tensorflow/core/common_runtime/gpu/gpu_device.cc:971] 0:   N 
2019-06-30 17:08:05.043753: I tensorflow/core/common_runtime/gpu/gpu_device.cc:1084] Created TensorFlow device (/job:localhost/replica:0/task:0/device:GPU:0 with 15123 MB memory) -> physical GPU (device: 0, name: Tesla P100-PCIE-16GB, pci bus id: 0000:05:00.0, compute capability: 6.0)

dropout_4 (Dropout)             (None, 26, 40, 80)   0           activation_8[0][0]               
__________________________________________________________________________________________________
conv2d_transpose_2 (Conv2DTrans (None, 52, 80, 40)   12840       dropout_4[0][0]                  
__________________________________________________________________________________________________
concatenate_2 (Concatenate)     (None, 52, 80, 80)   0           conv2d_transpose_2[0][0]         
                                                                 activation_2[0][0]               
__________________________________________________________________________________________________
conv2d_9 (Conv2D)               (None, 52, 80, 40)   28840       concatenate_2[0][0]              
__________________________________________________________________________________________________
batch_normalization_9 (BatchNor (None, 52, 80, 40)   160         conv2d_9[0][0]                   
__________________________________________________________________________________________________
activation_9 (Activation)       (None, 52, 80, 40)   0           batch_normalization_9[0][0]      
__________________________________________________________________________________________________
conv2d_10 (Conv2D)              (None, 52, 80, 40)   14440       activation_9[0][0]               
__________________________________________________________________________________________________
batch_normalization_10 (BatchNo (None, 52, 80, 40)   160         conv2d_10[0][0]                  
__________________________________________________________________________________________________
activation_10 (Activation)      (None, 52, 80, 40)   0           batch_normalization_10[0][0]     
__________________________________________________________________________________________________
dropout_5 (Dropout)             (None, 52, 80, 40)   0           activation_10[0][0]              
__________________________________________________________________________________________________
conv2d_11 (Conv2D)              (None, 52, 80, 5)    205         dropout_5[0][0]                  
==================================================================================================
Total params: 731,085
Trainable params: 729,485
Non-trainable params: 1,600
__________________________________________________________________________________________________
 --- initialized from Model_7T /array/ssd/msmajdi/experiments/keras/exp6/models/sE12_HCascade_FM40_U-Net4_NL3_LS_MyBCE_US1_Main_Init_3T_CV_a/MultiClass_HCascade_Groups/sd2
…
 Nucleus: [1.1, 1.2, 1.3, 2]  | GPU: 1  | SD 1  | Dropout 0.3  | LR 0.001  | NL 3  |  HCascade |  FM 40 |  Upsample 1
Experiment: exp6
SubExperiment: sE12_HCascade_FM40_U-Net4_NL3_LS_MyBCE_US1_ET_Init_Main_CV_a
---------------------------------------------------------------
__________________________________________________________________________________________________
Layer (type)                    Output Shape         Param #     Connected to                     
==================================================================================================
input_1 (InputLayer)            (None, 52, 52, 1)    0                                            
__________________________________________________________________________________________________
conv2d_1 (Conv2D)               (None, 52, 52, 40)   400         input_1[0][0]                    
__________________________________________________________________________________________________
batch_normalization_1 (BatchNor (None, 52, 52, 40)   160         conv2d_1[0][0]                   
__________________________________________________________________________________________________
activation_1 (Activation)       (None, 52, 52, 40)   0           batch_normalization_1[0][0]      
__________________________________________________________________________________________________
conv2d_2 (Conv2D)               (None, 52, 52, 40)   14440       activation_1[0][0]               
__________________________________________________________________________________________________
batch_normalization_2 (BatchNor (None, 52, 52, 40)   160         conv2d_2[0][0]                   
__________________________________________________________________________________________________
activation_2 (Activation)       (None, 52, 52, 40)   0           batch_normalization_2[0][0]      
__________________________________________________________________________________________________
max_pooling2d_1 (MaxPooling2D)  (None, 26, 26, 40)   0           activation_2[0][0]               
__________________________________________________________________________________________________
dropout_1 (Dropout)             (None, 26, 26, 40)   0           max_pooling2d_1[0][0]            
__________________________________________________________________________________________________
conv2d_3 (Conv2D)               (None, 26, 26, 80)   28880       dropout_1[0][0]                  
__________________________________________________________________________________________________
batch_normalization_3 (BatchNor (None, 26, 26, 80)   320         conv2d_3[0][0]                   
__________________________________________________________________________________________________
activation_3 (Activation)       (None, 26, 26, 80)   0           batch_normalization_3[0][0]      
__________________________________________________________________________________________________
conv2d_4 (Conv2D)               (None, 26, 26, 80)   57680       activation_3[0][0]               
__________________________________________________________________________________________________
batch_normalization_4 (BatchNor (None, 26, 26, 80)   320         conv2d_4[0][0]                   
__________________________________________________________________________________________________
activation_4 (Activation)       (None, 26, 26, 80)   0           batch_normalization_4[0][0]      
__________________________________________________________________________________________________
max_pooling2d_2 (MaxPooling2D)  (None, 13, 13, 80)   0           activation_4[0][0]               
__________________________________________________________________________________________________
dropout_2 (Dropout)             (None, 13, 13, 80)   0           max_pooling2d_2[0][0]            
__________________________________________________________________________________________________
conv2d_5 (Conv2D)               (None, 13, 13, 160)  115360      dropout_2[0][0]                  2019-06-30 17:28:58.569903: I tensorflow/core/common_runtime/gpu/gpu_device.cc:1471] Adding visible gpu devices: 0
2019-06-30 17:28:58.586309: I tensorflow/core/common_runtime/gpu/gpu_device.cc:952] Device interconnect StreamExecutor with strength 1 edge matrix:
2019-06-30 17:28:58.586567: I tensorflow/core/common_runtime/gpu/gpu_device.cc:958]      0 
2019-06-30 17:28:58.586585: I tensorflow/core/common_runtime/gpu/gpu_device.cc:971] 0:   N 
2019-06-30 17:28:58.587861: I tensorflow/core/common_runtime/gpu/gpu_device.cc:1084] Created TensorFlow device (/job:localhost/replica:0/task:0/device:GPU:0 with 15123 MB memory) -> physical GPU (device: 0, name: Tesla P100-PCIE-16GB, pci bus id: 0000:05:00.0, compute capability: 6.0)

__________________________________________________________________________________________________
batch_normalization_5 (BatchNor (None, 13, 13, 160)  640         conv2d_5[0][0]                   
__________________________________________________________________________________________________
activation_5 (Activation)       (None, 13, 13, 160)  0           batch_normalization_5[0][0]      
__________________________________________________________________________________________________
conv2d_6 (Conv2D)               (None, 13, 13, 160)  230560      activation_5[0][0]               
__________________________________________________________________________________________________
batch_normalization_6 (BatchNor (None, 13, 13, 160)  640         conv2d_6[0][0]                   
__________________________________________________________________________________________________
activation_6 (Activation)       (None, 13, 13, 160)  0           batch_normalization_6[0][0]      
__________________________________________________________________________________________________
dropout_3 (Dropout)             (None, 13, 13, 160)  0           activation_6[0][0]               
__________________________________________________________________________________________________
conv2d_transpose_1 (Conv2DTrans (None, 26, 26, 80)   51280       dropout_3[0][0]                  
__________________________________________________________________________________________________
concatenate_1 (Concatenate)     (None, 26, 26, 160)  0           conv2d_transpose_1[0][0]         
                                                                 activation_4[0][0]               
__________________________________________________________________________________________________
conv2d_7 (Conv2D)               (None, 26, 26, 80)   115280      concatenate_1[0][0]              
__________________________________________________________________________________________________
batch_normalization_7 (BatchNor (None, 26, 26, 80)   320         conv2d_7[0][0]                   
__________________________________________________________________________________________________
activation_7 (Activation)       (None, 26, 26, 80)   0           batch_normalization_7[0][0]      
__________________________________________________________________________________________________
conv2d_8 (Conv2D)               (None, 26, 26, 80)   57680       activation_7[0][0]               
__________________________________________________________________________________________________
batch_normalization_8 (BatchNor (None, 26, 26, 80)   320         conv2d_8[0][0]                   
__________________________________________________________________________________________________
activation_8 (Activation)       (None, 26, 26, 80)   0           batch_normalization_8[0][0]      
__________________________________________________________________________________________________
dropout_4 (Dropout)             (None, 26, 26, 80)   0           activation_8[0][0]               
__________________________________________________________________________________________________
conv2d_transpose_2 (Conv2DTrans (None, 52, 52, 40)   12840       dropout_4[0][0]                  
__________________________________________________________________________________________________
concatenate_2 (Concatenate)     (None, 52, 52, 80)   0           conv2d_transpose_2[0][0]         
                                                                 activation_2[0][0]               
__________________________________________________________________________________________________
conv2d_9 (Conv2D)               (None, 52, 52, 40)   28840       concatenate_2[0][0]              
__________________________________________________________________________________________________
batch_normalization_9 (BatchNor (None, 52, 52, 40)   160         conv2d_9[0][0]                   
__________________________________________________________________________________________________
activation_9 (Activation)       (None, 52, 52, 40)   0           batch_normalization_9[0][0]      
__________________________________________________________________________________________________
conv2d_10 (Conv2D)              (None, 52, 52, 40)   14440       activation_9[0][0]               
__________________________________________________________________________________________________
batch_normalization_10 (BatchNo (None, 52, 52, 40)   160         conv2d_10[0][0]                  
__________________________________________________________________________________________________
activation_10 (Activation)      (None, 52, 52, 40)   0           batch_normalization_10[0][0]     
__________________________________________________________________________________________________
dropout_5 (Dropout)             (None, 52, 52, 40)   0           activation_10[0][0]              
__________________________________________________________________________________________________
conv2d_11 (Conv2D)              (None, 52, 52, 5)    205         dropout_5[0][0]                  
==================================================================================================
Total params: 731,085
Trainable params: 729,485
Non-trainable params: 1,600
__________________________________________________________________________________________________
 --- initialized from Model_7T /array/ssd/msmajdi/experiments/keras/exp6/models/sE12_HCascade_FM40_U-Net4_NL3_LS_MyBCE_US1_Main_Init_3T_CV_a/MultiClass_HCascade_Groups/sd1
…
 Nucleus: [1.1, 1.2, 1.3, 2]  | GPU: 1  | SD 0  | Dropout 0.3  | LR 0.001  | NL 3  |  HCascade |  FM 40 |  Upsample 1
Experiment: exp6
SubExperiment: sE12_HCascade_FM40_U-Net4_NL3_LS_MyBCE_US1_ET_Init_Main_CV_a
---------------------------------------------------------------
__________________________________________________________________________________________________
Layer (type)                    Output Shape         Param #     Connected to                     
==================================================================================================
input_1 (InputLayer)            (None, 80, 52, 1)    0                                            
__________________________________________________________________________________________________
conv2d_1 (Conv2D)               (None, 80, 52, 40)   400         input_1[0][0]                    
__________________________________________________________________________________________________
batch_normalization_1 (BatchNor (None, 80, 52, 40)   160         conv2d_1[0][0]                   
__________________________________________________________________________________________________
activation_1 (Activation)       (None, 80, 52, 40)   0           batch_normalization_1[0][0]      
__________________________________________________________________________________________________
conv2d_2 (Conv2D)               (None, 80, 52, 40)   14440       activation_1[0][0]               
__________________________________________________________________________________________________
batch_normalization_2 (BatchNor (None, 80, 52, 40)   160         conv2d_2[0][0]                   
__________________________________________________________________________________________________
activation_2 (Activation)       (None, 80, 52, 40)   0           batch_normalization_2[0][0]      
__________________________________________________________________________________________________
max_pooling2d_1 (MaxPooling2D)  (None, 40, 26, 40)   0           activation_2[0][0]               
__________________________________________________________________________________________________
dropout_1 (Dropout)             (None, 40, 26, 40)   0           max_pooling2d_1[0][0]            
__________________________________________________________________________________________________
conv2d_3 (Conv2D)               (None, 40, 26, 80)   28880       dropout_1[0][0]                  
__________________________________________________________________________________________________
batch_normalization_3 (BatchNor (None, 40, 26, 80)   320         conv2d_3[0][0]                   
__________________________________________________________________________________________________
activation_3 (Activation)       (None, 40, 26, 80)   0           batch_normalization_3[0][0]      
__________________________________________________________________________________________________
conv2d_4 (Conv2D)               (None, 40, 26, 80)   57680       activation_3[0][0]               
__________________________________________________________________________________________________
batch_normalization_4 (BatchNor (None, 40, 26, 80)   320         conv2d_4[0][0]                   
__________________________________________________________________________________________________
activation_4 (Activation)       (None, 40, 26, 80)   0           batch_normalization_4[0][0]      
__________________________________________________________________________________________________
max_pooling2d_2 (MaxPooling2D)  (None, 20, 13, 80)   0           activation_4[0][0]               
__________________________________________________________________________________________________
dropout_2 (Dropout)             (None, 20, 13, 80)   0           max_pooling2d_2[0][0]            
__________________________________________________________________________________________________
conv2d_5 (Conv2D)               (None, 20, 13, 160)  115360      dropout_2[0][0]                  
__________________________________________________________________________________________________
batch_normalization_5 (BatchNor (None, 20, 13, 160)  640         conv2d_5[0][0]                   
__________________________________________________________________________________________________
activation_5 (Activation)       (None, 20, 13, 160)  0           batch_normalization_5[0][0]      
__________________________________________________________________________________________________
conv2d_6 (Conv2D)               (None, 20, 13, 160)  230560      activation_5[0][0]               
__________________________________________________________________________________________________
batch_normalization_6 (BatchNor (None, 20, 13, 160)  640         conv2d_6[0][0]                   
__________________________________________________________________________________________________
activation_6 (Activation)       (None, 20, 13, 160)  0           batch_normalization_6[0][0]      
__________________________________________________________________________________________________
dropout_3 (Dropout)             (None, 20, 13, 160)  0           activation_6[0][0]               
__________________________________________________________________________________________________
conv2d_transpose_1 (Conv2DTrans (None, 40, 26, 80)   51280       dropout_3[0][0]                  
__________________________________________________________________________________________________
concatenate_1 (Concatenate)     (None, 40, 26, 160)  0           conv2d_transpose_1[0][0]         
                                                                 activation_4[0][0]               
__________________________________________________________________________________________________
conv2d_7 (Conv2D)               (None, 40, 26, 80)   115280      concatenate_1[0][0]              
__________________________________________________________________________________________________
batch_normalization_7 (BatchNor (None, 40, 26, 80)   320         conv2d_7[0][0]                   
__________________________________________________________________________________________________
activation_7 (Activation)       (None, 40, 26, 80)   0           batch_normalization_7[0][0]      
__________________________________________________________________________________________________
conv2d_8 (Conv2D)               (None, 40, 26, 80)   57680       activation_7[0][0]               
__________________________________________________________________________________________________
batch_normalization_8 (BatchNor (None, 40, 26, 80)   320         conv2d_8[0][0]                   
__________________________________________________________________________________________________
activation_8 (Activation)       (None, 40, 26, 80)   0           batch_normalization_8[0][0]      
__________________________________________________________________________________________________
dropout_4 (Dropout)             (None, 40, 26, 80)   0           activation_8[0][0]               
__________________________________________________________________________________________________
conv2d_transpose_2 (Conv2DTrans (None, 80, 52, 40)   12840       dropout_4[0][0]                  
__________________________________________________________________________________________________
concatenate_2 (Concatenate)     (None, 80, 52, 80)   0           conv2d_transpose_2[0][0]         
                                                                 activation_2[0][0]               
__________________________________________________________________________________________________
conv2d_9 (Conv2D)               (None, 80, 52, 40)   28840       concatenate_2[0][0]              
__________________________________________________________________________________________________
batch_normalization_9 (BatchNor (None, 80, 52, 40)   160         conv2d_9[0][0]                   
__________________________________________________________________________________________________
activation_9 (Activation)       (None, 80, 52, 40)   0           batch_normalization_9[0][0]      2019-06-30 18:02:18.987826: I tensorflow/core/common_runtime/gpu/gpu_device.cc:1471] Adding visible gpu devices: 0
2019-06-30 18:02:18.987946: I tensorflow/core/common_runtime/gpu/gpu_device.cc:952] Device interconnect StreamExecutor with strength 1 edge matrix:
2019-06-30 18:02:18.987972: I tensorflow/core/common_runtime/gpu/gpu_device.cc:958]      0 
2019-06-30 18:02:18.987987: I tensorflow/core/common_runtime/gpu/gpu_device.cc:971] 0:   N 
2019-06-30 18:02:18.988540: I tensorflow/core/common_runtime/gpu/gpu_device.cc:1084] Created TensorFlow device (/job:localhost/replica:0/task:0/device:GPU:0 with 15123 MB memory) -> physical GPU (device: 0, name: Tesla P100-PCIE-16GB, pci bus id: 0000:05:00.0, compute capability: 6.0)

__________________________________________________________________________________________________
conv2d_10 (Conv2D)              (None, 80, 52, 40)   14440       activation_9[0][0]               
__________________________________________________________________________________________________
batch_normalization_10 (BatchNo (None, 80, 52, 40)   160         conv2d_10[0][0]                  
__________________________________________________________________________________________________
activation_10 (Activation)      (None, 80, 52, 40)   0           batch_normalization_10[0][0]     
__________________________________________________________________________________________________
dropout_5 (Dropout)             (None, 80, 52, 40)   0           activation_10[0][0]              
__________________________________________________________________________________________________
conv2d_11 (Conv2D)              (None, 80, 52, 5)    205         dropout_5[0][0]                  
==================================================================================================
Total params: 731,085
Trainable params: 729,485
Non-trainable params: 1,600
__________________________________________________________________________________________________
 --- initialized from Model_7T /array/ssd/msmajdi/experiments/keras/exp6/models/sE12_HCascade_FM40_U-Net4_NL3_LS_MyBCE_US1_Main_Init_3T_CV_a/MultiClass_HCascade_Groups/sd0
…
 Nucleus: [1.1, 1.2, 1.3, 2]  | GPU: 1  | SD 2  | Dropout 0.3  | LR 0.001  | NL 4  |  HCascade |  FM 20 |  Upsample 1
Experiment: exp6
SubExperiment: sE12_HCascade_FM20_U-Net4_NL4_LS_MyBCE_US1_ET_Init_Main_CV_a
---------------------------------------------------------------
__________________________________________________________________________________________________
Layer (type)                    Output Shape         Param #     Connected to                     
==================================================================================================
input_1 (InputLayer)            (None, 56, 80, 1)    0                                            
__________________________________________________________________________________________________
conv2d_1 (Conv2D)               (None, 56, 80, 20)   200         input_1[0][0]                    
__________________________________________________________________________________________________
batch_normalization_1 (BatchNor (None, 56, 80, 20)   80          conv2d_1[0][0]                   
__________________________________________________________________________________________________
activation_1 (Activation)       (None, 56, 80, 20)   0           batch_normalization_1[0][0]      
__________________________________________________________________________________________________
conv2d_2 (Conv2D)               (None, 56, 80, 20)   3620        activation_1[0][0]               
__________________________________________________________________________________________________
batch_normalization_2 (BatchNor (None, 56, 80, 20)   80          conv2d_2[0][0]                   
__________________________________________________________________________________________________
activation_2 (Activation)       (None, 56, 80, 20)   0           batch_normalization_2[0][0]      
__________________________________________________________________________________________________
max_pooling2d_1 (MaxPooling2D)  (None, 28, 40, 20)   0           activation_2[0][0]               
__________________________________________________________________________________________________
dropout_1 (Dropout)             (None, 28, 40, 20)   0           max_pooling2d_1[0][0]            
__________________________________________________________________________________________________
conv2d_3 (Conv2D)               (None, 28, 40, 40)   7240        dropout_1[0][0]                  
__________________________________________________________________________________________________
batch_normalization_3 (BatchNor (None, 28, 40, 40)   160         conv2d_3[0][0]                   
__________________________________________________________________________________________________
activation_3 (Activation)       (None, 28, 40, 40)   0           batch_normalization_3[0][0]      
__________________________________________________________________________________________________
conv2d_4 (Conv2D)               (None, 28, 40, 40)   14440       activation_3[0][0]               
__________________________________________________________________________________________________
batch_normalization_4 (BatchNor (None, 28, 40, 40)   160         conv2d_4[0][0]                   
__________________________________________________________________________________________________
activation_4 (Activation)       (None, 28, 40, 40)   0           batch_normalization_4[0][0]      
__________________________________________________________________________________________________
max_pooling2d_2 (MaxPooling2D)  (None, 14, 20, 40)   0           activation_4[0][0]               
__________________________________________________________________________________________________
dropout_2 (Dropout)             (None, 14, 20, 40)   0           max_pooling2d_2[0][0]            
__________________________________________________________________________________________________
conv2d_5 (Conv2D)               (None, 14, 20, 80)   28880       dropout_2[0][0]                  
__________________________________________________________________________________________________
batch_normalization_5 (BatchNor (None, 14, 20, 80)   320         conv2d_5[0][0]                   
__________________________________________________________________________________________________
activation_5 (Activation)       (None, 14, 20, 80)   0           batch_normalization_5[0][0]      
__________________________________________________________________________________________________
conv2d_6 (Conv2D)               (None, 14, 20, 80)   57680       activation_5[0][0]               
__________________________________________________________________________________________________
batch_normalization_6 (BatchNor (None, 14, 20, 80)   320         conv2d_6[0][0]                   
__________________________________________________________________________________________________
activation_6 (Activation)       (None, 14, 20, 80)   0           batch_normalization_6[0][0]      
__________________________________________________________________________________________________
max_pooling2d_3 (MaxPooling2D)  (None, 7, 10, 80)    0           activation_6[0][0]               
__________________________________________________________________________________________________
dropout_3 (Dropout)             (None, 7, 10, 80)    0           max_pooling2d_3[0][0]            
__________________________________________________________________________________________________
conv2d_7 (Conv2D)               (None, 7, 10, 160)   115360      dropout_3[0][0]                  
__________________________________________________________________________________________________
batch_normalization_7 (BatchNor (None, 7, 10, 160)   640         conv2d_7[0][0]                   
__________________________________________________________________________________________________
activation_7 (Activation)       (None, 7, 10, 160)   0           batch_normalization_7[0][0]      
__________________________________________________________________________________________________
conv2d_8 (Conv2D)               (None, 7, 10, 160)   230560      activation_7[0][0]               
__________________________________________________________________________________________________
batch_normalization_8 (BatchNor (None, 7, 10, 160)   640         conv2d_8[0][0]                   
__________________________________________________________________________________________________
activation_8 (Activation)       (None, 7, 10, 160)   0           batch_normalization_8[0][0]      
__________________________________________________________________________________________________
dropout_4 (Dropout)             (None, 7, 10, 160)   0           activation_8[0][0]               
__________________________________________________________________________________________________
conv2d_transpose_1 (Conv2DTrans (None, 14, 20, 80)   51280       dropout_4[0][0]                  2019-06-30 18:41:48.605031: I tensorflow/core/common_runtime/gpu/gpu_device.cc:1471] Adding visible gpu devices: 0
2019-06-30 18:41:48.605592: I tensorflow/core/common_runtime/gpu/gpu_device.cc:952] Device interconnect StreamExecutor with strength 1 edge matrix:
2019-06-30 18:41:48.605626: I tensorflow/core/common_runtime/gpu/gpu_device.cc:958]      0 
2019-06-30 18:41:48.605643: I tensorflow/core/common_runtime/gpu/gpu_device.cc:971] 0:   N 
2019-06-30 18:41:48.606159: I tensorflow/core/common_runtime/gpu/gpu_device.cc:1084] Created TensorFlow device (/job:localhost/replica:0/task:0/device:GPU:0 with 15123 MB memory) -> physical GPU (device: 0, name: Tesla P100-PCIE-16GB, pci bus id: 0000:05:00.0, compute capability: 6.0)

__________________________________________________________________________________________________
concatenate_1 (Concatenate)     (None, 14, 20, 160)  0           conv2d_transpose_1[0][0]         
                                                                 activation_6[0][0]               
__________________________________________________________________________________________________
conv2d_9 (Conv2D)               (None, 14, 20, 80)   115280      concatenate_1[0][0]              
__________________________________________________________________________________________________
batch_normalization_9 (BatchNor (None, 14, 20, 80)   320         conv2d_9[0][0]                   
__________________________________________________________________________________________________
activation_9 (Activation)       (None, 14, 20, 80)   0           batch_normalization_9[0][0]      
__________________________________________________________________________________________________
conv2d_10 (Conv2D)              (None, 14, 20, 80)   57680       activation_9[0][0]               
__________________________________________________________________________________________________
batch_normalization_10 (BatchNo (None, 14, 20, 80)   320         conv2d_10[0][0]                  
__________________________________________________________________________________________________
activation_10 (Activation)      (None, 14, 20, 80)   0           batch_normalization_10[0][0]     
__________________________________________________________________________________________________
dropout_5 (Dropout)             (None, 14, 20, 80)   0           activation_10[0][0]              
__________________________________________________________________________________________________
conv2d_transpose_2 (Conv2DTrans (None, 28, 40, 40)   12840       dropout_5[0][0]                  
__________________________________________________________________________________________________
concatenate_2 (Concatenate)     (None, 28, 40, 80)   0           conv2d_transpose_2[0][0]         
                                                                 activation_4[0][0]               
__________________________________________________________________________________________________
conv2d_11 (Conv2D)              (None, 28, 40, 40)   28840       concatenate_2[0][0]              
__________________________________________________________________________________________________
batch_normalization_11 (BatchNo (None, 28, 40, 40)   160         conv2d_11[0][0]                  
__________________________________________________________________________________________________
activation_11 (Activation)      (None, 28, 40, 40)   0           batch_normalization_11[0][0]     
__________________________________________________________________________________________________
conv2d_12 (Conv2D)              (None, 28, 40, 40)   14440       activation_11[0][0]              
__________________________________________________________________________________________________
batch_normalization_12 (BatchNo (None, 28, 40, 40)   160         conv2d_12[0][0]                  
__________________________________________________________________________________________________
activation_12 (Activation)      (None, 28, 40, 40)   0           batch_normalization_12[0][0]     
__________________________________________________________________________________________________
dropout_6 (Dropout)             (None, 28, 40, 40)   0           activation_12[0][0]              
__________________________________________________________________________________________________
conv2d_transpose_3 (Conv2DTrans (None, 56, 80, 20)   3220        dropout_6[0][0]                  
__________________________________________________________________________________________________
concatenate_3 (Concatenate)     (None, 56, 80, 40)   0           conv2d_transpose_3[0][0]         
                                                                 activation_2[0][0]               
__________________________________________________________________________________________________
conv2d_13 (Conv2D)              (None, 56, 80, 20)   7220        concatenate_3[0][0]              
__________________________________________________________________________________________________
batch_normalization_13 (BatchNo (None, 56, 80, 20)   80          conv2d_13[0][0]                  
__________________________________________________________________________________________________
activation_13 (Activation)      (None, 56, 80, 20)   0           batch_normalization_13[0][0]     
__________________________________________________________________________________________________
conv2d_14 (Conv2D)              (None, 56, 80, 20)   3620        activation_13[0][0]              
__________________________________________________________________________________________________
batch_normalization_14 (BatchNo (None, 56, 80, 20)   80          conv2d_14[0][0]                  
__________________________________________________________________________________________________
activation_14 (Activation)      (None, 56, 80, 20)   0           batch_normalization_14[0][0]     
__________________________________________________________________________________________________
dropout_7 (Dropout)             (None, 56, 80, 20)   0           activation_14[0][0]              
__________________________________________________________________________________________________
conv2d_15 (Conv2D)              (None, 56, 80, 5)    105         dropout_7[0][0]                  
==================================================================================================
Total params: 756,025
Trainable params: 754,265
Non-trainable params: 1,760
__________________________________________________________________________________________________
 --- initialized from Model_7T /array/ssd/msmajdi/experiments/keras/exp6/models/sE12_HCascade_FM20_U-Net4_NL4_LS_MyBCE_US1_Main_Init_3T_CV_a/MultiClass_HCascade_Groups/sd2
…
 Nucleus: [1.1, 1.2, 1.3, 2]  | GPU: 1  | SD 1  | Dropout 0.3  | LR 0.001  | NL 4  |  HCascade |  FM 20 |  Upsample 1
Experiment: exp6
SubExperiment: sE12_HCascade_FM20_U-Net4_NL4_LS_MyBCE_US1_ET_Init_Main_CV_a
---------------------------------------------------------------
__________________________________________________________________________________________________
Layer (type)                    Output Shape         Param #     Connected to                     
==================================================================================================
input_1 (InputLayer)            (None, 56, 56, 1)    0                                            
__________________________________________________________________________________________________
conv2d_1 (Conv2D)               (None, 56, 56, 20)   200         input_1[0][0]                    
__________________________________________________________________________________________________
batch_normalization_1 (BatchNor (None, 56, 56, 20)   80          conv2d_1[0][0]                   
__________________________________________________________________________________________________
activation_1 (Activation)       (None, 56, 56, 20)   0           batch_normalization_1[0][0]      
__________________________________________________________________________________________________
conv2d_2 (Conv2D)               (None, 56, 56, 20)   3620        activation_1[0][0]               
__________________________________________________________________________________________________
batch_normalization_2 (BatchNor (None, 56, 56, 20)   80          conv2d_2[0][0]                   
__________________________________________________________________________________________________
activation_2 (Activation)       (None, 56, 56, 20)   0           batch_normalization_2[0][0]      
__________________________________________________________________________________________________
max_pooling2d_1 (MaxPooling2D)  (None, 28, 28, 20)   0           activation_2[0][0]               
__________________________________________________________________________________________________
dropout_1 (Dropout)             (None, 28, 28, 20)   0           max_pooling2d_1[0][0]            
__________________________________________________________________________________________________
conv2d_3 (Conv2D)               (None, 28, 28, 40)   7240        dropout_1[0][0]                  
__________________________________________________________________________________________________
batch_normalization_3 (BatchNor (None, 28, 28, 40)   160         conv2d_3[0][0]                   
__________________________________________________________________________________________________
activation_3 (Activation)       (None, 28, 28, 40)   0           batch_normalization_3[0][0]      
__________________________________________________________________________________________________
conv2d_4 (Conv2D)               (None, 28, 28, 40)   14440       activation_3[0][0]               
__________________________________________________________________________________________________
batch_normalization_4 (BatchNor (None, 28, 28, 40)   160         conv2d_4[0][0]                   
__________________________________________________________________________________________________
activation_4 (Activation)       (None, 28, 28, 40)   0           batch_normalization_4[0][0]      
__________________________________________________________________________________________________
max_pooling2d_2 (MaxPooling2D)  (None, 14, 14, 40)   0           activation_4[0][0]               
__________________________________________________________________________________________________
dropout_2 (Dropout)             (None, 14, 14, 40)   0           max_pooling2d_2[0][0]            
__________________________________________________________________________________________________
conv2d_5 (Conv2D)               (None, 14, 14, 80)   28880       dropout_2[0][0]                  
__________________________________________________________________________________________________
batch_normalization_5 (BatchNor (None, 14, 14, 80)   320         conv2d_5[0][0]                   
__________________________________________________________________________________________________
activation_5 (Activation)       (None, 14, 14, 80)   0           batch_normalization_5[0][0]      
__________________________________________________________________________________________________
conv2d_6 (Conv2D)               (None, 14, 14, 80)   57680       activation_5[0][0]               
__________________________________________________________________________________________________
batch_normalization_6 (BatchNor (None, 14, 14, 80)   320         conv2d_6[0][0]                   
__________________________________________________________________________________________________
activation_6 (Activation)       (None, 14, 14, 80)   0           batch_normalization_6[0][0]      
__________________________________________________________________________________________________
max_pooling2d_3 (MaxPooling2D)  (None, 7, 7, 80)     0           activation_6[0][0]               
__________________________________________________________________________________________________
dropout_3 (Dropout)             (None, 7, 7, 80)     0           max_pooling2d_3[0][0]            
__________________________________________________________________________________________________
conv2d_7 (Conv2D)               (None, 7, 7, 160)    115360      dropout_3[0][0]                  
__________________________________________________________________________________________________
batch_normalization_7 (BatchNor (None, 7, 7, 160)    640         conv2d_7[0][0]                   
__________________________________________________________________________________________________
activation_7 (Activation)       (None, 7, 7, 160)    0           batch_normalization_7[0][0]      
__________________________________________________________________________________________________
conv2d_8 (Conv2D)               (None, 7, 7, 160)    230560      activation_7[0][0]               
__________________________________________________________________________________________________
batch_normalization_8 (BatchNor (None, 7, 7, 160)    640         conv2d_8[0][0]                   
__________________________________________________________________________________________________
activation_8 (Activation)       (None, 7, 7, 160)    0           batch_normalization_8[0][0]      
__________________________________________________________________________________________________
dropout_4 (Dropout)             (None, 7, 7, 160)    0           activation_8[0][0]               
__________________________________________________________________________________________________
conv2d_transpose_1 (Conv2DTrans (None, 14, 14, 80)   51280       dropout_4[0][0]                  
__________________________________________________________________________________________________
concatenate_1 (Concatenate)     (None, 14, 14, 160)  0           conv2d_transpose_1[0][0]         
                                                                 activation_6[0][0]               
__________________________________________________________________________________________________
conv2d_9 (Conv2D)               (None, 14, 14, 80)   115280      concatenate_1[0][0]              
__________________________________________________________________________________________________
batch_normalization_9 (BatchNor (None, 14, 14, 80)   320         conv2d_9[0][0]                   
__________________________________________________________________________________________________
activation_9 (Activation)       (None, 14, 14, 80)   0           batch_normalization_9[0][0]      
__________________________________________________________________________________________________
conv2d_10 (Conv2D)              (None, 14, 14, 80)   57680       activation_9[0][0]               
__________________________________________________________________________________________________
batch_normalization_10 (BatchNo (None, 14, 14, 80)   320         conv2d_10[0][0]                  
__________________________________________________________________________________________________
activation_10 (Activation)      (None, 14, 14, 80)   0           batch_normalization_10[0][0]     
__________________________________________________________________________________________________
dropout_5 (Dropout)             (None, 14, 14, 80)   0           activation_10[0][0]              
__________________________________________________________________________________________________
conv2d_transpose_2 (Conv2DTrans (None, 28, 28, 40)   12840       dropout_5[0][0]                  
__________________________________________________________________________________________________
concatenate_2 (Concatenate)     (None, 28, 28, 80)   0           conv2d_transpose_2[0][0]         
                                                                 activation_4[0][0]               
__________________________________________________________________________________________________
conv2d_11 (Conv2D)              (None, 28, 28, 40)   28840       concatenate_2[0][0]              
__________________________________________________________________________________________________
batch_normalization_11 (BatchNo (None, 28, 28, 40)   160         conv2d_11[0][0]                  
__________________________________________________________________________________________________
activation_11 (Activation)      (None, 28, 28, 40)   0           batch_normalization_11[0][0]     
__________________________________________________________________________________________________
conv2d_12 (Conv2D)              (None, 28, 28, 40)   14440       activation_11[0][0]              
__________________________________________________________________________________________________
batch_normalization_12 (BatchNo (None, 28, 28, 40)   160         conv2d_12[0][0]                  
__________________________________________________________________________________________________
activation_12 (Activation)      (None, 28, 28, 40)   0           batch_normalization_12[0][0]     
__________________________________________________________________________________________________
dropout_6 (Dropout)             (None, 28, 28, 40)   0           activation_12[0][0]              
__________________________________________________________________________________________________
conv2d_transpose_3 (Conv2DTrans (None, 56, 56, 20)   3220        dropout_6[0][0]                  
__________________________________________________________________________________________________
concatenate_3 (Concatenate)     (None, 56, 56, 40)   0           conv2d_transpose_3[0][0]         
                                                                 activation_2[0][0]               2019-06-30 18:56:58.697948: I tensorflow/core/common_runtime/gpu/gpu_device.cc:1471] Adding visible gpu devices: 0
2019-06-30 18:56:58.698057: I tensorflow/core/common_runtime/gpu/gpu_device.cc:952] Device interconnect StreamExecutor with strength 1 edge matrix:
2019-06-30 18:56:58.698077: I tensorflow/core/common_runtime/gpu/gpu_device.cc:958]      0 
2019-06-30 18:56:58.698089: I tensorflow/core/common_runtime/gpu/gpu_device.cc:971] 0:   N 
2019-06-30 18:56:58.698577: I tensorflow/core/common_runtime/gpu/gpu_device.cc:1084] Created TensorFlow device (/job:localhost/replica:0/task:0/device:GPU:0 with 15123 MB memory) -> physical GPU (device: 0, name: Tesla P100-PCIE-16GB, pci bus id: 0000:05:00.0, compute capability: 6.0)

__________________________________________________________________________________________________
conv2d_13 (Conv2D)              (None, 56, 56, 20)   7220        concatenate_3[0][0]              
__________________________________________________________________________________________________
batch_normalization_13 (BatchNo (None, 56, 56, 20)   80          conv2d_13[0][0]                  
__________________________________________________________________________________________________
activation_13 (Activation)      (None, 56, 56, 20)   0           batch_normalization_13[0][0]     
__________________________________________________________________________________________________
conv2d_14 (Conv2D)              (None, 56, 56, 20)   3620        activation_13[0][0]              
__________________________________________________________________________________________________
batch_normalization_14 (BatchNo (None, 56, 56, 20)   80          conv2d_14[0][0]                  
__________________________________________________________________________________________________
activation_14 (Activation)      (None, 56, 56, 20)   0           batch_normalization_14[0][0]     
__________________________________________________________________________________________________
dropout_7 (Dropout)             (None, 56, 56, 20)   0           activation_14[0][0]              
__________________________________________________________________________________________________
conv2d_15 (Conv2D)              (None, 56, 56, 5)    105         dropout_7[0][0]                  
==================================================================================================
Total params: 756,025
Trainable params: 754,265
Non-trainable params: 1,760
__________________________________________________________________________________________________
 --- initialized from Model_7T /array/ssd/msmajdi/experiments/keras/exp6/models/sE12_HCascade_FM20_U-Net4_NL4_LS_MyBCE_US1_Main_Init_3T_CV_a/MultiClass_HCascade_Groups/sd1
…
 Nucleus: [1.1, 1.2, 1.3, 2]  | GPU: 1  | SD 0  | Dropout 0.3  | LR 0.001  | NL 4  |  HCascade |  FM 20 |  Upsample 1
Experiment: exp6
SubExperiment: sE12_HCascade_FM20_U-Net4_NL4_LS_MyBCE_US1_ET_Init_Main_CV_a
---------------------------------------------------------------
__________________________________________________________________________________________________
Layer (type)                    Output Shape         Param #     Connected to                     
==================================================================================================
input_1 (InputLayer)            (None, 80, 56, 1)    0                                            
__________________________________________________________________________________________________
conv2d_1 (Conv2D)               (None, 80, 56, 20)   200         input_1[0][0]                    
__________________________________________________________________________________________________
batch_normalization_1 (BatchNor (None, 80, 56, 20)   80          conv2d_1[0][0]                   
__________________________________________________________________________________________________
activation_1 (Activation)       (None, 80, 56, 20)   0           batch_normalization_1[0][0]      
__________________________________________________________________________________________________
conv2d_2 (Conv2D)               (None, 80, 56, 20)   3620        activation_1[0][0]               
__________________________________________________________________________________________________
batch_normalization_2 (BatchNor (None, 80, 56, 20)   80          conv2d_2[0][0]                   
__________________________________________________________________________________________________
activation_2 (Activation)       (None, 80, 56, 20)   0           batch_normalization_2[0][0]      
__________________________________________________________________________________________________
max_pooling2d_1 (MaxPooling2D)  (None, 40, 28, 20)   0           activation_2[0][0]               
__________________________________________________________________________________________________
dropout_1 (Dropout)             (None, 40, 28, 20)   0           max_pooling2d_1[0][0]            
__________________________________________________________________________________________________
conv2d_3 (Conv2D)               (None, 40, 28, 40)   7240        dropout_1[0][0]                  
__________________________________________________________________________________________________
batch_normalization_3 (BatchNor (None, 40, 28, 40)   160         conv2d_3[0][0]                   
__________________________________________________________________________________________________
activation_3 (Activation)       (None, 40, 28, 40)   0           batch_normalization_3[0][0]      
__________________________________________________________________________________________________
conv2d_4 (Conv2D)               (None, 40, 28, 40)   14440       activation_3[0][0]               
__________________________________________________________________________________________________
batch_normalization_4 (BatchNor (None, 40, 28, 40)   160         conv2d_4[0][0]                   
__________________________________________________________________________________________________
activation_4 (Activation)       (None, 40, 28, 40)   0           batch_normalization_4[0][0]      
__________________________________________________________________________________________________
max_pooling2d_2 (MaxPooling2D)  (None, 20, 14, 40)   0           activation_4[0][0]               
__________________________________________________________________________________________________
dropout_2 (Dropout)             (None, 20, 14, 40)   0           max_pooling2d_2[0][0]            
__________________________________________________________________________________________________
conv2d_5 (Conv2D)               (None, 20, 14, 80)   28880       dropout_2[0][0]                  
__________________________________________________________________________________________________
batch_normalization_5 (BatchNor (None, 20, 14, 80)   320         conv2d_5[0][0]                   
__________________________________________________________________________________________________
activation_5 (Activation)       (None, 20, 14, 80)   0           batch_normalization_5[0][0]      
__________________________________________________________________________________________________
conv2d_6 (Conv2D)               (None, 20, 14, 80)   57680       activation_5[0][0]               
__________________________________________________________________________________________________
batch_normalization_6 (BatchNor (None, 20, 14, 80)   320         conv2d_6[0][0]                   
__________________________________________________________________________________________________
activation_6 (Activation)       (None, 20, 14, 80)   0           batch_normalization_6[0][0]      
__________________________________________________________________________________________________
max_pooling2d_3 (MaxPooling2D)  (None, 10, 7, 80)    0           activation_6[0][0]               
__________________________________________________________________________________________________
dropout_3 (Dropout)             (None, 10, 7, 80)    0           max_pooling2d_3[0][0]            
__________________________________________________________________________________________________
conv2d_7 (Conv2D)               (None, 10, 7, 160)   115360      dropout_3[0][0]                  
__________________________________________________________________________________________________
batch_normalization_7 (BatchNor (None, 10, 7, 160)   640         conv2d_7[0][0]                   
__________________________________________________________________________________________________
activation_7 (Activation)       (None, 10, 7, 160)   0           batch_normalization_7[0][0]      
__________________________________________________________________________________________________
conv2d_8 (Conv2D)               (None, 10, 7, 160)   230560      activation_7[0][0]               
__________________________________________________________________________________________________
batch_normalization_8 (BatchNor (None, 10, 7, 160)   640         conv2d_8[0][0]                   
__________________________________________________________________________________________________
activation_8 (Activation)       (None, 10, 7, 160)   0           batch_normalization_8[0][0]      
__________________________________________________________________________________________________
dropout_4 (Dropout)             (None, 10, 7, 160)   0           activation_8[0][0]               
__________________________________________________________________________________________________
conv2d_transpose_1 (Conv2DTrans (None, 20, 14, 80)   51280       dropout_4[0][0]                  
__________________________________________________________________________________________________
concatenate_1 (Concatenate)     (None, 20, 14, 160)  0           conv2d_transpose_1[0][0]         
                                                                 activation_6[0][0]               
__________________________________________________________________________________________________
conv2d_9 (Conv2D)               (None, 20, 14, 80)   115280      concatenate_1[0][0]              
__________________________________________________________________________________________________
batch_normalization_9 (BatchNor (None, 20, 14, 80)   320         conv2d_9[0][0]                   
__________________________________________________________________________________________________
activation_9 (Activation)       (None, 20, 14, 80)   0           batch_normalization_9[0][0]      
__________________________________________________________________________________________________
conv2d_10 (Conv2D)              (None, 20, 14, 80)   57680       activation_9[0][0]               
__________________________________________________________________________________________________2019-06-30 19:32:04.166451: I tensorflow/core/common_runtime/gpu/gpu_device.cc:1471] Adding visible gpu devices: 0
2019-06-30 19:32:04.166558: I tensorflow/core/common_runtime/gpu/gpu_device.cc:952] Device interconnect StreamExecutor with strength 1 edge matrix:
2019-06-30 19:32:04.166573: I tensorflow/core/common_runtime/gpu/gpu_device.cc:958]      0 
2019-06-30 19:32:04.166582: I tensorflow/core/common_runtime/gpu/gpu_device.cc:971] 0:   N 
2019-06-30 19:32:04.167000: I tensorflow/core/common_runtime/gpu/gpu_device.cc:1084] Created TensorFlow device (/job:localhost/replica:0/task:0/device:GPU:0 with 15123 MB memory) -> physical GPU (device: 0, name: Tesla P100-PCIE-16GB, pci bus id: 0000:05:00.0, compute capability: 6.0)

batch_normalization_10 (BatchNo (None, 20, 14, 80)   320         conv2d_10[0][0]                  
__________________________________________________________________________________________________
activation_10 (Activation)      (None, 20, 14, 80)   0           batch_normalization_10[0][0]     
__________________________________________________________________________________________________
dropout_5 (Dropout)             (None, 20, 14, 80)   0           activation_10[0][0]              
__________________________________________________________________________________________________
conv2d_transpose_2 (Conv2DTrans (None, 40, 28, 40)   12840       dropout_5[0][0]                  
__________________________________________________________________________________________________
concatenate_2 (Concatenate)     (None, 40, 28, 80)   0           conv2d_transpose_2[0][0]         
                                                                 activation_4[0][0]               
__________________________________________________________________________________________________
conv2d_11 (Conv2D)              (None, 40, 28, 40)   28840       concatenate_2[0][0]              
__________________________________________________________________________________________________
batch_normalization_11 (BatchNo (None, 40, 28, 40)   160         conv2d_11[0][0]                  
__________________________________________________________________________________________________
activation_11 (Activation)      (None, 40, 28, 40)   0           batch_normalization_11[0][0]     
__________________________________________________________________________________________________
conv2d_12 (Conv2D)              (None, 40, 28, 40)   14440       activation_11[0][0]              
__________________________________________________________________________________________________
batch_normalization_12 (BatchNo (None, 40, 28, 40)   160         conv2d_12[0][0]                  
__________________________________________________________________________________________________
activation_12 (Activation)      (None, 40, 28, 40)   0           batch_normalization_12[0][0]     
__________________________________________________________________________________________________
dropout_6 (Dropout)             (None, 40, 28, 40)   0           activation_12[0][0]              
__________________________________________________________________________________________________
conv2d_transpose_3 (Conv2DTrans (None, 80, 56, 20)   3220        dropout_6[0][0]                  
__________________________________________________________________________________________________
concatenate_3 (Concatenate)     (None, 80, 56, 40)   0           conv2d_transpose_3[0][0]         
                                                                 activation_2[0][0]               
__________________________________________________________________________________________________
conv2d_13 (Conv2D)              (None, 80, 56, 20)   7220        concatenate_3[0][0]              
__________________________________________________________________________________________________
batch_normalization_13 (BatchNo (None, 80, 56, 20)   80          conv2d_13[0][0]                  
__________________________________________________________________________________________________
activation_13 (Activation)      (None, 80, 56, 20)   0           batch_normalization_13[0][0]     
__________________________________________________________________________________________________
conv2d_14 (Conv2D)              (None, 80, 56, 20)   3620        activation_13[0][0]              
__________________________________________________________________________________________________
batch_normalization_14 (BatchNo (None, 80, 56, 20)   80          conv2d_14[0][0]                  
__________________________________________________________________________________________________
activation_14 (Activation)      (None, 80, 56, 20)   0           batch_normalization_14[0][0]     
__________________________________________________________________________________________________
dropout_7 (Dropout)             (None, 80, 56, 20)   0           activation_14[0][0]              
__________________________________________________________________________________________________
conv2d_15 (Conv2D)              (None, 80, 56, 5)    105         dropout_7[0][0]                  
==================================================================================================
Total params: 756,025
Trainable params: 754,265
Non-trainable params: 1,760
__________________________________________________________________________________________________
 --- initialized from Model_7T /array/ssd/msmajdi/experiments/keras/exp6/models/sE12_HCascade_FM20_U-Net4_NL4_LS_MyBCE_US1_Main_Init_3T_CV_a/MultiClass_HCascade_Groups/sd0
…
 Nucleus: [1.1, 1.2, 1.3, 2]  | GPU: 1  | SD 2  | Dropout 0.3  | LR 0.001  | NL 4  |  HCascade |  FM 30 |  Upsample 1
Experiment: exp6
SubExperiment: sE12_HCascade_FM30_U-Net4_NL4_LS_MyBCE_US1_ET_Init_Main_CV_a
---------------------------------------------------------------
__________________________________________________________________________________________________
Layer (type)                    Output Shape         Param #     Connected to                     
==================================================================================================
input_1 (InputLayer)            (None, 56, 80, 1)    0                                            
__________________________________________________________________________________________________
conv2d_1 (Conv2D)               (None, 56, 80, 30)   300         input_1[0][0]                    
__________________________________________________________________________________________________
batch_normalization_1 (BatchNor (None, 56, 80, 30)   120         conv2d_1[0][0]                   
__________________________________________________________________________________________________
activation_1 (Activation)       (None, 56, 80, 30)   0           batch_normalization_1[0][0]      
__________________________________________________________________________________________________
conv2d_2 (Conv2D)               (None, 56, 80, 30)   8130        activation_1[0][0]               
__________________________________________________________________________________________________
batch_normalization_2 (BatchNor (None, 56, 80, 30)   120         conv2d_2[0][0]                   
__________________________________________________________________________________________________
activation_2 (Activation)       (None, 56, 80, 30)   0           batch_normalization_2[0][0]      
__________________________________________________________________________________________________
max_pooling2d_1 (MaxPooling2D)  (None, 28, 40, 30)   0           activation_2[0][0]               
__________________________________________________________________________________________________
dropout_1 (Dropout)             (None, 28, 40, 30)   0           max_pooling2d_1[0][0]            
__________________________________________________________________________________________________
conv2d_3 (Conv2D)               (None, 28, 40, 60)   16260       dropout_1[0][0]                  
__________________________________________________________________________________________________
batch_normalization_3 (BatchNor (None, 28, 40, 60)   240         conv2d_3[0][0]                   
__________________________________________________________________________________________________
activation_3 (Activation)       (None, 28, 40, 60)   0           batch_normalization_3[0][0]      
__________________________________________________________________________________________________
conv2d_4 (Conv2D)               (None, 28, 40, 60)   32460       activation_3[0][0]               
__________________________________________________________________________________________________
batch_normalization_4 (BatchNor (None, 28, 40, 60)   240         conv2d_4[0][0]                   
__________________________________________________________________________________________________
activation_4 (Activation)       (None, 28, 40, 60)   0           batch_normalization_4[0][0]      
__________________________________________________________________________________________________
max_pooling2d_2 (MaxPooling2D)  (None, 14, 20, 60)   0           activation_4[0][0]               
__________________________________________________________________________________________________
dropout_2 (Dropout)             (None, 14, 20, 60)   0           max_pooling2d_2[0][0]            
__________________________________________________________________________________________________
conv2d_5 (Conv2D)               (None, 14, 20, 120)  64920       dropout_2[0][0]                  
__________________________________________________________________________________________________
batch_normalization_5 (BatchNor (None, 14, 20, 120)  480         conv2d_5[0][0]                   
__________________________________________________________________________________________________
activation_5 (Activation)       (None, 14, 20, 120)  0           batch_normalization_5[0][0]      
__________________________________________________________________________________________________
conv2d_6 (Conv2D)               (None, 14, 20, 120)  129720      activation_5[0][0]               
__________________________________________________________________________________________________
batch_normalization_6 (BatchNor (None, 14, 20, 120)  480         conv2d_6[0][0]                   
__________________________________________________________________________________________________
activation_6 (Activation)       (None, 14, 20, 120)  0           batch_normalization_6[0][0]      
__________________________________________________________________________________________________
max_pooling2d_3 (MaxPooling2D)  (None, 7, 10, 120)   0           activation_6[0][0]               
__________________________________________________________________________________________________
dropout_3 (Dropout)             (None, 7, 10, 120)   0           max_pooling2d_3[0][0]            
__________________________________________________________________________________________________
conv2d_7 (Conv2D)               (None, 7, 10, 240)   259440      dropout_3[0][0]                  
__________________________________________________________________________________________________
batch_normalization_7 (BatchNor (None, 7, 10, 240)   960         conv2d_7[0][0]                   
__________________________________________________________________________________________________
activation_7 (Activation)       (None, 7, 10, 240)   0           batch_normalization_7[0][0]      
__________________________________________________________________________________________________
conv2d_8 (Conv2D)               (None, 7, 10, 240)   518640      activation_7[0][0]               
__________________________________________________________________________________________________
batch_normalization_8 (BatchNor (None, 7, 10, 240)   960         conv2d_8[0][0]                   
__________________________________________________________________________________________________
activation_8 (Activation)       (None, 7, 10, 240)   0           batch_normalization_8[0][0]      
__________________________________________________________________________________________________
dropout_4 (Dropout)             (None, 7, 10, 240)   0           activation_8[0][0]               
__________________________________________________________________________________________________
conv2d_transpose_1 (Conv2DTrans (None, 14, 20, 120)  115320      dropout_4[0][0]                  
__________________________________________________________________________________________________
concatenate_1 (Concatenate)     (None, 14, 20, 240)  0           conv2d_transpose_1[0][0]         
                                                                 activation_6[0][0]               
__________________________________________________________________________________________________
conv2d_9 (Conv2D)               (None, 14, 20, 120)  259320      concatenate_1[0][0]              
__________________________________________________________________________________________________
batch_normalization_9 (BatchNor (None, 14, 20, 120)  480         conv2d_9[0][0]                   
__________________________________________________________________________________________________
activation_9 (Activation)       (None, 14, 20, 120)  0           batch_normalization_9[0][0]      
__________________________________________________________________________________________________
conv2d_10 (Conv2D)              (None, 14, 20, 120)  129720      activation_9[0][0]               
__________________________________________________________________________________________________
batch_normalization_10 (BatchNo (None, 14, 20, 120)  480         conv2d_10[0][0]                  
__________________________________________________________________________________________________
activation_10 (Activation)      (None, 14, 20, 120)  0           batch_normalization_10[0][0]     
__________________________________________________________________________________________________
dropout_5 (Dropout)             (None, 14, 20, 120)  0           activation_10[0][0]              
__________________________________________________________________________________________________
conv2d_transpose_2 (Conv2DTrans (None, 28, 40, 60)   28860       dropout_5[0][0]                  
__________________________________________________________________________________________________
concatenate_2 (Concatenate)     (None, 28, 40, 120)  0           conv2d_transpose_2[0][0]         
                                                                 activation_4[0][0]               
__________________________________________________________________________________________________
conv2d_11 (Conv2D)              (None, 28, 40, 60)   64860       concatenate_2[0][0]              
__________________________________________________________________________________________________
batch_normalization_11 (BatchNo (None, 28, 40, 60)   240         conv2d_11[0][0]                  
__________________________________________________________________________________________________
activation_11 (Activation)      (None, 28, 40, 60)   0           batch_normalization_11[0][0]     
__________________________________________________________________________________________________
conv2d_12 (Conv2D)              (None, 28, 40, 60)   32460       activation_11[0][0]              
__________________________________________________________________________________________________
batch_normalization_12 (BatchNo (None, 28, 40, 60)   240         conv2d_12[0][0]                  
__________________________________________________________________________________________________
activation_12 (Activation)      (None, 28, 40, 60)   0           batch_normalization_12[0][0]     
__________________________________________________________________________________________________2019-06-30 19:50:02.990187: I tensorflow/core/common_runtime/gpu/gpu_device.cc:1471] Adding visible gpu devices: 0
2019-06-30 19:50:02.990330: I tensorflow/core/common_runtime/gpu/gpu_device.cc:952] Device interconnect StreamExecutor with strength 1 edge matrix:
2019-06-30 19:50:02.990352: I tensorflow/core/common_runtime/gpu/gpu_device.cc:958]      0 
2019-06-30 19:50:02.990365: I tensorflow/core/common_runtime/gpu/gpu_device.cc:971] 0:   N 
2019-06-30 19:50:02.990886: I tensorflow/core/common_runtime/gpu/gpu_device.cc:1084] Created TensorFlow device (/job:localhost/replica:0/task:0/device:GPU:0 with 15123 MB memory) -> physical GPU (device: 0, name: Tesla P100-PCIE-16GB, pci bus id: 0000:05:00.0, compute capability: 6.0)

dropout_6 (Dropout)             (None, 28, 40, 60)   0           activation_12[0][0]              
__________________________________________________________________________________________________
conv2d_transpose_3 (Conv2DTrans (None, 56, 80, 30)   7230        dropout_6[0][0]                  
__________________________________________________________________________________________________
concatenate_3 (Concatenate)     (None, 56, 80, 60)   0           conv2d_transpose_3[0][0]         
                                                                 activation_2[0][0]               
__________________________________________________________________________________________________
conv2d_13 (Conv2D)              (None, 56, 80, 30)   16230       concatenate_3[0][0]              
__________________________________________________________________________________________________
batch_normalization_13 (BatchNo (None, 56, 80, 30)   120         conv2d_13[0][0]                  
__________________________________________________________________________________________________
activation_13 (Activation)      (None, 56, 80, 30)   0           batch_normalization_13[0][0]     
__________________________________________________________________________________________________
conv2d_14 (Conv2D)              (None, 56, 80, 30)   8130        activation_13[0][0]              
__________________________________________________________________________________________________
batch_normalization_14 (BatchNo (None, 56, 80, 30)   120         conv2d_14[0][0]                  
__________________________________________________________________________________________________
activation_14 (Activation)      (None, 56, 80, 30)   0           batch_normalization_14[0][0]     
__________________________________________________________________________________________________
dropout_7 (Dropout)             (None, 56, 80, 30)   0           activation_14[0][0]              
__________________________________________________________________________________________________
conv2d_15 (Conv2D)              (None, 56, 80, 5)    155         dropout_7[0][0]                  
==================================================================================================
Total params: 1,697,435
Trainable params: 1,694,795
Non-trainable params: 2,640
__________________________________________________________________________________________________
 --- initialized from Model_7T /array/ssd/msmajdi/experiments/keras/exp6/models/sE12_HCascade_FM30_U-Net4_NL4_LS_MyBCE_US1_Main_Init_3T_CV_a/MultiClass_HCascade_Groups/sd2
…
 Nucleus: [1.1, 1.2, 1.3, 2]  | GPU: 1  | SD 1  | Dropout 0.3  | LR 0.001  | NL 4  |  HCascade |  FM 30 |  Upsample 1
Experiment: exp6
SubExperiment: sE12_HCascade_FM30_U-Net4_NL4_LS_MyBCE_US1_ET_Init_Main_CV_a
---------------------------------------------------------------
__________________________________________________________________________________________________
Layer (type)                    Output Shape         Param #     Connected to                     
==================================================================================================
input_1 (InputLayer)            (None, 56, 56, 1)    0                                            
__________________________________________________________________________________________________
conv2d_1 (Conv2D)               (None, 56, 56, 30)   300         input_1[0][0]                    
__________________________________________________________________________________________________
batch_normalization_1 (BatchNor (None, 56, 56, 30)   120         conv2d_1[0][0]                   
__________________________________________________________________________________________________
activation_1 (Activation)       (None, 56, 56, 30)   0           batch_normalization_1[0][0]      
__________________________________________________________________________________________________
conv2d_2 (Conv2D)               (None, 56, 56, 30)   8130        activation_1[0][0]               
__________________________________________________________________________________________________
batch_normalization_2 (BatchNor (None, 56, 56, 30)   120         conv2d_2[0][0]                   
__________________________________________________________________________________________________
activation_2 (Activation)       (None, 56, 56, 30)   0           batch_normalization_2[0][0]      
__________________________________________________________________________________________________
max_pooling2d_1 (MaxPooling2D)  (None, 28, 28, 30)   0           activation_2[0][0]               
…
dropout_3 (Dropout)             (None, 10, 7, 120)   0           max_pooling2d_3[0][0]            
__________________________________________________________________________________________________
conv2d_7 (Conv2D)               (None, 10, 7, 240)   259440      dropout_3[0][0]                  
__________________________________________________________________________________________________
batch_normalization_7 (BatchNor (None, 10, 7, 240)   960         conv2d_7[0][0]                   
__________________________________________________________________________________________________
activation_7 (Activation)       (None, 10, 7, 240)   0           batch_normalization_7[0][0]      
__________________________________________________________________________________________________
conv2d_8 (Conv2D)               (None, 10, 7, 240)   518640      activation_7[0][0]               
__________________________________________________________________________________________________
batch_normalization_8 (BatchNor (None, 10, 7, 240)   960         conv2d_8[0][0]                   
__________________________________________________________________________________________________
activation_8 (Activation)       (None, 10, 7, 240)   0           batch_normalization_8[0][0]      
__________________________________________________________________________________________________
dropout_4 (Dropout)             (None, 10, 7, 240)   0           activation_8[0][0]               
__________________________________________________________________________________________________
conv2d_transpose_1 (Conv2DTrans (None, 20, 14, 120)  115320      dropout_4[0][0]                  
__________________________________________________________________________________________________
concatenate_1 (Concatenate)     (None, 20, 14, 240)  0           conv2d_transpose_1[0][0]         
                                                                 activation_6[0][0]               
__________________________________________________________________________________________________
conv2d_9 (Conv2D)               (None, 20, 14, 120)  259320      concatenate_1[0][0]              
__________________________________________________________________________________________________
batch_normalization_9 (BatchNor (None, 20, 14, 120)  480         conv2d_9[0][0]                   
__________________________________________________________________________________________________
activation_9 (Activation)       (None, 20, 14, 120)  0           batch_normalization_9[0][0]      
__________________________________________________________________________________________________
conv2d_10 (Conv2D)              (None, 20, 14, 120)  129720      activation_9[0][0]               
__________________________________________________________________________________________________2019-06-30 20:42:29.247888: I tensorflow/core/common_runtime/gpu/gpu_device.cc:1471] Adding visible gpu devices: 0
2019-06-30 20:42:29.247994: I tensorflow/core/common_runtime/gpu/gpu_device.cc:952] Device interconnect StreamExecutor with strength 1 edge matrix:
2019-06-30 20:42:29.248010: I tensorflow/core/common_runtime/gpu/gpu_device.cc:958]      0 
2019-06-30 20:42:29.248020: I tensorflow/core/common_runtime/gpu/gpu_device.cc:971] 0:   N 
2019-06-30 20:42:29.248451: I tensorflow/core/common_runtime/gpu/gpu_device.cc:1084] Created TensorFlow device (/job:localhost/replica:0/task:0/device:GPU:0 with 15123 MB memory) -> physical GPU (device: 0, name: Tesla P100-PCIE-16GB, pci bus id: 0000:05:00.0, compute capability: 6.0)

batch_normalization_10 (BatchNo (None, 20, 14, 120)  480         conv2d_10[0][0]                  
__________________________________________________________________________________________________
activation_10 (Activation)      (None, 20, 14, 120)  0           batch_normalization_10[0][0]     
__________________________________________________________________________________________________
dropout_5 (Dropout)             (None, 20, 14, 120)  0           activation_10[0][0]              
__________________________________________________________________________________________________
conv2d_transpose_2 (Conv2DTrans (None, 40, 28, 60)   28860       dropout_5[0][0]                  
__________________________________________________________________________________________________
concatenate_2 (Concatenate)     (None, 40, 28, 120)  0           conv2d_transpose_2[0][0]         
                                                                 activation_4[0][0]               
__________________________________________________________________________________________________
conv2d_11 (Conv2D)              (None, 40, 28, 60)   64860       concatenate_2[0][0]              
__________________________________________________________________________________________________
batch_normalization_11 (BatchNo (None, 40, 28, 60)   240         conv2d_11[0][0]                  
__________________________________________________________________________________________________
activation_11 (Activation)      (None, 40, 28, 60)   0           batch_normalization_11[0][0]     
__________________________________________________________________________________________________
conv2d_12 (Conv2D)              (None, 40, 28, 60)   32460       activation_11[0][0]              
__________________________________________________________________________________________________
batch_normalization_12 (BatchNo (None, 40, 28, 60)   240         conv2d_12[0][0]                  
__________________________________________________________________________________________________
activation_12 (Activation)      (None, 40, 28, 60)   0           batch_normalization_12[0][0]     
__________________________________________________________________________________________________
dropout_6 (Dropout)             (None, 40, 28, 60)   0           activation_12[0][0]              
__________________________________________________________________________________________________
conv2d_transpose_3 (Conv2DTrans (None, 80, 56, 30)   7230        dropout_6[0][0]                  
__________________________________________________________________________________________________
concatenate_3 (Concatenate)     (None, 80, 56, 60)   0           conv2d_transpose_3[0][0]         
                                                                 activation_2[0][0]               
__________________________________________________________________________________________________
conv2d_13 (Conv2D)              (None, 80, 56, 30)   16230       concatenate_3[0][0]              
__________________________________________________________________________________________________
batch_normalization_13 (BatchNo (None, 80, 56, 30)   120         conv2d_13[0][0]                  
__________________________________________________________________________________________________
activation_13 (Activation)      (None, 80, 56, 30)   0           batch_normalization_13[0][0]     
__________________________________________________________________________________________________
conv2d_14 (Conv2D)              (None, 80, 56, 30)   8130        activation_13[0][0]              
__________________________________________________________________________________________________
batch_normalization_14 (BatchNo (None, 80, 56, 30)   120         conv2d_14[0][0]                  
__________________________________________________________________________________________________
activation_14 (Activation)      (None, 80, 56, 30)   0           batch_normalization_14[0][0]     
__________________________________________________________________________________________________
dropout_7 (Dropout)             (None, 80, 56, 30)   0           activation_14[0][0]              
__________________________________________________________________________________________________
conv2d_15 (Conv2D)              (None, 80, 56, 5)    155         dropout_7[0][0]                  
==================================================================================================
Total params: 1,697,435
Trainable params: 1,694,795
Non-trainable params: 2,640
__________________________________________________________________________________________________
 --- initialized from Model_7T /array/ssd/msmajdi/experiments/keras/exp6/models/sE12_HCascade_FM30_U-Net4_NL4_LS_MyBCE_US1_Main_Init_3T_CV_a/MultiClass_HCascade_Groups/sd0
…
 Nucleus: [1.1, 1.2, 1.3, 2]  | GPU: 1  | SD 2  | Dropout 0.3  | LR 0.001  | NL 4  |  HCascade |  FM 40 |  Upsample 1
Experiment: exp6
SubExperiment: sE12_HCascade_FM40_U-Net4_NL4_LS_MyBCE_US1_ET_Init_Main_CV_a
---------------------------------------------------------------
__________________________________________________________________________________________________
Layer (type)                    Output Shape         Param #     Connected to                     
==================================================================================================
input_1 (InputLayer)            (None, 56, 80, 1)    0                                            
__________________________________________________________________________________________________
conv2d_1 (Conv2D)               (None, 56, 80, 40)   400         input_1[0][0]                    
__________________________________________________________________________________________________
batch_normalization_1 (BatchNor (None, 56, 80, 40)   160         conv2d_1[0][0]                   
__________________________________________________________________________________________________
activation_1 (Activation)       (None, 56, 80, 40)   0           batch_normalization_1[0][0]      
__________________________________________________________________________________________________
conv2d_2 (Conv2D)               (None, 56, 80, 40)   14440       activation_1[0][0]               
__________________________________________________________________________________________________
batch_normalization_2 (BatchNor (None, 56, 80, 40)   160         conv2d_2[0][0]                   
__________________________________________________________________________________________________
activation_2 (Activation)       (None, 56, 80, 40)   0           batch_normalization_2[0][0]      
__________________________________________________________________________________________________
max_pooling2d_1 (MaxPooling2D)  (None, 28, 40, 40)   0           activation_2[0][0]               
__________________________________________________________________________________________________
dropout_1 (Dropout)             (None, 28, 40, 40)   0           max_pooling2d_1[0][0]            
__________________________________________________________________________________________________
conv2d_3 (Conv2D)               (None, 28, 40, 80)   28880       dropout_1[0][0]                  
__________________________________________________________________________________________________
batch_normalization_3 (BatchNor (None, 28, 40, 80)   320         conv2d_3[0][0]                   
__________________________________________________________________________________________________
activation_3 (Activation)       (None, 28, 40, 80)   0           batch_normalization_3[0][0]      
__________________________________________________________________________________________________
conv2d_4 (Conv2D)               (None, 28, 40, 80)   57680       activation_3[0][0]               
__________________________________________________________________________________________________
batch_normalization_4 (BatchNor (None, 28, 40, 80)   320         conv2d_4[0][0]                   
__________________________________________________________________________________________________
activation_4 (Activation)       (None, 28, 40, 80)   0           batch_normalization_4[0][0]      
__________________________________________________________________________________________________
max_pooling2d_2 (MaxPooling2D)  (None, 14, 20, 80)   0           activation_4[0][0]               
__________________________________________________________________________________________________
dropout_2 (Dropout)             (None, 14, 20, 80)   0           max_pooling2d_2[0][0]            
__________________________________________________________________________________________________
conv2d_5 (Conv2D)               (None, 14, 20, 160)  115360      dropout_2[0][0]                  
__________________________________________________________________________________________________
batch_normalization_5 (BatchNor (None, 14, 20, 160)  640         conv2d_5[0][0]                   
__________________________________________________________________________________________________
activation_5 (Activation)       (None, 14, 20, 160)  0           batch_normalization_5[0][0]      
__________________________________________________________________________________________________
conv2d_6 (Conv2D)               (None, 14, 20, 160)  230560      activation_5[0][0]               
__________________________________________________________________________________________________
batch_normalization_6 (BatchNor (None, 14, 20, 160)  640         conv2d_6[0][0]                   
__________________________________________________________________________________________________
activation_6 (Activation)       (None, 14, 20, 160)  0           batch_normalization_6[0][0]      
__________________________________________________________________________________________________
max_pooling2d_3 (MaxPooling2D)  (None, 7, 10, 160)   0           activation_6[0][0]               
__________________________________________________________________________________________________
dropout_3 (Dropout)             (None, 7, 10, 160)   0           max_pooling2d_3[0][0]            
__________________________________________________________________________________________________
conv2d_7 (Conv2D)               (None, 7, 10, 320)   461120      dropout_3[0][0]                  
__________________________________________________________________________________________________
batch_normalization_7 (BatchNor (None, 7, 10, 320)   1280        conv2d_7[0][0]                   
__________________________________________________________________________________________________
activation_7 (Activation)       (None, 7, 10, 320)   0           batch_normalization_7[0][0]      
__________________________________________________________________________________________________
conv2d_8 (Conv2D)               (None, 7, 10, 320)   921920      activation_7[0][0]               
__________________________________________________________________________________________________
batch_normalization_8 (BatchNor (None, 7, 10, 320)   1280        conv2d_8[0][0]                   
__________________________________________________________________________________________________
activation_8 (Activation)       (None, 7, 10, 320)   0           batch_normalization_8[0][0]      
__________________________________________________________________________________________________
dropout_4 (Dropout)             (None, 7, 10, 320)   0           activation_8[0][0]               
__________________________________________________________________________________________________
conv2d_transpose_1 (Conv2DTrans (None, 14, 20, 160)  204960      dropout_4[0][0]                  2019-06-30 21:10:31.995133: I tensorflow/core/common_runtime/gpu/gpu_device.cc:1471] Adding visible gpu devices: 0
2019-06-30 21:10:31.995295: I tensorflow/core/common_runtime/gpu/gpu_device.cc:952] Device interconnect StreamExecutor with strength 1 edge matrix:
2019-06-30 21:10:31.995315: I tensorflow/core/common_runtime/gpu/gpu_device.cc:958]      0 
2019-06-30 21:10:31.995329: I tensorflow/core/common_runtime/gpu/gpu_device.cc:971] 0:   N 
2019-06-30 21:10:31.995911: I tensorflow/core/common_runtime/gpu/gpu_device.cc:1084] Created TensorFlow device (/job:localhost/replica:0/task:0/device:GPU:0 with 15123 MB memory) -> physical GPU (device: 0, name: Tesla P100-PCIE-16GB, pci bus id: 0000:05:00.0, compute capability: 6.0)

__________________________________________________________________________________________________
concatenate_1 (Concatenate)     (None, 14, 20, 320)  0           conv2d_transpose_1[0][0]         
                                                                 activation_6[0][0]               
__________________________________________________________________________________________________
conv2d_9 (Conv2D)               (None, 14, 20, 160)  460960      concatenate_1[0][0]              
__________________________________________________________________________________________________
batch_normalization_9 (BatchNor (None, 14, 20, 160)  640         conv2d_9[0][0]                   
__________________________________________________________________________________________________
activation_9 (Activation)       (None, 14, 20, 160)  0           batch_normalization_9[0][0]      
__________________________________________________________________________________________________
conv2d_10 (Conv2D)              (None, 14, 20, 160)  230560      activation_9[0][0]               
__________________________________________________________________________________________________
batch_normalization_10 (BatchNo (None, 14, 20, 160)  640         conv2d_10[0][0]                  
__________________________________________________________________________________________________
activation_10 (Activation)      (None, 14, 20, 160)  0           batch_normalization_10[0][0]     
__________________________________________________________________________________________________
dropout_5 (Dropout)             (None, 14, 20, 160)  0           activation_10[0][0]              
__________________________________________________________________________________________________
conv2d_transpose_2 (Conv2DTrans (None, 28, 40, 80)   51280       dropout_5[0][0]                  
__________________________________________________________________________________________________
concatenate_2 (Concatenate)     (None, 28, 40, 160)  0           conv2d_transpose_2[0][0]         
                                                                 activation_4[0][0]               
__________________________________________________________________________________________________
conv2d_11 (Conv2D)              (None, 28, 40, 80)   115280      concatenate_2[0][0]              
__________________________________________________________________________________________________
batch_normalization_11 (BatchNo (None, 28, 40, 80)   320         conv2d_11[0][0]                  
__________________________________________________________________________________________________
activation_11 (Activation)      (None, 28, 40, 80)   0           batch_normalization_11[0][0]     
__________________________________________________________________________________________________
conv2d_12 (Conv2D)              (None, 28, 40, 80)   57680       activation_11[0][0]              
__________________________________________________________________________________________________
batch_normalization_12 (BatchNo (None, 28, 40, 80)   320         conv2d_12[0][0]                  
__________________________________________________________________________________________________
activation_12 (Activation)      (None, 28, 40, 80)   0           batch_normalization_12[0][0]     
__________________________________________________________________________________________________
dropout_6 (Dropout)             (None, 28, 40, 80)   0           activation_12[0][0]              
__________________________________________________________________________________________________
conv2d_transpose_3 (Conv2DTrans (None, 56, 80, 40)   12840       dropout_6[0][0]                  
__________________________________________________________________________________________________
concatenate_3 (Concatenate)     (None, 56, 80, 80)   0           conv2d_transpose_3[0][0]         
                                                                 activation_2[0][0]               
__________________________________________________________________________________________________
conv2d_13 (Conv2D)              (None, 56, 80, 40)   28840       concatenate_3[0][0]              
__________________________________________________________________________________________________
batch_normalization_13 (BatchNo (None, 56, 80, 40)   160         conv2d_13[0][0]                  
__________________________________________________________________________________________________
activation_13 (Activation)      (None, 56, 80, 40)   0           batch_normalization_13[0][0]     
__________________________________________________________________________________________________
conv2d_14 (Conv2D)              (None, 56, 80, 40)   14440       activation_13[0][0]              
__________________________________________________________________________________________________
batch_normalization_14 (BatchNo (None, 56, 80, 40)   160         conv2d_14[0][0]                  
__________________________________________________________________________________________________
activation_14 (Activation)      (None, 56, 80, 40)   0           batch_normalization_14[0][0]     
__________________________________________________________________________________________________
dropout_7 (Dropout)             (None, 56, 80, 40)   0           activation_14[0][0]              
__________________________________________________________________________________________________
conv2d_15 (Conv2D)              (None, 56, 80, 5)    205         dropout_7[0][0]                  
==================================================================================================
Total params: 3,014,445
Trainable params: 3,010,925
Non-trainable params: 3,520
__________________________________________________________________________________________________
 --- initialized from Model_7T /array/ssd/msmajdi/experiments/keras/exp6/models/sE12_HCascade_FM40_U-Net4_NL4_LS_MyBCE_US1_Main_Init_3T_CV_a/MultiClass_HCascade_Groups/sd2
…
 Nucleus: [1.1, 1.2, 1.3, 2]  | GPU: 1  | SD 1  | Dropout 0.3  | LR 0.001  | NL 4  |  HCascade |  FM 40 |  Upsample 1
Experiment: exp6
SubExperiment: sE12_HCascade_FM40_U-Net4_NL4_LS_MyBCE_US1_ET_Init_Main_CV_a
---------------------------------------------------------------
__________________________________________________________________________________________________
Layer (type)                    Output Shape         Param #     Connected to                     
==================================================================================================
input_1 (InputLayer)            (None, 56, 56, 1)    0                                            
__________________________________________________________________________________________________
conv2d_1 (Conv2D)               (None, 56, 56, 40)   400         input_1[0][0]                    
__________________________________________________________________________________________________
batch_normalization_1 (BatchNor (None, 56, 56, 40)   160         conv2d_1[0][0]                   
__________________________________________________________________________________________________
activation_1 (Activation)       (None, 56, 56, 40)   0           batch_normalization_1[0][0]      
__________________________________________________________________________________________________
conv2d_2 (Conv2D)               (None, 56, 56, 40)   14440       activation_1[0][0]               
__________________________________________________________________________________________________
batch_normalization_2 (BatchNor (None, 56, 56, 40)   160         conv2d_2[0][0]                   
__________________________________________________________________________________________________
activation_2 (Activation)       (None, 56, 56, 40)   0           batch_normalization_2[0][0]      
__________________________________________________________________________________________________
max_pooling2d_1 (MaxPooling2D)  (None, 28, 28, 40)   0           activation_2[0][0]               
__________________________________________________________________________________________________
dropout_1 (Dropout)             (None, 28, 28, 40)   0           max_pooling2d_1[0][0]            
__________________________________________________________________________________________________
conv2d_3 (Conv2D)               (None, 28, 28, 80)   28880       dropout_1[0][0]                  
__________________________________________________________________________________________________
batch_normalization_3 (BatchNor (None, 28, 28, 80)   320         conv2d_3[0][0]                   
__________________________________________________________________________________________________
activation_3 (Activation)       (None, 28, 28, 80)   0           batch_normalization_3[0][0]      
__________________________________________________________________________________________________
conv2d_4 (Conv2D)               (None, 28, 28, 80)   57680       activation_3[0][0]               
__________________________________________________________________________________________________
batch_normalization_4 (BatchNor (None, 28, 28, 80)   320         conv2d_4[0][0]                   
__________________________________________________________________________________________________
activation_4 (Activation)       (None, 28, 28, 80)   0           batch_normalization_4[0][0]      
__________________________________________________________________________________________________
max_pooling2d_2 (MaxPooling2D)  (None, 14, 14, 80)   0           activation_4[0][0]               
__________________________________________________________________________________________________
dropout_2 (Dropout)             (None, 14, 14, 80)   0           max_pooling2d_2[0][0]            
__________________________________________________________________________________________________
conv2d_5 (Conv2D)               (None, 14, 14, 160)  115360      dropout_2[0][0]                  
__________________________________________________________________________________________________
batch_normalization_5 (BatchNor (None, 14, 14, 160)  640         conv2d_5[0][0]                   
__________________________________________________________________________________________________
activation_5 (Activation)       (None, 14, 14, 160)  0           batch_normalization_5[0][0]      
__________________________________________________________________________________________________
conv2d_6 (Conv2D)               (None, 14, 14, 160)  230560      activation_5[0][0]               
__________________________________________________________________________________________________
batch_normalization_6 (BatchNor (None, 14, 14, 160)  640         conv2d_6[0][0]                   
__________________________________________________________________________________________________
activation_6 (Activation)       (None, 14, 14, 160)  0           batch_normalization_6[0][0]      
__________________________________________________________________________________________________
max_pooling2d_3 (MaxPooling2D)  (None, 7, 7, 160)    0           activation_6[0][0]               
__________________________________________________________________________________________________
dropout_3 (Dropout)             (None, 7, 7, 160)    0           max_pooling2d_3[0][0]            
__________________________________________________________________________________________________
conv2d_7 (Conv2D)               (None, 7, 7, 320)    461120      dropout_3[0][0]                  
__________________________________________________________________________________________________
batch_normalization_7 (BatchNor (None, 7, 7, 320)    1280        conv2d_7[0][0]                   
__________________________________________________________________________________________________
activation_7 (Activation)       (None, 7, 7, 320)    0           batch_normalization_7[0][0]      
__________________________________________________________________________________________________
conv2d_8 (Conv2D)               (None, 7, 7, 320)    921920      activation_7[0][0]               
__________________________________________________________________________________________________
batch_normalization_8 (BatchNor (None, 7, 7, 320)    1280        conv2d_8[0][0]                   
__________________________________________________________________________________________________
activation_8 (Activation)       (None, 7, 7, 320)    0           batch_normalization_8[0][0]      
__________________________________________________________________________________________________
dropout_4 (Dropout)             (None, 7, 7, 320)    0           activation_8[0][0]               
__________________________________________________________________________________________________
conv2d_transpose_1 (Conv2DTrans (None, 14, 14, 160)  204960      dropout_4[0][0]                  
__________________________________________________________________________________________________
concatenate_1 (Concatenate)     (None, 14, 14, 320)  0           conv2d_transpose_1[0][0]         
                                                                 activation_6[0][0]               
__________________________________________________________________________________________________
conv2d_9 (Conv2D)               (None, 14, 14, 160)  460960      concatenate_1[0][0]              
__________________________________________________________________________________________________
batch_normalization_9 (BatchNor (None, 14, 14, 160)  640         conv2d_9[0][0]                   
__________________________________________________________________________________________________
activation_9 (Activation)       (None, 14, 14, 160)  0           batch_normalization_9[0][0]      
__________________________________________________________________________________________________
conv2d_10 (Conv2D)              (None, 14, 14, 160)  230560      activation_9[0][0]               
__________________________________________________________________________________________________2019-06-30 21:41:02.676009: I tensorflow/core/common_runtime/gpu/gpu_device.cc:1471] Adding visible gpu devices: 0
2019-06-30 21:41:02.676118: I tensorflow/core/common_runtime/gpu/gpu_device.cc:952] Device interconnect StreamExecutor with strength 1 edge matrix:
2019-06-30 21:41:02.676136: I tensorflow/core/common_runtime/gpu/gpu_device.cc:958]      0 
2019-06-30 21:41:02.676147: I tensorflow/core/common_runtime/gpu/gpu_device.cc:971] 0:   N 
2019-06-30 21:41:02.676579: I tensorflow/core/common_runtime/gpu/gpu_device.cc:1084] Created TensorFlow device (/job:localhost/replica:0/task:0/device:GPU:0 with 15123 MB memory) -> physical GPU (device: 0, name: Tesla P100-PCIE-16GB, pci bus id: 0000:05:00.0, compute capability: 6.0)

batch_normalization_10 (BatchNo (None, 14, 14, 160)  640         conv2d_10[0][0]                  
__________________________________________________________________________________________________
activation_10 (Activation)      (None, 14, 14, 160)  0           batch_normalization_10[0][0]     
__________________________________________________________________________________________________
dropout_5 (Dropout)             (None, 14, 14, 160)  0           activation_10[0][0]              
__________________________________________________________________________________________________
conv2d_transpose_2 (Conv2DTrans (None, 28, 28, 80)   51280       dropout_5[0][0]                  
__________________________________________________________________________________________________
concatenate_2 (Concatenate)     (None, 28, 28, 160)  0           conv2d_transpose_2[0][0]         
                                                                 activation_4[0][0]               
__________________________________________________________________________________________________
conv2d_11 (Conv2D)              (None, 28, 28, 80)   115280      concatenate_2[0][0]              
__________________________________________________________________________________________________
batch_normalization_11 (BatchNo (None, 28, 28, 80)   320         conv2d_11[0][0]                  
__________________________________________________________________________________________________
activation_11 (Activation)      (None, 28, 28, 80)   0           batch_normalization_11[0][0]     
__________________________________________________________________________________________________
conv2d_12 (Conv2D)              (None, 28, 28, 80)   57680       activation_11[0][0]              
__________________________________________________________________________________________________
batch_normalization_12 (BatchNo (None, 28, 28, 80)   320         conv2d_12[0][0]                  
__________________________________________________________________________________________________
activation_12 (Activation)      (None, 28, 28, 80)   0           batch_normalization_12[0][0]     
__________________________________________________________________________________________________
dropout_6 (Dropout)             (None, 28, 28, 80)   0           activation_12[0][0]              
__________________________________________________________________________________________________
conv2d_transpose_3 (Conv2DTrans (None, 56, 56, 40)   12840       dropout_6[0][0]                  
__________________________________________________________________________________________________
concatenate_3 (Concatenate)     (None, 56, 56, 80)   0           conv2d_transpose_3[0][0]         
                                                                 activation_2[0][0]               
__________________________________________________________________________________________________
conv2d_13 (Conv2D)              (None, 56, 56, 40)   28840       concatenate_3[0][0]              
__________________________________________________________________________________________________
batch_normalization_13 (BatchNo (None, 56, 56, 40)   160         conv2d_13[0][0]                  
__________________________________________________________________________________________________
activation_13 (Activation)      (None, 56, 56, 40)   0           batch_normalization_13[0][0]     
__________________________________________________________________________________________________
conv2d_14 (Conv2D)              (None, 56, 56, 40)   14440       activation_13[0][0]              
__________________________________________________________________________________________________
batch_normalization_14 (BatchNo (None, 56, 56, 40)   160         conv2d_14[0][0]                  
__________________________________________________________________________________________________
activation_14 (Activation)      (None, 56, 56, 40)   0           batch_normalization_14[0][0]     
__________________________________________________________________________________________________
dropout_7 (Dropout)             (None, 56, 56, 40)   0           activation_14[0][0]              
__________________________________________________________________________________________________
conv2d_15 (Conv2D)              (None, 56, 56, 5)    205         dropout_7[0][0]                  
==================================================================================================
Total params: 3,014,445
Trainable params: 3,010,925
Non-trainable params: 3,520
__________________________________________________________________________________________________
 --- initialized from Model_7T /array/ssd/msmajdi/experiments/keras/exp6/models/sE12_HCascade_FM40_U-Net4_NL4_LS_MyBCE_US1_Main_Init_3T_CV_a/MultiClass_HCascade_Groups/sd1
…
 Nucleus: [1.1, 1.2, 1.3, 2]  | GPU: 1  | SD 0  | Dropout 0.3  | LR 0.001  | NL 4  |  HCascade |  FM 40 |  Upsample 1
Experiment: exp6
SubExperiment: sE12_HCascade_FM40_U-Net4_NL4_LS_MyBCE_US1_ET_Init_Main_CV_a
---------------------------------------------------------------
__________________________________________________________________________________________________
Layer (type)                    Output Shape         Param #     Connected to                     
==================================================================================================
input_1 (InputLayer)            (None, 80, 56, 1)    0                                            
__________________________________________________________________________________________________
conv2d_1 (Conv2D)               (None, 80, 56, 40)   400         input_1[0][0]                    
__________________________________________________________________________________________________
batch_normalization_1 (BatchNor (None, 80, 56, 40)   160         conv2d_1[0][0]                   
__________________________________________________________________________________________________
activation_1 (Activation)       (None, 80, 56, 40)   0           batch_normalization_1[0][0]      
__________________________________________________________________________________________________
conv2d_2 (Conv2D)               (None, 80, 56, 40)   14440       activation_1[0][0]               
__________________________________________________________________________________________________
batch_normalization_2 (BatchNor (None, 80, 56, 40)   160         conv2d_2[0][0]                   
__________________________________________________________________________________________________
activation_2 (Activation)       (None, 80, 56, 40)   0           batch_normalization_2[0][0]      
__________________________________________________________________________________________________
max_pooling2d_1 (MaxPooling2D)  (None, 40, 28, 40)   0           activation_2[0][0]               
__________________________________________________________________________________________________
dropout_1 (Dropout)             (None, 40, 28, 40)   0           max_pooling2d_1[0][0]            
__________________________________________________________________________________________________
conv2d_3 (Conv2D)               (None, 40, 28, 80)   28880       dropout_1[0][0]                  
__________________________________________________________________________________________________
batch_normalization_3 (BatchNor (None, 40, 28, 80)   320         conv2d_3[0][0]                   
__________________________________________________________________________________________________
activation_3 (Activation)       (None, 40, 28, 80)   0           batch_normalization_3[0][0]      
__________________________________________________________________________________________________
conv2d_4 (Conv2D)               (None, 40, 28, 80)   57680       activation_3[0][0]               
__________________________________________________________________________________________________
batch_normalization_4 (BatchNor (None, 40, 28, 80)   320         conv2d_4[0][0]                   
__________________________________________________________________________________________________
activation_4 (Activation)       (None, 40, 28, 80)   0           batch_normalization_4[0][0]      
__________________________________________________________________________________________________
max_pooling2d_2 (MaxPooling2D)  (None, 20, 14, 80)   0           activation_4[0][0]               
__________________________________________________________________________________________________
dropout_2 (Dropout)             (None, 20, 14, 80)   0           max_pooling2d_2[0][0]            
__________________________________________________________________________________________________
conv2d_5 (Conv2D)               (None, 20, 14, 160)  115360      dropout_2[0][0]                  
__________________________________________________________________________________________________
batch_normalization_5 (BatchNor (None, 20, 14, 160)  640         conv2d_5[0][0]                   
__________________________________________________________________________________________________
activation_5 (Activation)       (None, 20, 14, 160)  0           batch_normalization_5[0][0]      
__________________________________________________________________________________________________
conv2d_6 (Conv2D)               (None, 20, 14, 160)  230560      activation_5[0][0]               
__________________________________________________________________________________________________
batch_normalization_6 (BatchNor (None, 20, 14, 160)  640         conv2d_6[0][0]                   
__________________________________________________________________________________________________
activation_6 (Activation)       (None, 20, 14, 160)  0           batch_normalization_6[0][0]      
__________________________________________________________________________________________________
max_pooling2d_3 (MaxPooling2D)  (None, 10, 7, 160)   0           activation_6[0][0]               
__________________________________________________________________________________________________
dropout_3 (Dropout)             (None, 10, 7, 160)   0           max_pooling2d_3[0][0]            
__________________________________________________________________________________________________
conv2d_7 (Conv2D)               (None, 10, 7, 320)   461120      dropout_3[0][0]                  
__________________________________________________________________________________________________
batch_normalization_7 (BatchNor (None, 10, 7, 320)   1280        conv2d_7[0][0]                   
__________________________________________________________________________________________________
activation_7 (Activation)       (None, 10, 7, 320)   0           batch_normalization_7[0][0]      
__________________________________________________________________________________________________
conv2d_8 (Conv2D)               (None, 10, 7, 320)   921920      activation_7[0][0]               
__________________________________________________________________________________________________
batch_normalization_8 (BatchNor (None, 10, 7, 320)   1280        conv2d_8[0][0]                   
__________________________________________________________________________________________________
activation_8 (Activation)       (None, 10, 7, 320)   0           batch_normalization_8[0][0]      
__________________________________________________________________________________________________
dropout_4 (Dropout)             (None, 10, 7, 320)   0           activation_8[0][0]               
__________________________________________________________________________________________________
conv2d_transpose_1 (Conv2DTrans (None, 20, 14, 160)  204960      dropout_4[0][0]                  
__________________________________________________________________________________________________
concatenate_1 (Concatenate)     (None, 20, 14, 320)  0           conv2d_transpose_1[0][0]         
                                                                 activation_6[0][0]               
__________________________________________________________________________________________________
conv2d_9 (Conv2D)               (None, 20, 14, 160)  460960      concatenate_1[0][0]              
__________________________________________________________________________________________________
batch_normalization_9 (BatchNor (None, 20, 14, 160)  640         conv2d_9[0][0]                   
__________________________________________________________________________________________________
activation_9 (Activation)       (None, 20, 14, 160)  0           batch_normalization_9[0][0]      
__________________________________________________________________________________________________
conv2d_10 (Conv2D)              (None, 20, 14, 160)  230560      activation_9[0][0]               
__________________________________________________________________________________________________2019-06-30 22:21:47.465339: I tensorflow/core/common_runtime/gpu/gpu_device.cc:1471] Adding visible gpu devices: 0
2019-06-30 22:21:47.465434: I tensorflow/core/common_runtime/gpu/gpu_device.cc:952] Device interconnect StreamExecutor with strength 1 edge matrix:
2019-06-30 22:21:47.465450: I tensorflow/core/common_runtime/gpu/gpu_device.cc:958]      0 
2019-06-30 22:21:47.465459: I tensorflow/core/common_runtime/gpu/gpu_device.cc:971] 0:   N 
2019-06-30 22:21:47.465878: I tensorflow/core/common_runtime/gpu/gpu_device.cc:1084] Created TensorFlow device (/job:localhost/replica:0/task:0/device:GPU:0 with 15123 MB memory) -> physical GPU (device: 0, name: Tesla P100-PCIE-16GB, pci bus id: 0000:05:00.0, compute capability: 6.0)

batch_normalization_10 (BatchNo (None, 20, 14, 160)  640         conv2d_10[0][0]                  
__________________________________________________________________________________________________
activation_10 (Activation)      (None, 20, 14, 160)  0           batch_normalization_10[0][0]     
__________________________________________________________________________________________________
dropout_5 (Dropout)             (None, 20, 14, 160)  0           activation_10[0][0]              
__________________________________________________________________________________________________
conv2d_transpose_2 (Conv2DTrans (None, 40, 28, 80)   51280       dropout_5[0][0]                  
__________________________________________________________________________________________________
concatenate_2 (Concatenate)     (None, 40, 28, 160)  0           conv2d_transpose_2[0][0]         
                                                                 activation_4[0][0]               
__________________________________________________________________________________________________
conv2d_11 (Conv2D)              (None, 40, 28, 80)   115280      concatenate_2[0][0]              
__________________________________________________________________________________________________
batch_normalization_11 (BatchNo (None, 40, 28, 80)   320         conv2d_11[0][0]                  
__________________________________________________________________________________________________
activation_11 (Activation)      (None, 40, 28, 80)   0           batch_normalization_11[0][0]     
__________________________________________________________________________________________________
conv2d_12 (Conv2D)              (None, 40, 28, 80)   57680       activation_11[0][0]              
__________________________________________________________________________________________________
batch_normalization_12 (BatchNo (None, 40, 28, 80)   320         conv2d_12[0][0]                  
__________________________________________________________________________________________________
activation_12 (Activation)      (None, 40, 28, 80)   0           batch_normalization_12[0][0]     
__________________________________________________________________________________________________
dropout_6 (Dropout)             (None, 40, 28, 80)   0           activation_12[0][0]              
__________________________________________________________________________________________________
conv2d_transpose_3 (Conv2DTrans (None, 80, 56, 40)   12840       dropout_6[0][0]                  
__________________________________________________________________________________________________
concatenate_3 (Concatenate)     (None, 80, 56, 80)   0           conv2d_transpose_3[0][0]         
                                                                 activation_2[0][0]               
__________________________________________________________________________________________________
conv2d_13 (Conv2D)              (None, 80, 56, 40)   28840       concatenate_3[0][0]              
__________________________________________________________________________________________________
batch_normalization_13 (BatchNo (None, 80, 56, 40)   160         conv2d_13[0][0]                  
__________________________________________________________________________________________________
activation_13 (Activation)      (None, 80, 56, 40)   0           batch_normalization_13[0][0]     
__________________________________________________________________________________________________
conv2d_14 (Conv2D)              (None, 80, 56, 40)   14440       activation_13[0][0]              
__________________________________________________________________________________________________
batch_normalization_14 (BatchNo (None, 80, 56, 40)   160         conv2d_14[0][0]                  
__________________________________________________________________________________________________
activation_14 (Activation)      (None, 80, 56, 40)   0           batch_normalization_14[0][0]     
__________________________________________________________________________________________________
dropout_7 (Dropout)             (None, 80, 56, 40)   0           activation_14[0][0]              
__________________________________________________________________________________________________
conv2d_15 (Conv2D)              (None, 80, 56, 5)    205         dropout_7[0][0]                  
==================================================================================================
Total params: 3,014,445
Trainable params: 3,010,925
Non-trainable params: 3,520
__________________________________________________________________________________________________
 --- initialized from Model_7T /array/ssd/msmajdi/experiments/keras/exp6/models/sE12_HCascade_FM40_U-Net4_NL4_LS_MyBCE_US1_Main_Init_3T_CV_a/MultiClass_HCascade_Groups/sd0
…
