…
Error in label values min 0.0 max 2.0      1-THALAMUS
Error in label values min 0.0 max 2.0      1-THALAMUS
ResNet model address /array/ssd/msmajdi/experiments/keras/exp7/models/sE12_Cascade_FM15_Res_Unet2_NL3_LS_MyLogDice_US1_wLRScheduler_Main_Init_3T_CV_a/1-THALAMUS/sd2/model.h5
__________________________________________________________________________________________________
Layer (type)                    Output Shape         Param #     Connected to                     
==================================================================================================
input_1 (InputLayer)            (None, 108, 116, 1)  0                                            
__________________________________________________________________________________________________
conv2d_1 (Conv2D)               (None, 108, 116, 40) 400         input_1[0][0]                    
__________________________________________________________________________________________________
batch_normalization_1 (BatchNor (None, 108, 116, 40) 160         conv2d_1[0][0]                   
__________________________________________________________________________________________________
activation_1 (Activation)       (None, 108, 116, 40) 0           batch_normalization_1[0][0]      
__________________________________________________________________________________________________
dropout_1 (Dropout)             (None, 108, 116, 40) 0           activation_1[0][0]               
__________________________________________________________________________________________________
conv2d_2 (Conv2D)               (None, 108, 116, 40) 14440       dropout_1[0][0]                  
__________________________________________________________________________________________________
batch_normalization_2 (BatchNor (None, 108, 116, 40) 160         conv2d_2[0][0]                   
__________________________________________________________________________________________________
activation_2 (Activation)       (None, 108, 116, 40) 0           batch_normalization_2[0][0]      
__________________________________________________________________________________________________
dropout_2 (Dropout)             (None, 108, 116, 40) 0           activation_2[0][0]               
__________________________________________________________________________________________________
concatenate_1 (Concatenate)     (None, 108, 116, 41) 0           input_1[0][0]                    
                                                                 dropout_2[0][0]                  
__________________________________________________________________________________________________
conv2d_3 (Conv2D)               (None, 108, 116, 15) 5550        concatenate_1[0][0]              
__________________________________________________________________________________________________
batch_normalization_3 (BatchNor (None, 108, 116, 15) 60          conv2d_3[0][0]                   
__________________________________________________________________________________________________
activation_3 (Activation)       (None, 108, 116, 15) 0           batch_normalization_3[0][0]      
__________________________________________________________________________________________________
conv2d_4 (Conv2D)               (None, 108, 116, 15) 2040        activation_3[0][0]               
__________________________________________________________________________________________________
batch_normalization_4 (BatchNor (None, 108, 116, 15) 60          conv2d_4[0][0]                   
__________________________________________________________________________________________________
activation_4 (Activation)       (None, 108, 116, 15) 0           batch_normalization_4[0][0]      
__________________________________________________________________________________________________
max_pooling2d_1 (MaxPooling2D)  (None, 54, 58, 15)   0           activation_4[0][0]               
__________________________________________________________________________________________________
dropout_3 (Dropout)             (None, 54, 58, 15)   0           max_pooling2d_1[0][0]            
__________________________________________________________________________________________________
conv2d_5 (Conv2D)               (None, 54, 58, 30)   4080        dropout_3[0][0]                  
__________________________________________________________________________________________________
batch_normalization_5 (BatchNor (None, 54, 58, 30)   120         conv2d_5[0][0]                   
__________________________________________________________________________________________________
activation_5 (Activation)       (None, 54, 58, 30)   0           batch_normalization_5[0][0]      
__________________________________________________________________________________________________
conv2d_6 (Conv2D)               (None, 54, 58, 30)   8130        activation_5[0][0]               
__________________________________________________________________________________________________
batch_normalization_6 (BatchNor (None, 54, 58, 30)   120         conv2d_6[0][0]                   
__________________________________________________________________________________________________
activation_6 (Activation)       (None, 54, 58, 30)   0           batch_normalization_6[0][0]      
__________________________________________________________________________________________________
concatenate_2 (Concatenate)     (None, 54, 58, 45)   0           dropout_3[0][0]                  
                                                                 activation_6[0][0]               
__________________________________________________________________________________________________
max_pooling2d_2 (MaxPooling2D)  (None, 27, 29, 45)   0           concatenate_2[0][0]              
__________________________________________________________________________________________________
dropout_4 (Dropout)             (None, 27, 29, 45)   0           max_pooling2d_2[0][0]            
__________________________________________________________________________________________________
conv2d_7 (Conv2D)               (None, 27, 29, 60)   24360       dropout_4[0][0]                  
__________________________________________________________________________________________________
batch_normalization_7 (BatchNor (None, 27, 29, 60)   240         conv2d_7[0][0]                   
__________________________________________________________________________________________________
activation_7 (Activation)       (None, 27, 29, 60)   0           batch_normalization_7[0][0]      
__________________________________________________________________________________________________
conv2d_8 (Conv2D)               (None, 27, 29, 60)   32460       activation_7[0][0]               
__________________________________________________________________________________________________
batch_normalization_8 (BatchNor (None, 27, 29, 60)   240         conv2d_8[0][0]                   
__________________________________________________________________________________________________
activation_8 (Activation)       (None, 27, 29, 60)   0           batch_normalization_8[0][0]      
__________________________________________________________________________________________________
concatenate_3 (Concatenate)     (None, 27, 29, 105)  0           dropout_4[0][0]                  
                                                                 activation_8[0][0]               
__________________________________________________________________________________________________
dropout_5 (Dropout)             (None, 27, 29, 105)  0           concatenate_3[0][0]              
__________________________________________________________________________________________________
conv2d_transpose_1 (Conv2DTrans (None, 54, 58, 30)   12630       dropout_5[0][0]                  
__________________________________________________________________________________________________
concatenate_4 (Concatenate)     (None, 54, 58, 75)   0           conv2d_transpose_1[0][0]         
                                                                 concatenate_2[0][0]              
__________________________________________________________________________________________________
conv2d_9 (Conv2D)               (None, 54, 58, 30)   20280       concatenate_4[0][0]              
__________________________________________________________________________________________________
batch_normalization_9 (BatchNor (None, 54, 58, 30)   120         conv2d_9[0][0]                   
__________________________________________________________________________________________________
activation_9 (Activation)       (None, 54, 58, 30)   0           batch_normalization_9[0][0]      
__________________________________________________________________________________________________
conv2d_10 (Conv2D)              (None, 54, 58, 30)   8130        activation_9[0][0]               
__________________________________________________________________________________________________
batch_normalization_10 (BatchNo (None, 54, 58, 30)   120         conv2d_10[0][0]                  
__________________________________________________________________________________________________
activation_10 (Activation)      (None, 54, 58, 30)   0           batch_normalization_10[0][0]     
__________________________________________________________________________________________________
concatenate_5 (Concatenate)     (None, 54, 58, 105)  0           concatenate_4[0][0]              
                                                                 activation_10[0][0]              
__________________________________________________________________________________________________
dropout_6 (Dropout)             (None, 54, 58, 105)  0           concatenate_5[0][0]              
__________________________________________________________________________________________________
conv2d_transpose_2 (Conv2DTrans (None, 108, 116, 15) 6315        dropout_6[0][0]                  
__________________________________________________________________________________________________
concatenate_6 (Concatenate)     (None, 108, 116, 30) 0           conv2d_transpose_2[0][0]         
                                                                 activation_4[0][0]               
__________________________________________________________________________________________________
conv2d_11 (Conv2D)              (None, 108, 116, 15) 4065        concatenate_6[0][0]              
__________________________________________________________________________________________________
batch_normalization_11 (BatchNo (None, 108, 116, 15) 60          conv2d_11[0][0]                  
__________________________________________________________________________________________________
activation_11 (Activation)      (None, 108, 116, 15) 0           batch_normalization_11[0][0]     
__________________________________________________________________________________________________
conv2d_12 (Conv2D)              (None, 108, 116, 15) 2040        activation_11[0][0]              
__________________________________________________________________________________________________
batch_normalization_12 (BatchNo (None, 108, 116, 15) 60          conv2d_12[0][0]                  
__________________________________________________________________________________________________
activation_12 (Activation)      (None, 108, 116, 15) 0           batch_normalization_12[0][0]     
__________________________________________________________________________________________________
concatenate_7 (Concatenate)     (None, 108, 116, 45) 0           concatenate_6[0][0]              
                                                                 activation_12[0][0]              
__________________________________________________________________________________________________
dropout_7 (Dropout)             (None, 108, 116, 45) 0           concatenate_7[0][0]              
__________________________________________________________________________________________________
conv2d_13 (Conv2D)              (None, 108, 116, 2)  92          dropout_7[0][0]                  
==================================================================================================
Total params: 146,532
Trainable params: 47,912
Non-trainable params: 98,620
__________________________________________________________________________________________________
------------------------------------------------------------------
class_weights [0.97361628 0.02638372]
…
Error in label values min 0.0 max 30.0      13-Hb
Error in label values min 0.0 max 4.0      14-MTT
ResNet model address /array/ssd/msmajdi/experiments/keras/exp7/models/sE12_Cascade_FM15_Res_Unet2_NL3_LS_MyLogDice_US1_wLRScheduler_Main_Init_3T_CV_a/MultiClass_24567891011121314/sd2/model.h5
__________________________________________________________________________________________________
Layer (type)                    Output Shape         Param #     Connected to                     
==================================================================================================
input_1 (InputLayer)            (None, 52, 80, 1)    0                                            
__________________________________________________________________________________________________
conv2d_1 (Conv2D)               (None, 52, 80, 40)   400         input_1[0][0]                    
__________________________________________________________________________________________________
batch_normalization_1 (BatchNor (None, 52, 80, 40)   160         conv2d_1[0][0]                   
__________________________________________________________________________________________________
activation_1 (Activation)       (None, 52, 80, 40)   0           batch_normalization_1[0][0]      
__________________________________________________________________________________________________
dropout_1 (Dropout)             (None, 52, 80, 40)   0           activation_1[0][0]               
__________________________________________________________________________________________________
conv2d_2 (Conv2D)               (None, 52, 80, 40)   14440       dropout_1[0][0]                  
__________________________________________________________________________________________________
batch_normalization_2 (BatchNor (None, 52, 80, 40)   160         conv2d_2[0][0]                   
__________________________________________________________________________________________________
activation_2 (Activation)       (None, 52, 80, 40)   0           batch_normalization_2[0][0]      
__________________________________________________________________________________________________
dropout_2 (Dropout)             (None, 52, 80, 40)   0           activation_2[0][0]               
__________________________________________________________________________________________________
concatenate_1 (Concatenate)     (None, 52, 80, 41)   0           input_1[0][0]                    
                                                                 dropout_2[0][0]                  
__________________________________________________________________________________________________
conv2d_3 (Conv2D)               (None, 52, 80, 15)   5550        concatenate_1[0][0]              
__________________________________________________________________________________________________
batch_normalization_3 (BatchNor (None, 52, 80, 15)   60          conv2d_3[0][0]                   
__________________________________________________________________________________________________
activation_3 (Activation)       (None, 52, 80, 15)   0           batch_normalization_3[0][0]      
__________________________________________________________________________________________________
conv2d_4 (Conv2D)               (None, 52, 80, 15)   2040        activation_3[0][0]               
__________________________________________________________________________________________________
batch_normalization_4 (BatchNor (None, 52, 80, 15)   60          conv2d_4[0][0]                   
__________________________________________________________________________________________________
activation_4 (Activation)       (None, 52, 80, 15)   0           batch_normalization_4[0][0]      
__________________________________________________________________________________________________
max_pooling2d_1 (MaxPooling2D)  (None, 26, 40, 15)   0           activation_4[0][0]               
__________________________________________________________________________________________________
dropout_3 (Dropout)             (None, 26, 40, 15)   0           max_pooling2d_1[0][0]            
__________________________________________________________________________________________________
conv2d_5 (Conv2D)               (None, 26, 40, 30)   4080        dropout_3[0][0]                  
__________________________________________________________________________________________________
batch_normalization_5 (BatchNor (None, 26, 40, 30)   120         conv2d_5[0][0]                   
__________________________________________________________________________________________________
activation_5 (Activation)       (None, 26, 40, 30)   0           batch_normalization_5[0][0]      
__________________________________________________________________________________________________
conv2d_6 (Conv2D)               (None, 26, 40, 30)   8130        activation_5[0][0]               
__________________________________________________________________________________________________
batch_normalization_6 (BatchNor (None, 26, 40, 30)   120         conv2d_6[0][0]                   
__________________________________________________________________________________________________
activation_6 (Activation)       (None, 26, 40, 30)   0           batch_normalization_6[0][0]      
__________________________________________________________________________________________________
concatenate_2 (Concatenate)     (None, 26, 40, 45)   0           dropout_3[0][0]                  
                                                                 activation_6[0][0]               
__________________________________________________________________________________________________
max_pooling2d_2 (MaxPooling2D)  (None, 13, 20, 45)   0           concatenate_2[0][0]              
__________________________________________________________________________________________________
dropout_4 (Dropout)             (None, 13, 20, 45)   0           max_pooling2d_2[0][0]            
__________________________________________________________________________________________________
conv2d_7 (Conv2D)               (None, 13, 20, 60)   24360       dropout_4[0][0]                  
__________________________________________________________________________________________________
batch_normalization_7 (BatchNor (None, 13, 20, 60)   240         conv2d_7[0][0]                   
__________________________________________________________________________________________________
activation_7 (Activation)       (None, 13, 20, 60)   0           batch_normalization_7[0][0]      
__________________________________________________________________________________________________
conv2d_8 (Conv2D)               (None, 13, 20, 60)   32460       activation_7[0][0]               
__________________________________________________________________________________________________
batch_normalization_8 (BatchNor (None, 13, 20, 60)   240         conv2d_8[0][0]                   
__________________________________________________________________________________________________
activation_8 (Activation)       (None, 13, 20, 60)   0           batch_normalization_8[0][0]      
__________________________________________________________________________________________________
concatenate_3 (Concatenate)     (None, 13, 20, 105)  0           dropout_4[0][0]                  
                                                                 activation_8[0][0]               
__________________________________________________________________________________________________
dropout_5 (Dropout)             (None, 13, 20, 105)  0           concatenate_3[0][0]              
__________________________________________________________________________________________________
conv2d_transpose_1 (Conv2DTrans (None, 26, 40, 30)   12630       dropout_5[0][0]                  
__________________________________________________________________________________________________
concatenate_4 (Concatenate)     (None, 26, 40, 75)   0           conv2d_transpose_1[0][0]         
                                                                 concatenate_2[0][0]              
__________________________________________________________________________________________________
conv2d_9 (Conv2D)               (None, 26, 40, 30)   20280       concatenate_4[0][0]              
__________________________________________________________________________________________________
batch_normalization_9 (BatchNor (None, 26, 40, 30)   120         conv2d_9[0][0]                   
__________________________________________________________________________________________________
activation_9 (Activation)       (None, 26, 40, 30)   0           batch_normalization_9[0][0]      
__________________________________________________________________________________________________
conv2d_10 (Conv2D)              (None, 26, 40, 30)   8130        activation_9[0][0]               
__________________________________________________________________________________________________
batch_normalization_10 (BatchNo (None, 26, 40, 30)   120         conv2d_10[0][0]                  
__________________________________________________________________________________________________
activation_10 (Activation)      (None, 26, 40, 30)   0           batch_normalization_10[0][0]     
__________________________________________________________________________________________________
concatenate_5 (Concatenate)     (None, 26, 40, 105)  0           concatenate_4[0][0]              
                                                                 activation_10[0][0]              
__________________________________________________________________________________________________
dropout_6 (Dropout)             (None, 26, 40, 105)  0           concatenate_5[0][0]              
__________________________________________________________________________________________________
conv2d_transpose_2 (Conv2DTrans (None, 52, 80, 15)   6315        dropout_6[0][0]                  
__________________________________________________________________________________________________
concatenate_6 (Concatenate)     (None, 52, 80, 30)   0           conv2d_transpose_2[0][0]         
                                                                 activation_4[0][0]               
__________________________________________________________________________________________________
conv2d_11 (Conv2D)              (None, 52, 80, 15)   4065        concatenate_6[0][0]              
__________________________________________________________________________________________________
batch_normalization_11 (BatchNo (None, 52, 80, 15)   60          conv2d_11[0][0]                  
__________________________________________________________________________________________________
activation_11 (Activation)      (None, 52, 80, 15)   0           batch_normalization_11[0][0]     
__________________________________________________________________________________________________
conv2d_12 (Conv2D)              (None, 52, 80, 15)   2040        activation_11[0][0]              
__________________________________________________________________________________________________
batch_normalization_12 (BatchNo (None, 52, 80, 15)   60          conv2d_12[0][0]                  
__________________________________________________________________________________________________
activation_12 (Activation)      (None, 52, 80, 15)   0           batch_normalization_12[0][0]     
__________________________________________________________________________________________________
concatenate_7 (Concatenate)     (None, 52, 80, 45)   0           concatenate_6[0][0]              
                                                                 activation_12[0][0]              
__________________________________________________________________________________________________
dropout_7 (Dropout)             (None, 52, 80, 45)   0           concatenate_7[0][0]              
__________________________________________________________________________________________________
conv2d_13 (Conv2D)              (None, 52, 80, 13)   598         dropout_7[0][0]                  
==================================================================================================
Total params: 147,038
Trainable params: 48,418
Non-trainable params: 98,620
__________________________________________________________________________________________________
------------------------------------------------------------------
class_weights [6.33083981e-02 3.13638030e-02 7.81566164e-02 9.49894700e-03
…
---------------------------------------------------------------
Error in label values min 0.0 max 2.0      1-THALAMUS
ResNet model address /array/ssd/msmajdi/experiments/keras/exp7/models/sE12_Cascade_FM20_Res_Unet2_NL3_LS_MyLogDice_US1_wLRScheduler_Main_Init_3T_CV_a/1-THALAMUS/sd1/model.h5
__________________________________________________________________________________________________
Layer (type)                    Output Shape         Param #     Connected to                     
==================================================================================================
input_1 (InputLayer)            (None, 76, 108, 1)   0                                            
__________________________________________________________________________________________________
conv2d_1 (Conv2D)               (None, 76, 108, 20)  200         input_1[0][0]                    
__________________________________________________________________________________________________
batch_normalization_1 (BatchNor (None, 76, 108, 20)  80          conv2d_1[0][0]                   
__________________________________________________________________________________________________
activation_1 (Activation)       (None, 76, 108, 20)  0           batch_normalization_1[0][0]      
__________________________________________________________________________________________________
conv2d_2 (Conv2D)               (None, 76, 108, 20)  3620        activation_1[0][0]               
__________________________________________________________________________________________________
batch_normalization_2 (BatchNor (None, 76, 108, 20)  80          conv2d_2[0][0]                   
__________________________________________________________________________________________________
activation_2 (Activation)       (None, 76, 108, 20)  0           batch_normalization_2[0][0]      
__________________________________________________________________________________________________
max_pooling2d_1 (MaxPooling2D)  (None, 38, 54, 20)   0           activation_2[0][0]               
__________________________________________________________________________________________________
dropout_1 (Dropout)             (None, 38, 54, 20)   0           max_pooling2d_1[0][0]            
__________________________________________________________________________________________________
conv2d_3 (Conv2D)               (None, 38, 54, 40)   7240        dropout_1[0][0]                  
__________________________________________________________________________________________________
batch_normalization_3 (BatchNor (None, 38, 54, 40)   160         conv2d_3[0][0]                   
__________________________________________________________________________________________________
activation_3 (Activation)       (None, 38, 54, 40)   0           batch_normalization_3[0][0]      
__________________________________________________________________________________________________
conv2d_4 (Conv2D)               (None, 38, 54, 40)   14440       activation_3[0][0]               
__________________________________________________________________________________________________
batch_normalization_4 (BatchNor (None, 38, 54, 40)   160         conv2d_4[0][0]                   
__________________________________________________________________________________________________
activation_4 (Activation)       (None, 38, 54, 40)   0           batch_normalization_4[0][0]      
__________________________________________________________________________________________________
concatenate_1 (Concatenate)     (None, 38, 54, 60)   0           dropout_1[0][0]                  
                                                                 activation_4[0][0]               
__________________________________________________________________________________________________
max_pooling2d_2 (MaxPooling2D)  (None, 19, 27, 60)   0           concatenate_1[0][0]              
__________________________________________________________________________________________________
dropout_2 (Dropout)             (None, 19, 27, 60)   0           max_pooling2d_2[0][0]            
__________________________________________________________________________________________________
conv2d_5 (Conv2D)               (None, 19, 27, 80)   43280       dropout_2[0][0]                  
__________________________________________________________________________________________________
batch_normalization_5 (BatchNor (None, 19, 27, 80)   320         conv2d_5[0][0]                   
__________________________________________________________________________________________________
activation_5 (Activation)       (None, 19, 27, 80)   0           batch_normalization_5[0][0]      
__________________________________________________________________________________________________
conv2d_6 (Conv2D)               (None, 19, 27, 80)   57680       activation_5[0][0]               
__________________________________________________________________________________________________
batch_normalization_6 (BatchNor (None, 19, 27, 80)   320         conv2d_6[0][0]                   
__________________________________________________________________________________________________
activation_6 (Activation)       (None, 19, 27, 80)   0           batch_normalization_6[0][0]      
__________________________________________________________________________________________________
concatenate_2 (Concatenate)     (None, 19, 27, 140)  0           dropout_2[0][0]                  
                                                                 activation_6[0][0]               
__________________________________________________________________________________________________
dropout_3 (Dropout)             (None, 19, 27, 140)  0           concatenate_2[0][0]              
__________________________________________________________________________________________________
conv2d_transpose_1 (Conv2DTrans (None, 38, 54, 40)   22440       dropout_3[0][0]                  
__________________________________________________________________________________________________
concatenate_3 (Concatenate)     (None, 38, 54, 100)  0           conv2d_transpose_1[0][0]         
                                                                 concatenate_1[0][0]              
__________________________________________________________________________________________________
conv2d_7 (Conv2D)               (None, 38, 54, 40)   36040       concatenate_3[0][0]              
__________________________________________________________________________________________________
batch_normalization_7 (BatchNor (None, 38, 54, 40)   160         conv2d_7[0][0]                   
__________________________________________________________________________________________________
activation_7 (Activation)       (None, 38, 54, 40)   0           batch_normalization_7[0][0]      
__________________________________________________________________________________________________
conv2d_8 (Conv2D)               (None, 38, 54, 40)   14440       activation_7[0][0]               
__________________________________________________________________________________________________
batch_normalization_8 (BatchNor (None, 38, 54, 40)   160         conv2d_8[0][0]                   
__________________________________________________________________________________________________
activation_8 (Activation)       (None, 38, 54, 40)   0           batch_normalization_8[0][0]      
__________________________________________________________________________________________________
concatenate_4 (Concatenate)     (None, 38, 54, 140)  0           concatenate_3[0][0]              
                                                                 activation_8[0][0]               
__________________________________________________________________________________________________
dropout_4 (Dropout)             (None, 38, 54, 140)  0           concatenate_4[0][0]              
__________________________________________________________________________________________________
conv2d_transpose_2 (Conv2DTrans (None, 76, 108, 20)  11220       dropout_4[0][0]                  
__________________________________________________________________________________________________
concatenate_5 (Concatenate)     (None, 76, 108, 40)  0           conv2d_transpose_2[0][0]         
                                                                 activation_2[0][0]               
__________________________________________________________________________________________________
conv2d_9 (Conv2D)               (None, 76, 108, 20)  7220        concatenate_5[0][0]              
__________________________________________________________________________________________________
batch_normalization_9 (BatchNor (None, 76, 108, 20)  80          conv2d_9[0][0]                   
__________________________________________________________________________________________________
activation_9 (Activation)       (None, 76, 108, 20)  0           batch_normalization_9[0][0]      
__________________________________________________________________________________________________
conv2d_10 (Conv2D)              (None, 76, 108, 20)  3620        activation_9[0][0]               
__________________________________________________________________________________________________
batch_normalization_10 (BatchNo (None, 76, 108, 20)  80          conv2d_10[0][0]                  
__________________________________________________________________________________________________
activation_10 (Activation)      (None, 76, 108, 20)  0           batch_normalization_10[0][0]     
__________________________________________________________________________________________________
concatenate_6 (Concatenate)     (None, 76, 108, 60)  0           concatenate_5[0][0]              
                                                                 activation_10[0][0]              
__________________________________________________________________________________________________
dropout_5 (Dropout)             (None, 76, 108, 60)  0           concatenate_6[0][0]              
__________________________________________________________________________________________________
conv2d_11 (Conv2D)              (None, 76, 108, 2)   122         dropout_5[0][0]                  
==================================================================================================
Total params: 223,162
Trainable params: 48,482
Non-trainable params: 174,680
__________________________________________________________________________________________________
------------------------------------------------------------------
class_weights [0.97487423 0.02512577]
…
Error in label values min 0.0 max 30.0      13-Hb
Error in label values min 0.0 max 4.0      14-MTT
ResNet model address /array/ssd/msmajdi/experiments/keras/exp7/models/sE12_Cascade_FM20_Res_Unet2_NL3_LS_MyLogDice_US1_wLRScheduler_Main_Init_3T_CV_a/MultiClass_24567891011121314/sd1/model.h5
__________________________________________________________________________________________________
Layer (type)                    Output Shape         Param #     Connected to                     
==================================================================================================
input_1 (InputLayer)            (None, 48, 48, 1)    0                                            
__________________________________________________________________________________________________
conv2d_1 (Conv2D)               (None, 48, 48, 20)   200         input_1[0][0]                    
__________________________________________________________________________________________________
batch_normalization_1 (BatchNor (None, 48, 48, 20)   80          conv2d_1[0][0]                   
__________________________________________________________________________________________________
activation_1 (Activation)       (None, 48, 48, 20)   0           batch_normalization_1[0][0]      
__________________________________________________________________________________________________
conv2d_2 (Conv2D)               (None, 48, 48, 20)   3620        activation_1[0][0]               
__________________________________________________________________________________________________
batch_normalization_2 (BatchNor (None, 48, 48, 20)   80          conv2d_2[0][0]                   
__________________________________________________________________________________________________
activation_2 (Activation)       (None, 48, 48, 20)   0           batch_normalization_2[0][0]      
__________________________________________________________________________________________________
max_pooling2d_1 (MaxPooling2D)  (None, 24, 24, 20)   0           activation_2[0][0]               
__________________________________________________________________________________________________
dropout_1 (Dropout)             (None, 24, 24, 20)   0           max_pooling2d_1[0][0]            
__________________________________________________________________________________________________
conv2d_3 (Conv2D)               (None, 24, 24, 40)   7240        dropout_1[0][0]                  
__________________________________________________________________________________________________
batch_normalization_3 (BatchNor (None, 24, 24, 40)   160         conv2d_3[0][0]                   
__________________________________________________________________________________________________
activation_3 (Activation)       (None, 24, 24, 40)   0           batch_normalization_3[0][0]      
__________________________________________________________________________________________________
conv2d_4 (Conv2D)               (None, 24, 24, 40)   14440       activation_3[0][0]               
__________________________________________________________________________________________________
batch_normalization_4 (BatchNor (None, 24, 24, 40)   160         conv2d_4[0][0]                   
__________________________________________________________________________________________________
activation_4 (Activation)       (None, 24, 24, 40)   0           batch_normalization_4[0][0]      
__________________________________________________________________________________________________
concatenate_1 (Concatenate)     (None, 24, 24, 60)   0           dropout_1[0][0]                  
                                                                 activation_4[0][0]               
__________________________________________________________________________________________________
max_pooling2d_2 (MaxPooling2D)  (None, 12, 12, 60)   0           concatenate_1[0][0]              
__________________________________________________________________________________________________
dropout_2 (Dropout)             (None, 12, 12, 60)   0           max_pooling2d_2[0][0]            
__________________________________________________________________________________________________
conv2d_5 (Conv2D)               (None, 12, 12, 80)   43280       dropout_2[0][0]                  
__________________________________________________________________________________________________
batch_normalization_5 (BatchNor (None, 12, 12, 80)   320         conv2d_5[0][0]                   
__________________________________________________________________________________________________
activation_5 (Activation)       (None, 12, 12, 80)   0           batch_normalization_5[0][0]      
__________________________________________________________________________________________________
conv2d_6 (Conv2D)               (None, 12, 12, 80)   57680       activation_5[0][0]               
__________________________________________________________________________________________________
batch_normalization_6 (BatchNor (None, 12, 12, 80)   320         conv2d_6[0][0]                   
__________________________________________________________________________________________________
activation_6 (Activation)       (None, 12, 12, 80)   0           batch_normalization_6[0][0]      
__________________________________________________________________________________________________
concatenate_2 (Concatenate)     (None, 12, 12, 140)  0           dropout_2[0][0]                  
                                                                 activation_6[0][0]               
__________________________________________________________________________________________________
dropout_3 (Dropout)             (None, 12, 12, 140)  0           concatenate_2[0][0]              
__________________________________________________________________________________________________
conv2d_transpose_1 (Conv2DTrans (None, 24, 24, 40)   22440       dropout_3[0][0]                  
__________________________________________________________________________________________________
concatenate_3 (Concatenate)     (None, 24, 24, 100)  0           conv2d_transpose_1[0][0]         
                                                                 concatenate_1[0][0]              
__________________________________________________________________________________________________
conv2d_7 (Conv2D)               (None, 24, 24, 40)   36040       concatenate_3[0][0]              
__________________________________________________________________________________________________
batch_normalization_7 (BatchNor (None, 24, 24, 40)   160         conv2d_7[0][0]                   
__________________________________________________________________________________________________
activation_7 (Activation)       (None, 24, 24, 40)   0           batch_normalization_7[0][0]      
__________________________________________________________________________________________________
conv2d_8 (Conv2D)               (None, 24, 24, 40)   14440       activation_7[0][0]               
__________________________________________________________________________________________________
batch_normalization_8 (BatchNor (None, 24, 24, 40)   160         conv2d_8[0][0]                   
__________________________________________________________________________________________________
activation_8 (Activation)       (None, 24, 24, 40)   0           batch_normalization_8[0][0]      
__________________________________________________________________________________________________
concatenate_4 (Concatenate)     (None, 24, 24, 140)  0           concatenate_3[0][0]              
                                                                 activation_8[0][0]               
__________________________________________________________________________________________________
dropout_4 (Dropout)             (None, 24, 24, 140)  0           concatenate_4[0][0]              
__________________________________________________________________________________________________
conv2d_transpose_2 (Conv2DTrans (None, 48, 48, 20)   11220       dropout_4[0][0]                  
__________________________________________________________________________________________________
concatenate_5 (Concatenate)     (None, 48, 48, 40)   0           conv2d_transpose_2[0][0]         
                                                                 activation_2[0][0]               
__________________________________________________________________________________________________
conv2d_9 (Conv2D)               (None, 48, 48, 20)   7220        concatenate_5[0][0]              
__________________________________________________________________________________________________
batch_normalization_9 (BatchNor (None, 48, 48, 20)   80          conv2d_9[0][0]                   
__________________________________________________________________________________________________
activation_9 (Activation)       (None, 48, 48, 20)   0           batch_normalization_9[0][0]      
__________________________________________________________________________________________________
conv2d_10 (Conv2D)              (None, 48, 48, 20)   3620        activation_9[0][0]               
__________________________________________________________________________________________________
batch_normalization_10 (BatchNo (None, 48, 48, 20)   80          conv2d_10[0][0]                  
__________________________________________________________________________________________________
activation_10 (Activation)      (None, 48, 48, 20)   0           batch_normalization_10[0][0]     
__________________________________________________________________________________________________
concatenate_6 (Concatenate)     (None, 48, 48, 60)   0           concatenate_5[0][0]              
                                                                 activation_10[0][0]              
__________________________________________________________________________________________________
dropout_5 (Dropout)             (None, 48, 48, 60)   0           concatenate_6[0][0]              
__________________________________________________________________________________________________
conv2d_11 (Conv2D)              (None, 48, 48, 13)   793         dropout_5[0][0]                  
==================================================================================================
Total params: 223,833
Trainable params: 49,153
Non-trainable params: 174,680
__________________________________________________________________________________________________
------------------------------------------------------------------
class_weights [6.40363541e-02 3.17244418e-02 7.90553057e-02 9.60817130e-03
…
Error in label values min 0.0 max 2.0      1-THALAMUS
Error in label values min 0.0 max 2.0      1-THALAMUS
ResNet model address /array/ssd/msmajdi/experiments/keras/exp7/models/sE12_Cascade_FM15_Res_Unet2_NL3_LS_MyLogDice_US1_wLRScheduler_Main_Init_3T_CV_a/1-THALAMUS/sd2/model.h5
__________________________________________________________________________________________________
Layer (type)                    Output Shape         Param #     Connected to                     
==================================================================================================
input_1 (InputLayer)            (None, 108, 116, 1)  0                                            
__________________________________________________________________________________________________
conv2d_1 (Conv2D)               (None, 108, 116, 40) 400         input_1[0][0]                    
__________________________________________________________________________________________________
batch_normalization_1 (BatchNor (None, 108, 116, 40) 160         conv2d_1[0][0]                   
__________________________________________________________________________________________________
activation_1 (Activation)       (None, 108, 116, 40) 0           batch_normalization_1[0][0]      
__________________________________________________________________________________________________
dropout_1 (Dropout)             (None, 108, 116, 40) 0           activation_1[0][0]               
__________________________________________________________________________________________________
concatenate_1 (Concatenate)     (None, 108, 116, 41) 0           input_1[0][0]                    
                                                                 dropout_1[0][0]                  
__________________________________________________________________________________________________
conv2d_2 (Conv2D)               (None, 108, 116, 15) 5550        concatenate_1[0][0]              
__________________________________________________________________________________________________
batch_normalization_2 (BatchNor (None, 108, 116, 15) 60          conv2d_2[0][0]                   
__________________________________________________________________________________________________
activation_2 (Activation)       (None, 108, 116, 15) 0           batch_normalization_2[0][0]      
__________________________________________________________________________________________________
conv2d_3 (Conv2D)               (None, 108, 116, 15) 2040        activation_2[0][0]               
__________________________________________________________________________________________________
batch_normalization_3 (BatchNor (None, 108, 116, 15) 60          conv2d_3[0][0]                   
__________________________________________________________________________________________________
activation_3 (Activation)       (None, 108, 116, 15) 0           batch_normalization_3[0][0]      
__________________________________________________________________________________________________
max_pooling2d_1 (MaxPooling2D)  (None, 54, 58, 15)   0           activation_3[0][0]               
__________________________________________________________________________________________________
dropout_2 (Dropout)             (None, 54, 58, 15)   0           max_pooling2d_1[0][0]            
__________________________________________________________________________________________________
conv2d_4 (Conv2D)               (None, 54, 58, 30)   4080        dropout_2[0][0]                  
__________________________________________________________________________________________________
batch_normalization_4 (BatchNor (None, 54, 58, 30)   120         conv2d_4[0][0]                   
__________________________________________________________________________________________________
activation_4 (Activation)       (None, 54, 58, 30)   0           batch_normalization_4[0][0]      
__________________________________________________________________________________________________
conv2d_5 (Conv2D)               (None, 54, 58, 30)   8130        activation_4[0][0]               
__________________________________________________________________________________________________
batch_normalization_5 (BatchNor (None, 54, 58, 30)   120         conv2d_5[0][0]                   
__________________________________________________________________________________________________
activation_5 (Activation)       (None, 54, 58, 30)   0           batch_normalization_5[0][0]      
__________________________________________________________________________________________________
concatenate_2 (Concatenate)     (None, 54, 58, 45)   0           dropout_2[0][0]                  
                                                                 activation_5[0][0]               
__________________________________________________________________________________________________
max_pooling2d_2 (MaxPooling2D)  (None, 27, 29, 45)   0           concatenate_2[0][0]              
__________________________________________________________________________________________________
dropout_3 (Dropout)             (None, 27, 29, 45)   0           max_pooling2d_2[0][0]            
__________________________________________________________________________________________________
conv2d_6 (Conv2D)               (None, 27, 29, 60)   24360       dropout_3[0][0]                  
__________________________________________________________________________________________________
batch_normalization_6 (BatchNor (None, 27, 29, 60)   240         conv2d_6[0][0]                   
__________________________________________________________________________________________________
activation_6 (Activation)       (None, 27, 29, 60)   0           batch_normalization_6[0][0]      
__________________________________________________________________________________________________
conv2d_7 (Conv2D)               (None, 27, 29, 60)   32460       activation_6[0][0]               
__________________________________________________________________________________________________
batch_normalization_7 (BatchNor (None, 27, 29, 60)   240         conv2d_7[0][0]                   
__________________________________________________________________________________________________
activation_7 (Activation)       (None, 27, 29, 60)   0           batch_normalization_7[0][0]      
__________________________________________________________________________________________________
concatenate_3 (Concatenate)     (None, 27, 29, 105)  0           dropout_3[0][0]                  
                                                                 activation_7[0][0]               
__________________________________________________________________________________________________
dropout_4 (Dropout)             (None, 27, 29, 105)  0           concatenate_3[0][0]              
__________________________________________________________________________________________________
conv2d_transpose_1 (Conv2DTrans (None, 54, 58, 30)   12630       dropout_4[0][0]                  
__________________________________________________________________________________________________
concatenate_4 (Concatenate)     (None, 54, 58, 75)   0           conv2d_transpose_1[0][0]         
                                                                 concatenate_2[0][0]              
__________________________________________________________________________________________________
conv2d_8 (Conv2D)               (None, 54, 58, 30)   20280       concatenate_4[0][0]              
__________________________________________________________________________________________________
batch_normalization_8 (BatchNor (None, 54, 58, 30)   120         conv2d_8[0][0]                   
__________________________________________________________________________________________________
activation_8 (Activation)       (None, 54, 58, 30)   0           batch_normalization_8[0][0]      
__________________________________________________________________________________________________
conv2d_9 (Conv2D)               (None, 54, 58, 30)   8130        activation_8[0][0]               
__________________________________________________________________________________________________
batch_normalization_9 (BatchNor (None, 54, 58, 30)   120         conv2d_9[0][0]                   
__________________________________________________________________________________________________
activation_9 (Activation)       (None, 54, 58, 30)   0           batch_normalization_9[0][0]      
__________________________________________________________________________________________________
concatenate_5 (Concatenate)     (None, 54, 58, 105)  0           concatenate_4[0][0]              
                                                                 activation_9[0][0]               
__________________________________________________________________________________________________
dropout_5 (Dropout)             (None, 54, 58, 105)  0           concatenate_5[0][0]              
__________________________________________________________________________________________________
conv2d_transpose_2 (Conv2DTrans (None, 108, 116, 15) 6315        dropout_5[0][0]                  
__________________________________________________________________________________________________
concatenate_6 (Concatenate)     (None, 108, 116, 30) 0           conv2d_transpose_2[0][0]         
                                                                 activation_3[0][0]               
__________________________________________________________________________________________________
conv2d_10 (Conv2D)              (None, 108, 116, 15) 4065        concatenate_6[0][0]              
__________________________________________________________________________________________________
batch_normalization_10 (BatchNo (None, 108, 116, 15) 60          conv2d_10[0][0]                  
__________________________________________________________________________________________________
activation_10 (Activation)      (None, 108, 116, 15) 0           batch_normalization_10[0][0]     
__________________________________________________________________________________________________
conv2d_11 (Conv2D)              (None, 108, 116, 15) 2040        activation_10[0][0]              
__________________________________________________________________________________________________
batch_normalization_11 (BatchNo (None, 108, 116, 15) 60          conv2d_11[0][0]                  
__________________________________________________________________________________________________
activation_11 (Activation)      (None, 108, 116, 15) 0           batch_normalization_11[0][0]     
__________________________________________________________________________________________________
concatenate_7 (Concatenate)     (None, 108, 116, 45) 0           concatenate_6[0][0]              
                                                                 activation_11[0][0]              
__________________________________________________________________________________________________
dropout_6 (Dropout)             (None, 108, 116, 45) 0           concatenate_7[0][0]              
__________________________________________________________________________________________________
conv2d_12 (Conv2D)              (None, 108, 116, 40) 16240       dropout_6[0][0]                  
__________________________________________________________________________________________________
batch_normalization_12 (BatchNo (None, 108, 116, 40) 160         conv2d_12[0][0]                  
__________________________________________________________________________________________________
activation_12 (Activation)      (None, 108, 116, 40) 0           batch_normalization_12[0][0]     
__________________________________________________________________________________________________
dropout_7 (Dropout)             (None, 108, 116, 40) 0           activation_12[0][0]              
__________________________________________________________________________________________________
concatenate_8 (Concatenate)     (None, 108, 116, 85) 0           dropout_6[0][0]                  
                                                                 dropout_7[0][0]                  
__________________________________________________________________________________________________
conv2d_13 (Conv2D)              (None, 108, 116, 2)  172         concatenate_8[0][0]              
==================================================================================================
Total params: 148,412
Trainable params: 49,792
Non-trainable params: 98,620
__________________________________________________________________________________________________
------------------------------------------------------------------
class_weights [0.97361628 0.02638372]
…
Error in label values min 0.0 max 30.0      13-Hb
Error in label values min 0.0 max 4.0      14-MTT
ResNet model address /array/ssd/msmajdi/experiments/keras/exp7/models/sE12_Cascade_FM20_Res_Unet2_NL3_LS_MyLogDice_US1_wLRScheduler_Main_Init_3T_CV_a/MultiClass_24567891011121314/sd0/model.h5
__________________________________________________________________________________________________
Layer (type)                    Output Shape         Param #     Connected to                     
==================================================================================================
input_1 (InputLayer)            (None, 72, 44, 1)    0                                            
__________________________________________________________________________________________________
conv2d_1 (Conv2D)               (None, 72, 44, 40)   400         input_1[0][0]                    
__________________________________________________________________________________________________
batch_normalization_1 (BatchNor (None, 72, 44, 40)   160         conv2d_1[0][0]                   
__________________________________________________________________________________________________
activation_1 (Activation)       (None, 72, 44, 40)   0           batch_normalization_1[0][0]      
__________________________________________________________________________________________________
dropout_1 (Dropout)             (None, 72, 44, 40)   0           activation_1[0][0]               
__________________________________________________________________________________________________
concatenate_1 (Concatenate)     (None, 72, 44, 41)   0           input_1[0][0]                    
                                                                 dropout_1[0][0]                  
__________________________________________________________________________________________________
conv2d_2 (Conv2D)               (None, 72, 44, 20)   7400        concatenate_1[0][0]              
__________________________________________________________________________________________________
batch_normalization_2 (BatchNor (None, 72, 44, 20)   80          conv2d_2[0][0]                   
__________________________________________________________________________________________________
activation_2 (Activation)       (None, 72, 44, 20)   0           batch_normalization_2[0][0]      
__________________________________________________________________________________________________
conv2d_3 (Conv2D)               (None, 72, 44, 20)   3620        activation_2[0][0]               
__________________________________________________________________________________________________
batch_normalization_3 (BatchNor (None, 72, 44, 20)   80          conv2d_3[0][0]                   
__________________________________________________________________________________________________
activation_3 (Activation)       (None, 72, 44, 20)   0           batch_normalization_3[0][0]      
__________________________________________________________________________________________________
max_pooling2d_1 (MaxPooling2D)  (None, 36, 22, 20)   0           activation_3[0][0]               
__________________________________________________________________________________________________
dropout_2 (Dropout)             (None, 36, 22, 20)   0           max_pooling2d_1[0][0]            
__________________________________________________________________________________________________
conv2d_4 (Conv2D)               (None, 36, 22, 40)   7240        dropout_2[0][0]                  
__________________________________________________________________________________________________
batch_normalization_4 (BatchNor (None, 36, 22, 40)   160         conv2d_4[0][0]                   
__________________________________________________________________________________________________
activation_4 (Activation)       (None, 36, 22, 40)   0           batch_normalization_4[0][0]      
__________________________________________________________________________________________________
conv2d_5 (Conv2D)               (None, 36, 22, 40)   14440       activation_4[0][0]               
__________________________________________________________________________________________________
batch_normalization_5 (BatchNor (None, 36, 22, 40)   160         conv2d_5[0][0]                   
__________________________________________________________________________________________________
activation_5 (Activation)       (None, 36, 22, 40)   0           batch_normalization_5[0][0]      
__________________________________________________________________________________________________
concatenate_2 (Concatenate)     (None, 36, 22, 60)   0           dropout_2[0][0]                  
                                                                 activation_5[0][0]               
__________________________________________________________________________________________________
max_pooling2d_2 (MaxPooling2D)  (None, 18, 11, 60)   0           concatenate_2[0][0]              
__________________________________________________________________________________________________
dropout_3 (Dropout)             (None, 18, 11, 60)   0           max_pooling2d_2[0][0]            
__________________________________________________________________________________________________
conv2d_6 (Conv2D)               (None, 18, 11, 80)   43280       dropout_3[0][0]                  
__________________________________________________________________________________________________
batch_normalization_6 (BatchNor (None, 18, 11, 80)   320         conv2d_6[0][0]                   
__________________________________________________________________________________________________
activation_6 (Activation)       (None, 18, 11, 80)   0           batch_normalization_6[0][0]      
__________________________________________________________________________________________________
conv2d_7 (Conv2D)               (None, 18, 11, 80)   57680       activation_6[0][0]               
__________________________________________________________________________________________________
batch_normalization_7 (BatchNor (None, 18, 11, 80)   320         conv2d_7[0][0]                   
__________________________________________________________________________________________________
activation_7 (Activation)       (None, 18, 11, 80)   0           batch_normalization_7[0][0]      
__________________________________________________________________________________________________
concatenate_3 (Concatenate)     (None, 18, 11, 140)  0           dropout_3[0][0]                  
                                                                 activation_7[0][0]               
__________________________________________________________________________________________________
dropout_4 (Dropout)             (None, 18, 11, 140)  0           concatenate_3[0][0]              
__________________________________________________________________________________________________
conv2d_transpose_1 (Conv2DTrans (None, 36, 22, 40)   22440       dropout_4[0][0]                  
__________________________________________________________________________________________________
concatenate_4 (Concatenate)     (None, 36, 22, 100)  0           conv2d_transpose_1[0][0]         
                                                                 concatenate_2[0][0]              
__________________________________________________________________________________________________
conv2d_8 (Conv2D)               (None, 36, 22, 40)   36040       concatenate_4[0][0]              
__________________________________________________________________________________________________
batch_normalization_8 (BatchNor (None, 36, 22, 40)   160         conv2d_8[0][0]                   
__________________________________________________________________________________________________
activation_8 (Activation)       (None, 36, 22, 40)   0           batch_normalization_8[0][0]      
__________________________________________________________________________________________________
conv2d_9 (Conv2D)               (None, 36, 22, 40)   14440       activation_8[0][0]               
__________________________________________________________________________________________________
batch_normalization_9 (BatchNor (None, 36, 22, 40)   160         conv2d_9[0][0]                   
__________________________________________________________________________________________________
activation_9 (Activation)       (None, 36, 22, 40)   0           batch_normalization_9[0][0]      
__________________________________________________________________________________________________
concatenate_5 (Concatenate)     (None, 36, 22, 140)  0           concatenate_4[0][0]              
                                                                 activation_9[0][0]               
__________________________________________________________________________________________________
dropout_5 (Dropout)             (None, 36, 22, 140)  0           concatenate_5[0][0]              
__________________________________________________________________________________________________
conv2d_transpose_2 (Conv2DTrans (None, 72, 44, 20)   11220       dropout_5[0][0]                  
__________________________________________________________________________________________________
concatenate_6 (Concatenate)     (None, 72, 44, 40)   0           conv2d_transpose_2[0][0]         
                                                                 activation_3[0][0]               
__________________________________________________________________________________________________
conv2d_10 (Conv2D)              (None, 72, 44, 20)   7220        concatenate_6[0][0]              
__________________________________________________________________________________________________
batch_normalization_10 (BatchNo (None, 72, 44, 20)   80          conv2d_10[0][0]                  
__________________________________________________________________________________________________
activation_10 (Activation)      (None, 72, 44, 20)   0           batch_normalization_10[0][0]     
__________________________________________________________________________________________________
conv2d_11 (Conv2D)              (None, 72, 44, 20)   3620        activation_10[0][0]              
__________________________________________________________________________________________________
batch_normalization_11 (BatchNo (None, 72, 44, 20)   80          conv2d_11[0][0]                  
__________________________________________________________________________________________________
activation_11 (Activation)      (None, 72, 44, 20)   0           batch_normalization_11[0][0]     
__________________________________________________________________________________________________
concatenate_7 (Concatenate)     (None, 72, 44, 60)   0           concatenate_6[0][0]              
                                                                 activation_11[0][0]              
__________________________________________________________________________________________________
dropout_6 (Dropout)             (None, 72, 44, 60)   0           concatenate_7[0][0]              
__________________________________________________________________________________________________
conv2d_12 (Conv2D)              (None, 72, 44, 40)   21640       dropout_6[0][0]                  
__________________________________________________________________________________________________
batch_normalization_12 (BatchNo (None, 72, 44, 40)   160         conv2d_12[0][0]                  
__________________________________________________________________________________________________
activation_12 (Activation)      (None, 72, 44, 40)   0           batch_normalization_12[0][0]     
__________________________________________________________________________________________________
dropout_7 (Dropout)             (None, 72, 44, 40)   0           activation_12[0][0]              
__________________________________________________________________________________________________
concatenate_8 (Concatenate)     (None, 72, 44, 100)  0           dropout_6[0][0]                  
                                                                 dropout_7[0][0]                  
__________________________________________________________________________________________________
conv2d_13 (Conv2D)              (None, 72, 44, 13)   1313        concatenate_8[0][0]              
==================================================================================================
Total params: 253,913
Trainable params: 79,073
Non-trainable params: 174,840
__________________________________________________________________________________________________
------------------------------------------------------------------
class_weights [0.06165956 0.03054853 0.07611908 0.00925131 0.02720249 0.00704768
…
Error in label values min 0.0 max 30.0      13-Hb
Error in label values min 0.0 max 4.0      14-MTT
ResNet model address /array/ssd/msmajdi/experiments/keras/exp7/models/sE12_Cascade_FM15_Res_Unet2_NL3_LS_MyLogDice_US1_wLRScheduler_Main_Init_3T_CV_a/MultiClass_24567891011121314/sd2/model.h5
__________________________________________________________________________________________________
Layer (type)                    Output Shape         Param #     Connected to                     
==================================================================================================
input_1 (InputLayer)            (None, 52, 84, 1)    0                                            
__________________________________________________________________________________________________
conv2d_1 (Conv2D)               (None, 52, 84, 40)   400         input_1[0][0]                    
__________________________________________________________________________________________________
batch_normalization_1 (BatchNor (None, 52, 84, 40)   160         conv2d_1[0][0]                   
__________________________________________________________________________________________________
activation_1 (Activation)       (None, 52, 84, 40)   0           batch_normalization_1[0][0]      
__________________________________________________________________________________________________
dropout_1 (Dropout)             (None, 52, 84, 40)   0           activation_1[0][0]               
__________________________________________________________________________________________________
conv2d_2 (Conv2D)               (None, 52, 84, 40)   14440       dropout_1[0][0]                  
__________________________________________________________________________________________________
batch_normalization_2 (BatchNor (None, 52, 84, 40)   160         conv2d_2[0][0]                   
__________________________________________________________________________________________________
activation_2 (Activation)       (None, 52, 84, 40)   0           batch_normalization_2[0][0]      
__________________________________________________________________________________________________
dropout_2 (Dropout)             (None, 52, 84, 40)   0           activation_2[0][0]               
__________________________________________________________________________________________________
concatenate_1 (Concatenate)     (None, 52, 84, 41)   0           input_1[0][0]                    
                                                                 dropout_2[0][0]                  
__________________________________________________________________________________________________
conv2d_3 (Conv2D)               (None, 52, 84, 15)   5550        concatenate_1[0][0]              
__________________________________________________________________________________________________
batch_normalization_3 (BatchNor (None, 52, 84, 15)   60          conv2d_3[0][0]                   
__________________________________________________________________________________________________
activation_3 (Activation)       (None, 52, 84, 15)   0           batch_normalization_3[0][0]      
__________________________________________________________________________________________________
conv2d_4 (Conv2D)               (None, 52, 84, 15)   2040        activation_3[0][0]               
__________________________________________________________________________________________________
batch_normalization_4 (BatchNor (None, 52, 84, 15)   60          conv2d_4[0][0]                   
__________________________________________________________________________________________________
activation_4 (Activation)       (None, 52, 84, 15)   0           batch_normalization_4[0][0]      
__________________________________________________________________________________________________
max_pooling2d_1 (MaxPooling2D)  (None, 26, 42, 15)   0           activation_4[0][0]               
__________________________________________________________________________________________________
dropout_3 (Dropout)             (None, 26, 42, 15)   0           max_pooling2d_1[0][0]            
__________________________________________________________________________________________________
conv2d_5 (Conv2D)               (None, 26, 42, 30)   4080        dropout_3[0][0]                  
__________________________________________________________________________________________________
batch_normalization_5 (BatchNor (None, 26, 42, 30)   120         conv2d_5[0][0]                   
__________________________________________________________________________________________________
activation_5 (Activation)       (None, 26, 42, 30)   0           batch_normalization_5[0][0]      
__________________________________________________________________________________________________
conv2d_6 (Conv2D)               (None, 26, 42, 30)   8130        activation_5[0][0]               
__________________________________________________________________________________________________
batch_normalization_6 (BatchNor (None, 26, 42, 30)   120         conv2d_6[0][0]                   
__________________________________________________________________________________________________
activation_6 (Activation)       (None, 26, 42, 30)   0           batch_normalization_6[0][0]      
__________________________________________________________________________________________________
concatenate_2 (Concatenate)     (None, 26, 42, 45)   0           dropout_3[0][0]                  
                                                                 activation_6[0][0]               
__________________________________________________________________________________________________
max_pooling2d_2 (MaxPooling2D)  (None, 13, 21, 45)   0           concatenate_2[0][0]              
__________________________________________________________________________________________________
dropout_4 (Dropout)             (None, 13, 21, 45)   0           max_pooling2d_2[0][0]            
__________________________________________________________________________________________________
conv2d_7 (Conv2D)               (None, 13, 21, 60)   24360       dropout_4[0][0]                  
__________________________________________________________________________________________________
batch_normalization_7 (BatchNor (None, 13, 21, 60)   240         conv2d_7[0][0]                   
__________________________________________________________________________________________________
activation_7 (Activation)       (None, 13, 21, 60)   0           batch_normalization_7[0][0]      
__________________________________________________________________________________________________
conv2d_8 (Conv2D)               (None, 13, 21, 60)   32460       activation_7[0][0]               
__________________________________________________________________________________________________
batch_normalization_8 (BatchNor (None, 13, 21, 60)   240         conv2d_8[0][0]                   
__________________________________________________________________________________________________
activation_8 (Activation)       (None, 13, 21, 60)   0           batch_normalization_8[0][0]      
__________________________________________________________________________________________________
concatenate_3 (Concatenate)     (None, 13, 21, 105)  0           dropout_4[0][0]                  
                                                                 activation_8[0][0]               
__________________________________________________________________________________________________
dropout_5 (Dropout)             (None, 13, 21, 105)  0           concatenate_3[0][0]              
__________________________________________________________________________________________________
conv2d_transpose_1 (Conv2DTrans (None, 26, 42, 30)   12630       dropout_5[0][0]                  
__________________________________________________________________________________________________
concatenate_4 (Concatenate)     (None, 26, 42, 75)   0           conv2d_transpose_1[0][0]         
                                                                 concatenate_2[0][0]              
__________________________________________________________________________________________________
conv2d_9 (Conv2D)               (None, 26, 42, 30)   20280       concatenate_4[0][0]              
__________________________________________________________________________________________________
batch_normalization_9 (BatchNor (None, 26, 42, 30)   120         conv2d_9[0][0]                   
__________________________________________________________________________________________________
activation_9 (Activation)       (None, 26, 42, 30)   0           batch_normalization_9[0][0]      
__________________________________________________________________________________________________
conv2d_10 (Conv2D)              (None, 26, 42, 30)   8130        activation_9[0][0]               
__________________________________________________________________________________________________
batch_normalization_10 (BatchNo (None, 26, 42, 30)   120         conv2d_10[0][0]                  
__________________________________________________________________________________________________
activation_10 (Activation)      (None, 26, 42, 30)   0           batch_normalization_10[0][0]     
__________________________________________________________________________________________________
concatenate_5 (Concatenate)     (None, 26, 42, 105)  0           concatenate_4[0][0]              
                                                                 activation_10[0][0]              
__________________________________________________________________________________________________
dropout_6 (Dropout)             (None, 26, 42, 105)  0           concatenate_5[0][0]              
__________________________________________________________________________________________________
conv2d_transpose_2 (Conv2DTrans (None, 52, 84, 15)   6315        dropout_6[0][0]                  
__________________________________________________________________________________________________
concatenate_6 (Concatenate)     (None, 52, 84, 30)   0           conv2d_transpose_2[0][0]         
                                                                 activation_4[0][0]               
__________________________________________________________________________________________________
conv2d_11 (Conv2D)              (None, 52, 84, 15)   4065        concatenate_6[0][0]              
__________________________________________________________________________________________________
batch_normalization_11 (BatchNo (None, 52, 84, 15)   60          conv2d_11[0][0]                  
__________________________________________________________________________________________________
activation_11 (Activation)      (None, 52, 84, 15)   0           batch_normalization_11[0][0]     
__________________________________________________________________________________________________
conv2d_12 (Conv2D)              (None, 52, 84, 15)   2040        activation_11[0][0]              
__________________________________________________________________________________________________
batch_normalization_12 (BatchNo (None, 52, 84, 15)   60          conv2d_12[0][0]                  
__________________________________________________________________________________________________
activation_12 (Activation)      (None, 52, 84, 15)   0           batch_normalization_12[0][0]     
__________________________________________________________________________________________________
concatenate_7 (Concatenate)     (None, 52, 84, 45)   0           concatenate_6[0][0]              
                                                                 activation_12[0][0]              
__________________________________________________________________________________________________
dropout_7 (Dropout)             (None, 52, 84, 45)   0           concatenate_7[0][0]              
__________________________________________________________________________________________________
conv2d_13 (Conv2D)              (None, 52, 84, 13)   598         dropout_7[0][0]                  
==================================================================================================
Total params: 147,038
Trainable params: 48,418
Non-trainable params: 98,620
__________________________________________________________________________________________________
------------------------------------------------------------------
class_weights [6.35034250e-02 3.22838767e-02 7.79254447e-02 9.86016006e-03
…
Error in label values min 0.0 max 30.0      13-Hb
Error in label values min 0.0 max 4.0      14-MTT
ResNet model address /array/ssd/msmajdi/experiments/keras/exp7/models/sE12_Cascade_FM20_Res_Unet2_NL3_LS_MyLogDice_US1_wLRScheduler_Main_Init_3T_CV_a/MultiClass_24567891011121314/sd0/model.h5
__________________________________________________________________________________________________
Layer (type)                    Output Shape         Param #     Connected to                     
==================================================================================================
input_1 (InputLayer)            (None, 84, 48, 1)    0                                            
__________________________________________________________________________________________________
conv2d_1 (Conv2D)               (None, 84, 48, 40)   400         input_1[0][0]                    
__________________________________________________________________________________________________
batch_normalization_1 (BatchNor (None, 84, 48, 40)   160         conv2d_1[0][0]                   
__________________________________________________________________________________________________
activation_1 (Activation)       (None, 84, 48, 40)   0           batch_normalization_1[0][0]      
__________________________________________________________________________________________________
dropout_1 (Dropout)             (None, 84, 48, 40)   0           activation_1[0][0]               
__________________________________________________________________________________________________
concatenate_1 (Concatenate)     (None, 84, 48, 41)   0           input_1[0][0]                    
                                                                 dropout_1[0][0]                  
__________________________________________________________________________________________________
conv2d_2 (Conv2D)               (None, 84, 48, 20)   7400        concatenate_1[0][0]              
__________________________________________________________________________________________________
batch_normalization_2 (BatchNor (None, 84, 48, 20)   80          conv2d_2[0][0]                   
__________________________________________________________________________________________________
activation_2 (Activation)       (None, 84, 48, 20)   0           batch_normalization_2[0][0]      
__________________________________________________________________________________________________
conv2d_3 (Conv2D)               (None, 84, 48, 20)   3620        activation_2[0][0]               
__________________________________________________________________________________________________
batch_normalization_3 (BatchNor (None, 84, 48, 20)   80          conv2d_3[0][0]                   
__________________________________________________________________________________________________
activation_3 (Activation)       (None, 84, 48, 20)   0           batch_normalization_3[0][0]      
__________________________________________________________________________________________________
max_pooling2d_1 (MaxPooling2D)  (None, 42, 24, 20)   0           activation_3[0][0]               
__________________________________________________________________________________________________
dropout_2 (Dropout)             (None, 42, 24, 20)   0           max_pooling2d_1[0][0]            
__________________________________________________________________________________________________
conv2d_4 (Conv2D)               (None, 42, 24, 40)   7240        dropout_2[0][0]                  
__________________________________________________________________________________________________
batch_normalization_4 (BatchNor (None, 42, 24, 40)   160         conv2d_4[0][0]                   
__________________________________________________________________________________________________
activation_4 (Activation)       (None, 42, 24, 40)   0           batch_normalization_4[0][0]      
__________________________________________________________________________________________________
conv2d_5 (Conv2D)               (None, 42, 24, 40)   14440       activation_4[0][0]               
__________________________________________________________________________________________________
batch_normalization_5 (BatchNor (None, 42, 24, 40)   160         conv2d_5[0][0]                   
__________________________________________________________________________________________________
activation_5 (Activation)       (None, 42, 24, 40)   0           batch_normalization_5[0][0]      
__________________________________________________________________________________________________
concatenate_2 (Concatenate)     (None, 42, 24, 60)   0           dropout_2[0][0]                  
                                                                 activation_5[0][0]               
__________________________________________________________________________________________________
max_pooling2d_2 (MaxPooling2D)  (None, 21, 12, 60)   0           concatenate_2[0][0]              
__________________________________________________________________________________________________
dropout_3 (Dropout)             (None, 21, 12, 60)   0           max_pooling2d_2[0][0]            
__________________________________________________________________________________________________
conv2d_6 (Conv2D)               (None, 21, 12, 80)   43280       dropout_3[0][0]                  
__________________________________________________________________________________________________
batch_normalization_6 (BatchNor (None, 21, 12, 80)   320         conv2d_6[0][0]                   
__________________________________________________________________________________________________
activation_6 (Activation)       (None, 21, 12, 80)   0           batch_normalization_6[0][0]      
__________________________________________________________________________________________________
conv2d_7 (Conv2D)               (None, 21, 12, 80)   57680       activation_6[0][0]               
__________________________________________________________________________________________________
batch_normalization_7 (BatchNor (None, 21, 12, 80)   320         conv2d_7[0][0]                   
__________________________________________________________________________________________________
activation_7 (Activation)       (None, 21, 12, 80)   0           batch_normalization_7[0][0]      
__________________________________________________________________________________________________
concatenate_3 (Concatenate)     (None, 21, 12, 140)  0           dropout_3[0][0]                  
                                                                 activation_7[0][0]               
__________________________________________________________________________________________________
dropout_4 (Dropout)             (None, 21, 12, 140)  0           concatenate_3[0][0]              
__________________________________________________________________________________________________
conv2d_transpose_1 (Conv2DTrans (None, 42, 24, 40)   22440       dropout_4[0][0]                  
__________________________________________________________________________________________________
concatenate_4 (Concatenate)     (None, 42, 24, 100)  0           conv2d_transpose_1[0][0]         
                                                                 concatenate_2[0][0]              
__________________________________________________________________________________________________
conv2d_8 (Conv2D)               (None, 42, 24, 40)   36040       concatenate_4[0][0]              
__________________________________________________________________________________________________
batch_normalization_8 (BatchNor (None, 42, 24, 40)   160         conv2d_8[0][0]                   
__________________________________________________________________________________________________
activation_8 (Activation)       (None, 42, 24, 40)   0           batch_normalization_8[0][0]      
__________________________________________________________________________________________________
conv2d_9 (Conv2D)               (None, 42, 24, 40)   14440       activation_8[0][0]               
__________________________________________________________________________________________________
batch_normalization_9 (BatchNor (None, 42, 24, 40)   160         conv2d_9[0][0]                   
__________________________________________________________________________________________________
activation_9 (Activation)       (None, 42, 24, 40)   0           batch_normalization_9[0][0]      
__________________________________________________________________________________________________
concatenate_5 (Concatenate)     (None, 42, 24, 140)  0           concatenate_4[0][0]              
                                                                 activation_9[0][0]               
__________________________________________________________________________________________________
dropout_5 (Dropout)             (None, 42, 24, 140)  0           concatenate_5[0][0]              
__________________________________________________________________________________________________
conv2d_transpose_2 (Conv2DTrans (None, 84, 48, 20)   11220       dropout_5[0][0]                  
__________________________________________________________________________________________________
concatenate_6 (Concatenate)     (None, 84, 48, 40)   0           conv2d_transpose_2[0][0]         
                                                                 activation_3[0][0]               
__________________________________________________________________________________________________
conv2d_10 (Conv2D)              (None, 84, 48, 20)   7220        concatenate_6[0][0]              
__________________________________________________________________________________________________
batch_normalization_10 (BatchNo (None, 84, 48, 20)   80          conv2d_10[0][0]                  
__________________________________________________________________________________________________
activation_10 (Activation)      (None, 84, 48, 20)   0           batch_normalization_10[0][0]     
__________________________________________________________________________________________________
conv2d_11 (Conv2D)              (None, 84, 48, 20)   3620        activation_10[0][0]              
__________________________________________________________________________________________________
batch_normalization_11 (BatchNo (None, 84, 48, 20)   80          conv2d_11[0][0]                  
__________________________________________________________________________________________________
activation_11 (Activation)      (None, 84, 48, 20)   0           batch_normalization_11[0][0]     
__________________________________________________________________________________________________
concatenate_7 (Concatenate)     (None, 84, 48, 60)   0           concatenate_6[0][0]              
                                                                 activation_11[0][0]              
__________________________________________________________________________________________________
dropout_6 (Dropout)             (None, 84, 48, 60)   0           concatenate_7[0][0]              
__________________________________________________________________________________________________
conv2d_12 (Conv2D)              (None, 84, 48, 40)   21640       dropout_6[0][0]                  
__________________________________________________________________________________________________
batch_normalization_12 (BatchNo (None, 84, 48, 40)   160         conv2d_12[0][0]                  
__________________________________________________________________________________________________
activation_12 (Activation)      (None, 84, 48, 40)   0           batch_normalization_12[0][0]     
__________________________________________________________________________________________________
dropout_7 (Dropout)             (None, 84, 48, 40)   0           activation_12[0][0]              
__________________________________________________________________________________________________
concatenate_8 (Concatenate)     (None, 84, 48, 100)  0           dropout_6[0][0]                  
                                                                 dropout_7[0][0]                  
__________________________________________________________________________________________________
conv2d_13 (Conv2D)              (None, 84, 48, 13)   1313        concatenate_8[0][0]              
==================================================================================================
Total params: 253,913
Trainable params: 79,073
Non-trainable params: 174,840
__________________________________________________________________________________________________
------------------------------------------------------------------
class_weights [6.33736795e-02 3.22179167e-02 7.77662331e-02 9.84001450e-03
…
[00:03<00:00,  9.41it/s]loading the weights for Res Unet:  89%|████████▊ | 39/44 [00:03<00:00,  9.38it/s]loading the weights for Res Unet:  93%|█████████▎| 41/44 [00:04<00:00,  7.31it/s]loading the weights for Res Unet: 100%|██████████| 44/44 [00:04<00:00, 10.49it/s]
__________________________________________________________________________________________________
Layer (type)                    Output Shape         Param #     Connected to                     
==================================================================================================
input_1 (InputLayer)            (None, 48, 52, 1)    0                                            
__________________________________________________________________________________________________
conv2d_1 (Conv2D)               (None, 48, 52, 20)   200         input_1[0][0]                    
__________________________________________________________________________________________________
batch_normalization_1 (BatchNor (None, 48, 52, 20)   80          conv2d_1[0][0]                   
__________________________________________________________________________________________________
activation_1 (Activation)       (None, 48, 52, 20)   0           batch_normalization_1[0][0]      
__________________________________________________________________________________________________
conv2d_2 (Conv2D)               (None, 48, 52, 20)   3620        activation_1[0][0]               
__________________________________________________________________________________________________
batch_normalization_2 (BatchNor (None, 48, 52, 20)   80          conv2d_2[0][0]                   
__________________________________________________________________________________________________
activation_2 (Activation)       (None, 48, 52, 20)   0           batch_normalization_2[0][0]      
__________________________________________________________________________________________________
max_pooling2d_1 (MaxPooling2D)  (None, 24, 26, 20)   0           activation_2[0][0]               
__________________________________________________________________________________________________
dropout_1 (Dropout)             (None, 24, 26, 20)   0           max_pooling2d_1[0][0]            
__________________________________________________________________________________________________
conv2d_3 (Conv2D)               (None, 24, 26, 40)   7240        dropout_1[0][0]                  
__________________________________________________________________________________________________
batch_normalization_3 (BatchNor (None, 24, 26, 40)   160         conv2d_3[0][0]                   
__________________________________________________________________________________________________
activation_3 (Activation)       (None, 24, 26, 40)   0           batch_normalization_3[0][0]      
__________________________________________________________________________________________________
conv2d_4 (Conv2D)               (None, 24, 26, 40)   14440       activation_3[0][0]               
__________________________________________________________________________________________________
batch_normalization_4 (BatchNor (None, 24, 26, 40)   160         conv2d_4[0][0]                   
__________________________________________________________________________________________________
activation_4 (Activation)       (None, 24, 26, 40)   0           batch_normalization_4[0][0]      
__________________________________________________________________________________________________
concatenate_1 (Concatenate)     (None, 24, 26, 60)   0           dropout_1[0][0]                  
                                                                 activation_4[0][0]               
__________________________________________________________________________________________________
max_pooling2d_2 (MaxPooling2D)  (None, 12, 13, 60)   0           concatenate_1[0][0]              
__________________________________________________________________________________________________
dropout_2 (Dropout)             (None, 12, 13, 60)   0           max_pooling2d_2[0][0]            
__________________________________________________________________________________________________
conv2d_5 (Conv2D)               (None, 12, 13, 80)   43280       dropout_2[0][0]                  
__________________________________________________________________________________________________
batch_normalization_5 (BatchNor (None, 12, 13, 80)   320         conv2d_5[0][0]                   
__________________________________________________________________________________________________
activation_5 (Activation)       (None, 12, 13, 80)   0           batch_normalization_5[0][0]      
__________________________________________________________________________________________________
conv2d_6 (Conv2D)               (None, 12, 13, 80)   57680       activation_5[0][0]               
__________________________________________________________________________________________________
batch_normalization_6 (BatchNor (None, 12, 13, 80)   320         conv2d_6[0][0]                   
__________________________________________________________________________________________________
activation_6 (Activation)       (None, 12, 13, 80)   0           batch_normalization_6[0][0]      
__________________________________________________________________________________________________
concatenate_2 (Concatenate)     (None, 12, 13, 140)  0           dropout_2[0][0]                  
                                                                 activation_6[0][0]               
__________________________________________________________________________________________________
dropout_3 (Dropout)             (None, 12, 13, 140)  0           concatenate_2[0][0]              
__________________________________________________________________________________________________
conv2d_transpose_1 (Conv2DTrans (None, 24, 26, 40)   22440       dropout_3[0][0]                  
__________________________________________________________________________________________________
concatenate_3 (Concatenate)     (None, 24, 26, 100)  0           conv2d_transpose_1[0][0]         
                                                                 concatenate_1[0][0]              
__________________________________________________________________________________________________
conv2d_7 (Conv2D)               (None, 24, 26, 40)   36040       concatenate_3[0][0]              
__________________________________________________________________________________________________
batch_normalization_7 (BatchNor (None, 24, 26, 40)   160         conv2d_7[0][0]                   
__________________________________________________________________________________________________
activation_7 (Activation)       (None, 24, 26, 40)   0           batch_normalization_7[0][0]      
__________________________________________________________________________________________________
conv2d_8 (Conv2D)               (None, 24, 26, 40)   14440       activation_7[0][0]               
__________________________________________________________________________________________________
batch_normalization_8 (BatchNor (None, 24, 26, 40)   160         conv2d_8[0][0]                   
__________________________________________________________________________________________________
activation_8 (Activation)       (None, 24, 26, 40)   0           batch_normalization_8[0][0]      
__________________________________________________________________________________________________
concatenate_4 (Concatenate)     (None, 24, 26, 140)  0           concatenate_3[0][0]              
                                                                 activation_8[0][0]               
__________________________________________________________________________________________________
dropout_4 (Dropout)             (None, 24, 26, 140)  0           concatenate_4[0][0]              
__________________________________________________________________________________________________
conv2d_transpose_2 (Conv2DTrans (None, 48, 52, 20)   11220       dropout_4[0][0]                  
__________________________________________________________________________________________________
concatenate_5 (Concatenate)     (None, 48, 52, 40)   0           conv2d_transpose_2[0][0]         
                                                                 activation_2[0][0]               
__________________________________________________________________________________________________
conv2d_9 (Conv2D)               (None, 48, 52, 20)   7220        concatenate_5[0][0]              
__________________________________________________________________________________________________
batch_normalization_9 (BatchNor (None, 48, 52, 20)   80          conv2d_9[0][0]                   
__________________________________________________________________________________________________
activation_9 (Activation)       (None, 48, 52, 20)   0           batch_normalization_9[0][0]      
__________________________________________________________________________________________________
conv2d_10 (Conv2D)              (None, 48, 52, 20)   3620        activation_9[0][0]               
__________________________________________________________________________________________________
batch_normalization_10 (BatchNo (None, 48, 52, 20)   80          conv2d_10[0][0]                  
__________________________________________________________________________________________________
activation_10 (Activation)      (None, 48, 52, 20)   0           batch_normalization_10[0][0]     
__________________________________________________________________________________________________
concatenate_6 (Concatenate)     (None, 48, 52, 60)   0           concatenate_5[0][0]              
                                                                 activation_10[0][0]              
__________________________________________________________________________________________________
dropout_5 (Dropout)             (None, 48, 52, 60)   0           concatenate_6[0][0]              
__________________________________________________________________________________________________
conv2d_11 (Conv2D)              (None, 48, 52, 13)   793         dropout_5[0][0]                  
==================================================================================================
Total params: 223,833
Trainable params: 49,153
Non-trainable params: 174,680
__________________________________________________________________________________________________
------------------------------------------------------------------
class_weights [6.80246592e-02 3.25051711e-02 8.28365377e-02 1.02234458e-02
…
