…
 Nucleus: [2, 4, 5, 6, 7, 8, 9, 10, 11, 12, 13, 14]  | GPU: 6  | SD 2  | Dropout 0.3  | LR 0.001  | NL 3  |  Cascade |  FM 10 |  Upsample 1
Experiment: exp6
SubExperiment: sE12_Cascade_FM10_Res_Unet2_NL3_LS_MyLogDice_US1_wLRScheduler_Main_Ps_ET_Init_3T_CV_a
---------------------------------------------------------------
__________________________________________________________________________________________________
Layer (type)                    Output Shape         Param #     Connected to                     
==================================================================================================
input_1 (InputLayer)            (None, 56, 88, 1)    0                                            
__________________________________________________________________________________________________
conv2d_1 (Conv2D)               (None, 56, 88, 10)   100         input_1[0][0]                    
__________________________________________________________________________________________________
batch_normalization_1 (BatchNor (None, 56, 88, 10)   40          conv2d_1[0][0]                   
__________________________________________________________________________________________________
activation_1 (Activation)       (None, 56, 88, 10)   0           batch_normalization_1[0][0]      
__________________________________________________________________________________________________
conv2d_2 (Conv2D)               (None, 56, 88, 10)   910         activation_1[0][0]               
__________________________________________________________________________________________________
batch_normalization_2 (BatchNor (None, 56, 88, 10)   40          conv2d_2[0][0]                   
__________________________________________________________________________________________________
activation_2 (Activation)       (None, 56, 88, 10)   0           batch_normalization_2[0][0]      
__________________________________________________________________________________________________
max_pooling2d_1 (MaxPooling2D)  (None, 28, 44, 10)   0           activation_2[0][0]               
__________________________________________________________________________________________________
dropout_1 (Dropout)             (None, 28, 44, 10)   0           max_pooling2d_1[0][0]            
__________________________________________________________________________________________________
conv2d_3 (Conv2D)               (None, 28, 44, 20)   1820        dropout_1[0][0]                  
__________________________________________________________________________________________________
batch_normalization_3 (BatchNor (None, 28, 44, 20)   80          conv2d_3[0][0]                   
__________________________________________________________________________________________________
activation_3 (Activation)       (None, 28, 44, 20)   0           batch_normalization_3[0][0]      
__________________________________________________________________________________________________
conv2d_4 (Conv2D)               (None, 28, 44, 20)   3620        activation_3[0][0]               
__________________________________________________________________________________________________
batch_normalization_4 (BatchNor (None, 28, 44, 20)   80          conv2d_4[0][0]                   
__________________________________________________________________________________________________
activation_4 (Activation)       (None, 28, 44, 20)   0           batch_normalization_4[0][0]      
__________________________________________________________________________________________________
concatenate_1 (Concatenate)     (None, 28, 44, 30)   0           dropout_1[0][0]                  
                                                                 activation_4[0][0]               
__________________________________________________________________________________________________
max_pooling2d_2 (MaxPooling2D)  (None, 14, 22, 30)   0           concatenate_1[0][0]              
__________________________________________________________________________________________________
dropout_2 (Dropout)             (None, 14, 22, 30)   0           max_pooling2d_2[0][0]            
__________________________________________________________________________________________________
conv2d_5 (Conv2D)               (None, 14, 22, 40)   10840       dropout_2[0][0]                  
__________________________________________________________________________________________________
batch_normalization_5 (BatchNor (None, 14, 22, 40)   160         conv2d_5[0][0]                   
__________________________________________________________________________________________________
activation_5 (Activation)       (None, 14, 22, 40)   0           batch_normalization_5[0][0]      
__________________________________________________________________________________________________
conv2d_6 (Conv2D)               (None, 14, 22, 40)   14440       activation_5[0][0]               
__________________________________________________________________________________________________
batch_normalization_6 (BatchNor (None, 14, 22, 40)   160         conv2d_6[0][0]                   
__________________________________________________________________________________________________
activation_6 (Activation)       (None, 14, 22, 40)   0           batch_normalization_6[0][0]      
__________________________________________________________________________________________________
concatenate_2 (Concatenate)     (None, 14, 22, 70)   0           dropout_2[0][0]                  
                                                                 activation_6[0][0]               
__________________________________________________________________________________________________
dropout_3 (Dropout)             (None, 14, 22, 70)   0           concatenate_2[0][0]              
__________________________________________________________________________________________________
conv2d_transpose_1 (Conv2DTrans (None, 28, 44, 20)   5620        dropout_3[0][0]                  
__________________________________________________________________________________________________
concatenate_3 (Concatenate)     (None, 28, 44, 50)   0           conv2d_transpose_1[0][0]         
                                                                 concatenate_1[0][0]              
__________________________________________________________________________________________________
conv2d_7 (Conv2D)               (None, 28, 44, 20)   9020        concatenate_3[0][0]              
__________________________________________________________________________________________________
batch_normalization_7 (BatchNor (None, 28, 44, 20)   80          conv2d_7[0][0]                   
__________________________________________________________________________________________________
activation_7 (Activation)       (None, 28, 44, 20)   0           batch_normalization_7[0][0]      
__________________________________________________________________________________________________
conv2d_8 (Conv2D)               (None, 28, 44, 20)   3620        activation_7[0][0]               
__________________________________________________________________________________________________
batch_normalization_8 (BatchNor (None, 28, 44, 20)   80          conv2d_8[0][0]                   
__________________________________________________________________________________________________
activation_8 (Activation)       (None, 28, 44, 20)   0           batch_normalization_8[0][0]      
__________________________________________________________________________________________________
concatenate_4 (Concatenate)     (None, 28, 44, 70)   0           concatenate_3[0][0]              
                                                                 activation_8[0][0]               
__________________________________________________________________________________________________
dropout_4 (Dropout)             (None, 28, 44, 70)   0           concatenate_4[0][0]              
__________________________________________________________________________________________________
conv2d_transpose_2 (Conv2DTrans (None, 56, 88, 10)   2810        dropout_4[0][0]                  
__________________________________________________________________________________________________
concatenate_5 (Concatenate)     (None, 56, 88, 20)   0           conv2d_transpose_2[0][0]         
                                                                 activation_2[0][0]               
__________________________________________________________________________________________________
conv2d_9 (Conv2D)               (None, 56, 88, 10)   1810        concatenate_5[0][0]              
__________________________________________________________________________________________________
batch_normalization_9 (BatchNor (None, 56, 88, 10)   40          conv2d_9[0][0]                   
__________________________________________________________________________________________________
activation_9 (Activation)       (None, 56, 88, 10)   0           batch_normalization_9[0][0]      
__________________________________________________________________________________________________
conv2d_10 (Conv2D)              (None, 56, 88, 10)   910         activation_9[0][0]               
__________________________________________________________________________________________________
batch_normalization_10 (BatchNo (None, 56, 88, 10)   40          conv2d_10[0][0]                  
__________________________________________________________________________________________________
activation_10 (Activation)      (None, 56, 88, 10)   0           batch_normalization_10[0][0]     
__________________________________________________________________________________________________
concatenate_6 (Concatenate)     (None, 56, 88, 30)   0           concatenate_5[0][0]              
                                                                 activation_10[0][0]              
__________________________________________________________________________________________________
dropout_5 (Dropout)             (None, 56, 88, 30)   0           concatenate_6[0][0]              
__________________________________________________________________________________________________
conv2d_11 (Conv2D)              (None, 56, 88, 13)   403         dropout_5[0][0]                  
==================================================================================================
Total params: 56,723
Trainable params: 56,323
Non-trainable params: 400
__________________________________________________________________________________________________
----- /array/ssd/msmajdi/experiments/keras/exp6/models/sE8_Cascade_FM10_Res_Unet2_NL3_LS_MyLogDice_US1/MultiClass_24567891011121314/sd2/model_weights.h5
…
 Nucleus: [2, 4, 5, 6, 7, 8, 9, 10, 11, 12, 13, 14]  | GPU: 6  | SD 2  | Dropout 0.3  | LR 0.001  | NL 3  |  Cascade |  FM 15 |  Upsample 1
Experiment: exp6
SubExperiment: sE12_Cascade_FM15_Res_Unet2_NL3_LS_MyLogDice_US1_wLRScheduler_Main_Ps_ET_Init_3T_CV_a
---------------------------------------------------------------
__________________________________________________________________________________________________
Layer (type)                    Output Shape         Param #     Connected to                     
==================================================================================================
input_1 (InputLayer)            (None, 56, 88, 1)    0                                            
__________________________________________________________________________________________________
conv2d_1 (Conv2D)               (None, 56, 88, 15)   150         input_1[0][0]                    
__________________________________________________________________________________________________
batch_normalization_1 (BatchNor (None, 56, 88, 15)   60          conv2d_1[0][0]                   
__________________________________________________________________________________________________
activation_1 (Activation)       (None, 56, 88, 15)   0           batch_normalization_1[0][0]      
__________________________________________________________________________________________________
conv2d_2 (Conv2D)               (None, 56, 88, 15)   2040        activation_1[0][0]               
__________________________________________________________________________________________________
batch_normalization_2 (BatchNor (None, 56, 88, 15)   60          conv2d_2[0][0]                   
__________________________________________________________________________________________________
activation_2 (Activation)       (None, 56, 88, 15)   0           batch_normalization_2[0][0]      
__________________________________________________________________________________________________
max_pooling2d_1 (MaxPooling2D)  (None, 28, 44, 15)   0           activation_2[0][0]               
__________________________________________________________________________________________________
dropout_1 (Dropout)             (None, 28, 44, 15)   0           max_pooling2d_1[0][0]            
__________________________________________________________________________________________________
conv2d_3 (Conv2D)               (None, 28, 44, 30)   4080        dropout_1[0][0]                  
__________________________________________________________________________________________________
batch_normalization_3 (BatchNor (None, 28, 44, 30)   120         conv2d_3[0][0]                   
__________________________________________________________________________________________________
activation_3 (Activation)       (None, 28, 44, 30)   0           batch_normalization_3[0][0]      
__________________________________________________________________________________________________
conv2d_4 (Conv2D)               (None, 28, 44, 30)   8130        activation_3[0][0]               
__________________________________________________________________________________________________
batch_normalization_4 (BatchNor (None, 28, 44, 30)   120         conv2d_4[0][0]                   
__________________________________________________________________________________________________
activation_4 (Activation)       (None, 28, 44, 30)   0           batch_normalization_4[0][0]      
__________________________________________________________________________________________________
concatenate_1 (Concatenate)     (None, 28, 44, 45)   0           dropout_1[0][0]                  
                                                                 activation_4[0][0]               
__________________________________________________________________________________________________
max_pooling2d_2 (MaxPooling2D)  (None, 14, 22, 45)   0           concatenate_1[0][0]              
__________________________________________________________________________________________________
dropout_2 (Dropout)             (None, 14, 22, 45)   0           max_pooling2d_2[0][0]            
__________________________________________________________________________________________________
conv2d_5 (Conv2D)               (None, 14, 22, 60)   24360       dropout_2[0][0]                  
__________________________________________________________________________________________________
batch_normalization_5 (BatchNor (None, 14, 22, 60)   240         conv2d_5[0][0]                   
__________________________________________________________________________________________________
activation_5 (Activation)       (None, 14, 22, 60)   0           batch_normalization_5[0][0]      
__________________________________________________________________________________________________
conv2d_6 (Conv2D)               (None, 14, 22, 60)   32460       activation_5[0][0]               
__________________________________________________________________________________________________
batch_normalization_6 (BatchNor (None, 14, 22, 60)   240         conv2d_6[0][0]                   
__________________________________________________________________________________________________
activation_6 (Activation)       (None, 14, 22, 60)   0           batch_normalization_6[0][0]      
__________________________________________________________________________________________________
concatenate_2 (Concatenate)     (None, 14, 22, 105)  0           dropout_2[0][0]                  
                                                                 activation_6[0][0]               
__________________________________________________________________________________________________
dropout_3 (Dropout)             (None, 14, 22, 105)  0           concatenate_2[0][0]              
__________________________________________________________________________________________________
conv2d_transpose_1 (Conv2DTrans (None, 28, 44, 30)   12630       dropout_3[0][0]                  
__________________________________________________________________________________________________
concatenate_3 (Concatenate)     (None, 28, 44, 75)   0           conv2d_transpose_1[0][0]         
                                                                 concatenate_1[0][0]              
__________________________________________________________________________________________________
conv2d_7 (Conv2D)               (None, 28, 44, 30)   20280       concatenate_3[0][0]              
__________________________________________________________________________________________________
batch_normalization_7 (BatchNor (None, 28, 44, 30)   120         conv2d_7[0][0]                   
__________________________________________________________________________________________________
activation_7 (Activation)       (None, 28, 44, 30)   0           batch_normalization_7[0][0]      
__________________________________________________________________________________________________
conv2d_8 (Conv2D)               (None, 28, 44, 30)   8130        activation_7[0][0]               
__________________________________________________________________________________________________
batch_normalization_8 (BatchNor (None, 28, 44, 30)   120         conv2d_8[0][0]                   
__________________________________________________________________________________________________
activation_8 (Activation)       (None, 28, 44, 30)   0           batch_normalization_8[0][0]      
__________________________________________________________________________________________________
concatenate_4 (Concatenate)     (None, 28, 44, 105)  0           concatenate_3[0][0]              
                                                                 activation_8[0][0]               
__________________________________________________________________________________________________
dropout_4 (Dropout)             (None, 28, 44, 105)  0           concatenate_4[0][0]              
__________________________________________________________________________________________________
conv2d_transpose_2 (Conv2DTrans (None, 56, 88, 15)   6315        dropout_4[0][0]                  
__________________________________________________________________________________________________
concatenate_5 (Concatenate)     (None, 56, 88, 30)   0           conv2d_transpose_2[0][0]         
                                                                 activation_2[0][0]               
__________________________________________________________________________________________________
conv2d_9 (Conv2D)               (None, 56, 88, 15)   4065        concatenate_5[0][0]              
__________________________________________________________________________________________________
batch_normalization_9 (BatchNor (None, 56, 88, 15)   60          conv2d_9[0][0]                   
__________________________________________________________________________________________________
activation_9 (Activation)       (None, 56, 88, 15)   0           batch_normalization_9[0][0]      
__________________________________________________________________________________________________
conv2d_10 (Conv2D)              (None, 56, 88, 15)   2040        activation_9[0][0]               
__________________________________________________________________________________________________
batch_normalization_10 (BatchNo (None, 56, 88, 15)   60          conv2d_10[0][0]                  
__________________________________________________________________________________________________
activation_10 (Activation)      (None, 56, 88, 15)   0           batch_normalization_10[0][0]     
__________________________________________________________________________________________________
concatenate_6 (Concatenate)     (None, 56, 88, 45)   0           concatenate_5[0][0]              2019-07-23 16:06:56.397169: I tensorflow/core/common_runtime/gpu/gpu_device.cc:1471] Adding visible gpu devices: 0
2019-07-23 16:06:56.397299: I tensorflow/core/common_runtime/gpu/gpu_device.cc:952] Device interconnect StreamExecutor with strength 1 edge matrix:
2019-07-23 16:06:56.397317: I tensorflow/core/common_runtime/gpu/gpu_device.cc:958]      0 
2019-07-23 16:06:56.397335: I tensorflow/core/common_runtime/gpu/gpu_device.cc:971] 0:   N 
…
 Nucleus: [2, 4, 5, 6, 7, 8, 9, 10, 11, 12, 13, 14]  | GPU: 6  | SD 2  | Dropout 0.3  | LR 0.001  | NL 3  |  Cascade |  FM 20 |  Upsample 1
Experiment: exp6
SubExperiment: sE12_Cascade_FM20_Res_Unet2_NL3_LS_MyLogDice_US1_wLRScheduler_Main_Ps_ET_Init_3T_CV_a
---------------------------------------------------------------
__________________________________________________________________________________________________
Layer (type)                    Output Shape         Param #     Connected to                     
==================================================================================================
input_1 (InputLayer)            (None, 56, 88, 1)    0                                            
__________________________________________________________________________________________________
conv2d_1 (Conv2D)               (None, 56, 88, 20)   200         input_1[0][0]                    
__________________________________________________________________________________________________
batch_normalization_1 (BatchNor (None, 56, 88, 20)   80          conv2d_1[0][0]                   
__________________________________________________________________________________________________
activation_1 (Activation)       (None, 56, 88, 20)   0           batch_normalization_1[0][0]      
__________________________________________________________________________________________________
conv2d_2 (Conv2D)               (None, 56, 88, 20)   3620        activation_1[0][0]               
__________________________________________________________________________________________________
batch_normalization_2 (BatchNor (None, 56, 88, 20)   80          conv2d_2[0][0]                   
__________________________________________________________________________________________________
activation_2 (Activation)       (None, 56, 88, 20)   0           batch_normalization_2[0][0]      
__________________________________________________________________________________________________
max_pooling2d_1 (MaxPooling2D)  (None, 28, 44, 20)   0           activation_2[0][0]               
__________________________________________________________________________________________________
dropout_1 (Dropout)             (None, 28, 44, 20)   0           max_pooling2d_1[0][0]            
__________________________________________________________________________________________________
conv2d_3 (Conv2D)               (None, 28, 44, 40)   7240        dropout_1[0][0]                  
__________________________________________________________________________________________________
batch_normalization_3 (BatchNor (None, 28, 44, 40)   160         conv2d_3[0][0]                   
__________________________________________________________________________________________________
activation_3 (Activation)       (None, 28, 44, 40)   0           batch_normalization_3[0][0]      
__________________________________________________________________________________________________
conv2d_4 (Conv2D)               (None, 28, 44, 40)   14440       activation_3[0][0]               
__________________________________________________________________________________________________
batch_normalization_4 (BatchNor (None, 28, 44, 40)   160         conv2d_4[0][0]                   
__________________________________________________________________________________________________
activation_4 (Activation)       (None, 28, 44, 40)   0           batch_normalization_4[0][0]      
__________________________________________________________________________________________________
concatenate_1 (Concatenate)     (None, 28, 44, 60)   0           dropout_1[0][0]                  
                                                                 activation_4[0][0]               
__________________________________________________________________________________________________
max_pooling2d_2 (MaxPooling2D)  (None, 14, 22, 60)   0           concatenate_1[0][0]              
__________________________________________________________________________________________________
dropout_2 (Dropout)             (None, 14, 22, 60)   0           max_pooling2d_2[0][0]            
__________________________________________________________________________________________________
conv2d_5 (Conv2D)               (None, 14, 22, 80)   43280       dropout_2[0][0]                  
__________________________________________________________________________________________________
batch_normalization_5 (BatchNor (None, 14, 22, 80)   320         conv2d_5[0][0]                   
__________________________________________________________________________________________________
activation_5 (Activation)       (None, 14, 22, 80)   0           batch_normalization_5[0][0]      
__________________________________________________________________________________________________
conv2d_6 (Conv2D)               (None, 14, 22, 80)   57680       activation_5[0][0]               
__________________________________________________________________________________________________
batch_normalization_6 (BatchNor (None, 14, 22, 80)   320         conv2d_6[0][0]                   
__________________________________________________________________________________________________
activation_6 (Activation)       (None, 14, 22, 80)   0           batch_normalization_6[0][0]      
__________________________________________________________________________________________________
concatenate_2 (Concatenate)     (None, 14, 22, 140)  0           dropout_2[0][0]                  
                                                                 activation_6[0][0]               
__________________________________________________________________________________________________
dropout_3 (Dropout)             (None, 14, 22, 140)  0           concatenate_2[0][0]              
__________________________________________________________________________________________________
conv2d_transpose_1 (Conv2DTrans (None, 28, 44, 40)   22440       dropout_3[0][0]                  
__________________________________________________________________________________________________
concatenate_3 (Concatenate)     (None, 28, 44, 100)  0           conv2d_transpose_1[0][0]         
                                                                 concatenate_1[0][0]              
__________________________________________________________________________________________________
conv2d_7 (Conv2D)               (None, 28, 44, 40)   36040       concatenate_3[0][0]              
__________________________________________________________________________________________________
batch_normalization_7 (BatchNor (None, 28, 44, 40)   160         conv2d_7[0][0]                   
__________________________________________________________________________________________________
activation_7 (Activation)       (None, 28, 44, 40)   0           batch_normalization_7[0][0]      
__________________________________________________________________________________________________
conv2d_8 (Conv2D)               (None, 28, 44, 40)   14440       activation_7[0][0]               
__________________________________________________________________________________________________
batch_normalization_8 (BatchNor (None, 28, 44, 40)   160         conv2d_8[0][0]                   
__________________________________________________________________________________________________
activation_8 (Activation)       (None, 28, 44, 40)   0           batch_normalization_8[0][0]      
__________________________________________________________________________________________________
concatenate_4 (Concatenate)     (None, 28, 44, 140)  0           concatenate_3[0][0]              
                                                                 activation_8[0][0]               
__________________________________________________________________________________________________
dropout_4 (Dropout)             (None, 28, 44, 140)  0           concatenate_4[0][0]              
__________________________________________________________________________________________________
conv2d_transpose_2 (Conv2DTrans (None, 56, 88, 20)   11220       dropout_4[0][0]                  
__________________________________________________________________________________________________
concatenate_5 (Concatenate)     (None, 56, 88, 40)   0           conv2d_transpose_2[0][0]         
                                                                 activation_2[0][0]               
__________________________________________________________________________________________________
conv2d_9 (Conv2D)               (None, 56, 88, 20)   7220        concatenate_5[0][0]              
__________________________________________________________________________________________________
batch_normalization_9 (BatchNor (None, 56, 88, 20)   80          conv2d_9[0][0]                   
__________________________________________________________________________________________________
activation_9 (Activation)       (None, 56, 88, 20)   0           batch_normalization_9[0][0]      
__________________________________________________________________________________________________
conv2d_10 (Conv2D)              (None, 56, 88, 20)   3620        activation_9[0][0]               
__________________________________________________________________________________________________
batch_normalization_10 (BatchNo (None, 56, 88, 20)   80          conv2d_10[0][0]                  2019-07-23 17:17:36.686154: I tensorflow/core/common_runtime/gpu/gpu_device.cc:1471] Adding visible gpu devices: 0
2019-07-23 17:17:36.686249: I tensorflow/core/common_runtime/gpu/gpu_device.cc:952] Device interconnect StreamExecutor with strength 1 edge matrix:
2019-07-23 17:17:36.686265: I tensorflow/core/common_runtime/gpu/gpu_device.cc:958]      0 
2019-07-23 17:17:36.686274: I tensorflow/core/common_runtime/gpu/gpu_device.cc:971] 0:   N 
…
 Nucleus: [2, 4, 5, 6, 7, 8, 9, 10, 11, 12, 13, 14]  | GPU: 6  | SD 2  | Dropout 0.3  | LR 0.001  | NL 3  |  Cascade |  FM 30 |  Upsample 1
Experiment: exp6
SubExperiment: sE12_Cascade_FM30_Res_Unet2_NL3_LS_MyLogDice_US1_wLRScheduler_Main_Ps_ET_Init_3T_CV_a
---------------------------------------------------------------
__________________________________________________________________________________________________
Layer (type)                    Output Shape         Param #     Connected to                     
==================================================================================================
input_1 (InputLayer)            (None, 56, 88, 1)    0                                            
__________________________________________________________________________________________________
conv2d_1 (Conv2D)               (None, 56, 88, 30)   300         input_1[0][0]                    
__________________________________________________________________________________________________
batch_normalization_1 (BatchNor (None, 56, 88, 30)   120         conv2d_1[0][0]                   
__________________________________________________________________________________________________
activation_1 (Activation)       (None, 56, 88, 30)   0           batch_normalization_1[0][0]      
__________________________________________________________________________________________________
conv2d_2 (Conv2D)               (None, 56, 88, 30)   8130        activation_1[0][0]               
__________________________________________________________________________________________________
batch_normalization_2 (BatchNor (None, 56, 88, 30)   120         conv2d_2[0][0]                   
__________________________________________________________________________________________________
activation_2 (Activation)       (None, 56, 88, 30)   0           batch_normalization_2[0][0]      
__________________________________________________________________________________________________
max_pooling2d_1 (MaxPooling2D)  (None, 28, 44, 30)   0           activation_2[0][0]               
__________________________________________________________________________________________________
dropout_1 (Dropout)             (None, 28, 44, 30)   0           max_pooling2d_1[0][0]            
__________________________________________________________________________________________________
conv2d_3 (Conv2D)               (None, 28, 44, 60)   16260       dropout_1[0][0]                  
__________________________________________________________________________________________________
batch_normalization_3 (BatchNor (None, 28, 44, 60)   240         conv2d_3[0][0]                   
__________________________________________________________________________________________________
activation_3 (Activation)       (None, 28, 44, 60)   0           batch_normalization_3[0][0]      
__________________________________________________________________________________________________
conv2d_4 (Conv2D)               (None, 28, 44, 60)   32460       activation_3[0][0]               
__________________________________________________________________________________________________
batch_normalization_4 (BatchNor (None, 28, 44, 60)   240         conv2d_4[0][0]                   
__________________________________________________________________________________________________
activation_4 (Activation)       (None, 28, 44, 60)   0           batch_normalization_4[0][0]      
__________________________________________________________________________________________________
concatenate_1 (Concatenate)     (None, 28, 44, 90)   0           dropout_1[0][0]                  
                                                                 activation_4[0][0]               
__________________________________________________________________________________________________
max_pooling2d_2 (MaxPooling2D)  (None, 14, 22, 90)   0           concatenate_1[0][0]              
__________________________________________________________________________________________________
dropout_2 (Dropout)             (None, 14, 22, 90)   0           max_pooling2d_2[0][0]            
__________________________________________________________________________________________________
conv2d_5 (Conv2D)               (None, 14, 22, 120)  97320       dropout_2[0][0]                  
__________________________________________________________________________________________________
batch_normalization_5 (BatchNor (None, 14, 22, 120)  480         conv2d_5[0][0]                   
__________________________________________________________________________________________________
activation_5 (Activation)       (None, 14, 22, 120)  0           batch_normalization_5[0][0]      
__________________________________________________________________________________________________
conv2d_6 (Conv2D)               (None, 14, 22, 120)  129720      activation_5[0][0]               
__________________________________________________________________________________________________
batch_normalization_6 (BatchNor (None, 14, 22, 120)  480         conv2d_6[0][0]                   
__________________________________________________________________________________________________
activation_6 (Activation)       (None, 14, 22, 120)  0           batch_normalization_6[0][0]      
__________________________________________________________________________________________________
concatenate_2 (Concatenate)     (None, 14, 22, 210)  0           dropout_2[0][0]                  
                                                                 activation_6[0][0]               
__________________________________________________________________________________________________
dropout_3 (Dropout)             (None, 14, 22, 210)  0           concatenate_2[0][0]              
__________________________________________________________________________________________________
conv2d_transpose_1 (Conv2DTrans (None, 28, 44, 60)   50460       dropout_3[0][0]                  
__________________________________________________________________________________________________
concatenate_3 (Concatenate)     (None, 28, 44, 150)  0           conv2d_transpose_1[0][0]         
                                                                 concatenate_1[0][0]              
__________________________________________________________________________________________________
conv2d_7 (Conv2D)               (None, 28, 44, 60)   81060       concatenate_3[0][0]              
__________________________________________________________________________________________________
batch_normalization_7 (BatchNor (None, 28, 44, 60)   240         conv2d_7[0][0]                   
__________________________________________________________________________________________________
activation_7 (Activation)       (None, 28, 44, 60)   0           batch_normalization_7[0][0]      
__________________________________________________________________________________________________
conv2d_8 (Conv2D)               (None, 28, 44, 60)   32460       activation_7[0][0]               
__________________________________________________________________________________________________
batch_normalization_8 (BatchNor (None, 28, 44, 60)   240         conv2d_8[0][0]                   
__________________________________________________________________________________________________
activation_8 (Activation)       (None, 28, 44, 60)   0           batch_normalization_8[0][0]      
__________________________________________________________________________________________________
concatenate_4 (Concatenate)     (None, 28, 44, 210)  0           concatenate_3[0][0]              
                                                                 activation_8[0][0]               
__________________________________________________________________________________________________
dropout_4 (Dropout)             (None, 28, 44, 210)  0           concatenate_4[0][0]              
__________________________________________________________________________________________________
conv2d_transpose_2 (Conv2DTrans (None, 56, 88, 30)   25230       dropout_4[0][0]                  
__________________________________________________________________________________________________
concatenate_5 (Concatenate)     (None, 56, 88, 60)   0           conv2d_transpose_2[0][0]         
                                                                 activation_2[0][0]               
__________________________________________________________________________________________________
conv2d_9 (Conv2D)               (None, 56, 88, 30)   16230       concatenate_5[0][0]              
__________________________________________________________________________________________________
batch_normalization_9 (BatchNor (None, 56, 88, 30)   120         conv2d_9[0][0]                   
__________________________________________________________________________________________________
activation_9 (Activation)       (None, 56, 88, 30)   0           batch_normalization_9[0][0]      
__________________________________________________________________________________________________
conv2d_10 (Conv2D)              (None, 56, 88, 30)   8130        activation_9[0][0]               
__________________________________________________________________________________________________
batch_normalization_10 (BatchNo (None, 56, 88, 30)   120         conv2d_10[0][0]                  
__________________________________________________________________________________________________
activation_10 (Activation)      (None, 56, 88, 30)   0           batch_normalization_10[0][0]     
__________________________________________________________________________________________________
concatenate_6 (Concatenate)     (None, 56, 88, 90)   0           concatenate_5[0][0]              
                                                                 activation_10[0][0]              
__________________________________________________________________________________________________2019-07-23 18:20:38.011184: I tensorflow/core/common_runtime/gpu/gpu_device.cc:1471] Adding visible gpu devices: 0
2019-07-23 18:20:38.011305: I tensorflow/core/common_runtime/gpu/gpu_device.cc:952] Device interconnect StreamExecutor with strength 1 edge matrix:
…
 Nucleus: [2, 4, 5, 6, 7, 8, 9, 10, 11, 12, 13, 14]  | GPU: 6  | SD 2  | Dropout 0.3  | LR 0.001  | NL 3  |  Cascade |  FM 40 |  Upsample 1
Experiment: exp6
SubExperiment: sE12_Cascade_FM40_Res_Unet2_NL3_LS_MyLogDice_US1_wLRScheduler_Main_Ps_ET_Init_3T_CV_a
---------------------------------------------------------------
__________________________________________________________________________________________________
Layer (type)                    Output Shape         Param #     Connected to                     
==================================================================================================
input_1 (InputLayer)            (None, 56, 88, 1)    0                                            
__________________________________________________________________________________________________
conv2d_1 (Conv2D)               (None, 56, 88, 40)   400         input_1[0][0]                    
__________________________________________________________________________________________________
batch_normalization_1 (BatchNor (None, 56, 88, 40)   160         conv2d_1[0][0]                   
__________________________________________________________________________________________________
activation_1 (Activation)       (None, 56, 88, 40)   0           batch_normalization_1[0][0]      
__________________________________________________________________________________________________
conv2d_2 (Conv2D)               (None, 56, 88, 40)   14440       activation_1[0][0]               
__________________________________________________________________________________________________
batch_normalization_2 (BatchNor (None, 56, 88, 40)   160         conv2d_2[0][0]                   
__________________________________________________________________________________________________
activation_2 (Activation)       (None, 56, 88, 40)   0           batch_normalization_2[0][0]      
__________________________________________________________________________________________________
max_pooling2d_1 (MaxPooling2D)  (None, 28, 44, 40)   0           activation_2[0][0]               
__________________________________________________________________________________________________
dropout_1 (Dropout)             (None, 28, 44, 40)   0           max_pooling2d_1[0][0]            
__________________________________________________________________________________________________
conv2d_3 (Conv2D)               (None, 28, 44, 80)   28880       dropout_1[0][0]                  
__________________________________________________________________________________________________
batch_normalization_3 (BatchNor (None, 28, 44, 80)   320         conv2d_3[0][0]                   
__________________________________________________________________________________________________
activation_3 (Activation)       (None, 28, 44, 80)   0           batch_normalization_3[0][0]      
__________________________________________________________________________________________________
conv2d_4 (Conv2D)               (None, 28, 44, 80)   57680       activation_3[0][0]               
__________________________________________________________________________________________________
batch_normalization_4 (BatchNor (None, 28, 44, 80)   320         conv2d_4[0][0]                   
__________________________________________________________________________________________________
activation_4 (Activation)       (None, 28, 44, 80)   0           batch_normalization_4[0][0]      
__________________________________________________________________________________________________
concatenate_1 (Concatenate)     (None, 28, 44, 120)  0           dropout_1[0][0]                  
                                                                 activation_4[0][0]               
__________________________________________________________________________________________________
max_pooling2d_2 (MaxPooling2D)  (None, 14, 22, 120)  0           concatenate_1[0][0]              
__________________________________________________________________________________________________
dropout_2 (Dropout)             (None, 14, 22, 120)  0           max_pooling2d_2[0][0]            
__________________________________________________________________________________________________
conv2d_5 (Conv2D)               (None, 14, 22, 160)  172960      dropout_2[0][0]                  
__________________________________________________________________________________________________
batch_normalization_5 (BatchNor (None, 14, 22, 160)  640         conv2d_5[0][0]                   
__________________________________________________________________________________________________
activation_5 (Activation)       (None, 14, 22, 160)  0           batch_normalization_5[0][0]      
__________________________________________________________________________________________________
conv2d_6 (Conv2D)               (None, 14, 22, 160)  230560      activation_5[0][0]               
__________________________________________________________________________________________________
batch_normalization_6 (BatchNor (None, 14, 22, 160)  640         conv2d_6[0][0]                   
__________________________________________________________________________________________________
activation_6 (Activation)       (None, 14, 22, 160)  0           batch_normalization_6[0][0]      
__________________________________________________________________________________________________
concatenate_2 (Concatenate)     (None, 14, 22, 280)  0           dropout_2[0][0]                  
                                                                 activation_6[0][0]               
__________________________________________________________________________________________________
dropout_3 (Dropout)             (None, 14, 22, 280)  0           concatenate_2[0][0]              
__________________________________________________________________________________________________
conv2d_transpose_1 (Conv2DTrans (None, 28, 44, 80)   89680       dropout_3[0][0]                  
__________________________________________________________________________________________________
concatenate_3 (Concatenate)     (None, 28, 44, 200)  0           conv2d_transpose_1[0][0]         
                                                                 concatenate_1[0][0]              
__________________________________________________________________________________________________
conv2d_7 (Conv2D)               (None, 28, 44, 80)   144080      concatenate_3[0][0]              
__________________________________________________________________________________________________
batch_normalization_7 (BatchNor (None, 28, 44, 80)   320         conv2d_7[0][0]                   
__________________________________________________________________________________________________
activation_7 (Activation)       (None, 28, 44, 80)   0           batch_normalization_7[0][0]      
__________________________________________________________________________________________________
conv2d_8 (Conv2D)               (None, 28, 44, 80)   57680       activation_7[0][0]               
__________________________________________________________________________________________________
batch_normalization_8 (BatchNor (None, 28, 44, 80)   320         conv2d_8[0][0]                   
__________________________________________________________________________________________________
activation_8 (Activation)       (None, 28, 44, 80)   0           batch_normalization_8[0][0]      
__________________________________________________________________________________________________
concatenate_4 (Concatenate)     (None, 28, 44, 280)  0           concatenate_3[0][0]              
                                                                 activation_8[0][0]               
__________________________________________________________________________________________________
dropout_4 (Dropout)             (None, 28, 44, 280)  0           concatenate_4[0][0]              
__________________________________________________________________________________________________
conv2d_transpose_2 (Conv2DTrans (None, 56, 88, 40)   44840       dropout_4[0][0]                  
__________________________________________________________________________________________________
concatenate_5 (Concatenate)     (None, 56, 88, 80)   0           conv2d_transpose_2[0][0]         
                                                                 activation_2[0][0]               
__________________________________________________________________________________________________
conv2d_9 (Conv2D)               (None, 56, 88, 40)   28840       concatenate_5[0][0]              
__________________________________________________________________________________________________
batch_normalization_9 (BatchNor (None, 56, 88, 40)   160         conv2d_9[0][0]                   
__________________________________________________________________________________________________
activation_9 (Activation)       (None, 56, 88, 40)   0           batch_normalization_9[0][0]      
__________________________________________________________________________________________________
conv2d_10 (Conv2D)              (None, 56, 88, 40)   14440       activation_9[0][0]               
__________________________________________________________________________________________________
batch_normalization_10 (BatchNo (None, 56, 88, 40)   160         conv2d_10[0][0]                  
__________________________________________________________________________________________________
activation_10 (Activation)      (None, 56, 88, 40)   0           batch_normalization_10[0][0]     
__________________________________________________________________________________________________
concatenate_6 (Concatenate)     (None, 56, 88, 120)  0           concatenate_5[0][0]              
                                                                 activation_10[0][0]              2019-07-23 19:41:47.055782: I tensorflow/core/common_runtime/gpu/gpu_device.cc:1471] Adding visible gpu devices: 0
2019-07-23 19:41:47.055908: I tensorflow/core/common_runtime/gpu/gpu_device.cc:952] Device interconnect StreamExecutor with strength 1 edge matrix:
…
