…
Error in label values min 0.0 max 2.0      1-THALAMUS
Error in label values min 0.0 max 2.0      1-THALAMUS
ResNet model address /array/ssd/msmajdi/experiments/keras/exp6/models/sE12_Cascade_FM20_Res_Unet2_NL3_LS_MyLogDice_US1_wLRScheduler_Main_Ps_ET_Init_3T_CV_a/1-THALAMUS/sd2/model.h5
__________________________________________________________________________________________________
Layer (type)                    Output Shape         Param #     Connected to                     
==================================================================================================
input_1 (InputLayer)            (None, 108, 116, 1)  0                                            
__________________________________________________________________________________________________
conv2d_1 (Conv2D)               (None, 108, 116, 20) 200         input_1[0][0]                    
__________________________________________________________________________________________________
batch_normalization_1 (BatchNor (None, 108, 116, 20) 80          conv2d_1[0][0]                   
__________________________________________________________________________________________________
activation_1 (Activation)       (None, 108, 116, 20) 0           batch_normalization_1[0][0]      
__________________________________________________________________________________________________
conv2d_2 (Conv2D)               (None, 108, 116, 20) 3620        activation_1[0][0]               
__________________________________________________________________________________________________
batch_normalization_2 (BatchNor (None, 108, 116, 20) 80          conv2d_2[0][0]                   
__________________________________________________________________________________________________
activation_2 (Activation)       (None, 108, 116, 20) 0           batch_normalization_2[0][0]      
__________________________________________________________________________________________________
max_pooling2d_1 (MaxPooling2D)  (None, 54, 58, 20)   0           activation_2[0][0]               
__________________________________________________________________________________________________
dropout_1 (Dropout)             (None, 54, 58, 20)   0           max_pooling2d_1[0][0]            
__________________________________________________________________________________________________
conv2d_3 (Conv2D)               (None, 54, 58, 40)   7240        dropout_1[0][0]                  
__________________________________________________________________________________________________
batch_normalization_3 (BatchNor (None, 54, 58, 40)   160         conv2d_3[0][0]                   
__________________________________________________________________________________________________
activation_3 (Activation)       (None, 54, 58, 40)   0           batch_normalization_3[0][0]      
__________________________________________________________________________________________________
conv2d_4 (Conv2D)               (None, 54, 58, 40)   14440       activation_3[0][0]               
__________________________________________________________________________________________________
batch_normalization_4 (BatchNor (None, 54, 58, 40)   160         conv2d_4[0][0]                   
__________________________________________________________________________________________________
activation_4 (Activation)       (None, 54, 58, 40)   0           batch_normalization_4[0][0]      
__________________________________________________________________________________________________
concatenate_1 (Concatenate)     (None, 54, 58, 60)   0           dropout_1[0][0]                  
                                                                 activation_4[0][0]               
__________________________________________________________________________________________________
max_pooling2d_2 (MaxPooling2D)  (None, 27, 29, 60)   0           concatenate_1[0][0]              
__________________________________________________________________________________________________
dropout_2 (Dropout)             (None, 27, 29, 60)   0           max_pooling2d_2[0][0]            
__________________________________________________________________________________________________
conv2d_5 (Conv2D)               (None, 27, 29, 80)   43280       dropout_2[0][0]                  
__________________________________________________________________________________________________
batch_normalization_5 (BatchNor (None, 27, 29, 80)   320         conv2d_5[0][0]                   
__________________________________________________________________________________________________
activation_5 (Activation)       (None, 27, 29, 80)   0           batch_normalization_5[0][0]      
__________________________________________________________________________________________________
conv2d_6 (Conv2D)               (None, 27, 29, 80)   57680       activation_5[0][0]               
__________________________________________________________________________________________________
batch_normalization_6 (BatchNor (None, 27, 29, 80)   320         conv2d_6[0][0]                   
__________________________________________________________________________________________________
activation_6 (Activation)       (None, 27, 29, 80)   0           batch_normalization_6[0][0]      
__________________________________________________________________________________________________
concatenate_2 (Concatenate)     (None, 27, 29, 140)  0           dropout_2[0][0]                  
                                                                 activation_6[0][0]               
__________________________________________________________________________________________________
dropout_3 (Dropout)             (None, 27, 29, 140)  0           concatenate_2[0][0]              
__________________________________________________________________________________________________
conv2d_transpose_1 (Conv2DTrans (None, 54, 58, 40)   22440       dropout_3[0][0]                  
__________________________________________________________________________________________________
concatenate_3 (Concatenate)     (None, 54, 58, 100)  0           conv2d_transpose_1[0][0]         
                                                                 concatenate_1[0][0]              
__________________________________________________________________________________________________
conv2d_7 (Conv2D)               (None, 54, 58, 40)   36040       concatenate_3[0][0]              
__________________________________________________________________________________________________
batch_normalization_7 (BatchNor (None, 54, 58, 40)   160         conv2d_7[0][0]                   
__________________________________________________________________________________________________
activation_7 (Activation)       (None, 54, 58, 40)   0           batch_normalization_7[0][0]      
__________________________________________________________________________________________________
conv2d_8 (Conv2D)               (None, 54, 58, 40)   14440       activation_7[0][0]               
__________________________________________________________________________________________________
batch_normalization_8 (BatchNor (None, 54, 58, 40)   160         conv2d_8[0][0]                   
__________________________________________________________________________________________________
activation_8 (Activation)       (None, 54, 58, 40)   0           batch_normalization_8[0][0]      
__________________________________________________________________________________________________
concatenate_4 (Concatenate)     (None, 54, 58, 140)  0           concatenate_3[0][0]              
                                                                 activation_8[0][0]               
__________________________________________________________________________________________________
dropout_4 (Dropout)             (None, 54, 58, 140)  0           concatenate_4[0][0]              
__________________________________________________________________________________________________
conv2d_transpose_2 (Conv2DTrans (None, 108, 116, 20) 11220       dropout_4[0][0]                  
__________________________________________________________________________________________________
concatenate_5 (Concatenate)     (None, 108, 116, 40) 0           conv2d_transpose_2[0][0]         
                                                                 activation_2[0][0]               
__________________________________________________________________________________________________
conv2d_9 (Conv2D)               (None, 108, 116, 20) 7220        concatenate_5[0][0]              
__________________________________________________________________________________________________
batch_normalization_9 (BatchNor (None, 108, 116, 20) 80          conv2d_9[0][0]                   
__________________________________________________________________________________________________
activation_9 (Activation)       (None, 108, 116, 20) 0           batch_normalization_9[0][0]      
__________________________________________________________________________________________________
conv2d_10 (Conv2D)              (None, 108, 116, 20) 3620        activation_9[0][0]               
__________________________________________________________________________________________________
batch_normalization_10 (BatchNo (None, 108, 116, 20) 80          conv2d_10[0][0]                  
__________________________________________________________________________________________________
activation_10 (Activation)      (None, 108, 116, 20) 0           batch_normalization_10[0][0]     
__________________________________________________________________________________________________
concatenate_6 (Concatenate)     (None, 108, 116, 60) 0           concatenate_5[0][0]              
                                                                 activation_10[0][0]              
__________________________________________________________________________________________________
dropout_5 (Dropout)             (None, 108, 116, 60) 0           concatenate_6[0][0]              
__________________________________________________________________________________________________
conv2d_11 (Conv2D)              (None, 108, 116, 2)  122         dropout_5[0][0]                  
==================================================================================================
Total params: 223,162
Trainable params: 48,482
Non-trainable params: 174,680
__________________________________________________________________________________________________
------------------------------------------------------------------
class_weights [0.97300229 0.02699771]
…
Error in label values min 0.0 max 2.0      11-CM
Error in label values min 0.0 max 4.0      12-MD-Pf
ResNet model address /array/ssd/msmajdi/experiments/keras/exp6/models/sE12_Cascade_FM20_Res_Unet2_NL3_LS_MyLogDice_US1_wLRScheduler_Main_Ps_ET_Init_3T_CV_a/MultiClass_24567891011121314/sd2/model.h5
__________________________________________________________________________________________________
Layer (type)                    Output Shape         Param #     Connected to                     
==================================================================================================
input_1 (InputLayer)            (None, 52, 80, 1)    0                                            
__________________________________________________________________________________________________
conv2d_1 (Conv2D)               (None, 52, 80, 20)   200         input_1[0][0]                    
__________________________________________________________________________________________________
batch_normalization_1 (BatchNor (None, 52, 80, 20)   80          conv2d_1[0][0]                   
__________________________________________________________________________________________________
activation_1 (Activation)       (None, 52, 80, 20)   0           batch_normalization_1[0][0]      
__________________________________________________________________________________________________
conv2d_2 (Conv2D)               (None, 52, 80, 20)   3620        activation_1[0][0]               
__________________________________________________________________________________________________
batch_normalization_2 (BatchNor (None, 52, 80, 20)   80          conv2d_2[0][0]                   
__________________________________________________________________________________________________
activation_2 (Activation)       (None, 52, 80, 20)   0           batch_normalization_2[0][0]      
__________________________________________________________________________________________________
max_pooling2d_1 (MaxPooling2D)  (None, 26, 40, 20)   0           activation_2[0][0]               
__________________________________________________________________________________________________
dropout_1 (Dropout)             (None, 26, 40, 20)   0           max_pooling2d_1[0][0]            
__________________________________________________________________________________________________
conv2d_3 (Conv2D)               (None, 26, 40, 40)   7240        dropout_1[0][0]                  
__________________________________________________________________________________________________
batch_normalization_3 (BatchNor (None, 26, 40, 40)   160         conv2d_3[0][0]                   
__________________________________________________________________________________________________
activation_3 (Activation)       (None, 26, 40, 40)   0           batch_normalization_3[0][0]      
__________________________________________________________________________________________________
conv2d_4 (Conv2D)               (None, 26, 40, 40)   14440       activation_3[0][0]               
__________________________________________________________________________________________________
batch_normalization_4 (BatchNor (None, 26, 40, 40)   160         conv2d_4[0][0]                   
__________________________________________________________________________________________________
activation_4 (Activation)       (None, 26, 40, 40)   0           batch_normalization_4[0][0]      
__________________________________________________________________________________________________
concatenate_1 (Concatenate)     (None, 26, 40, 60)   0           dropout_1[0][0]                  
                                                                 activation_4[0][0]               
__________________________________________________________________________________________________
max_pooling2d_2 (MaxPooling2D)  (None, 13, 20, 60)   0           concatenate_1[0][0]              
__________________________________________________________________________________________________
dropout_2 (Dropout)             (None, 13, 20, 60)   0           max_pooling2d_2[0][0]            
__________________________________________________________________________________________________
conv2d_5 (Conv2D)               (None, 13, 20, 80)   43280       dropout_2[0][0]                  
__________________________________________________________________________________________________
batch_normalization_5 (BatchNor (None, 13, 20, 80)   320         conv2d_5[0][0]                   
__________________________________________________________________________________________________
activation_5 (Activation)       (None, 13, 20, 80)   0           batch_normalization_5[0][0]      
__________________________________________________________________________________________________
conv2d_6 (Conv2D)               (None, 13, 20, 80)   57680       activation_5[0][0]               
__________________________________________________________________________________________________
batch_normalization_6 (BatchNor (None, 13, 20, 80)   320         conv2d_6[0][0]                   
__________________________________________________________________________________________________
activation_6 (Activation)       (None, 13, 20, 80)   0           batch_normalization_6[0][0]      
__________________________________________________________________________________________________
concatenate_2 (Concatenate)     (None, 13, 20, 140)  0           dropout_2[0][0]                  
                                                                 activation_6[0][0]               
__________________________________________________________________________________________________
dropout_3 (Dropout)             (None, 13, 20, 140)  0           concatenate_2[0][0]              
__________________________________________________________________________________________________
conv2d_transpose_1 (Conv2DTrans (None, 26, 40, 40)   22440       dropout_3[0][0]                  
__________________________________________________________________________________________________
concatenate_3 (Concatenate)     (None, 26, 40, 100)  0           conv2d_transpose_1[0][0]         
                                                                 concatenate_1[0][0]              
__________________________________________________________________________________________________
conv2d_7 (Conv2D)               (None, 26, 40, 40)   36040       concatenate_3[0][0]              
__________________________________________________________________________________________________
batch_normalization_7 (BatchNor (None, 26, 40, 40)   160         conv2d_7[0][0]                   
__________________________________________________________________________________________________
activation_7 (Activation)       (None, 26, 40, 40)   0           batch_normalization_7[0][0]      
__________________________________________________________________________________________________
conv2d_8 (Conv2D)               (None, 26, 40, 40)   14440       activation_7[0][0]               
__________________________________________________________________________________________________
batch_normalization_8 (BatchNor (None, 26, 40, 40)   160         conv2d_8[0][0]                   
__________________________________________________________________________________________________
activation_8 (Activation)       (None, 26, 40, 40)   0           batch_normalization_8[0][0]      
__________________________________________________________________________________________________
concatenate_4 (Concatenate)     (None, 26, 40, 140)  0           concatenate_3[0][0]              
                                                                 activation_8[0][0]               
__________________________________________________________________________________________________
dropout_4 (Dropout)             (None, 26, 40, 140)  0           concatenate_4[0][0]              
__________________________________________________________________________________________________
conv2d_transpose_2 (Conv2DTrans (None, 52, 80, 20)   11220       dropout_4[0][0]                  
__________________________________________________________________________________________________
concatenate_5 (Concatenate)     (None, 52, 80, 40)   0           conv2d_transpose_2[0][0]         
                                                                 activation_2[0][0]               
__________________________________________________________________________________________________
conv2d_9 (Conv2D)               (None, 52, 80, 20)   7220        concatenate_5[0][0]              
__________________________________________________________________________________________________
batch_normalization_9 (BatchNor (None, 52, 80, 20)   80          conv2d_9[0][0]                   
__________________________________________________________________________________________________
activation_9 (Activation)       (None, 52, 80, 20)   0           batch_normalization_9[0][0]      
__________________________________________________________________________________________________
conv2d_10 (Conv2D)              (None, 52, 80, 20)   3620        activation_9[0][0]               
__________________________________________________________________________________________________
batch_normalization_10 (BatchNo (None, 52, 80, 20)   80          conv2d_10[0][0]                  
__________________________________________________________________________________________________
activation_10 (Activation)      (None, 52, 80, 20)   0           batch_normalization_10[0][0]     
__________________________________________________________________________________________________
concatenate_6 (Concatenate)     (None, 52, 80, 60)   0           concatenate_5[0][0]              
                                                                 activation_10[0][0]              
__________________________________________________________________________________________________
dropout_5 (Dropout)             (None, 52, 80, 60)   0           concatenate_6[0][0]              
__________________________________________________________________________________________________
conv2d_11 (Conv2D)              (None, 52, 80, 13)   793         dropout_5[0][0]                  
==================================================================================================
Total params: 223,833
Trainable params: 49,153
Non-trainable params: 174,680
__________________________________________________________________________________________________
------------------------------------------------------------------
class_weights [0.05968215 0.03010374 0.07534006 0.00917634 0.0273427  0.00692032
…
---------------------------------------------------------------
Error in label values min 0.0 max 2.0      1-THALAMUS
ResNet model address /array/ssd/msmajdi/experiments/keras/exp6/models/sE12_Cascade_FM30_Res_Unet2_NL3_LS_MyLogDice_US1_wLRScheduler_Main_Ps_ET_Init_3T_CV_a/1-THALAMUS/sd1/model.h5
__________________________________________________________________________________________________
Layer (type)                    Output Shape         Param #     Connected to                     
==================================================================================================
input_1 (InputLayer)            (None, 76, 108, 1)   0                                            
__________________________________________________________________________________________________
conv2d_1 (Conv2D)               (None, 76, 108, 30)  300         input_1[0][0]                    
__________________________________________________________________________________________________
batch_normalization_1 (BatchNor (None, 76, 108, 30)  120         conv2d_1[0][0]                   
__________________________________________________________________________________________________
activation_1 (Activation)       (None, 76, 108, 30)  0           batch_normalization_1[0][0]      
__________________________________________________________________________________________________
conv2d_2 (Conv2D)               (None, 76, 108, 30)  8130        activation_1[0][0]               
__________________________________________________________________________________________________
batch_normalization_2 (BatchNor (None, 76, 108, 30)  120         conv2d_2[0][0]                   
__________________________________________________________________________________________________
activation_2 (Activation)       (None, 76, 108, 30)  0           batch_normalization_2[0][0]      
__________________________________________________________________________________________________
max_pooling2d_1 (MaxPooling2D)  (None, 38, 54, 30)   0           activation_2[0][0]               
__________________________________________________________________________________________________
dropout_1 (Dropout)             (None, 38, 54, 30)   0           max_pooling2d_1[0][0]            
__________________________________________________________________________________________________
conv2d_3 (Conv2D)               (None, 38, 54, 60)   16260       dropout_1[0][0]                  
__________________________________________________________________________________________________
batch_normalization_3 (BatchNor (None, 38, 54, 60)   240         conv2d_3[0][0]                   
__________________________________________________________________________________________________
activation_3 (Activation)       (None, 38, 54, 60)   0           batch_normalization_3[0][0]      
__________________________________________________________________________________________________
conv2d_4 (Conv2D)               (None, 38, 54, 60)   32460       activation_3[0][0]               
__________________________________________________________________________________________________
batch_normalization_4 (BatchNor (None, 38, 54, 60)   240         conv2d_4[0][0]                   
__________________________________________________________________________________________________
activation_4 (Activation)       (None, 38, 54, 60)   0           batch_normalization_4[0][0]      
__________________________________________________________________________________________________
concatenate_1 (Concatenate)     (None, 38, 54, 90)   0           dropout_1[0][0]                  
                                                                 activation_4[0][0]               
__________________________________________________________________________________________________
max_pooling2d_2 (MaxPooling2D)  (None, 19, 27, 90)   0           concatenate_1[0][0]              
__________________________________________________________________________________________________
dropout_2 (Dropout)             (None, 19, 27, 90)   0           max_pooling2d_2[0][0]            
__________________________________________________________________________________________________
conv2d_5 (Conv2D)               (None, 19, 27, 120)  97320       dropout_2[0][0]                  
__________________________________________________________________________________________________
batch_normalization_5 (BatchNor (None, 19, 27, 120)  480         conv2d_5[0][0]                   
__________________________________________________________________________________________________
activation_5 (Activation)       (None, 19, 27, 120)  0           batch_normalization_5[0][0]      
__________________________________________________________________________________________________
conv2d_6 (Conv2D)               (None, 19, 27, 120)  129720      activation_5[0][0]               
__________________________________________________________________________________________________
batch_normalization_6 (BatchNor (None, 19, 27, 120)  480         conv2d_6[0][0]                   
__________________________________________________________________________________________________
activation_6 (Activation)       (None, 19, 27, 120)  0           batch_normalization_6[0][0]      
__________________________________________________________________________________________________
concatenate_2 (Concatenate)     (None, 19, 27, 210)  0           dropout_2[0][0]                  
                                                                 activation_6[0][0]               
__________________________________________________________________________________________________
dropout_3 (Dropout)             (None, 19, 27, 210)  0           concatenate_2[0][0]              
__________________________________________________________________________________________________
conv2d_transpose_1 (Conv2DTrans (None, 38, 54, 60)   50460       dropout_3[0][0]                  
__________________________________________________________________________________________________
concatenate_3 (Concatenate)     (None, 38, 54, 150)  0           conv2d_transpose_1[0][0]         
                                                                 concatenate_1[0][0]              
__________________________________________________________________________________________________
conv2d_7 (Conv2D)               (None, 38, 54, 60)   81060       concatenate_3[0][0]              
__________________________________________________________________________________________________
batch_normalization_7 (BatchNor (None, 38, 54, 60)   240         conv2d_7[0][0]                   
__________________________________________________________________________________________________
activation_7 (Activation)       (None, 38, 54, 60)   0           batch_normalization_7[0][0]      
__________________________________________________________________________________________________
conv2d_8 (Conv2D)               (None, 38, 54, 60)   32460       activation_7[0][0]               
__________________________________________________________________________________________________
batch_normalization_8 (BatchNor (None, 38, 54, 60)   240         conv2d_8[0][0]                   
__________________________________________________________________________________________________
activation_8 (Activation)       (None, 38, 54, 60)   0           batch_normalization_8[0][0]      
__________________________________________________________________________________________________
concatenate_4 (Concatenate)     (None, 38, 54, 210)  0           concatenate_3[0][0]              
                                                                 activation_8[0][0]               
__________________________________________________________________________________________________
dropout_4 (Dropout)             (None, 38, 54, 210)  0           concatenate_4[0][0]              
__________________________________________________________________________________________________
conv2d_transpose_2 (Conv2DTrans (None, 76, 108, 30)  25230       dropout_4[0][0]                  
__________________________________________________________________________________________________
concatenate_5 (Concatenate)     (None, 76, 108, 60)  0           conv2d_transpose_2[0][0]         
                                                                 activation_2[0][0]               
__________________________________________________________________________________________________
conv2d_9 (Conv2D)               (None, 76, 108, 30)  16230       concatenate_5[0][0]              
__________________________________________________________________________________________________
batch_normalization_9 (BatchNor (None, 76, 108, 30)  120         conv2d_9[0][0]                   
__________________________________________________________________________________________________
activation_9 (Activation)       (None, 76, 108, 30)  0           batch_normalization_9[0][0]      
__________________________________________________________________________________________________
conv2d_10 (Conv2D)              (None, 76, 108, 30)  8130        activation_9[0][0]               
__________________________________________________________________________________________________
batch_normalization_10 (BatchNo (None, 76, 108, 30)  120         conv2d_10[0][0]                  
__________________________________________________________________________________________________
activation_10 (Activation)      (None, 76, 108, 30)  0           batch_normalization_10[0][0]     
__________________________________________________________________________________________________
concatenate_6 (Concatenate)     (None, 76, 108, 90)  0           concatenate_5[0][0]              
                                                                 activation_10[0][0]              
__________________________________________________________________________________________________
dropout_5 (Dropout)             (None, 76, 108, 90)  0           concatenate_6[0][0]              
__________________________________________________________________________________________________
conv2d_11 (Conv2D)              (None, 76, 108, 2)   182         dropout_5[0][0]                  
==================================================================================================
Total params: 500,342
Trainable params: 108,122
Non-trainable params: 392,220
__________________________________________________________________________________________________
------------------------------------------------------------------
class_weights [0.97426102 0.02573898]
…
Error in label values min 0.0 max 2.0      11-CM
Error in label values min 0.0 max 4.0      12-MD-Pf
ResNet model address /array/ssd/msmajdi/experiments/keras/exp6/models/sE12_Cascade_FM30_Res_Unet2_NL3_LS_MyLogDice_US1_wLRScheduler_Main_Ps_ET_Init_3T_CV_a/MultiClass_24567891011121314/sd1/model.h5
__________________________________________________________________________________________________
Layer (type)                    Output Shape         Param #     Connected to                     
==================================================================================================
input_1 (InputLayer)            (None, 48, 52, 1)    0                                            
__________________________________________________________________________________________________
conv2d_1 (Conv2D)               (None, 48, 52, 30)   300         input_1[0][0]                    
__________________________________________________________________________________________________
batch_normalization_1 (BatchNor (None, 48, 52, 30)   120         conv2d_1[0][0]                   
__________________________________________________________________________________________________
activation_1 (Activation)       (None, 48, 52, 30)   0           batch_normalization_1[0][0]      
__________________________________________________________________________________________________
conv2d_2 (Conv2D)               (None, 48, 52, 30)   8130        activation_1[0][0]               
__________________________________________________________________________________________________
batch_normalization_2 (BatchNor (None, 48, 52, 30)   120         conv2d_2[0][0]                   
__________________________________________________________________________________________________
activation_2 (Activation)       (None, 48, 52, 30)   0           batch_normalization_2[0][0]      
__________________________________________________________________________________________________
max_pooling2d_1 (MaxPooling2D)  (None, 24, 26, 30)   0           activation_2[0][0]               
__________________________________________________________________________________________________
dropout_1 (Dropout)             (None, 24, 26, 30)   0           max_pooling2d_1[0][0]            
__________________________________________________________________________________________________
conv2d_3 (Conv2D)               (None, 24, 26, 60)   16260       dropout_1[0][0]                  
__________________________________________________________________________________________________
batch_normalization_3 (BatchNor (None, 24, 26, 60)   240         conv2d_3[0][0]                   
__________________________________________________________________________________________________
activation_3 (Activation)       (None, 24, 26, 60)   0           batch_normalization_3[0][0]      
__________________________________________________________________________________________________
conv2d_4 (Conv2D)               (None, 24, 26, 60)   32460       activation_3[0][0]               
__________________________________________________________________________________________________
batch_normalization_4 (BatchNor (None, 24, 26, 60)   240         conv2d_4[0][0]                   
__________________________________________________________________________________________________
activation_4 (Activation)       (None, 24, 26, 60)   0           batch_normalization_4[0][0]      
__________________________________________________________________________________________________
concatenate_1 (Concatenate)     (None, 24, 26, 90)   0           dropout_1[0][0]                  
                                                                 activation_4[0][0]               
__________________________________________________________________________________________________
max_pooling2d_2 (MaxPooling2D)  (None, 12, 13, 90)   0           concatenate_1[0][0]              
__________________________________________________________________________________________________
dropout_2 (Dropout)             (None, 12, 13, 90)   0           max_pooling2d_2[0][0]            
__________________________________________________________________________________________________
conv2d_5 (Conv2D)               (None, 12, 13, 120)  97320       dropout_2[0][0]                  
__________________________________________________________________________________________________
batch_normalization_5 (BatchNor (None, 12, 13, 120)  480         conv2d_5[0][0]                   
__________________________________________________________________________________________________
activation_5 (Activation)       (None, 12, 13, 120)  0           batch_normalization_5[0][0]      
__________________________________________________________________________________________________
conv2d_6 (Conv2D)               (None, 12, 13, 120)  129720      activation_5[0][0]               
__________________________________________________________________________________________________
batch_normalization_6 (BatchNor (None, 12, 13, 120)  480         conv2d_6[0][0]                   
__________________________________________________________________________________________________
activation_6 (Activation)       (None, 12, 13, 120)  0           batch_normalization_6[0][0]      
__________________________________________________________________________________________________
concatenate_2 (Concatenate)     (None, 12, 13, 210)  0           dropout_2[0][0]                  
                                                                 activation_6[0][0]               
__________________________________________________________________________________________________
dropout_3 (Dropout)             (None, 12, 13, 210)  0           concatenate_2[0][0]              
__________________________________________________________________________________________________
conv2d_transpose_1 (Conv2DTrans (None, 24, 26, 60)   50460       dropout_3[0][0]                  
__________________________________________________________________________________________________
concatenate_3 (Concatenate)     (None, 24, 26, 150)  0           conv2d_transpose_1[0][0]         
                                                                 concatenate_1[0][0]              
__________________________________________________________________________________________________
conv2d_7 (Conv2D)               (None, 24, 26, 60)   81060       concatenate_3[0][0]              
__________________________________________________________________________________________________
batch_normalization_7 (BatchNor (None, 24, 26, 60)   240         conv2d_7[0][0]                   
__________________________________________________________________________________________________
activation_7 (Activation)       (None, 24, 26, 60)   0           batch_normalization_7[0][0]      
__________________________________________________________________________________________________
conv2d_8 (Conv2D)               (None, 24, 26, 60)   32460       activation_7[0][0]               
__________________________________________________________________________________________________
batch_normalization_8 (BatchNor (None, 24, 26, 60)   240         conv2d_8[0][0]                   
__________________________________________________________________________________________________
activation_8 (Activation)       (None, 24, 26, 60)   0           batch_normalization_8[0][0]      
__________________________________________________________________________________________________
concatenate_4 (Concatenate)     (None, 24, 26, 210)  0           concatenate_3[0][0]              
                                                                 activation_8[0][0]               
__________________________________________________________________________________________________
dropout_4 (Dropout)             (None, 24, 26, 210)  0           concatenate_4[0][0]              
__________________________________________________________________________________________________
conv2d_transpose_2 (Conv2DTrans (None, 48, 52, 30)   25230       dropout_4[0][0]                  
__________________________________________________________________________________________________
concatenate_5 (Concatenate)     (None, 48, 52, 60)   0           conv2d_transpose_2[0][0]         
                                                                 activation_2[0][0]               
__________________________________________________________________________________________________
conv2d_9 (Conv2D)               (None, 48, 52, 30)   16230       concatenate_5[0][0]              
__________________________________________________________________________________________________
batch_normalization_9 (BatchNor (None, 48, 52, 30)   120         conv2d_9[0][0]                   
__________________________________________________________________________________________________
activation_9 (Activation)       (None, 48, 52, 30)   0           batch_normalization_9[0][0]      
__________________________________________________________________________________________________
conv2d_10 (Conv2D)              (None, 48, 52, 30)   8130        activation_9[0][0]               
__________________________________________________________________________________________________
batch_normalization_10 (BatchNo (None, 48, 52, 30)   120         conv2d_10[0][0]                  
__________________________________________________________________________________________________
activation_10 (Activation)      (None, 48, 52, 30)   0           batch_normalization_10[0][0]     
__________________________________________________________________________________________________
concatenate_6 (Concatenate)     (None, 48, 52, 90)   0           concatenate_5[0][0]              
                                                                 activation_10[0][0]              
__________________________________________________________________________________________________
dropout_5 (Dropout)             (None, 48, 52, 90)   0           concatenate_6[0][0]              
__________________________________________________________________________________________________
conv2d_11 (Conv2D)              (None, 48, 52, 13)   1183        dropout_5[0][0]                  
==================================================================================================
Total params: 501,343
Trainable params: 109,123
Non-trainable params: 392,220
__________________________________________________________________________________________________
------------------------------------------------------------------
class_weights [6.23730989e-02 3.14610510e-02 7.87369898e-02 9.59008001e-03
…
Error in label values min 0.0 max 2.0      11-CM
Error in label values min 0.0 max 4.0      12-MD-Pf
ResNet model address /array/ssd/msmajdi/experiments/keras/exp6/models/sE12_Cascade_FM40_Res_Unet2_NL3_LS_MyLogDice_US1_wLRScheduler_Main_Ps_ET_Init_3T_CV_a/MultiClass_24567891011121314/sd0/model.h5
__________________________________________________________________________________________________
Layer (type)                    Output Shape         Param #     Connected to                     
==================================================================================================
input_1 (InputLayer)            (None, 80, 44, 1)    0                                            
__________________________________________________________________________________________________
conv2d_1 (Conv2D)               (None, 80, 44, 40)   400         input_1[0][0]                    
__________________________________________________________________________________________________
batch_normalization_1 (BatchNor (None, 80, 44, 40)   160         conv2d_1[0][0]                   
__________________________________________________________________________________________________
activation_1 (Activation)       (None, 80, 44, 40)   0           batch_normalization_1[0][0]      
__________________________________________________________________________________________________
conv2d_2 (Conv2D)               (None, 80, 44, 40)   14440       activation_1[0][0]               
__________________________________________________________________________________________________
batch_normalization_2 (BatchNor (None, 80, 44, 40)   160         conv2d_2[0][0]                   
__________________________________________________________________________________________________
activation_2 (Activation)       (None, 80, 44, 40)   0           batch_normalization_2[0][0]      
__________________________________________________________________________________________________
max_pooling2d_1 (MaxPooling2D)  (None, 40, 22, 40)   0           activation_2[0][0]               
__________________________________________________________________________________________________
dropout_1 (Dropout)             (None, 40, 22, 40)   0           max_pooling2d_1[0][0]            
__________________________________________________________________________________________________
conv2d_3 (Conv2D)               (None, 40, 22, 80)   28880       dropout_1[0][0]                  
__________________________________________________________________________________________________
batch_normalization_3 (BatchNor (None, 40, 22, 80)   320         conv2d_3[0][0]                   
__________________________________________________________________________________________________
activation_3 (Activation)       (None, 40, 22, 80)   0           batch_normalization_3[0][0]      
__________________________________________________________________________________________________
conv2d_4 (Conv2D)               (None, 40, 22, 80)   57680       activation_3[0][0]               
__________________________________________________________________________________________________
batch_normalization_4 (BatchNor (None, 40, 22, 80)   320         conv2d_4[0][0]                   
__________________________________________________________________________________________________
activation_4 (Activation)       (None, 40, 22, 80)   0           batch_normalization_4[0][0]      
__________________________________________________________________________________________________
concatenate_1 (Concatenate)     (None, 40, 22, 120)  0           dropout_1[0][0]                  
                                                                 activation_4[0][0]               
__________________________________________________________________________________________________
max_pooling2d_2 (MaxPooling2D)  (None, 20, 11, 120)  0           concatenate_1[0][0]              
__________________________________________________________________________________________________
dropout_2 (Dropout)             (None, 20, 11, 120)  0           max_pooling2d_2[0][0]            
__________________________________________________________________________________________________
conv2d_5 (Conv2D)               (None, 20, 11, 160)  172960      dropout_2[0][0]                  
__________________________________________________________________________________________________
batch_normalization_5 (BatchNor (None, 20, 11, 160)  640         conv2d_5[0][0]                   
__________________________________________________________________________________________________
activation_5 (Activation)       (None, 20, 11, 160)  0           batch_normalization_5[0][0]      
__________________________________________________________________________________________________
conv2d_6 (Conv2D)               (None, 20, 11, 160)  230560      activation_5[0][0]               
__________________________________________________________________________________________________
batch_normalization_6 (BatchNor (None, 20, 11, 160)  640         conv2d_6[0][0]                   
__________________________________________________________________________________________________
activation_6 (Activation)       (None, 20, 11, 160)  0           batch_normalization_6[0][0]      
__________________________________________________________________________________________________
concatenate_2 (Concatenate)     (None, 20, 11, 280)  0           dropout_2[0][0]                  
                                                                 activation_6[0][0]               
__________________________________________________________________________________________________
dropout_3 (Dropout)             (None, 20, 11, 280)  0           concatenate_2[0][0]              
__________________________________________________________________________________________________
conv2d_transpose_1 (Conv2DTrans (None, 40, 22, 80)   89680       dropout_3[0][0]                  
__________________________________________________________________________________________________
concatenate_3 (Concatenate)     (None, 40, 22, 200)  0           conv2d_transpose_1[0][0]         
                                                                 concatenate_1[0][0]              
__________________________________________________________________________________________________
conv2d_7 (Conv2D)               (None, 40, 22, 80)   144080      concatenate_3[0][0]              
__________________________________________________________________________________________________
batch_normalization_7 (BatchNor (None, 40, 22, 80)   320         conv2d_7[0][0]                   
__________________________________________________________________________________________________
activation_7 (Activation)       (None, 40, 22, 80)   0           batch_normalization_7[0][0]      
__________________________________________________________________________________________________
conv2d_8 (Conv2D)               (None, 40, 22, 80)   57680       activation_7[0][0]               
__________________________________________________________________________________________________
batch_normalization_8 (BatchNor (None, 40, 22, 80)   320         conv2d_8[0][0]                   
__________________________________________________________________________________________________
activation_8 (Activation)       (None, 40, 22, 80)   0           batch_normalization_8[0][0]      
__________________________________________________________________________________________________
concatenate_4 (Concatenate)     (None, 40, 22, 280)  0           concatenate_3[0][0]              
                                                                 activation_8[0][0]               
__________________________________________________________________________________________________
dropout_4 (Dropout)             (None, 40, 22, 280)  0           concatenate_4[0][0]              
__________________________________________________________________________________________________
conv2d_transpose_2 (Conv2DTrans (None, 80, 44, 40)   44840       dropout_4[0][0]                  
__________________________________________________________________________________________________
concatenate_5 (Concatenate)     (None, 80, 44, 80)   0           conv2d_transpose_2[0][0]         
                                                                 activation_2[0][0]               
__________________________________________________________________________________________________
conv2d_9 (Conv2D)               (None, 80, 44, 40)   28840       concatenate_5[0][0]              
__________________________________________________________________________________________________
batch_normalization_9 (BatchNor (None, 80, 44, 40)   160         conv2d_9[0][0]                   
__________________________________________________________________________________________________
activation_9 (Activation)       (None, 80, 44, 40)   0           batch_normalization_9[0][0]      
__________________________________________________________________________________________________
conv2d_10 (Conv2D)              (None, 80, 44, 40)   14440       activation_9[0][0]               
__________________________________________________________________________________________________
batch_normalization_10 (BatchNo (None, 80, 44, 40)   160         conv2d_10[0][0]                  
__________________________________________________________________________________________________
activation_10 (Activation)      (None, 80, 44, 40)   0           batch_normalization_10[0][0]     
__________________________________________________________________________________________________
concatenate_6 (Concatenate)     (None, 80, 44, 120)  0           concatenate_5[0][0]              
                                                                 activation_10[0][0]              
__________________________________________________________________________________________________
dropout_5 (Dropout)             (None, 80, 44, 120)  0           concatenate_6[0][0]              
__________________________________________________________________________________________________
conv2d_11 (Conv2D)              (None, 80, 44, 13)   1573        dropout_5[0][0]                  
==================================================================================================
Total params: 889,253
Trainable params: 192,693
Non-trainable params: 696,560
__________________________________________________________________________________________________
------------------------------------------------------------------
class_weights [0.06168338 0.03111316 0.07786632 0.00948403 0.02825954 0.0071524
…
Error in label values min 0.0 max 2.0      11-CM
Error in label values min 0.0 max 4.0      12-MD-Pf
ResNet model address /array/ssd/msmajdi/experiments/keras/exp6/models/sE12_Cascade_FM20_Res_Unet2_NL3_LS_MyLogDice_US1_wLRScheduler_Main_Ps_ET_Init_3T_CV_a/MultiClass_24567891011121314/sd2/model.h5
__________________________________________________________________________________________________
Layer (type)                    Output Shape         Param #     Connected to                     
==================================================================================================
input_1 (InputLayer)            (None, 60, 84, 1)    0                                            
__________________________________________________________________________________________________
conv2d_1 (Conv2D)               (None, 60, 84, 20)   200         input_1[0][0]                    
__________________________________________________________________________________________________
batch_normalization_1 (BatchNor (None, 60, 84, 20)   80          conv2d_1[0][0]                   
__________________________________________________________________________________________________
activation_1 (Activation)       (None, 60, 84, 20)   0           batch_normalization_1[0][0]      
__________________________________________________________________________________________________
conv2d_2 (Conv2D)               (None, 60, 84, 20)   3620        activation_1[0][0]               
__________________________________________________________________________________________________
batch_normalization_2 (BatchNor (None, 60, 84, 20)   80          conv2d_2[0][0]                   
__________________________________________________________________________________________________
activation_2 (Activation)       (None, 60, 84, 20)   0           batch_normalization_2[0][0]      
__________________________________________________________________________________________________
max_pooling2d_1 (MaxPooling2D)  (None, 30, 42, 20)   0           activation_2[0][0]               
__________________________________________________________________________________________________
dropout_1 (Dropout)             (None, 30, 42, 20)   0           max_pooling2d_1[0][0]            
__________________________________________________________________________________________________
conv2d_3 (Conv2D)               (None, 30, 42, 40)   7240        dropout_1[0][0]                  
__________________________________________________________________________________________________
batch_normalization_3 (BatchNor (None, 30, 42, 40)   160         conv2d_3[0][0]                   
__________________________________________________________________________________________________
activation_3 (Activation)       (None, 30, 42, 40)   0           batch_normalization_3[0][0]      
__________________________________________________________________________________________________
conv2d_4 (Conv2D)               (None, 30, 42, 40)   14440       activation_3[0][0]               
__________________________________________________________________________________________________
batch_normalization_4 (BatchNor (None, 30, 42, 40)   160         conv2d_4[0][0]                   
__________________________________________________________________________________________________
activation_4 (Activation)       (None, 30, 42, 40)   0           batch_normalization_4[0][0]      
__________________________________________________________________________________________________
concatenate_1 (Concatenate)     (None, 30, 42, 60)   0           dropout_1[0][0]                  
                                                                 activation_4[0][0]               
__________________________________________________________________________________________________
max_pooling2d_2 (MaxPooling2D)  (None, 15, 21, 60)   0           concatenate_1[0][0]              
__________________________________________________________________________________________________
dropout_2 (Dropout)             (None, 15, 21, 60)   0           max_pooling2d_2[0][0]            
__________________________________________________________________________________________________
conv2d_5 (Conv2D)               (None, 15, 21, 80)   43280       dropout_2[0][0]                  
__________________________________________________________________________________________________
batch_normalization_5 (BatchNor (None, 15, 21, 80)   320         conv2d_5[0][0]                   
__________________________________________________________________________________________________
activation_5 (Activation)       (None, 15, 21, 80)   0           batch_normalization_5[0][0]      
__________________________________________________________________________________________________
conv2d_6 (Conv2D)               (None, 15, 21, 80)   57680       activation_5[0][0]               
__________________________________________________________________________________________________
batch_normalization_6 (BatchNor (None, 15, 21, 80)   320         conv2d_6[0][0]                   
__________________________________________________________________________________________________
activation_6 (Activation)       (None, 15, 21, 80)   0           batch_normalization_6[0][0]      
__________________________________________________________________________________________________
concatenate_2 (Concatenate)     (None, 15, 21, 140)  0           dropout_2[0][0]                  
                                                                 activation_6[0][0]               
__________________________________________________________________________________________________
dropout_3 (Dropout)             (None, 15, 21, 140)  0           concatenate_2[0][0]              
__________________________________________________________________________________________________
conv2d_transpose_1 (Conv2DTrans (None, 30, 42, 40)   22440       dropout_3[0][0]                  
__________________________________________________________________________________________________
concatenate_3 (Concatenate)     (None, 30, 42, 100)  0           conv2d_transpose_1[0][0]         
                                                                 concatenate_1[0][0]              
__________________________________________________________________________________________________
conv2d_7 (Conv2D)               (None, 30, 42, 40)   36040       concatenate_3[0][0]              
__________________________________________________________________________________________________
batch_normalization_7 (BatchNor (None, 30, 42, 40)   160         conv2d_7[0][0]                   
__________________________________________________________________________________________________
activation_7 (Activation)       (None, 30, 42, 40)   0           batch_normalization_7[0][0]      
__________________________________________________________________________________________________
conv2d_8 (Conv2D)               (None, 30, 42, 40)   14440       activation_7[0][0]               
__________________________________________________________________________________________________
batch_normalization_8 (BatchNor (None, 30, 42, 40)   160         conv2d_8[0][0]                   
__________________________________________________________________________________________________
activation_8 (Activation)       (None, 30, 42, 40)   0           batch_normalization_8[0][0]      
__________________________________________________________________________________________________
concatenate_4 (Concatenate)     (None, 30, 42, 140)  0           concatenate_3[0][0]              
                                                                 activation_8[0][0]               
__________________________________________________________________________________________________
dropout_4 (Dropout)             (None, 30, 42, 140)  0           concatenate_4[0][0]              
__________________________________________________________________________________________________
conv2d_transpose_2 (Conv2DTrans (None, 60, 84, 20)   11220       dropout_4[0][0]                  
__________________________________________________________________________________________________
concatenate_5 (Concatenate)     (None, 60, 84, 40)   0           conv2d_transpose_2[0][0]         
                                                                 activation_2[0][0]               
__________________________________________________________________________________________________
conv2d_9 (Conv2D)               (None, 60, 84, 20)   7220        concatenate_5[0][0]              
__________________________________________________________________________________________________
batch_normalization_9 (BatchNor (None, 60, 84, 20)   80          conv2d_9[0][0]                   
__________________________________________________________________________________________________
activation_9 (Activation)       (None, 60, 84, 20)   0           batch_normalization_9[0][0]      
__________________________________________________________________________________________________
conv2d_10 (Conv2D)              (None, 60, 84, 20)   3620        activation_9[0][0]               
__________________________________________________________________________________________________
batch_normalization_10 (BatchNo (None, 60, 84, 20)   80          conv2d_10[0][0]                  
__________________________________________________________________________________________________
activation_10 (Activation)      (None, 60, 84, 20)   0           batch_normalization_10[0][0]     
__________________________________________________________________________________________________
concatenate_6 (Concatenate)     (None, 60, 84, 60)   0           concatenate_5[0][0]              
                                                                 activation_10[0][0]              
__________________________________________________________________________________________________
dropout_5 (Dropout)             (None, 60, 84, 60)   0           concatenate_6[0][0]              
__________________________________________________________________________________________________
conv2d_11 (Conv2D)              (None, 60, 84, 13)   793         dropout_5[0][0]                  
==================================================================================================
Total params: 223,833
Trainable params: 49,153
Non-trainable params: 174,680
__________________________________________________________________________________________________
------------------------------------------------------------------
class_weights [6.52403963e-02 3.19429685e-02 7.70801946e-02 9.61010243e-03
…
Error in label values min 0.0 max 2.0      11-CM
Error in label values min 0.0 max 4.0      12-MD-Pf
ResNet model address /array/ssd/msmajdi/experiments/keras/exp6/models/sE12_Cascade_FM30_Res_Unet2_NL3_LS_MyLogDice_US1_wLRScheduler_Main_Ps_ET_Init_3T_CV_a/MultiClass_24567891011121314/sd1/model.h5
__________________________________________________________________________________________________
Layer (type)                    Output Shape         Param #     Connected to                     
==================================================================================================
input_1 (InputLayer)            (None, 52, 52, 1)    0                                            
__________________________________________________________________________________________________
conv2d_1 (Conv2D)               (None, 52, 52, 30)   300         input_1[0][0]                    
__________________________________________________________________________________________________
batch_normalization_1 (BatchNor (None, 52, 52, 30)   120         conv2d_1[0][0]                   
__________________________________________________________________________________________________
activation_1 (Activation)       (None, 52, 52, 30)   0           batch_normalization_1[0][0]      
__________________________________________________________________________________________________
conv2d_2 (Conv2D)               (None, 52, 52, 30)   8130        activation_1[0][0]               
__________________________________________________________________________________________________
batch_normalization_2 (BatchNor (None, 52, 52, 30)   120         conv2d_2[0][0]                   
__________________________________________________________________________________________________
activation_2 (Activation)       (None, 52, 52, 30)   0           batch_normalization_2[0][0]      
__________________________________________________________________________________________________
max_pooling2d_1 (MaxPooling2D)  (None, 26, 26, 30)   0           activation_2[0][0]               
__________________________________________________________________________________________________
dropout_1 (Dropout)             (None, 26, 26, 30)   0           max_pooling2d_1[0][0]            
__________________________________________________________________________________________________
conv2d_3 (Conv2D)               (None, 26, 26, 60)   16260       dropout_1[0][0]                  
__________________________________________________________________________________________________
batch_normalization_3 (BatchNor (None, 26, 26, 60)   240         conv2d_3[0][0]                   
__________________________________________________________________________________________________
activation_3 (Activation)       (None, 26, 26, 60)   0           batch_normalization_3[0][0]      
__________________________________________________________________________________________________
conv2d_4 (Conv2D)               (None, 26, 26, 60)   32460       activation_3[0][0]               
__________________________________________________________________________________________________
batch_normalization_4 (BatchNor (None, 26, 26, 60)   240         conv2d_4[0][0]                   
__________________________________________________________________________________________________
activation_4 (Activation)       (None, 26, 26, 60)   0           batch_normalization_4[0][0]      
__________________________________________________________________________________________________
concatenate_1 (Concatenate)     (None, 26, 26, 90)   0           dropout_1[0][0]                  
                                                                 activation_4[0][0]               
__________________________________________________________________________________________________
max_pooling2d_2 (MaxPooling2D)  (None, 13, 13, 90)   0           concatenate_1[0][0]              
__________________________________________________________________________________________________
dropout_2 (Dropout)             (None, 13, 13, 90)   0           max_pooling2d_2[0][0]            
__________________________________________________________________________________________________
conv2d_5 (Conv2D)               (None, 13, 13, 120)  97320       dropout_2[0][0]                  
__________________________________________________________________________________________________
batch_normalization_5 (BatchNor (None, 13, 13, 120)  480         conv2d_5[0][0]                   
__________________________________________________________________________________________________
activation_5 (Activation)       (None, 13, 13, 120)  0           batch_normalization_5[0][0]      
__________________________________________________________________________________________________
conv2d_6 (Conv2D)               (None, 13, 13, 120)  129720      activation_5[0][0]               
__________________________________________________________________________________________________
batch_normalization_6 (BatchNor (None, 13, 13, 120)  480         conv2d_6[0][0]                   
__________________________________________________________________________________________________
activation_6 (Activation)       (None, 13, 13, 120)  0           batch_normalization_6[0][0]      
__________________________________________________________________________________________________
concatenate_2 (Concatenate)     (None, 13, 13, 210)  0           dropout_2[0][0]                  
                                                                 activation_6[0][0]               
__________________________________________________________________________________________________
dropout_3 (Dropout)             (None, 13, 13, 210)  0           concatenate_2[0][0]              
__________________________________________________________________________________________________
conv2d_transpose_1 (Conv2DTrans (None, 26, 26, 60)   50460       dropout_3[0][0]                  
__________________________________________________________________________________________________
concatenate_3 (Concatenate)     (None, 26, 26, 150)  0           conv2d_transpose_1[0][0]         
                                                                 concatenate_1[0][0]              
__________________________________________________________________________________________________
conv2d_7 (Conv2D)               (None, 26, 26, 60)   81060       concatenate_3[0][0]              
__________________________________________________________________________________________________
batch_normalization_7 (BatchNor (None, 26, 26, 60)   240         conv2d_7[0][0]                   
__________________________________________________________________________________________________
activation_7 (Activation)       (None, 26, 26, 60)   0           batch_normalization_7[0][0]      
__________________________________________________________________________________________________
conv2d_8 (Conv2D)               (None, 26, 26, 60)   32460       activation_7[0][0]               
__________________________________________________________________________________________________
batch_normalization_8 (BatchNor (None, 26, 26, 60)   240         conv2d_8[0][0]                   
__________________________________________________________________________________________________
activation_8 (Activation)       (None, 26, 26, 60)   0           batch_normalization_8[0][0]      
__________________________________________________________________________________________________
concatenate_4 (Concatenate)     (None, 26, 26, 210)  0           concatenate_3[0][0]              
                                                                 activation_8[0][0]               
__________________________________________________________________________________________________
dropout_4 (Dropout)             (None, 26, 26, 210)  0           concatenate_4[0][0]              
__________________________________________________________________________________________________
conv2d_transpose_2 (Conv2DTrans (None, 52, 52, 30)   25230       dropout_4[0][0]                  
__________________________________________________________________________________________________
concatenate_5 (Concatenate)     (None, 52, 52, 60)   0           conv2d_transpose_2[0][0]         
                                                                 activation_2[0][0]               
__________________________________________________________________________________________________
conv2d_9 (Conv2D)               (None, 52, 52, 30)   16230       concatenate_5[0][0]              
__________________________________________________________________________________________________
batch_normalization_9 (BatchNor (None, 52, 52, 30)   120         conv2d_9[0][0]                   
__________________________________________________________________________________________________
activation_9 (Activation)       (None, 52, 52, 30)   0           batch_normalization_9[0][0]      
__________________________________________________________________________________________________
conv2d_10 (Conv2D)              (None, 52, 52, 30)   8130        activation_9[0][0]               
__________________________________________________________________________________________________
batch_normalization_10 (BatchNo (None, 52, 52, 30)   120         conv2d_10[0][0]                  
__________________________________________________________________________________________________
activation_10 (Activation)      (None, 52, 52, 30)   0           batch_normalization_10[0][0]     
__________________________________________________________________________________________________
concatenate_6 (Concatenate)     (None, 52, 52, 90)   0           concatenate_5[0][0]              
                                                                 activation_10[0][0]              
__________________________________________________________________________________________________
dropout_5 (Dropout)             (None, 52, 52, 90)   0           concatenate_6[0][0]              
__________________________________________________________________________________________________
conv2d_11 (Conv2D)              (None, 52, 52, 13)   1183        dropout_5[0][0]                  
==================================================================================================
Total params: 501,343
Trainable params: 109,123
Non-trainable params: 392,220
__________________________________________________________________________________________________
------------------------------------------------------------------
class_weights [6.53208883e-02 3.19823790e-02 7.71752943e-02 9.62195915e-03
…
Error in label values min 0.0 max 2.0      11-CM
Error in label values min 0.0 max 4.0      12-MD-Pf
ResNet model address /array/ssd/msmajdi/experiments/keras/exp6/models/sE12_Cascade_FM40_Res_Unet2_NL3_LS_MyLogDice_US1_wLRScheduler_Main_Ps_ET_Init_3T_CV_a/MultiClass_24567891011121314/sd0/model.h5
__________________________________________________________________________________________________
Layer (type)                    Output Shape         Param #     Connected to                     
==================================================================================================
input_1 (InputLayer)            (None, 84, 52, 1)    0                                            
__________________________________________________________________________________________________
conv2d_1 (Conv2D)               (None, 84, 52, 40)   400         input_1[0][0]                    
__________________________________________________________________________________________________
batch_normalization_1 (BatchNor (None, 84, 52, 40)   160         conv2d_1[0][0]                   
__________________________________________________________________________________________________
activation_1 (Activation)       (None, 84, 52, 40)   0           batch_normalization_1[0][0]      
__________________________________________________________________________________________________
conv2d_2 (Conv2D)               (None, 84, 52, 40)   14440       activation_1[0][0]               
__________________________________________________________________________________________________
batch_normalization_2 (BatchNor (None, 84, 52, 40)   160         conv2d_2[0][0]                   
__________________________________________________________________________________________________
activation_2 (Activation)       (None, 84, 52, 40)   0           batch_normalization_2[0][0]      
__________________________________________________________________________________________________
max_pooling2d_1 (MaxPooling2D)  (None, 42, 26, 40)   0           activation_2[0][0]               
__________________________________________________________________________________________________
dropout_1 (Dropout)             (None, 42, 26, 40)   0           max_pooling2d_1[0][0]            
__________________________________________________________________________________________________
conv2d_3 (Conv2D)               (None, 42, 26, 80)   28880       dropout_1[0][0]                  
__________________________________________________________________________________________________
batch_normalization_3 (BatchNor (None, 42, 26, 80)   320         conv2d_3[0][0]                   
__________________________________________________________________________________________________
activation_3 (Activation)       (None, 42, 26, 80)   0           batch_normalization_3[0][0]      
__________________________________________________________________________________________________
conv2d_4 (Conv2D)               (None, 42, 26, 80)   57680       activation_3[0][0]               
__________________________________________________________________________________________________
batch_normalization_4 (BatchNor (None, 42, 26, 80)   320         conv2d_4[0][0]                   
__________________________________________________________________________________________________
activation_4 (Activation)       (None, 42, 26, 80)   0           batch_normalization_4[0][0]      
__________________________________________________________________________________________________
concatenate_1 (Concatenate)     (None, 42, 26, 120)  0           dropout_1[0][0]                  
                                                                 activation_4[0][0]               
__________________________________________________________________________________________________
max_pooling2d_2 (MaxPooling2D)  (None, 21, 13, 120)  0           concatenate_1[0][0]              
__________________________________________________________________________________________________
dropout_2 (Dropout)             (None, 21, 13, 120)  0           max_pooling2d_2[0][0]            
__________________________________________________________________________________________________
conv2d_5 (Conv2D)               (None, 21, 13, 160)  172960      dropout_2[0][0]                  
__________________________________________________________________________________________________
batch_normalization_5 (BatchNor (None, 21, 13, 160)  640         conv2d_5[0][0]                   
__________________________________________________________________________________________________
activation_5 (Activation)       (None, 21, 13, 160)  0           batch_normalization_5[0][0]      
__________________________________________________________________________________________________
conv2d_6 (Conv2D)               (None, 21, 13, 160)  230560      activation_5[0][0]               
__________________________________________________________________________________________________
batch_normalization_6 (BatchNor (None, 21, 13, 160)  640         conv2d_6[0][0]                   
__________________________________________________________________________________________________
activation_6 (Activation)       (None, 21, 13, 160)  0           batch_normalization_6[0][0]      
__________________________________________________________________________________________________
concatenate_2 (Concatenate)     (None, 21, 13, 280)  0           dropout_2[0][0]                  
                                                                 activation_6[0][0]               
__________________________________________________________________________________________________
dropout_3 (Dropout)             (None, 21, 13, 280)  0           concatenate_2[0][0]              
__________________________________________________________________________________________________
conv2d_transpose_1 (Conv2DTrans (None, 42, 26, 80)   89680       dropout_3[0][0]                  
__________________________________________________________________________________________________
concatenate_3 (Concatenate)     (None, 42, 26, 200)  0           conv2d_transpose_1[0][0]         
                                                                 concatenate_1[0][0]              
__________________________________________________________________________________________________
conv2d_7 (Conv2D)               (None, 42, 26, 80)   144080      concatenate_3[0][0]              
__________________________________________________________________________________________________
batch_normalization_7 (BatchNor (None, 42, 26, 80)   320         conv2d_7[0][0]                   
__________________________________________________________________________________________________
activation_7 (Activation)       (None, 42, 26, 80)   0           batch_normalization_7[0][0]      
__________________________________________________________________________________________________
conv2d_8 (Conv2D)               (None, 42, 26, 80)   57680       activation_7[0][0]               
__________________________________________________________________________________________________
batch_normalization_8 (BatchNor (None, 42, 26, 80)   320         conv2d_8[0][0]                   
__________________________________________________________________________________________________
activation_8 (Activation)       (None, 42, 26, 80)   0           batch_normalization_8[0][0]      
__________________________________________________________________________________________________
concatenate_4 (Concatenate)     (None, 42, 26, 280)  0           concatenate_3[0][0]              
                                                                 activation_8[0][0]               
__________________________________________________________________________________________________
dropout_4 (Dropout)             (None, 42, 26, 280)  0           concatenate_4[0][0]              
__________________________________________________________________________________________________
conv2d_transpose_2 (Conv2DTrans (None, 84, 52, 40)   44840       dropout_4[0][0]                  
__________________________________________________________________________________________________
concatenate_5 (Concatenate)     (None, 84, 52, 80)   0           conv2d_transpose_2[0][0]         
                                                                 activation_2[0][0]               
__________________________________________________________________________________________________
conv2d_9 (Conv2D)               (None, 84, 52, 40)   28840       concatenate_5[0][0]              
__________________________________________________________________________________________________
batch_normalization_9 (BatchNor (None, 84, 52, 40)   160         conv2d_9[0][0]                   
__________________________________________________________________________________________________
activation_9 (Activation)       (None, 84, 52, 40)   0           batch_normalization_9[0][0]      
__________________________________________________________________________________________________
conv2d_10 (Conv2D)              (None, 84, 52, 40)   14440       activation_9[0][0]               
__________________________________________________________________________________________________
batch_normalization_10 (BatchNo (None, 84, 52, 40)   160         conv2d_10[0][0]                  
__________________________________________________________________________________________________
activation_10 (Activation)      (None, 84, 52, 40)   0           batch_normalization_10[0][0]     
__________________________________________________________________________________________________
concatenate_6 (Concatenate)     (None, 84, 52, 120)  0           concatenate_5[0][0]              
                                                                 activation_10[0][0]              
__________________________________________________________________________________________________
dropout_5 (Dropout)             (None, 84, 52, 120)  0           concatenate_6[0][0]              
__________________________________________________________________________________________________
conv2d_11 (Conv2D)              (None, 84, 52, 13)   1573        dropout_5[0][0]                  
==================================================================================================
Total params: 889,253
Trainable params: 192,693
Non-trainable params: 696,560
__________________________________________________________________________________________________
------------------------------------------------------------------
class_weights [6.52961598e-02 3.19702714e-02 7.71460780e-02 9.61831656e-03
…
Error in label values min 0.0 max 2.0      11-CM
Error in label values min 0.0 max 4.0      12-MD-Pf
ResNet model address /array/ssd/msmajdi/experiments/keras/exp6/models/sE12_Cascade_FM20_Res_Unet2_NL3_LS_MyLogDice_US1_wLRScheduler_Main_Ps_ET_Init_3T_CV_a/MultiClass_24567891011121314/sd2/model.h5
__________________________________________________________________________________________________
Layer (type)                    Output Shape         Param #     Connected to                     
==================================================================================================
input_1 (InputLayer)            (None, 52, 84, 1)    0                                            
__________________________________________________________________________________________________
conv2d_1 (Conv2D)               (None, 52, 84, 20)   200         input_1[0][0]                    
__________________________________________________________________________________________________
batch_normalization_1 (BatchNor (None, 52, 84, 20)   80          conv2d_1[0][0]                   
__________________________________________________________________________________________________
activation_1 (Activation)       (None, 52, 84, 20)   0           batch_normalization_1[0][0]      
__________________________________________________________________________________________________
conv2d_2 (Conv2D)               (None, 52, 84, 20)   3620        activation_1[0][0]               
__________________________________________________________________________________________________
batch_normalization_2 (BatchNor (None, 52, 84, 20)   80          conv2d_2[0][0]                   
__________________________________________________________________________________________________
activation_2 (Activation)       (None, 52, 84, 20)   0           batch_normalization_2[0][0]      
__________________________________________________________________________________________________
max_pooling2d_1 (MaxPooling2D)  (None, 26, 42, 20)   0           activation_2[0][0]               
__________________________________________________________________________________________________
dropout_1 (Dropout)             (None, 26, 42, 20)   0           max_pooling2d_1[0][0]            
__________________________________________________________________________________________________
conv2d_3 (Conv2D)               (None, 26, 42, 40)   7240        dropout_1[0][0]                  
__________________________________________________________________________________________________
batch_normalization_3 (BatchNor (None, 26, 42, 40)   160         conv2d_3[0][0]                   
__________________________________________________________________________________________________
activation_3 (Activation)       (None, 26, 42, 40)   0           batch_normalization_3[0][0]      
__________________________________________________________________________________________________
conv2d_4 (Conv2D)               (None, 26, 42, 40)   14440       activation_3[0][0]               
__________________________________________________________________________________________________
batch_normalization_4 (BatchNor (None, 26, 42, 40)   160         conv2d_4[0][0]                   
__________________________________________________________________________________________________
activation_4 (Activation)       (None, 26, 42, 40)   0           batch_normalization_4[0][0]      
__________________________________________________________________________________________________
concatenate_1 (Concatenate)     (None, 26, 42, 60)   0           dropout_1[0][0]                  
                                                                 activation_4[0][0]               
__________________________________________________________________________________________________
max_pooling2d_2 (MaxPooling2D)  (None, 13, 21, 60)   0           concatenate_1[0][0]              
__________________________________________________________________________________________________
dropout_2 (Dropout)             (None, 13, 21, 60)   0           max_pooling2d_2[0][0]            
__________________________________________________________________________________________________
conv2d_5 (Conv2D)               (None, 13, 21, 80)   43280       dropout_2[0][0]                  
__________________________________________________________________________________________________
batch_normalization_5 (BatchNor (None, 13, 21, 80)   320         conv2d_5[0][0]                   
__________________________________________________________________________________________________
activation_5 (Activation)       (None, 13, 21, 80)   0           batch_normalization_5[0][0]      
__________________________________________________________________________________________________
conv2d_6 (Conv2D)               (None, 13, 21, 80)   57680       activation_5[0][0]               
__________________________________________________________________________________________________
batch_normalization_6 (BatchNor (None, 13, 21, 80)   320         conv2d_6[0][0]                   
__________________________________________________________________________________________________
activation_6 (Activation)       (None, 13, 21, 80)   0           batch_normalization_6[0][0]      
__________________________________________________________________________________________________
concatenate_2 (Concatenate)     (None, 13, 21, 140)  0           dropout_2[0][0]                  
                                                                 activation_6[0][0]               
__________________________________________________________________________________________________
dropout_3 (Dropout)             (None, 13, 21, 140)  0           concatenate_2[0][0]              
__________________________________________________________________________________________________
conv2d_transpose_1 (Conv2DTrans (None, 26, 42, 40)   22440       dropout_3[0][0]                  
__________________________________________________________________________________________________
concatenate_3 (Concatenate)     (None, 26, 42, 100)  0           conv2d_transpose_1[0][0]         
                                                                 concatenate_1[0][0]              
__________________________________________________________________________________________________
conv2d_7 (Conv2D)               (None, 26, 42, 40)   36040       concatenate_3[0][0]              
__________________________________________________________________________________________________
batch_normalization_7 (BatchNor (None, 26, 42, 40)   160         conv2d_7[0][0]                   
__________________________________________________________________________________________________
activation_7 (Activation)       (None, 26, 42, 40)   0           batch_normalization_7[0][0]      
__________________________________________________________________________________________________
conv2d_8 (Conv2D)               (None, 26, 42, 40)   14440       activation_7[0][0]               
__________________________________________________________________________________________________
batch_normalization_8 (BatchNor (None, 26, 42, 40)   160         conv2d_8[0][0]                   
__________________________________________________________________________________________________
activation_8 (Activation)       (None, 26, 42, 40)   0           batch_normalization_8[0][0]      
__________________________________________________________________________________________________
concatenate_4 (Concatenate)     (None, 26, 42, 140)  0           concatenate_3[0][0]              
                                                                 activation_8[0][0]               
__________________________________________________________________________________________________
dropout_4 (Dropout)             (None, 26, 42, 140)  0           concatenate_4[0][0]              
__________________________________________________________________________________________________
conv2d_transpose_2 (Conv2DTrans (None, 52, 84, 20)   11220       dropout_4[0][0]                  
__________________________________________________________________________________________________
concatenate_5 (Concatenate)     (None, 52, 84, 40)   0           conv2d_transpose_2[0][0]         
                                                                 activation_2[0][0]               
__________________________________________________________________________________________________
conv2d_9 (Conv2D)               (None, 52, 84, 20)   7220        concatenate_5[0][0]              
__________________________________________________________________________________________________
batch_normalization_9 (BatchNor (None, 52, 84, 20)   80          conv2d_9[0][0]                   
__________________________________________________________________________________________________
activation_9 (Activation)       (None, 52, 84, 20)   0           batch_normalization_9[0][0]      
__________________________________________________________________________________________________
conv2d_10 (Conv2D)              (None, 52, 84, 20)   3620        activation_9[0][0]               
__________________________________________________________________________________________________
batch_normalization_10 (BatchNo (None, 52, 84, 20)   80          conv2d_10[0][0]                  
__________________________________________________________________________________________________
activation_10 (Activation)      (None, 52, 84, 20)   0           batch_normalization_10[0][0]     
__________________________________________________________________________________________________
concatenate_6 (Concatenate)     (None, 52, 84, 60)   0           concatenate_5[0][0]              
                                                                 activation_10[0][0]              
__________________________________________________________________________________________________
dropout_5 (Dropout)             (None, 52, 84, 60)   0           concatenate_6[0][0]              
__________________________________________________________________________________________________
conv2d_11 (Conv2D)              (None, 52, 84, 13)   793         dropout_5[0][0]                  
==================================================================================================
Total params: 223,833
Trainable params: 49,153
Non-trainable params: 174,680
__________________________________________________________________________________________________
------------------------------------------------------------------
class_weights [6.79819780e-02 3.26069954e-02 8.40412680e-02 1.02066190e-02
…
Error in label values min 0.0 max 2.0      11-CM
Error in label values min 0.0 max 4.0      12-MD-Pf
ResNet model address /array/ssd/msmajdi/experiments/keras/exp6/models/sE12_Cascade_FM40_Res_Unet2_NL3_LS_MyLogDice_US1_wLRScheduler_Main_Ps_ET_Init_3T_CV_a/MultiClass_24567891011121314/sd0/model.h5
__________________________________________________________________________________________________
Layer (type)                    Output Shape         Param #     Connected to                     
==================================================================================================
input_1 (InputLayer)            (None, 84, 48, 1)    0                                            
__________________________________________________________________________________________________
conv2d_1 (Conv2D)               (None, 84, 48, 40)   400         input_1[0][0]                    
__________________________________________________________________________________________________
batch_normalization_1 (BatchNor (None, 84, 48, 40)   160         conv2d_1[0][0]                   
__________________________________________________________________________________________________
activation_1 (Activation)       (None, 84, 48, 40)   0           batch_normalization_1[0][0]      
__________________________________________________________________________________________________
conv2d_2 (Conv2D)               (None, 84, 48, 40)   14440       activation_1[0][0]               
__________________________________________________________________________________________________
batch_normalization_2 (BatchNor (None, 84, 48, 40)   160         conv2d_2[0][0]                   
__________________________________________________________________________________________________
activation_2 (Activation)       (None, 84, 48, 40)   0           batch_normalization_2[0][0]      
__________________________________________________________________________________________________
max_pooling2d_1 (MaxPooling2D)  (None, 42, 24, 40)   0           activation_2[0][0]               
__________________________________________________________________________________________________
dropout_1 (Dropout)             (None, 42, 24, 40)   0           max_pooling2d_1[0][0]            
__________________________________________________________________________________________________
conv2d_3 (Conv2D)               (None, 42, 24, 80)   28880       dropout_1[0][0]                  
__________________________________________________________________________________________________
batch_normalization_3 (BatchNor (None, 42, 24, 80)   320         conv2d_3[0][0]                   
__________________________________________________________________________________________________
activation_3 (Activation)       (None, 42, 24, 80)   0           batch_normalization_3[0][0]      
__________________________________________________________________________________________________
conv2d_4 (Conv2D)               (None, 42, 24, 80)   57680       activation_3[0][0]               
__________________________________________________________________________________________________
batch_normalization_4 (BatchNor (None, 42, 24, 80)   320         conv2d_4[0][0]                   
__________________________________________________________________________________________________
activation_4 (Activation)       (None, 42, 24, 80)   0           batch_normalization_4[0][0]      
__________________________________________________________________________________________________
concatenate_1 (Concatenate)     (None, 42, 24, 120)  0           dropout_1[0][0]                  
                                                                 activation_4[0][0]               
__________________________________________________________________________________________________
max_pooling2d_2 (MaxPooling2D)  (None, 21, 12, 120)  0           concatenate_1[0][0]              
__________________________________________________________________________________________________
dropout_2 (Dropout)             (None, 21, 12, 120)  0           max_pooling2d_2[0][0]            
__________________________________________________________________________________________________
conv2d_5 (Conv2D)               (None, 21, 12, 160)  172960      dropout_2[0][0]                  
__________________________________________________________________________________________________
batch_normalization_5 (BatchNor (None, 21, 12, 160)  640         conv2d_5[0][0]                   
__________________________________________________________________________________________________
activation_5 (Activation)       (None, 21, 12, 160)  0           batch_normalization_5[0][0]      
__________________________________________________________________________________________________
conv2d_6 (Conv2D)               (None, 21, 12, 160)  230560      activation_5[0][0]               
__________________________________________________________________________________________________
batch_normalization_6 (BatchNor (None, 21, 12, 160)  640         conv2d_6[0][0]                   
__________________________________________________________________________________________________
activation_6 (Activation)       (None, 21, 12, 160)  0           batch_normalization_6[0][0]      
__________________________________________________________________________________________________
concatenate_2 (Concatenate)     (None, 21, 12, 280)  0           dropout_2[0][0]                  
                                                                 activation_6[0][0]               
__________________________________________________________________________________________________
dropout_3 (Dropout)             (None, 21, 12, 280)  0           concatenate_2[0][0]              
__________________________________________________________________________________________________
conv2d_transpose_1 (Conv2DTrans (None, 42, 24, 80)   89680       dropout_3[0][0]                  
__________________________________________________________________________________________________
concatenate_3 (Concatenate)     (None, 42, 24, 200)  0           conv2d_transpose_1[0][0]         
                                                                 concatenate_1[0][0]              
__________________________________________________________________________________________________
conv2d_7 (Conv2D)               (None, 42, 24, 80)   144080      concatenate_3[0][0]              
__________________________________________________________________________________________________
batch_normalization_7 (BatchNor (None, 42, 24, 80)   320         conv2d_7[0][0]                   
__________________________________________________________________________________________________
activation_7 (Activation)       (None, 42, 24, 80)   0           batch_normalization_7[0][0]      
__________________________________________________________________________________________________
conv2d_8 (Conv2D)               (None, 42, 24, 80)   57680       activation_7[0][0]               
__________________________________________________________________________________________________
batch_normalization_8 (BatchNor (None, 42, 24, 80)   320         conv2d_8[0][0]                   
__________________________________________________________________________________________________
activation_8 (Activation)       (None, 42, 24, 80)   0           batch_normalization_8[0][0]      
__________________________________________________________________________________________________
concatenate_4 (Concatenate)     (None, 42, 24, 280)  0           concatenate_3[0][0]              
                                                                 activation_8[0][0]               
__________________________________________________________________________________________________
dropout_4 (Dropout)             (None, 42, 24, 280)  0           concatenate_4[0][0]              
__________________________________________________________________________________________________
conv2d_transpose_2 (Conv2DTrans (None, 84, 48, 40)   44840       dropout_4[0][0]                  
__________________________________________________________________________________________________
concatenate_5 (Concatenate)     (None, 84, 48, 80)   0           conv2d_transpose_2[0][0]         
                                                                 activation_2[0][0]               
__________________________________________________________________________________________________
conv2d_9 (Conv2D)               (None, 84, 48, 40)   28840       concatenate_5[0][0]              
__________________________________________________________________________________________________
batch_normalization_9 (BatchNor (None, 84, 48, 40)   160         conv2d_9[0][0]                   
__________________________________________________________________________________________________
activation_9 (Activation)       (None, 84, 48, 40)   0           batch_normalization_9[0][0]      
__________________________________________________________________________________________________
conv2d_10 (Conv2D)              (None, 84, 48, 40)   14440       activation_9[0][0]               
__________________________________________________________________________________________________
batch_normalization_10 (BatchNo (None, 84, 48, 40)   160         conv2d_10[0][0]                  
__________________________________________________________________________________________________
activation_10 (Activation)      (None, 84, 48, 40)   0           batch_normalization_10[0][0]     
__________________________________________________________________________________________________
concatenate_6 (Concatenate)     (None, 84, 48, 120)  0           concatenate_5[0][0]              
                                                                 activation_10[0][0]              
__________________________________________________________________________________________________
dropout_5 (Dropout)             (None, 84, 48, 120)  0           concatenate_6[0][0]              
__________________________________________________________________________________________________
conv2d_11 (Conv2D)              (None, 84, 48, 13)   1573        dropout_5[0][0]                  
==================================================================================================
Total params: 889,253
Trainable params: 192,693
Non-trainable params: 696,560
__________________________________________________________________________________________________
------------------------------------------------------------------
class_weights [6.82531771e-02 3.27370738e-02 8.43765320e-02 1.02473361e-02
…
