…
Error in label values min 0.0 max 30.0      13-Hb
Error in label values min 0.0 max 4.0      14-MTT
ResNet model address /array/ssd/msmajdi/experiments/keras/exp6/models/sE12_Cascade_FM30_Res_Unet2_NL3_LS_MyJoint_US1_Main_Init_3T_CV_a/MultiClass_24567891011121314/sd2/model.h5
__________________________________________________________________________________________________
Layer (type)                    Output Shape         Param #     Connected to                     
==================================================================================================
input_1 (InputLayer)            (None, 52, 80, 1)    0                                            
__________________________________________________________________________________________________
conv2d_1 (Conv2D)               (None, 52, 80, 10)   100         input_1[0][0]                    
__________________________________________________________________________________________________
batch_normalization_1 (BatchNor (None, 52, 80, 10)   40          conv2d_1[0][0]                   
__________________________________________________________________________________________________
activation_1 (Activation)       (None, 52, 80, 10)   0           batch_normalization_1[0][0]      
__________________________________________________________________________________________________
dropout_1 (Dropout)             (None, 52, 80, 10)   0           activation_1[0][0]               
__________________________________________________________________________________________________
concatenate_1 (Concatenate)     (None, 52, 80, 11)   0           input_1[0][0]                    
                                                                 dropout_1[0][0]                  
__________________________________________________________________________________________________
conv2d_2 (Conv2D)               (None, 52, 80, 30)   3000        concatenate_1[0][0]              
__________________________________________________________________________________________________
batch_normalization_2 (BatchNor (None, 52, 80, 30)   120         conv2d_2[0][0]                   
__________________________________________________________________________________________________
activation_2 (Activation)       (None, 52, 80, 30)   0           batch_normalization_2[0][0]      
__________________________________________________________________________________________________
conv2d_3 (Conv2D)               (None, 52, 80, 30)   8130        activation_2[0][0]               
__________________________________________________________________________________________________
batch_normalization_3 (BatchNor (None, 52, 80, 30)   120         conv2d_3[0][0]                   
__________________________________________________________________________________________________
activation_3 (Activation)       (None, 52, 80, 30)   0           batch_normalization_3[0][0]      
__________________________________________________________________________________________________
max_pooling2d_1 (MaxPooling2D)  (None, 26, 40, 30)   0           activation_3[0][0]               
__________________________________________________________________________________________________
dropout_2 (Dropout)             (None, 26, 40, 30)   0           max_pooling2d_1[0][0]            
__________________________________________________________________________________________________
conv2d_4 (Conv2D)               (None, 26, 40, 60)   16260       dropout_2[0][0]                  
__________________________________________________________________________________________________
batch_normalization_4 (BatchNor (None, 26, 40, 60)   240         conv2d_4[0][0]                   
__________________________________________________________________________________________________
activation_4 (Activation)       (None, 26, 40, 60)   0           batch_normalization_4[0][0]      
__________________________________________________________________________________________________
conv2d_5 (Conv2D)               (None, 26, 40, 60)   32460       activation_4[0][0]               
__________________________________________________________________________________________________
batch_normalization_5 (BatchNor (None, 26, 40, 60)   240         conv2d_5[0][0]                   
__________________________________________________________________________________________________
activation_5 (Activation)       (None, 26, 40, 60)   0           batch_normalization_5[0][0]      
__________________________________________________________________________________________________
concatenate_2 (Concatenate)     (None, 26, 40, 90)   0           dropout_2[0][0]                  
                                                                 activation_5[0][0]               
__________________________________________________________________________________________________
max_pooling2d_2 (MaxPooling2D)  (None, 13, 20, 90)   0           concatenate_2[0][0]              
__________________________________________________________________________________________________
dropout_3 (Dropout)             (None, 13, 20, 90)   0           max_pooling2d_2[0][0]            
__________________________________________________________________________________________________
conv2d_6 (Conv2D)               (None, 13, 20, 120)  97320       dropout_3[0][0]                  
__________________________________________________________________________________________________
batch_normalization_6 (BatchNor (None, 13, 20, 120)  480         conv2d_6[0][0]                   
__________________________________________________________________________________________________
activation_6 (Activation)       (None, 13, 20, 120)  0           batch_normalization_6[0][0]      
__________________________________________________________________________________________________
conv2d_7 (Conv2D)               (None, 13, 20, 120)  129720      activation_6[0][0]               
__________________________________________________________________________________________________
batch_normalization_7 (BatchNor (None, 13, 20, 120)  480         conv2d_7[0][0]                   
__________________________________________________________________________________________________
activation_7 (Activation)       (None, 13, 20, 120)  0           batch_normalization_7[0][0]      
__________________________________________________________________________________________________
concatenate_3 (Concatenate)     (None, 13, 20, 210)  0           dropout_3[0][0]                  
                                                                 activation_7[0][0]               
__________________________________________________________________________________________________
dropout_4 (Dropout)             (None, 13, 20, 210)  0           concatenate_3[0][0]              
__________________________________________________________________________________________________
conv2d_transpose_1 (Conv2DTrans (None, 26, 40, 60)   50460       dropout_4[0][0]                  
__________________________________________________________________________________________________
concatenate_4 (Concatenate)     (None, 26, 40, 150)  0           conv2d_transpose_1[0][0]         
                                                                 concatenate_2[0][0]              
__________________________________________________________________________________________________
conv2d_8 (Conv2D)               (None, 26, 40, 60)   81060       concatenate_4[0][0]              
__________________________________________________________________________________________________
batch_normalization_8 (BatchNor (None, 26, 40, 60)   240         conv2d_8[0][0]                   
__________________________________________________________________________________________________
activation_8 (Activation)       (None, 26, 40, 60)   0           batch_normalization_8[0][0]      
__________________________________________________________________________________________________
conv2d_9 (Conv2D)               (None, 26, 40, 60)   32460       activation_8[0][0]               
__________________________________________________________________________________________________
batch_normalization_9 (BatchNor (None, 26, 40, 60)   240         conv2d_9[0][0]                   
__________________________________________________________________________________________________
activation_9 (Activation)       (None, 26, 40, 60)   0           batch_normalization_9[0][0]      
__________________________________________________________________________________________________
concatenate_5 (Concatenate)     (None, 26, 40, 210)  0           concatenate_4[0][0]              
                                                                 activation_9[0][0]               
__________________________________________________________________________________________________
dropout_5 (Dropout)             (None, 26, 40, 210)  0           concatenate_5[0][0]              
__________________________________________________________________________________________________
conv2d_transpose_2 (Conv2DTrans (None, 52, 80, 30)   25230       dropout_5[0][0]                  
__________________________________________________________________________________________________
concatenate_6 (Concatenate)     (None, 52, 80, 60)   0           conv2d_transpose_2[0][0]         
                                                                 activation_3[0][0]               
__________________________________________________________________________________________________
conv2d_10 (Conv2D)              (None, 52, 80, 30)   16230       concatenate_6[0][0]              
__________________________________________________________________________________________________
batch_normalization_10 (BatchNo (None, 52, 80, 30)   120         conv2d_10[0][0]                  
__________________________________________________________________________________________________
activation_10 (Activation)      (None, 52, 80, 30)   0           batch_normalization_10[0][0]     
__________________________________________________________________________________________________
conv2d_11 (Conv2D)              (None, 52, 80, 30)   8130        activation_10[0][0]              
__________________________________________________________________________________________________
batch_normalization_11 (BatchNo (None, 52, 80, 30)   120         conv2d_11[0][0]                  
__________________________________________________________________________________________________
activation_11 (Activation)      (None, 52, 80, 30)   0           batch_normalization_11[0][0]     
__________________________________________________________________________________________________
concatenate_7 (Concatenate)     (None, 52, 80, 90)   0           concatenate_6[0][0]              
                                                                 activation_11[0][0]              
__________________________________________________________________________________________________
dropout_6 (Dropout)             (None, 52, 80, 90)   0           concatenate_7[0][0]              
__________________________________________________________________________________________________
conv2d_12 (Conv2D)              (None, 52, 80, 13)   1183        dropout_6[0][0]                  
==================================================================================================
Total params: 504,183
Trainable params: 111,943
Non-trainable params: 392,240
__________________________________________________________________________________________________
------------------------------------------------------------------
class_weights [6.47467835e-02 3.18797950e-02 7.48227142e-02 9.29948699e-03
…
Error in label values min 0.0 max 30.0      13-Hb
Error in label values min 0.0 max 4.0      14-MTT
ResNet model address /array/ssd/msmajdi/experiments/keras/exp6/models/sE12_Cascade_FM20_Res_Unet2_NL3_LS_MyJoint_US1_Main_Init_3T_CV_a/MultiClass_24567891011121314/sd1/model.h5
__________________________________________________________________________________________________
Layer (type)                    Output Shape         Param #     Connected to                     
==================================================================================================
input_1 (InputLayer)            (None, 52, 52, 1)    0                                            
__________________________________________________________________________________________________
conv2d_1 (Conv2D)               (None, 52, 52, 10)   100         input_1[0][0]                    
__________________________________________________________________________________________________
batch_normalization_1 (BatchNor (None, 52, 52, 10)   40          conv2d_1[0][0]                   
__________________________________________________________________________________________________
activation_1 (Activation)       (None, 52, 52, 10)   0           batch_normalization_1[0][0]      
__________________________________________________________________________________________________
dropout_1 (Dropout)             (None, 52, 52, 10)   0           activation_1[0][0]               
__________________________________________________________________________________________________
concatenate_1 (Concatenate)     (None, 52, 52, 11)   0           input_1[0][0]                    
                                                                 dropout_1[0][0]                  
__________________________________________________________________________________________________
conv2d_2 (Conv2D)               (None, 52, 52, 20)   2000        concatenate_1[0][0]              
__________________________________________________________________________________________________
batch_normalization_2 (BatchNor (None, 52, 52, 20)   80          conv2d_2[0][0]                   
__________________________________________________________________________________________________
activation_2 (Activation)       (None, 52, 52, 20)   0           batch_normalization_2[0][0]      
__________________________________________________________________________________________________
conv2d_3 (Conv2D)               (None, 52, 52, 20)   3620        activation_2[0][0]               
__________________________________________________________________________________________________
batch_normalization_3 (BatchNor (None, 52, 52, 20)   80          conv2d_3[0][0]                   
__________________________________________________________________________________________________
activation_3 (Activation)       (None, 52, 52, 20)   0           batch_normalization_3[0][0]      
__________________________________________________________________________________________________
max_pooling2d_1 (MaxPooling2D)  (None, 26, 26, 20)   0           activation_3[0][0]               
__________________________________________________________________________________________________
dropout_2 (Dropout)             (None, 26, 26, 20)   0           max_pooling2d_1[0][0]            
__________________________________________________________________________________________________
conv2d_4 (Conv2D)               (None, 26, 26, 40)   7240        dropout_2[0][0]                  
__________________________________________________________________________________________________
batch_normalization_4 (BatchNor (None, 26, 26, 40)   160         conv2d_4[0][0]                   
__________________________________________________________________________________________________
activation_4 (Activation)       (None, 26, 26, 40)   0           batch_normalization_4[0][0]      
__________________________________________________________________________________________________
conv2d_5 (Conv2D)               (None, 26, 26, 40)   14440       activation_4[0][0]               
__________________________________________________________________________________________________
batch_normalization_5 (BatchNor (None, 26, 26, 40)   160         conv2d_5[0][0]                   
__________________________________________________________________________________________________
activation_5 (Activation)       (None, 26, 26, 40)   0           batch_normalization_5[0][0]      
__________________________________________________________________________________________________
concatenate_2 (Concatenate)     (None, 26, 26, 60)   0           dropout_2[0][0]                  
                                                                 activation_5[0][0]               
__________________________________________________________________________________________________
max_pooling2d_2 (MaxPooling2D)  (None, 13, 13, 60)   0           concatenate_2[0][0]              
__________________________________________________________________________________________________
dropout_3 (Dropout)             (None, 13, 13, 60)   0           max_pooling2d_2[0][0]            
__________________________________________________________________________________________________
conv2d_6 (Conv2D)               (None, 13, 13, 80)   43280       dropout_3[0][0]                  
__________________________________________________________________________________________________
batch_normalization_6 (BatchNor (None, 13, 13, 80)   320         conv2d_6[0][0]                   
__________________________________________________________________________________________________
activation_6 (Activation)       (None, 13, 13, 80)   0           batch_normalization_6[0][0]      
__________________________________________________________________________________________________
conv2d_7 (Conv2D)               (None, 13, 13, 80)   57680       activation_6[0][0]               
__________________________________________________________________________________________________
batch_normalization_7 (BatchNor (None, 13, 13, 80)   320         conv2d_7[0][0]                   
__________________________________________________________________________________________________
activation_7 (Activation)       (None, 13, 13, 80)   0           batch_normalization_7[0][0]      
__________________________________________________________________________________________________
concatenate_3 (Concatenate)     (None, 13, 13, 140)  0           dropout_3[0][0]                  
                                                                 activation_7[0][0]               
__________________________________________________________________________________________________
dropout_4 (Dropout)             (None, 13, 13, 140)  0           concatenate_3[0][0]              
__________________________________________________________________________________________________
conv2d_transpose_1 (Conv2DTrans (None, 26, 26, 40)   22440       dropout_4[0][0]                  
__________________________________________________________________________________________________
concatenate_4 (Concatenate)     (None, 26, 26, 100)  0           conv2d_transpose_1[0][0]         
                                                                 concatenate_2[0][0]              
__________________________________________________________________________________________________
conv2d_8 (Conv2D)               (None, 26, 26, 40)   36040       concatenate_4[0][0]              
__________________________________________________________________________________________________
batch_normalization_8 (BatchNor (None, 26, 26, 40)   160         conv2d_8[0][0]                   
__________________________________________________________________________________________________
activation_8 (Activation)       (None, 26, 26, 40)   0           batch_normalization_8[0][0]      
__________________________________________________________________________________________________
conv2d_9 (Conv2D)               (None, 26, 26, 40)   14440       activation_8[0][0]               
__________________________________________________________________________________________________
batch_normalization_9 (BatchNor (None, 26, 26, 40)   160         conv2d_9[0][0]                   
__________________________________________________________________________________________________
activation_9 (Activation)       (None, 26, 26, 40)   0           batch_normalization_9[0][0]      
__________________________________________________________________________________________________
concatenate_5 (Concatenate)     (None, 26, 26, 140)  0           concatenate_4[0][0]              
                                                                 activation_9[0][0]               
__________________________________________________________________________________________________
dropout_5 (Dropout)             (None, 26, 26, 140)  0           concatenate_5[0][0]              
__________________________________________________________________________________________________
conv2d_transpose_2 (Conv2DTrans (None, 52, 52, 20)   11220       dropout_5[0][0]                  
__________________________________________________________________________________________________
concatenate_6 (Concatenate)     (None, 52, 52, 40)   0           conv2d_transpose_2[0][0]         
                                                                 activation_3[0][0]               
__________________________________________________________________________________________________
conv2d_10 (Conv2D)              (None, 52, 52, 20)   7220        concatenate_6[0][0]              
__________________________________________________________________________________________________
batch_normalization_10 (BatchNo (None, 52, 52, 20)   80          conv2d_10[0][0]                  
__________________________________________________________________________________________________
activation_10 (Activation)      (None, 52, 52, 20)   0           batch_normalization_10[0][0]     
__________________________________________________________________________________________________
conv2d_11 (Conv2D)              (None, 52, 52, 20)   3620        activation_10[0][0]              
__________________________________________________________________________________________________
batch_normalization_11 (BatchNo (None, 52, 52, 20)   80          conv2d_11[0][0]                  
__________________________________________________________________________________________________
activation_11 (Activation)      (None, 52, 52, 20)   0           batch_normalization_11[0][0]     
__________________________________________________________________________________________________
concatenate_7 (Concatenate)     (None, 52, 52, 60)   0           concatenate_6[0][0]              
                                                                 activation_11[0][0]              
__________________________________________________________________________________________________
dropout_6 (Dropout)             (None, 52, 52, 60)   0           concatenate_7[0][0]              
__________________________________________________________________________________________________
conv2d_12 (Conv2D)              (None, 52, 52, 13)   793         dropout_6[0][0]                  
==================================================================================================
Total params: 225,773
Trainable params: 51,073
Non-trainable params: 174,700
__________________________________________________________________________________________________
------------------------------------------------------------------
class_weights [6.49841486e-02 3.19966680e-02 7.50970181e-02 9.33357939e-03
…
Error in label values min 0.0 max 30.0      13-Hb
Error in label values min 0.0 max 4.0      14-MTT
ResNet model address /array/ssd/msmajdi/experiments/keras/exp6/models/sE12_Cascade_FM15_Res_Unet2_NL3_LS_MyJoint_US1_Main_Init_3T_CV_a/MultiClass_24567891011121314/sd0/model.h5
__________________________________________________________________________________________________
Layer (type)                    Output Shape         Param #     Connected to                     
==================================================================================================
input_1 (InputLayer)            (None, 80, 52, 1)    0                                            
__________________________________________________________________________________________________
conv2d_1 (Conv2D)               (None, 80, 52, 10)   100         input_1[0][0]                    
__________________________________________________________________________________________________
batch_normalization_1 (BatchNor (None, 80, 52, 10)   40          conv2d_1[0][0]                   
__________________________________________________________________________________________________
activation_1 (Activation)       (None, 80, 52, 10)   0           batch_normalization_1[0][0]      
__________________________________________________________________________________________________
dropout_1 (Dropout)             (None, 80, 52, 10)   0           activation_1[0][0]               
__________________________________________________________________________________________________
concatenate_1 (Concatenate)     (None, 80, 52, 11)   0           input_1[0][0]                    
                                                                 dropout_1[0][0]                  
__________________________________________________________________________________________________
conv2d_2 (Conv2D)               (None, 80, 52, 15)   1500        concatenate_1[0][0]              
__________________________________________________________________________________________________
batch_normalization_2 (BatchNor (None, 80, 52, 15)   60          conv2d_2[0][0]                   
__________________________________________________________________________________________________
activation_2 (Activation)       (None, 80, 52, 15)   0           batch_normalization_2[0][0]      
__________________________________________________________________________________________________
conv2d_3 (Conv2D)               (None, 80, 52, 15)   2040        activation_2[0][0]               
__________________________________________________________________________________________________
batch_normalization_3 (BatchNor (None, 80, 52, 15)   60          conv2d_3[0][0]                   
__________________________________________________________________________________________________
activation_3 (Activation)       (None, 80, 52, 15)   0           batch_normalization_3[0][0]      
__________________________________________________________________________________________________
max_pooling2d_1 (MaxPooling2D)  (None, 40, 26, 15)   0           activation_3[0][0]               
__________________________________________________________________________________________________
dropout_2 (Dropout)             (None, 40, 26, 15)   0           max_pooling2d_1[0][0]            
__________________________________________________________________________________________________
conv2d_4 (Conv2D)               (None, 40, 26, 30)   4080        dropout_2[0][0]                  
__________________________________________________________________________________________________
batch_normalization_4 (BatchNor (None, 40, 26, 30)   120         conv2d_4[0][0]                   
__________________________________________________________________________________________________
activation_4 (Activation)       (None, 40, 26, 30)   0           batch_normalization_4[0][0]      
__________________________________________________________________________________________________
conv2d_5 (Conv2D)               (None, 40, 26, 30)   8130        activation_4[0][0]               
__________________________________________________________________________________________________
batch_normalization_5 (BatchNor (None, 40, 26, 30)   120         conv2d_5[0][0]                   
__________________________________________________________________________________________________
activation_5 (Activation)       (None, 40, 26, 30)   0           batch_normalization_5[0][0]      
__________________________________________________________________________________________________
concatenate_2 (Concatenate)     (None, 40, 26, 45)   0           dropout_2[0][0]                  
                                                                 activation_5[0][0]               
__________________________________________________________________________________________________
max_pooling2d_2 (MaxPooling2D)  (None, 20, 13, 45)   0           concatenate_2[0][0]              
__________________________________________________________________________________________________
dropout_3 (Dropout)             (None, 20, 13, 45)   0           max_pooling2d_2[0][0]            
__________________________________________________________________________________________________
conv2d_6 (Conv2D)               (None, 20, 13, 60)   24360       dropout_3[0][0]                  
__________________________________________________________________________________________________
batch_normalization_6 (BatchNor (None, 20, 13, 60)   240         conv2d_6[0][0]                   
__________________________________________________________________________________________________
activation_6 (Activation)       (None, 20, 13, 60)   0           batch_normalization_6[0][0]      
__________________________________________________________________________________________________
conv2d_7 (Conv2D)               (None, 20, 13, 60)   32460       activation_6[0][0]               
__________________________________________________________________________________________________
batch_normalization_7 (BatchNor (None, 20, 13, 60)   240         conv2d_7[0][0]                   
__________________________________________________________________________________________________
activation_7 (Activation)       (None, 20, 13, 60)   0           batch_normalization_7[0][0]      
__________________________________________________________________________________________________
concatenate_3 (Concatenate)     (None, 20, 13, 105)  0           dropout_3[0][0]                  
                                                                 activation_7[0][0]               
__________________________________________________________________________________________________
dropout_4 (Dropout)             (None, 20, 13, 105)  0           concatenate_3[0][0]              
__________________________________________________________________________________________________
conv2d_transpose_1 (Conv2DTrans (None, 40, 26, 30)   12630       dropout_4[0][0]                  
__________________________________________________________________________________________________
concatenate_4 (Concatenate)     (None, 40, 26, 75)   0           conv2d_transpose_1[0][0]         
                                                                 concatenate_2[0][0]              
__________________________________________________________________________________________________
conv2d_8 (Conv2D)               (None, 40, 26, 30)   20280       concatenate_4[0][0]              
__________________________________________________________________________________________________
batch_normalization_8 (BatchNor (None, 40, 26, 30)   120         conv2d_8[0][0]                   
__________________________________________________________________________________________________
activation_8 (Activation)       (None, 40, 26, 30)   0           batch_normalization_8[0][0]      
__________________________________________________________________________________________________
conv2d_9 (Conv2D)               (None, 40, 26, 30)   8130        activation_8[0][0]               
__________________________________________________________________________________________________
batch_normalization_9 (BatchNor (None, 40, 26, 30)   120         conv2d_9[0][0]                   
__________________________________________________________________________________________________
activation_9 (Activation)       (None, 40, 26, 30)   0           batch_normalization_9[0][0]      
__________________________________________________________________________________________________
concatenate_5 (Concatenate)     (None, 40, 26, 105)  0           concatenate_4[0][0]              
                                                                 activation_9[0][0]               
__________________________________________________________________________________________________
dropout_5 (Dropout)             (None, 40, 26, 105)  0           concatenate_5[0][0]              
__________________________________________________________________________________________________
conv2d_transpose_2 (Conv2DTrans (None, 80, 52, 15)   6315        dropout_5[0][0]                  
__________________________________________________________________________________________________
concatenate_6 (Concatenate)     (None, 80, 52, 30)   0           conv2d_transpose_2[0][0]         
                                                                 activation_3[0][0]               
__________________________________________________________________________________________________
conv2d_10 (Conv2D)              (None, 80, 52, 15)   4065        concatenate_6[0][0]              
__________________________________________________________________________________________________
batch_normalization_10 (BatchNo (None, 80, 52, 15)   60          conv2d_10[0][0]                  
__________________________________________________________________________________________________
activation_10 (Activation)      (None, 80, 52, 15)   0           batch_normalization_10[0][0]     
__________________________________________________________________________________________________
conv2d_11 (Conv2D)              (None, 80, 52, 15)   2040        activation_10[0][0]              
__________________________________________________________________________________________________
batch_normalization_11 (BatchNo (None, 80, 52, 15)   60          conv2d_11[0][0]                  
__________________________________________________________________________________________________
activation_11 (Activation)      (None, 80, 52, 15)   0           batch_normalization_11[0][0]     
__________________________________________________________________________________________________
concatenate_7 (Concatenate)     (None, 80, 52, 45)   0           concatenate_6[0][0]              
                                                                 activation_11[0][0]              
__________________________________________________________________________________________________
dropout_6 (Dropout)             (None, 80, 52, 45)   0           concatenate_7[0][0]              
__________________________________________________________________________________________________
conv2d_12 (Conv2D)              (None, 80, 52, 13)   598         dropout_6[0][0]                  
==================================================================================================
Total params: 127,968
Trainable params: 29,488
Non-trainable params: 98,480
__________________________________________________________________________________________________
------------------------------------------------------------------
class_weights [6.48913484e-02 3.19509754e-02 7.49897764e-02 9.32025064e-03
…
Error in label values min 0.0 max 30.0      13-Hb
Error in label values min 0.0 max 4.0      14-MTT
ResNet model address /array/ssd/msmajdi/experiments/keras/exp6/models/sE12_Cascade_FM30_Res_Unet2_NL3_LS_MyJoint_US1_Main_Init_3T_CV_a/MultiClass_24567891011121314/sd2/model.h5
__________________________________________________________________________________________________
Layer (type)                    Output Shape         Param #     Connected to                     
==================================================================================================
input_1 (InputLayer)            (None, 52, 80, 1)    0                                            
__________________________________________________________________________________________________
conv2d_1 (Conv2D)               (None, 52, 80, 20)   200         input_1[0][0]                    
__________________________________________________________________________________________________
batch_normalization_1 (BatchNor (None, 52, 80, 20)   80          conv2d_1[0][0]                   
__________________________________________________________________________________________________
activation_1 (Activation)       (None, 52, 80, 20)   0           batch_normalization_1[0][0]      
__________________________________________________________________________________________________
dropout_1 (Dropout)             (None, 52, 80, 20)   0           activation_1[0][0]               
__________________________________________________________________________________________________
concatenate_1 (Concatenate)     (None, 52, 80, 21)   0           input_1[0][0]                    
                                                                 dropout_1[0][0]                  
__________________________________________________________________________________________________
conv2d_2 (Conv2D)               (None, 52, 80, 30)   5700        concatenate_1[0][0]              
__________________________________________________________________________________________________
batch_normalization_2 (BatchNor (None, 52, 80, 30)   120         conv2d_2[0][0]                   
__________________________________________________________________________________________________
activation_2 (Activation)       (None, 52, 80, 30)   0           batch_normalization_2[0][0]      
__________________________________________________________________________________________________
conv2d_3 (Conv2D)               (None, 52, 80, 30)   8130        activation_2[0][0]               
__________________________________________________________________________________________________
batch_normalization_3 (BatchNor (None, 52, 80, 30)   120         conv2d_3[0][0]                   
__________________________________________________________________________________________________
activation_3 (Activation)       (None, 52, 80, 30)   0           batch_normalization_3[0][0]      
__________________________________________________________________________________________________
max_pooling2d_1 (MaxPooling2D)  (None, 26, 40, 30)   0           activation_3[0][0]               
__________________________________________________________________________________________________
dropout_2 (Dropout)             (None, 26, 40, 30)   0           max_pooling2d_1[0][0]            
__________________________________________________________________________________________________
conv2d_4 (Conv2D)               (None, 26, 40, 60)   16260       dropout_2[0][0]                  
__________________________________________________________________________________________________
batch_normalization_4 (BatchNor (None, 26, 40, 60)   240         conv2d_4[0][0]                   
__________________________________________________________________________________________________
activation_4 (Activation)       (None, 26, 40, 60)   0           batch_normalization_4[0][0]      
__________________________________________________________________________________________________
conv2d_5 (Conv2D)               (None, 26, 40, 60)   32460       activation_4[0][0]               
__________________________________________________________________________________________________
batch_normalization_5 (BatchNor (None, 26, 40, 60)   240         conv2d_5[0][0]                   
__________________________________________________________________________________________________
activation_5 (Activation)       (None, 26, 40, 60)   0           batch_normalization_5[0][0]      
__________________________________________________________________________________________________
concatenate_2 (Concatenate)     (None, 26, 40, 90)   0           dropout_2[0][0]                  
                                                                 activation_5[0][0]               
__________________________________________________________________________________________________
max_pooling2d_2 (MaxPooling2D)  (None, 13, 20, 90)   0           concatenate_2[0][0]              
__________________________________________________________________________________________________
dropout_3 (Dropout)             (None, 13, 20, 90)   0           max_pooling2d_2[0][0]            
__________________________________________________________________________________________________
conv2d_6 (Conv2D)               (None, 13, 20, 120)  97320       dropout_3[0][0]                  
__________________________________________________________________________________________________
batch_normalization_6 (BatchNor (None, 13, 20, 120)  480         conv2d_6[0][0]                   
__________________________________________________________________________________________________
activation_6 (Activation)       (None, 13, 20, 120)  0           batch_normalization_6[0][0]      
__________________________________________________________________________________________________
conv2d_7 (Conv2D)               (None, 13, 20, 120)  129720      activation_6[0][0]               
__________________________________________________________________________________________________
batch_normalization_7 (BatchNor (None, 13, 20, 120)  480         conv2d_7[0][0]                   
__________________________________________________________________________________________________
activation_7 (Activation)       (None, 13, 20, 120)  0           batch_normalization_7[0][0]      
__________________________________________________________________________________________________
concatenate_3 (Concatenate)     (None, 13, 20, 210)  0           dropout_3[0][0]                  
                                                                 activation_7[0][0]               
__________________________________________________________________________________________________
dropout_4 (Dropout)             (None, 13, 20, 210)  0           concatenate_3[0][0]              
__________________________________________________________________________________________________
conv2d_transpose_1 (Conv2DTrans (None, 26, 40, 60)   50460       dropout_4[0][0]                  
__________________________________________________________________________________________________
concatenate_4 (Concatenate)     (None, 26, 40, 150)  0           conv2d_transpose_1[0][0]         
                                                                 concatenate_2[0][0]              
__________________________________________________________________________________________________
conv2d_8 (Conv2D)               (None, 26, 40, 60)   81060       concatenate_4[0][0]              
__________________________________________________________________________________________________
batch_normalization_8 (BatchNor (None, 26, 40, 60)   240         conv2d_8[0][0]                   
__________________________________________________________________________________________________
activation_8 (Activation)       (None, 26, 40, 60)   0           batch_normalization_8[0][0]      
__________________________________________________________________________________________________
conv2d_9 (Conv2D)               (None, 26, 40, 60)   32460       activation_8[0][0]               
__________________________________________________________________________________________________
batch_normalization_9 (BatchNor (None, 26, 40, 60)   240         conv2d_9[0][0]                   
__________________________________________________________________________________________________
activation_9 (Activation)       (None, 26, 40, 60)   0           batch_normalization_9[0][0]      
__________________________________________________________________________________________________
concatenate_5 (Concatenate)     (None, 26, 40, 210)  0           concatenate_4[0][0]              
                                                                 activation_9[0][0]               
__________________________________________________________________________________________________
dropout_5 (Dropout)             (None, 26, 40, 210)  0           concatenate_5[0][0]              
__________________________________________________________________________________________________
conv2d_transpose_2 (Conv2DTrans (None, 52, 80, 30)   25230       dropout_5[0][0]                  
__________________________________________________________________________________________________
concatenate_6 (Concatenate)     (None, 52, 80, 60)   0           conv2d_transpose_2[0][0]         
                                                                 activation_3[0][0]               
__________________________________________________________________________________________________
conv2d_10 (Conv2D)              (None, 52, 80, 30)   16230       concatenate_6[0][0]              
__________________________________________________________________________________________________
batch_normalization_10 (BatchNo (None, 52, 80, 30)   120         conv2d_10[0][0]                  
__________________________________________________________________________________________________
activation_10 (Activation)      (None, 52, 80, 30)   0           batch_normalization_10[0][0]     
__________________________________________________________________________________________________
conv2d_11 (Conv2D)              (None, 52, 80, 30)   8130        activation_10[0][0]              
__________________________________________________________________________________________________
batch_normalization_11 (BatchNo (None, 52, 80, 30)   120         conv2d_11[0][0]                  
__________________________________________________________________________________________________
activation_11 (Activation)      (None, 52, 80, 30)   0           batch_normalization_11[0][0]     
__________________________________________________________________________________________________
concatenate_7 (Concatenate)     (None, 52, 80, 90)   0           concatenate_6[0][0]              
                                                                 activation_11[0][0]              
__________________________________________________________________________________________________
dropout_6 (Dropout)             (None, 52, 80, 90)   0           concatenate_7[0][0]              
__________________________________________________________________________________________________
conv2d_12 (Conv2D)              (None, 52, 80, 13)   1183        dropout_6[0][0]                  
==================================================================================================
Total params: 507,023
Trainable params: 114,763
Non-trainable params: 392,260
__________________________________________________________________________________________________
------------------------------------------------------------------
class_weights [6.47467835e-02 3.18797950e-02 7.48227142e-02 9.29948699e-03
…
Error in label values min 0.0 max 30.0      13-Hb
Error in label values min 0.0 max 4.0      14-MTT
ResNet model address /array/ssd/msmajdi/experiments/keras/exp6/models/sE12_Cascade_FM20_Res_Unet2_NL3_LS_MyJoint_US1_Main_Init_3T_CV_a/MultiClass_24567891011121314/sd1/model.h5
__________________________________________________________________________________________________
Layer (type)                    Output Shape         Param #     Connected to                     
==================================================================================================
input_1 (InputLayer)            (None, 52, 52, 1)    0                                            
__________________________________________________________________________________________________
conv2d_1 (Conv2D)               (None, 52, 52, 20)   200         input_1[0][0]                    
__________________________________________________________________________________________________
batch_normalization_1 (BatchNor (None, 52, 52, 20)   80          conv2d_1[0][0]                   
__________________________________________________________________________________________________
activation_1 (Activation)       (None, 52, 52, 20)   0           batch_normalization_1[0][0]      
__________________________________________________________________________________________________
dropout_1 (Dropout)             (None, 52, 52, 20)   0           activation_1[0][0]               
__________________________________________________________________________________________________
concatenate_1 (Concatenate)     (None, 52, 52, 21)   0           input_1[0][0]                    
                                                                 dropout_1[0][0]                  
__________________________________________________________________________________________________
conv2d_2 (Conv2D)               (None, 52, 52, 20)   3800        concatenate_1[0][0]              
__________________________________________________________________________________________________
batch_normalization_2 (BatchNor (None, 52, 52, 20)   80          conv2d_2[0][0]                   
__________________________________________________________________________________________________
activation_2 (Activation)       (None, 52, 52, 20)   0           batch_normalization_2[0][0]      
__________________________________________________________________________________________________
conv2d_3 (Conv2D)               (None, 52, 52, 20)   3620        activation_2[0][0]               
__________________________________________________________________________________________________
batch_normalization_3 (BatchNor (None, 52, 52, 20)   80          conv2d_3[0][0]                   
__________________________________________________________________________________________________
activation_3 (Activation)       (None, 52, 52, 20)   0           batch_normalization_3[0][0]      
__________________________________________________________________________________________________
max_pooling2d_1 (MaxPooling2D)  (None, 26, 26, 20)   0           activation_3[0][0]               
__________________________________________________________________________________________________
dropout_2 (Dropout)             (None, 26, 26, 20)   0           max_pooling2d_1[0][0]            
__________________________________________________________________________________________________
conv2d_4 (Conv2D)               (None, 26, 26, 40)   7240        dropout_2[0][0]                  
__________________________________________________________________________________________________
batch_normalization_4 (BatchNor (None, 26, 26, 40)   160         conv2d_4[0][0]                   
__________________________________________________________________________________________________
activation_4 (Activation)       (None, 26, 26, 40)   0           batch_normalization_4[0][0]      
__________________________________________________________________________________________________
conv2d_5 (Conv2D)               (None, 26, 26, 40)   14440       activation_4[0][0]               
__________________________________________________________________________________________________
batch_normalization_5 (BatchNor (None, 26, 26, 40)   160         conv2d_5[0][0]                   
__________________________________________________________________________________________________
activation_5 (Activation)       (None, 26, 26, 40)   0           batch_normalization_5[0][0]      
__________________________________________________________________________________________________
concatenate_2 (Concatenate)     (None, 26, 26, 60)   0           dropout_2[0][0]                  
                                                                 activation_5[0][0]               
__________________________________________________________________________________________________
max_pooling2d_2 (MaxPooling2D)  (None, 13, 13, 60)   0           concatenate_2[0][0]              
__________________________________________________________________________________________________
dropout_3 (Dropout)             (None, 13, 13, 60)   0           max_pooling2d_2[0][0]            
__________________________________________________________________________________________________
conv2d_6 (Conv2D)               (None, 13, 13, 80)   43280       dropout_3[0][0]                  
__________________________________________________________________________________________________
batch_normalization_6 (BatchNor (None, 13, 13, 80)   320         conv2d_6[0][0]                   
__________________________________________________________________________________________________
activation_6 (Activation)       (None, 13, 13, 80)   0           batch_normalization_6[0][0]      
__________________________________________________________________________________________________
conv2d_7 (Conv2D)               (None, 13, 13, 80)   57680       activation_6[0][0]               
__________________________________________________________________________________________________
batch_normalization_7 (BatchNor (None, 13, 13, 80)   320         conv2d_7[0][0]                   
__________________________________________________________________________________________________
activation_7 (Activation)       (None, 13, 13, 80)   0           batch_normalization_7[0][0]      
__________________________________________________________________________________________________
concatenate_3 (Concatenate)     (None, 13, 13, 140)  0           dropout_3[0][0]                  
                                                                 activation_7[0][0]               
__________________________________________________________________________________________________
dropout_4 (Dropout)             (None, 13, 13, 140)  0           concatenate_3[0][0]              
__________________________________________________________________________________________________
conv2d_transpose_1 (Conv2DTrans (None, 26, 26, 40)   22440       dropout_4[0][0]                  
__________________________________________________________________________________________________
concatenate_4 (Concatenate)     (None, 26, 26, 100)  0           conv2d_transpose_1[0][0]         
                                                                 concatenate_2[0][0]              
__________________________________________________________________________________________________
conv2d_8 (Conv2D)               (None, 26, 26, 40)   36040       concatenate_4[0][0]              
__________________________________________________________________________________________________
batch_normalization_8 (BatchNor (None, 26, 26, 40)   160         conv2d_8[0][0]                   
__________________________________________________________________________________________________
activation_8 (Activation)       (None, 26, 26, 40)   0           batch_normalization_8[0][0]      
__________________________________________________________________________________________________
conv2d_9 (Conv2D)               (None, 26, 26, 40)   14440       activation_8[0][0]               
__________________________________________________________________________________________________
batch_normalization_9 (BatchNor (None, 26, 26, 40)   160         conv2d_9[0][0]                   
__________________________________________________________________________________________________
activation_9 (Activation)       (None, 26, 26, 40)   0           batch_normalization_9[0][0]      
__________________________________________________________________________________________________
concatenate_5 (Concatenate)     (None, 26, 26, 140)  0           concatenate_4[0][0]              
                                                                 activation_9[0][0]               
__________________________________________________________________________________________________
dropout_5 (Dropout)             (None, 26, 26, 140)  0           concatenate_5[0][0]              
__________________________________________________________________________________________________
conv2d_transpose_2 (Conv2DTrans (None, 52, 52, 20)   11220       dropout_5[0][0]                  
__________________________________________________________________________________________________
concatenate_6 (Concatenate)     (None, 52, 52, 40)   0           conv2d_transpose_2[0][0]         
                                                                 activation_3[0][0]               
__________________________________________________________________________________________________
conv2d_10 (Conv2D)              (None, 52, 52, 20)   7220        concatenate_6[0][0]              
__________________________________________________________________________________________________
batch_normalization_10 (BatchNo (None, 52, 52, 20)   80          conv2d_10[0][0]                  
__________________________________________________________________________________________________
activation_10 (Activation)      (None, 52, 52, 20)   0           batch_normalization_10[0][0]     
__________________________________________________________________________________________________
conv2d_11 (Conv2D)              (None, 52, 52, 20)   3620        activation_10[0][0]              
__________________________________________________________________________________________________
batch_normalization_11 (BatchNo (None, 52, 52, 20)   80          conv2d_11[0][0]                  
__________________________________________________________________________________________________
activation_11 (Activation)      (None, 52, 52, 20)   0           batch_normalization_11[0][0]     
__________________________________________________________________________________________________
concatenate_7 (Concatenate)     (None, 52, 52, 60)   0           concatenate_6[0][0]              
                                                                 activation_11[0][0]              
__________________________________________________________________________________________________
dropout_6 (Dropout)             (None, 52, 52, 60)   0           concatenate_7[0][0]              
__________________________________________________________________________________________________
conv2d_12 (Conv2D)              (None, 52, 52, 13)   793         dropout_6[0][0]                  
==================================================================================================
Total params: 227,713
Trainable params: 52,993
Non-trainable params: 174,720
__________________________________________________________________________________________________
------------------------------------------------------------------
class_weights [6.49841486e-02 3.19966680e-02 7.50970181e-02 9.33357939e-03
…
Error in label values min 0.0 max 30.0      13-Hb
Error in label values min 0.0 max 4.0      14-MTT
ResNet model address /array/ssd/msmajdi/experiments/keras/exp6/models/sE12_Cascade_FM15_Res_Unet2_NL3_LS_MyJoint_US1_Main_Init_3T_CV_a/MultiClass_24567891011121314/sd0/model.h5
__________________________________________________________________________________________________
Layer (type)                    Output Shape         Param #     Connected to                     
==================================================================================================
input_1 (InputLayer)            (None, 80, 52, 1)    0                                            
__________________________________________________________________________________________________
conv2d_1 (Conv2D)               (None, 80, 52, 20)   200         input_1[0][0]                    
__________________________________________________________________________________________________
batch_normalization_1 (BatchNor (None, 80, 52, 20)   80          conv2d_1[0][0]                   
__________________________________________________________________________________________________
activation_1 (Activation)       (None, 80, 52, 20)   0           batch_normalization_1[0][0]      
__________________________________________________________________________________________________
dropout_1 (Dropout)             (None, 80, 52, 20)   0           activation_1[0][0]               
__________________________________________________________________________________________________
concatenate_1 (Concatenate)     (None, 80, 52, 21)   0           input_1[0][0]                    
                                                                 dropout_1[0][0]                  
__________________________________________________________________________________________________
conv2d_2 (Conv2D)               (None, 80, 52, 15)   2850        concatenate_1[0][0]              
__________________________________________________________________________________________________
batch_normalization_2 (BatchNor (None, 80, 52, 15)   60          conv2d_2[0][0]                   
__________________________________________________________________________________________________
activation_2 (Activation)       (None, 80, 52, 15)   0           batch_normalization_2[0][0]      
__________________________________________________________________________________________________
conv2d_3 (Conv2D)               (None, 80, 52, 15)   2040        activation_2[0][0]               
__________________________________________________________________________________________________
batch_normalization_3 (BatchNor (None, 80, 52, 15)   60          conv2d_3[0][0]                   
__________________________________________________________________________________________________
activation_3 (Activation)       (None, 80, 52, 15)   0           batch_normalization_3[0][0]      
__________________________________________________________________________________________________
max_pooling2d_1 (MaxPooling2D)  (None, 40, 26, 15)   0           activation_3[0][0]               
__________________________________________________________________________________________________
dropout_2 (Dropout)             (None, 40, 26, 15)   0           max_pooling2d_1[0][0]            
__________________________________________________________________________________________________
conv2d_4 (Conv2D)               (None, 40, 26, 30)   4080        dropout_2[0][0]                  
__________________________________________________________________________________________________
batch_normalization_4 (BatchNor (None, 40, 26, 30)   120         conv2d_4[0][0]                   
__________________________________________________________________________________________________
activation_4 (Activation)       (None, 40, 26, 30)   0           batch_normalization_4[0][0]      
__________________________________________________________________________________________________
conv2d_5 (Conv2D)               (None, 40, 26, 30)   8130        activation_4[0][0]               
__________________________________________________________________________________________________
batch_normalization_5 (BatchNor (None, 40, 26, 30)   120         conv2d_5[0][0]                   
__________________________________________________________________________________________________
activation_5 (Activation)       (None, 40, 26, 30)   0           batch_normalization_5[0][0]      
__________________________________________________________________________________________________
concatenate_2 (Concatenate)     (None, 40, 26, 45)   0           dropout_2[0][0]                  
                                                                 activation_5[0][0]               
__________________________________________________________________________________________________
max_pooling2d_2 (MaxPooling2D)  (None, 20, 13, 45)   0           concatenate_2[0][0]              
__________________________________________________________________________________________________
dropout_3 (Dropout)             (None, 20, 13, 45)   0           max_pooling2d_2[0][0]            
__________________________________________________________________________________________________
conv2d_6 (Conv2D)               (None, 20, 13, 60)   24360       dropout_3[0][0]                  
__________________________________________________________________________________________________
batch_normalization_6 (BatchNor (None, 20, 13, 60)   240         conv2d_6[0][0]                   
__________________________________________________________________________________________________
activation_6 (Activation)       (None, 20, 13, 60)   0           batch_normalization_6[0][0]      
__________________________________________________________________________________________________
conv2d_7 (Conv2D)               (None, 20, 13, 60)   32460       activation_6[0][0]               
__________________________________________________________________________________________________
batch_normalization_7 (BatchNor (None, 20, 13, 60)   240         conv2d_7[0][0]                   
__________________________________________________________________________________________________
activation_7 (Activation)       (None, 20, 13, 60)   0           batch_normalization_7[0][0]      
__________________________________________________________________________________________________
concatenate_3 (Concatenate)     (None, 20, 13, 105)  0           dropout_3[0][0]                  
                                                                 activation_7[0][0]               
__________________________________________________________________________________________________
dropout_4 (Dropout)             (None, 20, 13, 105)  0           concatenate_3[0][0]              
__________________________________________________________________________________________________
conv2d_transpose_1 (Conv2DTrans (None, 40, 26, 30)   12630       dropout_4[0][0]                  
__________________________________________________________________________________________________
concatenate_4 (Concatenate)     (None, 40, 26, 75)   0           conv2d_transpose_1[0][0]         
                                                                 concatenate_2[0][0]              
__________________________________________________________________________________________________
conv2d_8 (Conv2D)               (None, 40, 26, 30)   20280       concatenate_4[0][0]              
__________________________________________________________________________________________________
batch_normalization_8 (BatchNor (None, 40, 26, 30)   120         conv2d_8[0][0]                   
__________________________________________________________________________________________________
activation_8 (Activation)       (None, 40, 26, 30)   0           batch_normalization_8[0][0]      
__________________________________________________________________________________________________
conv2d_9 (Conv2D)               (None, 40, 26, 30)   8130        activation_8[0][0]               
__________________________________________________________________________________________________
batch_normalization_9 (BatchNor (None, 40, 26, 30)   120         conv2d_9[0][0]                   
__________________________________________________________________________________________________
activation_9 (Activation)       (None, 40, 26, 30)   0           batch_normalization_9[0][0]      
__________________________________________________________________________________________________
concatenate_5 (Concatenate)     (None, 40, 26, 105)  0           concatenate_4[0][0]              
                                                                 activation_9[0][0]               
__________________________________________________________________________________________________
dropout_5 (Dropout)             (None, 40, 26, 105)  0           concatenate_5[0][0]              
__________________________________________________________________________________________________
conv2d_transpose_2 (Conv2DTrans (None, 80, 52, 15)   6315        dropout_5[0][0]                  
__________________________________________________________________________________________________
concatenate_6 (Concatenate)     (None, 80, 52, 30)   0           conv2d_transpose_2[0][0]         
                                                                 activation_3[0][0]               
__________________________________________________________________________________________________
conv2d_10 (Conv2D)              (None, 80, 52, 15)   4065        concatenate_6[0][0]              
__________________________________________________________________________________________________
batch_normalization_10 (BatchNo (None, 80, 52, 15)   60          conv2d_10[0][0]                  
__________________________________________________________________________________________________
activation_10 (Activation)      (None, 80, 52, 15)   0           batch_normalization_10[0][0]     
__________________________________________________________________________________________________
conv2d_11 (Conv2D)              (None, 80, 52, 15)   2040        activation_10[0][0]              
__________________________________________________________________________________________________
batch_normalization_11 (BatchNo (None, 80, 52, 15)   60          conv2d_11[0][0]                  
__________________________________________________________________________________________________
activation_11 (Activation)      (None, 80, 52, 15)   0           batch_normalization_11[0][0]     
__________________________________________________________________________________________________
concatenate_7 (Concatenate)     (None, 80, 52, 45)   0           concatenate_6[0][0]              
                                                                 activation_11[0][0]              
__________________________________________________________________________________________________
dropout_6 (Dropout)             (None, 80, 52, 45)   0           concatenate_7[0][0]              
__________________________________________________________________________________________________
conv2d_12 (Conv2D)              (None, 80, 52, 13)   598         dropout_6[0][0]                  
==================================================================================================
Total params: 129,458
Trainable params: 30,958
Non-trainable params: 98,500
__________________________________________________________________________________________________
------------------------------------------------------------------
class_weights [6.48913484e-02 3.19509754e-02 7.49897764e-02 9.32025064e-03
…
Error in label values min 0.0 max 30.0      13-Hb
Error in label values min 0.0 max 4.0      14-MTT
ResNet model address /array/ssd/msmajdi/experiments/keras/exp6/models/sE12_Cascade_FM30_Res_Unet2_NL3_LS_MyJoint_US1_Main_Init_3T_CV_a/MultiClass_24567891011121314/sd2/model.h5
__________________________________________________________________________________________________
Layer (type)                    Output Shape         Param #     Connected to                     
==================================================================================================
input_1 (InputLayer)            (None, 52, 80, 1)    0                                            
__________________________________________________________________________________________________
conv2d_1 (Conv2D)               (None, 52, 80, 30)   300         input_1[0][0]                    
__________________________________________________________________________________________________
batch_normalization_1 (BatchNor (None, 52, 80, 30)   120         conv2d_1[0][0]                   
__________________________________________________________________________________________________
activation_1 (Activation)       (None, 52, 80, 30)   0           batch_normalization_1[0][0]      
__________________________________________________________________________________________________
dropout_1 (Dropout)             (None, 52, 80, 30)   0           activation_1[0][0]               
__________________________________________________________________________________________________
concatenate_1 (Concatenate)     (None, 52, 80, 31)   0           input_1[0][0]                    
                                                                 dropout_1[0][0]                  
__________________________________________________________________________________________________
conv2d_2 (Conv2D)               (None, 52, 80, 30)   8400        concatenate_1[0][0]              
__________________________________________________________________________________________________
batch_normalization_2 (BatchNor (None, 52, 80, 30)   120         conv2d_2[0][0]                   
__________________________________________________________________________________________________
activation_2 (Activation)       (None, 52, 80, 30)   0           batch_normalization_2[0][0]      
__________________________________________________________________________________________________
conv2d_3 (Conv2D)               (None, 52, 80, 30)   8130        activation_2[0][0]               
__________________________________________________________________________________________________
batch_normalization_3 (BatchNor (None, 52, 80, 30)   120         conv2d_3[0][0]                   
__________________________________________________________________________________________________
activation_3 (Activation)       (None, 52, 80, 30)   0           batch_normalization_3[0][0]      
__________________________________________________________________________________________________
max_pooling2d_1 (MaxPooling2D)  (None, 26, 40, 30)   0           activation_3[0][0]               
__________________________________________________________________________________________________
dropout_2 (Dropout)             (None, 26, 40, 30)   0           max_pooling2d_1[0][0]            
__________________________________________________________________________________________________
conv2d_4 (Conv2D)               (None, 26, 40, 60)   16260       dropout_2[0][0]                  
__________________________________________________________________________________________________
batch_normalization_4 (BatchNor (None, 26, 40, 60)   240         conv2d_4[0][0]                   
__________________________________________________________________________________________________
activation_4 (Activation)       (None, 26, 40, 60)   0           batch_normalization_4[0][0]      
__________________________________________________________________________________________________
conv2d_5 (Conv2D)               (None, 26, 40, 60)   32460       activation_4[0][0]               
__________________________________________________________________________________________________
batch_normalization_5 (BatchNor (None, 26, 40, 60)   240         conv2d_5[0][0]                   
__________________________________________________________________________________________________
activation_5 (Activation)       (None, 26, 40, 60)   0           batch_normalization_5[0][0]      
__________________________________________________________________________________________________
concatenate_2 (Concatenate)     (None, 26, 40, 90)   0           dropout_2[0][0]                  
                                                                 activation_5[0][0]               
__________________________________________________________________________________________________
max_pooling2d_2 (MaxPooling2D)  (None, 13, 20, 90)   0           concatenate_2[0][0]              
__________________________________________________________________________________________________
dropout_3 (Dropout)             (None, 13, 20, 90)   0           max_pooling2d_2[0][0]            
__________________________________________________________________________________________________
conv2d_6 (Conv2D)               (None, 13, 20, 120)  97320       dropout_3[0][0]                  
__________________________________________________________________________________________________
batch_normalization_6 (BatchNor (None, 13, 20, 120)  480         conv2d_6[0][0]                   
__________________________________________________________________________________________________
activation_6 (Activation)       (None, 13, 20, 120)  0           batch_normalization_6[0][0]      
__________________________________________________________________________________________________
conv2d_7 (Conv2D)               (None, 13, 20, 120)  129720      activation_6[0][0]               
__________________________________________________________________________________________________
batch_normalization_7 (BatchNor (None, 13, 20, 120)  480         conv2d_7[0][0]                   
__________________________________________________________________________________________________
activation_7 (Activation)       (None, 13, 20, 120)  0           batch_normalization_7[0][0]      
__________________________________________________________________________________________________
concatenate_3 (Concatenate)     (None, 13, 20, 210)  0           dropout_3[0][0]                  
                                                                 activation_7[0][0]               
__________________________________________________________________________________________________
dropout_4 (Dropout)             (None, 13, 20, 210)  0           concatenate_3[0][0]              
__________________________________________________________________________________________________
conv2d_transpose_1 (Conv2DTrans (None, 26, 40, 60)   50460       dropout_4[0][0]                  
__________________________________________________________________________________________________
concatenate_4 (Concatenate)     (None, 26, 40, 150)  0           conv2d_transpose_1[0][0]         
                                                                 concatenate_2[0][0]              
__________________________________________________________________________________________________
conv2d_8 (Conv2D)               (None, 26, 40, 60)   81060       concatenate_4[0][0]              
__________________________________________________________________________________________________
batch_normalization_8 (BatchNor (None, 26, 40, 60)   240         conv2d_8[0][0]                   
__________________________________________________________________________________________________
activation_8 (Activation)       (None, 26, 40, 60)   0           batch_normalization_8[0][0]      
__________________________________________________________________________________________________
conv2d_9 (Conv2D)               (None, 26, 40, 60)   32460       activation_8[0][0]               
__________________________________________________________________________________________________
batch_normalization_9 (BatchNor (None, 26, 40, 60)   240         conv2d_9[0][0]                   
__________________________________________________________________________________________________
activation_9 (Activation)       (None, 26, 40, 60)   0           batch_normalization_9[0][0]      
__________________________________________________________________________________________________
concatenate_5 (Concatenate)     (None, 26, 40, 210)  0           concatenate_4[0][0]              
                                                                 activation_9[0][0]               
__________________________________________________________________________________________________
dropout_5 (Dropout)             (None, 26, 40, 210)  0           concatenate_5[0][0]              
__________________________________________________________________________________________________
conv2d_transpose_2 (Conv2DTrans (None, 52, 80, 30)   25230       dropout_5[0][0]                  
__________________________________________________________________________________________________
concatenate_6 (Concatenate)     (None, 52, 80, 60)   0           conv2d_transpose_2[0][0]         
                                                                 activation_3[0][0]               
__________________________________________________________________________________________________
conv2d_10 (Conv2D)              (None, 52, 80, 30)   16230       concatenate_6[0][0]              
__________________________________________________________________________________________________
batch_normalization_10 (BatchNo (None, 52, 80, 30)   120         conv2d_10[0][0]                  
__________________________________________________________________________________________________
activation_10 (Activation)      (None, 52, 80, 30)   0           batch_normalization_10[0][0]     
__________________________________________________________________________________________________
conv2d_11 (Conv2D)              (None, 52, 80, 30)   8130        activation_10[0][0]              
__________________________________________________________________________________________________
batch_normalization_11 (BatchNo (None, 52, 80, 30)   120         conv2d_11[0][0]                  
__________________________________________________________________________________________________
activation_11 (Activation)      (None, 52, 80, 30)   0           batch_normalization_11[0][0]     
__________________________________________________________________________________________________
concatenate_7 (Concatenate)     (None, 52, 80, 90)   0           concatenate_6[0][0]              
                                                                 activation_11[0][0]              
__________________________________________________________________________________________________
dropout_6 (Dropout)             (None, 52, 80, 90)   0           concatenate_7[0][0]              
__________________________________________________________________________________________________
conv2d_12 (Conv2D)              (None, 52, 80, 13)   1183        dropout_6[0][0]                  
==================================================================================================
Total params: 509,863
Trainable params: 117,583
Non-trainable params: 392,280
__________________________________________________________________________________________________
------------------------------------------------------------------
class_weights [6.47467835e-02 3.18797950e-02 7.48227142e-02 9.29948699e-03
…
Error in label values min 0.0 max 30.0      13-Hb
Error in label values min 0.0 max 4.0      14-MTT
ResNet model address /array/ssd/msmajdi/experiments/keras/exp6/models/sE12_Cascade_FM20_Res_Unet2_NL3_LS_MyJoint_US1_Main_Init_3T_CV_a/MultiClass_24567891011121314/sd1/model.h5
__________________________________________________________________________________________________
Layer (type)                    Output Shape         Param #     Connected to                     
==================================================================================================
input_1 (InputLayer)            (None, 52, 52, 1)    0                                            
__________________________________________________________________________________________________
conv2d_1 (Conv2D)               (None, 52, 52, 30)   300         input_1[0][0]                    
__________________________________________________________________________________________________
batch_normalization_1 (BatchNor (None, 52, 52, 30)   120         conv2d_1[0][0]                   
__________________________________________________________________________________________________
activation_1 (Activation)       (None, 52, 52, 30)   0           batch_normalization_1[0][0]      
__________________________________________________________________________________________________
dropout_1 (Dropout)             (None, 52, 52, 30)   0           activation_1[0][0]               
__________________________________________________________________________________________________
concatenate_1 (Concatenate)     (None, 52, 52, 31)   0           input_1[0][0]                    
                                                                 dropout_1[0][0]                  
__________________________________________________________________________________________________
conv2d_2 (Conv2D)               (None, 52, 52, 20)   5600        concatenate_1[0][0]              
__________________________________________________________________________________________________
batch_normalization_2 (BatchNor (None, 52, 52, 20)   80          conv2d_2[0][0]                   
__________________________________________________________________________________________________
activation_2 (Activation)       (None, 52, 52, 20)   0           batch_normalization_2[0][0]      
__________________________________________________________________________________________________
conv2d_3 (Conv2D)               (None, 52, 52, 20)   3620        activation_2[0][0]               
__________________________________________________________________________________________________
batch_normalization_3 (BatchNor (None, 52, 52, 20)   80          conv2d_3[0][0]                   
__________________________________________________________________________________________________
activation_3 (Activation)       (None, 52, 52, 20)   0           batch_normalization_3[0][0]      
__________________________________________________________________________________________________
max_pooling2d_1 (MaxPooling2D)  (None, 26, 26, 20)   0           activation_3[0][0]               
__________________________________________________________________________________________________
dropout_2 (Dropout)             (None, 26, 26, 20)   0           max_pooling2d_1[0][0]            
__________________________________________________________________________________________________
conv2d_4 (Conv2D)               (None, 26, 26, 40)   7240        dropout_2[0][0]                  
__________________________________________________________________________________________________
batch_normalization_4 (BatchNor (None, 26, 26, 40)   160         conv2d_4[0][0]                   
__________________________________________________________________________________________________
activation_4 (Activation)       (None, 26, 26, 40)   0           batch_normalization_4[0][0]      
__________________________________________________________________________________________________
conv2d_5 (Conv2D)               (None, 26, 26, 40)   14440       activation_4[0][0]               
__________________________________________________________________________________________________
batch_normalization_5 (BatchNor (None, 26, 26, 40)   160         conv2d_5[0][0]                   
__________________________________________________________________________________________________
activation_5 (Activation)       (None, 26, 26, 40)   0           batch_normalization_5[0][0]      
__________________________________________________________________________________________________
concatenate_2 (Concatenate)     (None, 26, 26, 60)   0           dropout_2[0][0]                  
                                                                 activation_5[0][0]               
__________________________________________________________________________________________________
max_pooling2d_2 (MaxPooling2D)  (None, 13, 13, 60)   0           concatenate_2[0][0]              
__________________________________________________________________________________________________
dropout_3 (Dropout)             (None, 13, 13, 60)   0           max_pooling2d_2[0][0]            
__________________________________________________________________________________________________
conv2d_6 (Conv2D)               (None, 13, 13, 80)   43280       dropout_3[0][0]                  
__________________________________________________________________________________________________
batch_normalization_6 (BatchNor (None, 13, 13, 80)   320         conv2d_6[0][0]                   
__________________________________________________________________________________________________
activation_6 (Activation)       (None, 13, 13, 80)   0           batch_normalization_6[0][0]      
__________________________________________________________________________________________________
conv2d_7 (Conv2D)               (None, 13, 13, 80)   57680       activation_6[0][0]               
__________________________________________________________________________________________________
batch_normalization_7 (BatchNor (None, 13, 13, 80)   320         conv2d_7[0][0]                   
__________________________________________________________________________________________________
activation_7 (Activation)       (None, 13, 13, 80)   0           batch_normalization_7[0][0]      
__________________________________________________________________________________________________
concatenate_3 (Concatenate)     (None, 13, 13, 140)  0           dropout_3[0][0]                  
                                                                 activation_7[0][0]               
__________________________________________________________________________________________________
dropout_4 (Dropout)             (None, 13, 13, 140)  0           concatenate_3[0][0]              
__________________________________________________________________________________________________
conv2d_transpose_1 (Conv2DTrans (None, 26, 26, 40)   22440       dropout_4[0][0]                  
__________________________________________________________________________________________________
concatenate_4 (Concatenate)     (None, 26, 26, 100)  0           conv2d_transpose_1[0][0]         
                                                                 concatenate_2[0][0]              
__________________________________________________________________________________________________
conv2d_8 (Conv2D)               (None, 26, 26, 40)   36040       concatenate_4[0][0]              
__________________________________________________________________________________________________
batch_normalization_8 (BatchNor (None, 26, 26, 40)   160         conv2d_8[0][0]                   
__________________________________________________________________________________________________
activation_8 (Activation)       (None, 26, 26, 40)   0           batch_normalization_8[0][0]      
__________________________________________________________________________________________________
conv2d_9 (Conv2D)               (None, 26, 26, 40)   14440       activation_8[0][0]               
__________________________________________________________________________________________________
batch_normalization_9 (BatchNor (None, 26, 26, 40)   160         conv2d_9[0][0]                   
__________________________________________________________________________________________________
activation_9 (Activation)       (None, 26, 26, 40)   0           batch_normalization_9[0][0]      
__________________________________________________________________________________________________
concatenate_5 (Concatenate)     (None, 26, 26, 140)  0           concatenate_4[0][0]              
                                                                 activation_9[0][0]               
__________________________________________________________________________________________________
dropout_5 (Dropout)             (None, 26, 26, 140)  0           concatenate_5[0][0]              
__________________________________________________________________________________________________
conv2d_transpose_2 (Conv2DTrans (None, 52, 52, 20)   11220       dropout_5[0][0]                  
__________________________________________________________________________________________________
concatenate_6 (Concatenate)     (None, 52, 52, 40)   0           conv2d_transpose_2[0][0]         
                                                                 activation_3[0][0]               
__________________________________________________________________________________________________
conv2d_10 (Conv2D)              (None, 52, 52, 20)   7220        concatenate_6[0][0]              
__________________________________________________________________________________________________
batch_normalization_10 (BatchNo (None, 52, 52, 20)   80          conv2d_10[0][0]                  
__________________________________________________________________________________________________
activation_10 (Activation)      (None, 52, 52, 20)   0           batch_normalization_10[0][0]     
__________________________________________________________________________________________________
conv2d_11 (Conv2D)              (None, 52, 52, 20)   3620        activation_10[0][0]              
__________________________________________________________________________________________________
batch_normalization_11 (BatchNo (None, 52, 52, 20)   80          conv2d_11[0][0]                  
__________________________________________________________________________________________________
activation_11 (Activation)      (None, 52, 52, 20)   0           batch_normalization_11[0][0]     
__________________________________________________________________________________________________
concatenate_7 (Concatenate)     (None, 52, 52, 60)   0           concatenate_6[0][0]              
                                                                 activation_11[0][0]              
__________________________________________________________________________________________________
dropout_6 (Dropout)             (None, 52, 52, 60)   0           concatenate_7[0][0]              
__________________________________________________________________________________________________
conv2d_12 (Conv2D)              (None, 52, 52, 13)   793         dropout_6[0][0]                  
==================================================================================================
Total params: 229,653
Trainable params: 54,913
Non-trainable params: 174,740
__________________________________________________________________________________________________
------------------------------------------------------------------
class_weights [6.49841486e-02 3.19966680e-02 7.50970181e-02 9.33357939e-03
…
Error in label values min 0.0 max 30.0      13-Hb
Error in label values min 0.0 max 4.0      14-MTT
ResNet model address /array/ssd/msmajdi/experiments/keras/exp6/models/sE12_Cascade_FM15_Res_Unet2_NL3_LS_MyJoint_US1_Main_Init_3T_CV_a/MultiClass_24567891011121314/sd0/model.h5
__________________________________________________________________________________________________
Layer (type)                    Output Shape         Param #     Connected to                     
==================================================================================================
input_1 (InputLayer)            (None, 80, 52, 1)    0                                            
__________________________________________________________________________________________________
conv2d_1 (Conv2D)               (None, 80, 52, 30)   300         input_1[0][0]                    
__________________________________________________________________________________________________
batch_normalization_1 (BatchNor (None, 80, 52, 30)   120         conv2d_1[0][0]                   
__________________________________________________________________________________________________
activation_1 (Activation)       (None, 80, 52, 30)   0           batch_normalization_1[0][0]      
__________________________________________________________________________________________________
dropout_1 (Dropout)             (None, 80, 52, 30)   0           activation_1[0][0]               
__________________________________________________________________________________________________
concatenate_1 (Concatenate)     (None, 80, 52, 31)   0           input_1[0][0]                    
                                                                 dropout_1[0][0]                  
__________________________________________________________________________________________________
conv2d_2 (Conv2D)               (None, 80, 52, 15)   4200        concatenate_1[0][0]              
__________________________________________________________________________________________________
batch_normalization_2 (BatchNor (None, 80, 52, 15)   60          conv2d_2[0][0]                   
__________________________________________________________________________________________________
activation_2 (Activation)       (None, 80, 52, 15)   0           batch_normalization_2[0][0]      
__________________________________________________________________________________________________
conv2d_3 (Conv2D)               (None, 80, 52, 15)   2040        activation_2[0][0]               
__________________________________________________________________________________________________
batch_normalization_3 (BatchNor (None, 80, 52, 15)   60          conv2d_3[0][0]                   
__________________________________________________________________________________________________
activation_3 (Activation)       (None, 80, 52, 15)   0           batch_normalization_3[0][0]      
__________________________________________________________________________________________________
max_pooling2d_1 (MaxPooling2D)  (None, 40, 26, 15)   0           activation_3[0][0]               
__________________________________________________________________________________________________
dropout_2 (Dropout)             (None, 40, 26, 15)   0           max_pooling2d_1[0][0]            
__________________________________________________________________________________________________
conv2d_4 (Conv2D)               (None, 40, 26, 30)   4080        dropout_2[0][0]                  
__________________________________________________________________________________________________
batch_normalization_4 (BatchNor (None, 40, 26, 30)   120         conv2d_4[0][0]                   
__________________________________________________________________________________________________
activation_4 (Activation)       (None, 40, 26, 30)   0           batch_normalization_4[0][0]      
__________________________________________________________________________________________________
conv2d_5 (Conv2D)               (None, 40, 26, 30)   8130        activation_4[0][0]               
__________________________________________________________________________________________________
batch_normalization_5 (BatchNor (None, 40, 26, 30)   120         conv2d_5[0][0]                   
__________________________________________________________________________________________________
activation_5 (Activation)       (None, 40, 26, 30)   0           batch_normalization_5[0][0]      
__________________________________________________________________________________________________
concatenate_2 (Concatenate)     (None, 40, 26, 45)   0           dropout_2[0][0]                  
                                                                 activation_5[0][0]               
__________________________________________________________________________________________________
max_pooling2d_2 (MaxPooling2D)  (None, 20, 13, 45)   0           concatenate_2[0][0]              
__________________________________________________________________________________________________
dropout_3 (Dropout)             (None, 20, 13, 45)   0           max_pooling2d_2[0][0]            
__________________________________________________________________________________________________
conv2d_6 (Conv2D)               (None, 20, 13, 60)   24360       dropout_3[0][0]                  
__________________________________________________________________________________________________
batch_normalization_6 (BatchNor (None, 20, 13, 60)   240         conv2d_6[0][0]                   
__________________________________________________________________________________________________
activation_6 (Activation)       (None, 20, 13, 60)   0           batch_normalization_6[0][0]      
__________________________________________________________________________________________________
conv2d_7 (Conv2D)               (None, 20, 13, 60)   32460       activation_6[0][0]               
__________________________________________________________________________________________________
batch_normalization_7 (BatchNor (None, 20, 13, 60)   240         conv2d_7[0][0]                   
__________________________________________________________________________________________________
activation_7 (Activation)       (None, 20, 13, 60)   0           batch_normalization_7[0][0]      
__________________________________________________________________________________________________
concatenate_3 (Concatenate)     (None, 20, 13, 105)  0           dropout_3[0][0]                  
                                                                 activation_7[0][0]               
__________________________________________________________________________________________________
dropout_4 (Dropout)             (None, 20, 13, 105)  0           concatenate_3[0][0]              
__________________________________________________________________________________________________
conv2d_transpose_1 (Conv2DTrans (None, 40, 26, 30)   12630       dropout_4[0][0]                  
__________________________________________________________________________________________________
concatenate_4 (Concatenate)     (None, 40, 26, 75)   0           conv2d_transpose_1[0][0]         
                                                                 concatenate_2[0][0]              
__________________________________________________________________________________________________
conv2d_8 (Conv2D)               (None, 40, 26, 30)   20280       concatenate_4[0][0]              
__________________________________________________________________________________________________
batch_normalization_8 (BatchNor (None, 40, 26, 30)   120         conv2d_8[0][0]                   
__________________________________________________________________________________________________
activation_8 (Activation)       (None, 40, 26, 30)   0           batch_normalization_8[0][0]      
__________________________________________________________________________________________________
conv2d_9 (Conv2D)               (None, 40, 26, 30)   8130        activation_8[0][0]               
__________________________________________________________________________________________________
batch_normalization_9 (BatchNor (None, 40, 26, 30)   120         conv2d_9[0][0]                   
__________________________________________________________________________________________________
activation_9 (Activation)       (None, 40, 26, 30)   0           batch_normalization_9[0][0]      
__________________________________________________________________________________________________
concatenate_5 (Concatenate)     (None, 40, 26, 105)  0           concatenate_4[0][0]              
                                                                 activation_9[0][0]               
__________________________________________________________________________________________________
dropout_5 (Dropout)             (None, 40, 26, 105)  0           concatenate_5[0][0]              
__________________________________________________________________________________________________
conv2d_transpose_2 (Conv2DTrans (None, 80, 52, 15)   6315        dropout_5[0][0]                  
__________________________________________________________________________________________________
concatenate_6 (Concatenate)     (None, 80, 52, 30)   0           conv2d_transpose_2[0][0]         
                                                                 activation_3[0][0]               
__________________________________________________________________________________________________
conv2d_10 (Conv2D)              (None, 80, 52, 15)   4065        concatenate_6[0][0]              
__________________________________________________________________________________________________
batch_normalization_10 (BatchNo (None, 80, 52, 15)   60          conv2d_10[0][0]                  
__________________________________________________________________________________________________
activation_10 (Activation)      (None, 80, 52, 15)   0           batch_normalization_10[0][0]     
__________________________________________________________________________________________________
conv2d_11 (Conv2D)              (None, 80, 52, 15)   2040        activation_10[0][0]              
__________________________________________________________________________________________________
batch_normalization_11 (BatchNo (None, 80, 52, 15)   60          conv2d_11[0][0]                  
__________________________________________________________________________________________________
activation_11 (Activation)      (None, 80, 52, 15)   0           batch_normalization_11[0][0]     
__________________________________________________________________________________________________
concatenate_7 (Concatenate)     (None, 80, 52, 45)   0           concatenate_6[0][0]              
                                                                 activation_11[0][0]              
__________________________________________________________________________________________________
dropout_6 (Dropout)             (None, 80, 52, 45)   0           concatenate_7[0][0]              
__________________________________________________________________________________________________
conv2d_12 (Conv2D)              (None, 80, 52, 13)   598         dropout_6[0][0]                  
==================================================================================================
Total params: 130,948
Trainable params: 32,428
Non-trainable params: 98,520
__________________________________________________________________________________________________
------------------------------------------------------------------
class_weights [6.48913484e-02 3.19509754e-02 7.49897764e-02 9.32025064e-03
…
Error in label values min 0.0 max 30.0      13-Hb
Error in label values min 0.0 max 4.0      14-MTT
ResNet model address /array/ssd/msmajdi/experiments/keras/exp6/models/sE12_Cascade_FM30_Res_Unet2_NL3_LS_MyJoint_US1_Main_Init_3T_CV_a/MultiClass_24567891011121314/sd2/model.h5
__________________________________________________________________________________________________
Layer (type)                    Output Shape         Param #     Connected to                     
==================================================================================================
input_1 (InputLayer)            (None, 52, 80, 1)    0                                            
__________________________________________________________________________________________________
conv2d_1 (Conv2D)               (None, 52, 80, 40)   400         input_1[0][0]                    
__________________________________________________________________________________________________
batch_normalization_1 (BatchNor (None, 52, 80, 40)   160         conv2d_1[0][0]                   
__________________________________________________________________________________________________
activation_1 (Activation)       (None, 52, 80, 40)   0           batch_normalization_1[0][0]      
__________________________________________________________________________________________________
dropout_1 (Dropout)             (None, 52, 80, 40)   0           activation_1[0][0]               
__________________________________________________________________________________________________
concatenate_1 (Concatenate)     (None, 52, 80, 41)   0           input_1[0][0]                    
                                                                 dropout_1[0][0]                  
__________________________________________________________________________________________________
conv2d_2 (Conv2D)               (None, 52, 80, 30)   11100       concatenate_1[0][0]              
__________________________________________________________________________________________________
batch_normalization_2 (BatchNor (None, 52, 80, 30)   120         conv2d_2[0][0]                   
__________________________________________________________________________________________________
activation_2 (Activation)       (None, 52, 80, 30)   0           batch_normalization_2[0][0]      
__________________________________________________________________________________________________
conv2d_3 (Conv2D)               (None, 52, 80, 30)   8130        activation_2[0][0]               
__________________________________________________________________________________________________
batch_normalization_3 (BatchNor (None, 52, 80, 30)   120         conv2d_3[0][0]                   
__________________________________________________________________________________________________
activation_3 (Activation)       (None, 52, 80, 30)   0           batch_normalization_3[0][0]      
__________________________________________________________________________________________________
max_pooling2d_1 (MaxPooling2D)  (None, 26, 40, 30)   0           activation_3[0][0]               
__________________________________________________________________________________________________
dropout_2 (Dropout)             (None, 26, 40, 30)   0           max_pooling2d_1[0][0]            
__________________________________________________________________________________________________
conv2d_4 (Conv2D)               (None, 26, 40, 60)   16260       dropout_2[0][0]                  
__________________________________________________________________________________________________
batch_normalization_4 (BatchNor (None, 26, 40, 60)   240         conv2d_4[0][0]                   
__________________________________________________________________________________________________
activation_4 (Activation)       (None, 26, 40, 60)   0           batch_normalization_4[0][0]      
__________________________________________________________________________________________________
conv2d_5 (Conv2D)               (None, 26, 40, 60)   32460       activation_4[0][0]               
__________________________________________________________________________________________________
batch_normalization_5 (BatchNor (None, 26, 40, 60)   240         conv2d_5[0][0]                   
__________________________________________________________________________________________________
activation_5 (Activation)       (None, 26, 40, 60)   0           batch_normalization_5[0][0]      
__________________________________________________________________________________________________
concatenate_2 (Concatenate)     (None, 26, 40, 90)   0           dropout_2[0][0]                  
                                                                 activation_5[0][0]               
__________________________________________________________________________________________________
max_pooling2d_2 (MaxPooling2D)  (None, 13, 20, 90)   0           concatenate_2[0][0]              
__________________________________________________________________________________________________
dropout_3 (Dropout)             (None, 13, 20, 90)   0           max_pooling2d_2[0][0]            
__________________________________________________________________________________________________
conv2d_6 (Conv2D)               (None, 13, 20, 120)  97320       dropout_3[0][0]                  
__________________________________________________________________________________________________
batch_normalization_6 (BatchNor (None, 13, 20, 120)  480         conv2d_6[0][0]                   
__________________________________________________________________________________________________
activation_6 (Activation)       (None, 13, 20, 120)  0           batch_normalization_6[0][0]      
__________________________________________________________________________________________________
conv2d_7 (Conv2D)               (None, 13, 20, 120)  129720      activation_6[0][0]               
__________________________________________________________________________________________________
batch_normalization_7 (BatchNor (None, 13, 20, 120)  480         conv2d_7[0][0]                   
__________________________________________________________________________________________________
activation_7 (Activation)       (None, 13, 20, 120)  0           batch_normalization_7[0][0]      
__________________________________________________________________________________________________
concatenate_3 (Concatenate)     (None, 13, 20, 210)  0           dropout_3[0][0]                  
                                                                 activation_7[0][0]               
__________________________________________________________________________________________________
dropout_4 (Dropout)             (None, 13, 20, 210)  0           concatenate_3[0][0]              
__________________________________________________________________________________________________
conv2d_transpose_1 (Conv2DTrans (None, 26, 40, 60)   50460       dropout_4[0][0]                  
__________________________________________________________________________________________________
concatenate_4 (Concatenate)     (None, 26, 40, 150)  0           conv2d_transpose_1[0][0]         
                                                                 concatenate_2[0][0]              
__________________________________________________________________________________________________
conv2d_8 (Conv2D)               (None, 26, 40, 60)   81060       concatenate_4[0][0]              
__________________________________________________________________________________________________
batch_normalization_8 (BatchNor (None, 26, 40, 60)   240         conv2d_8[0][0]                   
__________________________________________________________________________________________________
activation_8 (Activation)       (None, 26, 40, 60)   0           batch_normalization_8[0][0]      
__________________________________________________________________________________________________
conv2d_9 (Conv2D)               (None, 26, 40, 60)   32460       activation_8[0][0]               
__________________________________________________________________________________________________
batch_normalization_9 (BatchNor (None, 26, 40, 60)   240         conv2d_9[0][0]                   
__________________________________________________________________________________________________
activation_9 (Activation)       (None, 26, 40, 60)   0           batch_normalization_9[0][0]      
__________________________________________________________________________________________________
concatenate_5 (Concatenate)     (None, 26, 40, 210)  0           concatenate_4[0][0]              
                                                                 activation_9[0][0]               
__________________________________________________________________________________________________
dropout_5 (Dropout)             (None, 26, 40, 210)  0           concatenate_5[0][0]              
__________________________________________________________________________________________________
conv2d_transpose_2 (Conv2DTrans (None, 52, 80, 30)   25230       dropout_5[0][0]                  
__________________________________________________________________________________________________
concatenate_6 (Concatenate)     (None, 52, 80, 60)   0           conv2d_transpose_2[0][0]         
                                                                 activation_3[0][0]               
__________________________________________________________________________________________________
conv2d_10 (Conv2D)              (None, 52, 80, 30)   16230       concatenate_6[0][0]              
__________________________________________________________________________________________________
batch_normalization_10 (BatchNo (None, 52, 80, 30)   120         conv2d_10[0][0]                  
__________________________________________________________________________________________________
activation_10 (Activation)      (None, 52, 80, 30)   0           batch_normalization_10[0][0]     
__________________________________________________________________________________________________
conv2d_11 (Conv2D)              (None, 52, 80, 30)   8130        activation_10[0][0]              
__________________________________________________________________________________________________
batch_normalization_11 (BatchNo (None, 52, 80, 30)   120         conv2d_11[0][0]                  
__________________________________________________________________________________________________
activation_11 (Activation)      (None, 52, 80, 30)   0           batch_normalization_11[0][0]     
__________________________________________________________________________________________________
concatenate_7 (Concatenate)     (None, 52, 80, 90)   0           concatenate_6[0][0]              
                                                                 activation_11[0][0]              
__________________________________________________________________________________________________
dropout_6 (Dropout)             (None, 52, 80, 90)   0           concatenate_7[0][0]              
__________________________________________________________________________________________________
conv2d_12 (Conv2D)              (None, 52, 80, 13)   1183        dropout_6[0][0]                  
==================================================================================================
Total params: 512,703
Trainable params: 120,403
Non-trainable params: 392,300
__________________________________________________________________________________________________
------------------------------------------------------------------
class_weights [6.47467835e-02 3.18797950e-02 7.48227142e-02 9.29948699e-03
…
Error in label values min 0.0 max 30.0      13-Hb
Error in label values min 0.0 max 4.0      14-MTT
ResNet model address /array/ssd/msmajdi/experiments/keras/exp6/models/sE12_Cascade_FM20_Res_Unet2_NL3_LS_MyJoint_US1_Main_Init_3T_CV_a/MultiClass_24567891011121314/sd1/model.h5
__________________________________________________________________________________________________
Layer (type)                    Output Shape         Param #     Connected to                     
==================================================================================================
input_1 (InputLayer)            (None, 52, 52, 1)    0                                            
__________________________________________________________________________________________________
conv2d_1 (Conv2D)               (None, 52, 52, 40)   400         input_1[0][0]                    
__________________________________________________________________________________________________
batch_normalization_1 (BatchNor (None, 52, 52, 40)   160         conv2d_1[0][0]                   
__________________________________________________________________________________________________
activation_1 (Activation)       (None, 52, 52, 40)   0           batch_normalization_1[0][0]      
__________________________________________________________________________________________________
dropout_1 (Dropout)             (None, 52, 52, 40)   0           activation_1[0][0]               
__________________________________________________________________________________________________
concatenate_1 (Concatenate)     (None, 52, 52, 41)   0           input_1[0][0]                    
                                                                 dropout_1[0][0]                  
__________________________________________________________________________________________________
conv2d_2 (Conv2D)               (None, 52, 52, 20)   7400        concatenate_1[0][0]              
__________________________________________________________________________________________________
batch_normalization_2 (BatchNor (None, 52, 52, 20)   80          conv2d_2[0][0]                   
__________________________________________________________________________________________________
activation_2 (Activation)       (None, 52, 52, 20)   0           batch_normalization_2[0][0]      
__________________________________________________________________________________________________
conv2d_3 (Conv2D)               (None, 52, 52, 20)   3620        activation_2[0][0]               
__________________________________________________________________________________________________
batch_normalization_3 (BatchNor (None, 52, 52, 20)   80          conv2d_3[0][0]                   
__________________________________________________________________________________________________
activation_3 (Activation)       (None, 52, 52, 20)   0           batch_normalization_3[0][0]      
__________________________________________________________________________________________________
max_pooling2d_1 (MaxPooling2D)  (None, 26, 26, 20)   0           activation_3[0][0]               
__________________________________________________________________________________________________
dropout_2 (Dropout)             (None, 26, 26, 20)   0           max_pooling2d_1[0][0]            
__________________________________________________________________________________________________
conv2d_4 (Conv2D)               (None, 26, 26, 40)   7240        dropout_2[0][0]                  
__________________________________________________________________________________________________
batch_normalization_4 (BatchNor (None, 26, 26, 40)   160         conv2d_4[0][0]                   
__________________________________________________________________________________________________
activation_4 (Activation)       (None, 26, 26, 40)   0           batch_normalization_4[0][0]      
__________________________________________________________________________________________________
conv2d_5 (Conv2D)               (None, 26, 26, 40)   14440       activation_4[0][0]               
__________________________________________________________________________________________________
batch_normalization_5 (BatchNor (None, 26, 26, 40)   160         conv2d_5[0][0]                   
__________________________________________________________________________________________________
activation_5 (Activation)       (None, 26, 26, 40)   0           batch_normalization_5[0][0]      
__________________________________________________________________________________________________
concatenate_2 (Concatenate)     (None, 26, 26, 60)   0           dropout_2[0][0]                  
                                                                 activation_5[0][0]               
__________________________________________________________________________________________________
max_pooling2d_2 (MaxPooling2D)  (None, 13, 13, 60)   0           concatenate_2[0][0]              
__________________________________________________________________________________________________
dropout_3 (Dropout)             (None, 13, 13, 60)   0           max_pooling2d_2[0][0]            
__________________________________________________________________________________________________
conv2d_6 (Conv2D)               (None, 13, 13, 80)   43280       dropout_3[0][0]                  
__________________________________________________________________________________________________
batch_normalization_6 (BatchNor (None, 13, 13, 80)   320         conv2d_6[0][0]                   
__________________________________________________________________________________________________
activation_6 (Activation)       (None, 13, 13, 80)   0           batch_normalization_6[0][0]      
__________________________________________________________________________________________________
conv2d_7 (Conv2D)               (None, 13, 13, 80)   57680       activation_6[0][0]               
__________________________________________________________________________________________________
batch_normalization_7 (BatchNor (None, 13, 13, 80)   320         conv2d_7[0][0]                   
__________________________________________________________________________________________________
activation_7 (Activation)       (None, 13, 13, 80)   0           batch_normalization_7[0][0]      
__________________________________________________________________________________________________
concatenate_3 (Concatenate)     (None, 13, 13, 140)  0           dropout_3[0][0]                  
                                                                 activation_7[0][0]               
__________________________________________________________________________________________________
dropout_4 (Dropout)             (None, 13, 13, 140)  0           concatenate_3[0][0]              
__________________________________________________________________________________________________
conv2d_transpose_1 (Conv2DTrans (None, 26, 26, 40)   22440       dropout_4[0][0]                  
__________________________________________________________________________________________________
concatenate_4 (Concatenate)     (None, 26, 26, 100)  0           conv2d_transpose_1[0][0]         
                                                                 concatenate_2[0][0]              
__________________________________________________________________________________________________
conv2d_8 (Conv2D)               (None, 26, 26, 40)   36040       concatenate_4[0][0]              
__________________________________________________________________________________________________
batch_normalization_8 (BatchNor (None, 26, 26, 40)   160         conv2d_8[0][0]                   
__________________________________________________________________________________________________
activation_8 (Activation)       (None, 26, 26, 40)   0           batch_normalization_8[0][0]      
__________________________________________________________________________________________________
conv2d_9 (Conv2D)               (None, 26, 26, 40)   14440       activation_8[0][0]               
__________________________________________________________________________________________________
batch_normalization_9 (BatchNor (None, 26, 26, 40)   160         conv2d_9[0][0]                   
__________________________________________________________________________________________________
activation_9 (Activation)       (None, 26, 26, 40)   0           batch_normalization_9[0][0]      
__________________________________________________________________________________________________
concatenate_5 (Concatenate)     (None, 26, 26, 140)  0           concatenate_4[0][0]              
                                                                 activation_9[0][0]               
__________________________________________________________________________________________________
dropout_5 (Dropout)             (None, 26, 26, 140)  0           concatenate_5[0][0]              
__________________________________________________________________________________________________
conv2d_transpose_2 (Conv2DTrans (None, 52, 52, 20)   11220       dropout_5[0][0]                  
__________________________________________________________________________________________________
concatenate_6 (Concatenate)     (None, 52, 52, 40)   0           conv2d_transpose_2[0][0]         
                                                                 activation_3[0][0]               
__________________________________________________________________________________________________
conv2d_10 (Conv2D)              (None, 52, 52, 20)   7220        concatenate_6[0][0]              
__________________________________________________________________________________________________
batch_normalization_10 (BatchNo (None, 52, 52, 20)   80          conv2d_10[0][0]                  
__________________________________________________________________________________________________
activation_10 (Activation)      (None, 52, 52, 20)   0           batch_normalization_10[0][0]     
__________________________________________________________________________________________________
conv2d_11 (Conv2D)              (None, 52, 52, 20)   3620        activation_10[0][0]              
__________________________________________________________________________________________________
batch_normalization_11 (BatchNo (None, 52, 52, 20)   80          conv2d_11[0][0]                  
__________________________________________________________________________________________________
activation_11 (Activation)      (None, 52, 52, 20)   0           batch_normalization_11[0][0]     
__________________________________________________________________________________________________
concatenate_7 (Concatenate)     (None, 52, 52, 60)   0           concatenate_6[0][0]              
                                                                 activation_11[0][0]              
__________________________________________________________________________________________________
dropout_6 (Dropout)             (None, 52, 52, 60)   0           concatenate_7[0][0]              
__________________________________________________________________________________________________
conv2d_12 (Conv2D)              (None, 52, 52, 13)   793         dropout_6[0][0]                  
==================================================================================================
Total params: 231,593
Trainable params: 56,833
Non-trainable params: 174,760
__________________________________________________________________________________________________
------------------------------------------------------------------
class_weights [6.49841486e-02 3.19966680e-02 7.50970181e-02 9.33357939e-03
…
Error in label values min 0.0 max 30.0      13-Hb
Error in label values min 0.0 max 4.0      14-MTT
ResNet model address /array/ssd/msmajdi/experiments/keras/exp6/models/sE12_Cascade_FM15_Res_Unet2_NL3_LS_MyJoint_US1_Main_Init_3T_CV_a/MultiClass_24567891011121314/sd0/model.h5
__________________________________________________________________________________________________
Layer (type)                    Output Shape         Param #     Connected to                     
==================================================================================================
input_1 (InputLayer)            (None, 80, 52, 1)    0                                            
__________________________________________________________________________________________________
conv2d_1 (Conv2D)               (None, 80, 52, 40)   400         input_1[0][0]                    
__________________________________________________________________________________________________
batch_normalization_1 (BatchNor (None, 80, 52, 40)   160         conv2d_1[0][0]                   
__________________________________________________________________________________________________
activation_1 (Activation)       (None, 80, 52, 40)   0           batch_normalization_1[0][0]      
__________________________________________________________________________________________________
dropout_1 (Dropout)             (None, 80, 52, 40)   0           activation_1[0][0]               
__________________________________________________________________________________________________
concatenate_1 (Concatenate)     (None, 80, 52, 41)   0           input_1[0][0]                    
                                                                 dropout_1[0][0]                  
__________________________________________________________________________________________________
conv2d_2 (Conv2D)               (None, 80, 52, 15)   5550        concatenate_1[0][0]              
__________________________________________________________________________________________________
batch_normalization_2 (BatchNor (None, 80, 52, 15)   60          conv2d_2[0][0]                   
__________________________________________________________________________________________________
activation_2 (Activation)       (None, 80, 52, 15)   0           batch_normalization_2[0][0]      
__________________________________________________________________________________________________
conv2d_3 (Conv2D)               (None, 80, 52, 15)   2040        activation_2[0][0]               
__________________________________________________________________________________________________
batch_normalization_3 (BatchNor (None, 80, 52, 15)   60          conv2d_3[0][0]                   
__________________________________________________________________________________________________
activation_3 (Activation)       (None, 80, 52, 15)   0           batch_normalization_3[0][0]      
__________________________________________________________________________________________________
max_pooling2d_1 (MaxPooling2D)  (None, 40, 26, 15)   0           activation_3[0][0]               
__________________________________________________________________________________________________
dropout_2 (Dropout)             (None, 40, 26, 15)   0           max_pooling2d_1[0][0]            
__________________________________________________________________________________________________
conv2d_4 (Conv2D)               (None, 40, 26, 30)   4080        dropout_2[0][0]                  
__________________________________________________________________________________________________
batch_normalization_4 (BatchNor (None, 40, 26, 30)   120         conv2d_4[0][0]                   
__________________________________________________________________________________________________
activation_4 (Activation)       (None, 40, 26, 30)   0           batch_normalization_4[0][0]      
__________________________________________________________________________________________________
conv2d_5 (Conv2D)               (None, 40, 26, 30)   8130        activation_4[0][0]               
__________________________________________________________________________________________________
batch_normalization_5 (BatchNor (None, 40, 26, 30)   120         conv2d_5[0][0]                   
__________________________________________________________________________________________________
activation_5 (Activation)       (None, 40, 26, 30)   0           batch_normalization_5[0][0]      
__________________________________________________________________________________________________
concatenate_2 (Concatenate)     (None, 40, 26, 45)   0           dropout_2[0][0]                  
                                                                 activation_5[0][0]               
__________________________________________________________________________________________________
max_pooling2d_2 (MaxPooling2D)  (None, 20, 13, 45)   0           concatenate_2[0][0]              
__________________________________________________________________________________________________
dropout_3 (Dropout)             (None, 20, 13, 45)   0           max_pooling2d_2[0][0]            
__________________________________________________________________________________________________
conv2d_6 (Conv2D)               (None, 20, 13, 60)   24360       dropout_3[0][0]                  
__________________________________________________________________________________________________
batch_normalization_6 (BatchNor (None, 20, 13, 60)   240         conv2d_6[0][0]                   
__________________________________________________________________________________________________
activation_6 (Activation)       (None, 20, 13, 60)   0           batch_normalization_6[0][0]      
__________________________________________________________________________________________________
conv2d_7 (Conv2D)               (None, 20, 13, 60)   32460       activation_6[0][0]               
__________________________________________________________________________________________________
batch_normalization_7 (BatchNor (None, 20, 13, 60)   240         conv2d_7[0][0]                   
__________________________________________________________________________________________________
activation_7 (Activation)       (None, 20, 13, 60)   0           batch_normalization_7[0][0]      
__________________________________________________________________________________________________
concatenate_3 (Concatenate)     (None, 20, 13, 105)  0           dropout_3[0][0]                  
                                                                 activation_7[0][0]               
__________________________________________________________________________________________________
dropout_4 (Dropout)             (None, 20, 13, 105)  0           concatenate_3[0][0]              
__________________________________________________________________________________________________
conv2d_transpose_1 (Conv2DTrans (None, 40, 26, 30)   12630       dropout_4[0][0]                  
__________________________________________________________________________________________________
concatenate_4 (Concatenate)     (None, 40, 26, 75)   0           conv2d_transpose_1[0][0]         
                                                                 concatenate_2[0][0]              
__________________________________________________________________________________________________
conv2d_8 (Conv2D)               (None, 40, 26, 30)   20280       concatenate_4[0][0]              
__________________________________________________________________________________________________
batch_normalization_8 (BatchNor (None, 40, 26, 30)   120         conv2d_8[0][0]                   
__________________________________________________________________________________________________
activation_8 (Activation)       (None, 40, 26, 30)   0           batch_normalization_8[0][0]      
__________________________________________________________________________________________________
conv2d_9 (Conv2D)               (None, 40, 26, 30)   8130        activation_8[0][0]               
__________________________________________________________________________________________________
batch_normalization_9 (BatchNor (None, 40, 26, 30)   120         conv2d_9[0][0]                   
__________________________________________________________________________________________________
activation_9 (Activation)       (None, 40, 26, 30)   0           batch_normalization_9[0][0]      
__________________________________________________________________________________________________
concatenate_5 (Concatenate)     (None, 40, 26, 105)  0           concatenate_4[0][0]              
                                                                 activation_9[0][0]               
__________________________________________________________________________________________________
dropout_5 (Dropout)             (None, 40, 26, 105)  0           concatenate_5[0][0]              
__________________________________________________________________________________________________
conv2d_transpose_2 (Conv2DTrans (None, 80, 52, 15)   6315        dropout_5[0][0]                  
__________________________________________________________________________________________________
concatenate_6 (Concatenate)     (None, 80, 52, 30)   0           conv2d_transpose_2[0][0]         
                                                                 activation_3[0][0]               
__________________________________________________________________________________________________
conv2d_10 (Conv2D)              (None, 80, 52, 15)   4065        concatenate_6[0][0]              
__________________________________________________________________________________________________
batch_normalization_10 (BatchNo (None, 80, 52, 15)   60          conv2d_10[0][0]                  
__________________________________________________________________________________________________
activation_10 (Activation)      (None, 80, 52, 15)   0           batch_normalization_10[0][0]     
__________________________________________________________________________________________________
conv2d_11 (Conv2D)              (None, 80, 52, 15)   2040        activation_10[0][0]              
__________________________________________________________________________________________________
batch_normalization_11 (BatchNo (None, 80, 52, 15)   60          conv2d_11[0][0]                  
__________________________________________________________________________________________________
activation_11 (Activation)      (None, 80, 52, 15)   0           batch_normalization_11[0][0]     
__________________________________________________________________________________________________
concatenate_7 (Concatenate)     (None, 80, 52, 45)   0           concatenate_6[0][0]              
                                                                 activation_11[0][0]              
__________________________________________________________________________________________________
dropout_6 (Dropout)             (None, 80, 52, 45)   0           concatenate_7[0][0]              
__________________________________________________________________________________________________
conv2d_12 (Conv2D)              (None, 80, 52, 13)   598         dropout_6[0][0]                  
==================================================================================================
Total params: 132,438
Trainable params: 33,898
Non-trainable params: 98,540
__________________________________________________________________________________________________
------------------------------------------------------------------
class_weights [6.48913484e-02 3.19509754e-02 7.49897764e-02 9.32025064e-03
…
Error in label values min 0.0 max 30.0      13-Hb
Error in label values min 0.0 max 4.0      14-MTT
ResNet model address /array/ssd/msmajdi/experiments/keras/exp6/models/sE12_Cascade_FM30_Res_Unet2_NL3_LS_MyJoint_US1_Main_Init_3T_CV_a/MultiClass_24567891011121314/sd2/model.h5
__________________________________________________________________________________________________
Layer (type)                    Output Shape         Param #     Connected to                     
==================================================================================================
input_1 (InputLayer)            (None, 52, 80, 1)    0                                            
__________________________________________________________________________________________________
conv2d_1 (Conv2D)               (None, 52, 80, 10)   100         input_1[0][0]                    
__________________________________________________________________________________________________
batch_normalization_1 (BatchNor (None, 52, 80, 10)   40          conv2d_1[0][0]                   
__________________________________________________________________________________________________
activation_1 (Activation)       (None, 52, 80, 10)   0           batch_normalization_1[0][0]      
__________________________________________________________________________________________________
dropout_1 (Dropout)             (None, 52, 80, 10)   0           activation_1[0][0]               
__________________________________________________________________________________________________
concatenate_1 (Concatenate)     (None, 52, 80, 11)   0           input_1[0][0]                    
                                                                 dropout_1[0][0]                  
__________________________________________________________________________________________________
conv2d_2 (Conv2D)               (None, 52, 80, 30)   3000        concatenate_1[0][0]              
__________________________________________________________________________________________________
batch_normalization_2 (BatchNor (None, 52, 80, 30)   120         conv2d_2[0][0]                   
__________________________________________________________________________________________________
activation_2 (Activation)       (None, 52, 80, 30)   0           batch_normalization_2[0][0]      
__________________________________________________________________________________________________
conv2d_3 (Conv2D)               (None, 52, 80, 30)   8130        activation_2[0][0]               
__________________________________________________________________________________________________
batch_normalization_3 (BatchNor (None, 52, 80, 30)   120         conv2d_3[0][0]                   
__________________________________________________________________________________________________
activation_3 (Activation)       (None, 52, 80, 30)   0           batch_normalization_3[0][0]      
__________________________________________________________________________________________________
max_pooling2d_1 (MaxPooling2D)  (None, 26, 40, 30)   0           activation_3[0][0]               
__________________________________________________________________________________________________
dropout_2 (Dropout)             (None, 26, 40, 30)   0           max_pooling2d_1[0][0]            
__________________________________________________________________________________________________
conv2d_4 (Conv2D)               (None, 26, 40, 60)   16260       dropout_2[0][0]                  
__________________________________________________________________________________________________
batch_normalization_4 (BatchNor (None, 26, 40, 60)   240         conv2d_4[0][0]                   
__________________________________________________________________________________________________
activation_4 (Activation)       (None, 26, 40, 60)   0           batch_normalization_4[0][0]      
__________________________________________________________________________________________________
conv2d_5 (Conv2D)               (None, 26, 40, 60)   32460       activation_4[0][0]               
__________________________________________________________________________________________________
batch_normalization_5 (BatchNor (None, 26, 40, 60)   240         conv2d_5[0][0]                   
__________________________________________________________________________________________________
activation_5 (Activation)       (None, 26, 40, 60)   0           batch_normalization_5[0][0]      
__________________________________________________________________________________________________
concatenate_2 (Concatenate)     (None, 26, 40, 90)   0           dropout_2[0][0]                  
                                                                 activation_5[0][0]               
__________________________________________________________________________________________________
max_pooling2d_2 (MaxPooling2D)  (None, 13, 20, 90)   0           concatenate_2[0][0]              
__________________________________________________________________________________________________
dropout_3 (Dropout)             (None, 13, 20, 90)   0           max_pooling2d_2[0][0]            
__________________________________________________________________________________________________
conv2d_6 (Conv2D)               (None, 13, 20, 120)  97320       dropout_3[0][0]                  
__________________________________________________________________________________________________
batch_normalization_6 (BatchNor (None, 13, 20, 120)  480         conv2d_6[0][0]                   
__________________________________________________________________________________________________
activation_6 (Activation)       (None, 13, 20, 120)  0           batch_normalization_6[0][0]      
__________________________________________________________________________________________________
conv2d_7 (Conv2D)               (None, 13, 20, 120)  129720      activation_6[0][0]               
__________________________________________________________________________________________________
batch_normalization_7 (BatchNor (None, 13, 20, 120)  480         conv2d_7[0][0]                   
__________________________________________________________________________________________________
activation_7 (Activation)       (None, 13, 20, 120)  0           batch_normalization_7[0][0]      
__________________________________________________________________________________________________
concatenate_3 (Concatenate)     (None, 13, 20, 210)  0           dropout_3[0][0]                  
                                                                 activation_7[0][0]               
__________________________________________________________________________________________________
dropout_4 (Dropout)             (None, 13, 20, 210)  0           concatenate_3[0][0]              
__________________________________________________________________________________________________
conv2d_transpose_1 (Conv2DTrans (None, 26, 40, 60)   50460       dropout_4[0][0]                  
__________________________________________________________________________________________________
concatenate_4 (Concatenate)     (None, 26, 40, 150)  0           conv2d_transpose_1[0][0]         
…
conv2d_2 (Conv2D)               (None, 80, 52, 15)   4200        concatenate_1[0][0]              
__________________________________________________________________________________________________
batch_normalization_2 (BatchNor (None, 80, 52, 15)   60          conv2d_2[0][0]                   
__________________________________________________________________________________________________
activation_2 (Activation)       (None, 80, 52, 15)   0           batch_normalization_2[0][0]      
__________________________________________________________________________________________________
conv2d_3 (Conv2D)               (None, 80, 52, 15)   2040        activation_2[0][0]               
__________________________________________________________________________________________________
batch_normalization_3 (BatchNor (None, 80, 52, 15)   60          conv2d_3[0][0]                   
__________________________________________________________________________________________________
activation_3 (Activation)       (None, 80, 52, 15)   0           batch_normalization_3[0][0]      
__________________________________________________________________________________________________
max_pooling2d_1 (MaxPooling2D)  (None, 40, 26, 15)   0           activation_3[0][0]               
__________________________________________________________________________________________________
dropout_2 (Dropout)             (None, 40, 26, 15)   0           max_pooling2d_1[0][0]            
__________________________________________________________________________________________________
conv2d_4 (Conv2D)               (None, 40, 26, 30)   4080        dropout_2[0][0]                  
__________________________________________________________________________________________________
batch_normalization_4 (BatchNor (None, 40, 26, 30)   120         conv2d_4[0][0]                   
__________________________________________________________________________________________________
activation_4 (Activation)       (None, 40, 26, 30)   0           batch_normalization_4[0][0]      
__________________________________________________________________________________________________
conv2d_5 (Conv2D)               (None, 40, 26, 30)   8130        activation_4[0][0]               
__________________________________________________________________________________________________
batch_normalization_5 (BatchNor (None, 40, 26, 30)   120         conv2d_5[0][0]                   
__________________________________________________________________________________________________
activation_5 (Activation)       (None, 40, 26, 30)   0           batch_normalization_5[0][0]      
__________________________________________________________________________________________________
concatenate_2 (Concatenate)     (None, 40, 26, 45)   0           dropout_2[0][0]                  
                                                                 activation_5[0][0]               
__________________________________________________________________________________________________
max_pooling2d_2 (MaxPooling2D)  (None, 20, 13, 45)   0           concatenate_2[0][0]              
__________________________________________________________________________________________________
dropout_3 (Dropout)             (None, 20, 13, 45)   0           max_pooling2d_2[0][0]            
__________________________________________________________________________________________________
conv2d_6 (Conv2D)               (None, 20, 13, 60)   24360       dropout_3[0][0]                  
__________________________________________________________________________________________________
batch_normalization_6 (BatchNor (None, 20, 13, 60)   240         conv2d_6[0][0]                   
__________________________________________________________________________________________________
activation_6 (Activation)       (None, 20, 13, 60)   0           batch_normalization_6[0][0]      
__________________________________________________________________________________________________
conv2d_7 (Conv2D)               (None, 20, 13, 60)   32460       activation_6[0][0]               
__________________________________________________________________________________________________
batch_normalization_7 (BatchNor (None, 20, 13, 60)   240         conv2d_7[0][0]                   
__________________________________________________________________________________________________
activation_7 (Activation)       (None, 20, 13, 60)   0           batch_normalization_7[0][0]      
__________________________________________________________________________________________________
concatenate_3 (Concatenate)     (None, 20, 13, 105)  0           dropout_3[0][0]                  
                                                                 activation_7[0][0]               
__________________________________________________________________________________________________
dropout_4 (Dropout)             (None, 20, 13, 105)  0           concatenate_3[0][0]              
__________________________________________________________________________________________________
conv2d_transpose_1 (Conv2DTrans (None, 40, 26, 30)   12630       dropout_4[0][0]                  
__________________________________________________________________________________________________
concatenate_4 (Concatenate)     (None, 40, 26, 75)   0           conv2d_transpose_1[0][0]         
                                                                 concatenate_2[0][0]              
__________________________________________________________________________________________________
conv2d_8 (Conv2D)               (None, 40, 26, 30)   20280       concatenate_4[0][0]              
__________________________________________________________________________________________________
batch_normalization_8 (BatchNor (None, 40, 26, 30)   120         conv2d_8[0][0]                   
__________________________________________________________________________________________________
activation_8 (Activation)       (None, 40, 26, 30)   0           batch_normalization_8[0][0]      
__________________________________________________________________________________________________
conv2d_9 (Conv2D)               (None, 40, 26, 30)   8130        activation_8[0][0]               
__________________________________________________________________________________________________
batch_normalization_9 (BatchNor (None, 40, 26, 30)   120         conv2d_9[0][0]                   
__________________________________________________________________________________________________
activation_9 (Activation)       (None, 40, 26, 30)   0           batch_normalization_9[0][0]      
__________________________________________________________________________________________________
concatenate_5 (Concatenate)     (None, 40, 26, 105)  0           concatenate_4[0][0]              
                                                                 activation_9[0][0]               
__________________________________________________________________________________________________
dropout_5 (Dropout)             (None, 40, 26, 105)  0           concatenate_5[0][0]              
__________________________________________________________________________________________________
conv2d_transpose_2 (Conv2DTrans (None, 80, 52, 15)   6315        dropout_5[0][0]                  
__________________________________________________________________________________________________
concatenate_6 (Concatenate)     (None, 80, 52, 30)   0           conv2d_transpose_2[0][0]         
                                                                 activation_3[0][0]               
__________________________________________________________________________________________________
conv2d_10 (Conv2D)              (None, 80, 52, 15)   4065        concatenate_6[0][0]              
__________________________________________________________________________________________________
batch_normalization_10 (BatchNo (None, 80, 52, 15)   60          conv2d_10[0][0]                  
__________________________________________________________________________________________________
activation_10 (Activation)      (None, 80, 52, 15)   0           batch_normalization_10[0][0]     
__________________________________________________________________________________________________
conv2d_11 (Conv2D)              (None, 80, 52, 15)   2040        activation_10[0][0]              
__________________________________________________________________________________________________
batch_normalization_11 (BatchNo (None, 80, 52, 15)   60          conv2d_11[0][0]                  
__________________________________________________________________________________________________
activation_11 (Activation)      (None, 80, 52, 15)   0           batch_normalization_11[0][0]     
__________________________________________________________________________________________________
concatenate_7 (Concatenate)     (None, 80, 52, 45)   0           concatenate_6[0][0]              
                                                                 activation_11[0][0]              
__________________________________________________________________________________________________
dropout_6 (Dropout)             (None, 80, 52, 45)   0           concatenate_7[0][0]              
__________________________________________________________________________________________________
conv2d_12 (Conv2D)              (None, 80, 52, 30)   12180       dropout_6[0][0]                  
__________________________________________________________________________________________________
batch_normalization_12 (BatchNo (None, 80, 52, 30)   120         conv2d_12[0][0]                  
__________________________________________________________________________________________________
activation_12 (Activation)      (None, 80, 52, 30)   0           batch_normalization_12[0][0]     
__________________________________________________________________________________________________
dropout_7 (Dropout)             (None, 80, 52, 30)   0           activation_12[0][0]              
__________________________________________________________________________________________________
concatenate_8 (Concatenate)     (None, 80, 52, 75)   0           dropout_6[0][0]                  
                                                                 dropout_7[0][0]                  
__________________________________________________________________________________________________
conv2d_13 (Conv2D)              (None, 80, 52, 13)   988         concatenate_8[0][0]              
==================================================================================================
Total params: 143,638
Trainable params: 45,058
Non-trainable params: 98,580
__________________________________________________________________________________________________
------------------------------------------------------------------
class_weights [6.48913484e-02 3.19509754e-02 7.49897764e-02 9.32025064e-03
…
Error in label values min 0.0 max 30.0      13-Hb
Error in label values min 0.0 max 4.0      14-MTT
ResNet model address /array/ssd/msmajdi/experiments/keras/exp6/models/sE12_Cascade_FM30_Res_Unet2_NL3_LS_MyJoint_US1_Main_Init_3T_CV_a/MultiClass_24567891011121314/sd2/model.h5
__________________________________________________________________________________________________
Layer (type)                    Output Shape         Param #     Connected to                     
==================================================================================================
input_1 (InputLayer)            (None, 52, 80, 1)    0                                            
__________________________________________________________________________________________________
conv2d_1 (Conv2D)               (None, 52, 80, 40)   400         input_1[0][0]                    
__________________________________________________________________________________________________
batch_normalization_1 (BatchNor (None, 52, 80, 40)   160         conv2d_1[0][0]                   
__________________________________________________________________________________________________
activation_1 (Activation)       (None, 52, 80, 40)   0           batch_normalization_1[0][0]      
__________________________________________________________________________________________________
dropout_1 (Dropout)             (None, 52, 80, 40)   0           activation_1[0][0]               
__________________________________________________________________________________________________
concatenate_1 (Concatenate)     (None, 52, 80, 41)   0           input_1[0][0]                    
                                                                 dropout_1[0][0]                  
__________________________________________________________________________________________________
conv2d_2 (Conv2D)               (None, 52, 80, 30)   11100       concatenate_1[0][0]              
__________________________________________________________________________________________________
batch_normalization_2 (BatchNor (None, 52, 80, 30)   120         conv2d_2[0][0]                   
__________________________________________________________________________________________________
activation_2 (Activation)       (None, 52, 80, 30)   0           batch_normalization_2[0][0]      
__________________________________________________________________________________________________
conv2d_3 (Conv2D)               (None, 52, 80, 30)   8130        activation_2[0][0]               
__________________________________________________________________________________________________
batch_normalization_3 (BatchNor (None, 52, 80, 30)   120         conv2d_3[0][0]                   
__________________________________________________________________________________________________
activation_3 (Activation)       (None, 52, 80, 30)   0           batch_normalization_3[0][0]      
__________________________________________________________________________________________________
max_pooling2d_1 (MaxPooling2D)  (None, 26, 40, 30)   0           activation_3[0][0]               
__________________________________________________________________________________________________
dropout_2 (Dropout)             (None, 26, 40, 30)   0           max_pooling2d_1[0][0]            
__________________________________________________________________________________________________
conv2d_4 (Conv2D)               (None, 26, 40, 60)   16260       dropout_2[0][0]                  
__________________________________________________________________________________________________
batch_normalization_4 (BatchNor (None, 26, 40, 60)   240         conv2d_4[0][0]                   
__________________________________________________________________________________________________
activation_4 (Activation)       (None, 26, 40, 60)   0           batch_normalization_4[0][0]      
__________________________________________________________________________________________________
conv2d_5 (Conv2D)               (None, 26, 40, 60)   32460       activation_4[0][0]               
__________________________________________________________________________________________________
batch_normalization_5 (BatchNor (None, 26, 40, 60)   240         conv2d_5[0][0]                   
__________________________________________________________________________________________________
activation_5 (Activation)       (None, 26, 40, 60)   0           batch_normalization_5[0][0]      
__________________________________________________________________________________________________
concatenate_2 (Concatenate)     (None, 26, 40, 90)   0           dropout_2[0][0]                  
                                                                 activation_5[0][0]               
__________________________________________________________________________________________________
max_pooling2d_2 (MaxPooling2D)  (None, 13, 20, 90)   0           concatenate_2[0][0]              
__________________________________________________________________________________________________
dropout_3 (Dropout)             (None, 13, 20, 90)   0           max_pooling2d_2[0][0]            
__________________________________________________________________________________________________
conv2d_6 (Conv2D)               (None, 13, 20, 120)  97320       dropout_3[0][0]                  
__________________________________________________________________________________________________
batch_normalization_6 (BatchNor (None, 13, 20, 120)  480         conv2d_6[0][0]                   
__________________________________________________________________________________________________
activation_6 (Activation)       (None, 13, 20, 120)  0           batch_normalization_6[0][0]      
__________________________________________________________________________________________________
conv2d_7 (Conv2D)               (None, 13, 20, 120)  129720      activation_6[0][0]               
__________________________________________________________________________________________________
batch_normalization_7 (BatchNor (None, 13, 20, 120)  480         conv2d_7[0][0]                   
__________________________________________________________________________________________________
activation_7 (Activation)       (None, 13, 20, 120)  0           batch_normalization_7[0][0]      
__________________________________________________________________________________________________
concatenate_3 (Concatenate)     (None, 13, 20, 210)  0           dropout_3[0][0]                  
                                                                 activation_7[0][0]               
__________________________________________________________________________________________________
dropout_4 (Dropout)             (None, 13, 20, 210)  0           concatenate_3[0][0]              
__________________________________________________________________________________________________
conv2d_transpose_1 (Conv2DTrans (None, 26, 40, 60)   50460       dropout_4[0][0]                  
__________________________________________________________________________________________________
concatenate_4 (Concatenate)     (None, 26, 40, 150)  0           conv2d_transpose_1[0][0]         
                                                                 concatenate_2[0][0]              
__________________________________________________________________________________________________
conv2d_8 (Conv2D)               (None, 26, 40, 60)   81060       concatenate_4[0][0]              
__________________________________________________________________________________________________
batch_normalization_8 (BatchNor (None, 26, 40, 60)   240         conv2d_8[0][0]                   
__________________________________________________________________________________________________
activation_8 (Activation)       (None, 26, 40, 60)   0           batch_normalization_8[0][0]      
__________________________________________________________________________________________________
conv2d_9 (Conv2D)               (None, 26, 40, 60)   32460       activation_8[0][0]               
__________________________________________________________________________________________________
batch_normalization_9 (BatchNor (None, 26, 40, 60)   240         conv2d_9[0][0]                   
__________________________________________________________________________________________________
activation_9 (Activation)       (None, 26, 40, 60)   0           batch_normalization_9[0][0]      
__________________________________________________________________________________________________
concatenate_5 (Concatenate)     (None, 26, 40, 210)  0           concatenate_4[0][0]              
                                                                 activation_9[0][0]               
__________________________________________________________________________________________________
dropout_5 (Dropout)             (None, 26, 40, 210)  0           concatenate_5[0][0]              
__________________________________________________________________________________________________
conv2d_transpose_2 (Conv2DTrans (None, 52, 80, 30)   25230       dropout_5[0][0]                  
__________________________________________________________________________________________________
concatenate_6 (Concatenate)     (None, 52, 80, 60)   0           conv2d_transpose_2[0][0]         
                                                                 activation_3[0][0]               
__________________________________________________________________________________________________
conv2d_10 (Conv2D)              (None, 52, 80, 30)   16230       concatenate_6[0][0]              
__________________________________________________________________________________________________
batch_normalization_10 (BatchNo (None, 52, 80, 30)   120         conv2d_10[0][0]                  
__________________________________________________________________________________________________
activation_10 (Activation)      (None, 52, 80, 30)   0           batch_normalization_10[0][0]     
__________________________________________________________________________________________________
conv2d_11 (Conv2D)              (None, 52, 80, 30)   8130        activation_10[0][0]              
__________________________________________________________________________________________________
batch_normalization_11 (BatchNo (None, 52, 80, 30)   120         conv2d_11[0][0]                  
__________________________________________________________________________________________________
activation_11 (Activation)      (None, 52, 80, 30)   0           batch_normalization_11[0][0]     
__________________________________________________________________________________________________
concatenate_7 (Concatenate)     (None, 52, 80, 90)   0           concatenate_6[0][0]              
                                                                 activation_11[0][0]              
__________________________________________________________________________________________________
dropout_6 (Dropout)             (None, 52, 80, 90)   0           concatenate_7[0][0]              
__________________________________________________________________________________________________
conv2d_12 (Conv2D)              (None, 52, 80, 40)   32440       dropout_6[0][0]                  
__________________________________________________________________________________________________
batch_normalization_12 (BatchNo (None, 52, 80, 40)   160         conv2d_12[0][0]                  
__________________________________________________________________________________________________
activation_12 (Activation)      (None, 52, 80, 40)   0           batch_normalization_12[0][0]     
__________________________________________________________________________________________________
dropout_7 (Dropout)             (None, 52, 80, 40)   0           activation_12[0][0]              
__________________________________________________________________________________________________
concatenate_8 (Concatenate)     (None, 52, 80, 130)  0           dropout_6[0][0]                  
                                                                 dropout_7[0][0]                  
__________________________________________________________________________________________________
conv2d_13 (Conv2D)              (None, 52, 80, 13)   1703        concatenate_8[0][0]              
==================================================================================================
Total params: 545,823
Trainable params: 153,443
Non-trainable params: 392,380
__________________________________________________________________________________________________
------------------------------------------------------------------
class_weights [6.47467835e-02 3.18797950e-02 7.48227142e-02 9.29948699e-03
…
Error in label values min 0.0 max 30.0      13-Hb
Error in label values min 0.0 max 4.0      14-MTT
ResNet model address /array/ssd/msmajdi/experiments/keras/exp6/models/sE12_Cascade_FM20_Res_Unet2_NL3_LS_MyJoint_US1_Main_Init_3T_CV_a/MultiClass_24567891011121314/sd1/model.h5
__________________________________________________________________________________________________
Layer (type)                    Output Shape         Param #     Connected to                     
==================================================================================================
input_1 (InputLayer)            (None, 52, 52, 1)    0                                            
__________________________________________________________________________________________________
conv2d_1 (Conv2D)               (None, 52, 52, 40)   400         input_1[0][0]                    
__________________________________________________________________________________________________
batch_normalization_1 (BatchNor (None, 52, 52, 40)   160         conv2d_1[0][0]                   
__________________________________________________________________________________________________
activation_1 (Activation)       (None, 52, 52, 40)   0           batch_normalization_1[0][0]      
__________________________________________________________________________________________________
dropout_1 (Dropout)             (None, 52, 52, 40)   0           activation_1[0][0]               
__________________________________________________________________________________________________
concatenate_1 (Concatenate)     (None, 52, 52, 41)   0           input_1[0][0]                    
                                                                 dropout_1[0][0]                  
__________________________________________________________________________________________________
conv2d_2 (Conv2D)               (None, 52, 52, 20)   7400        concatenate_1[0][0]              
__________________________________________________________________________________________________
batch_normalization_2 (BatchNor (None, 52, 52, 20)   80          conv2d_2[0][0]                   
__________________________________________________________________________________________________
activation_2 (Activation)       (None, 52, 52, 20)   0           batch_normalization_2[0][0]      
__________________________________________________________________________________________________
conv2d_3 (Conv2D)               (None, 52, 52, 20)   3620        activation_2[0][0]               
__________________________________________________________________________________________________
batch_normalization_3 (BatchNor (None, 52, 52, 20)   80          conv2d_3[0][0]                   
__________________________________________________________________________________________________
activation_3 (Activation)       (None, 52, 52, 20)   0           batch_normalization_3[0][0]      
__________________________________________________________________________________________________
max_pooling2d_1 (MaxPooling2D)  (None, 26, 26, 20)   0           activation_3[0][0]               
__________________________________________________________________________________________________
dropout_2 (Dropout)             (None, 26, 26, 20)   0           max_pooling2d_1[0][0]            
__________________________________________________________________________________________________
conv2d_4 (Conv2D)               (None, 26, 26, 40)   7240        dropout_2[0][0]                  
__________________________________________________________________________________________________
batch_normalization_4 (BatchNor (None, 26, 26, 40)   160         conv2d_4[0][0]                   
__________________________________________________________________________________________________
activation_4 (Activation)       (None, 26, 26, 40)   0           batch_normalization_4[0][0]      
__________________________________________________________________________________________________
conv2d_5 (Conv2D)               (None, 26, 26, 40)   14440       activation_4[0][0]               
__________________________________________________________________________________________________
batch_normalization_5 (BatchNor (None, 26, 26, 40)   160         conv2d_5[0][0]                   
__________________________________________________________________________________________________
activation_5 (Activation)       (None, 26, 26, 40)   0           batch_normalization_5[0][0]      
__________________________________________________________________________________________________
concatenate_2 (Concatenate)     (None, 26, 26, 60)   0           dropout_2[0][0]                  
                                                                 activation_5[0][0]               
__________________________________________________________________________________________________
max_pooling2d_2 (MaxPooling2D)  (None, 13, 13, 60)   0           concatenate_2[0][0]              
__________________________________________________________________________________________________
dropout_3 (Dropout)             (None, 13, 13, 60)   0           max_pooling2d_2[0][0]            
__________________________________________________________________________________________________
conv2d_6 (Conv2D)               (None, 13, 13, 80)   43280       dropout_3[0][0]                  
__________________________________________________________________________________________________
batch_normalization_6 (BatchNor (None, 13, 13, 80)   320         conv2d_6[0][0]                   
__________________________________________________________________________________________________
activation_6 (Activation)       (None, 13, 13, 80)   0           batch_normalization_6[0][0]      
__________________________________________________________________________________________________
conv2d_7 (Conv2D)               (None, 13, 13, 80)   57680       activation_6[0][0]               
__________________________________________________________________________________________________
batch_normalization_7 (BatchNor (None, 13, 13, 80)   320         conv2d_7[0][0]                   
__________________________________________________________________________________________________
activation_7 (Activation)       (None, 13, 13, 80)   0           batch_normalization_7[0][0]      
__________________________________________________________________________________________________
concatenate_3 (Concatenate)     (None, 13, 13, 140)  0           dropout_3[0][0]                  
                                                                 activation_7[0][0]               
__________________________________________________________________________________________________
dropout_4 (Dropout)             (None, 13, 13, 140)  0           concatenate_3[0][0]              
__________________________________________________________________________________________________
conv2d_transpose_1 (Conv2DTrans (None, 26, 26, 40)   22440       dropout_4[0][0]                  
__________________________________________________________________________________________________
concatenate_4 (Concatenate)     (None, 26, 26, 100)  0           conv2d_transpose_1[0][0]         
                                                                 concatenate_2[0][0]              
__________________________________________________________________________________________________
conv2d_8 (Conv2D)               (None, 26, 26, 40)   36040       concatenate_4[0][0]              
__________________________________________________________________________________________________
batch_normalization_8 (BatchNor (None, 26, 26, 40)   160         conv2d_8[0][0]                   
__________________________________________________________________________________________________
activation_8 (Activation)       (None, 26, 26, 40)   0           batch_normalization_8[0][0]      
__________________________________________________________________________________________________
conv2d_9 (Conv2D)               (None, 26, 26, 40)   14440       activation_8[0][0]               
__________________________________________________________________________________________________
batch_normalization_9 (BatchNor (None, 26, 26, 40)   160         conv2d_9[0][0]                   
__________________________________________________________________________________________________
activation_9 (Activation)       (None, 26, 26, 40)   0           batch_normalization_9[0][0]      
__________________________________________________________________________________________________
concatenate_5 (Concatenate)     (None, 26, 26, 140)  0           concatenate_4[0][0]              
                                                                 activation_9[0][0]               
__________________________________________________________________________________________________
dropout_5 (Dropout)             (None, 26, 26, 140)  0           concatenate_5[0][0]              
__________________________________________________________________________________________________
conv2d_transpose_2 (Conv2DTrans (None, 52, 52, 20)   11220       dropout_5[0][0]                  
__________________________________________________________________________________________________
concatenate_6 (Concatenate)     (None, 52, 52, 40)   0           conv2d_transpose_2[0][0]         
                                                                 activation_3[0][0]               
__________________________________________________________________________________________________
conv2d_10 (Conv2D)              (None, 52, 52, 20)   7220        concatenate_6[0][0]              
__________________________________________________________________________________________________
batch_normalization_10 (BatchNo (None, 52, 52, 20)   80          conv2d_10[0][0]                  
__________________________________________________________________________________________________
activation_10 (Activation)      (None, 52, 52, 20)   0           batch_normalization_10[0][0]     
__________________________________________________________________________________________________
conv2d_11 (Conv2D)              (None, 52, 52, 20)   3620        activation_10[0][0]              
__________________________________________________________________________________________________
batch_normalization_11 (BatchNo (None, 52, 52, 20)   80          conv2d_11[0][0]                  
__________________________________________________________________________________________________
activation_11 (Activation)      (None, 52, 52, 20)   0           batch_normalization_11[0][0]     
__________________________________________________________________________________________________
concatenate_7 (Concatenate)     (None, 52, 52, 60)   0           concatenate_6[0][0]              
                                                                 activation_11[0][0]              
__________________________________________________________________________________________________
dropout_6 (Dropout)             (None, 52, 52, 60)   0           concatenate_7[0][0]              
__________________________________________________________________________________________________
conv2d_12 (Conv2D)              (None, 52, 52, 40)   21640       dropout_6[0][0]                  
__________________________________________________________________________________________________
batch_normalization_12 (BatchNo (None, 52, 52, 40)   160         conv2d_12[0][0]                  
__________________________________________________________________________________________________
activation_12 (Activation)      (None, 52, 52, 40)   0           batch_normalization_12[0][0]     
__________________________________________________________________________________________________
dropout_7 (Dropout)             (None, 52, 52, 40)   0           activation_12[0][0]              
__________________________________________________________________________________________________
concatenate_8 (Concatenate)     (None, 52, 52, 100)  0           dropout_6[0][0]                  
                                                                 dropout_7[0][0]                  
__________________________________________________________________________________________________
conv2d_13 (Conv2D)              (None, 52, 52, 13)   1313        concatenate_8[0][0]              
==================================================================================================
Total params: 253,913
Trainable params: 79,073
Non-trainable params: 174,840
__________________________________________________________________________________________________
------------------------------------------------------------------
class_weights [6.49841486e-02 3.19966680e-02 7.50970181e-02 9.33357939e-03
…
Error in label values min 0.0 max 30.0      13-Hb
Error in label values min 0.0 max 4.0      14-MTT
ResNet model address /array/ssd/msmajdi/experiments/keras/exp6/models/sE12_Cascade_FM15_Res_Unet2_NL3_LS_MyJoint_US1_Main_Init_3T_CV_a/MultiClass_24567891011121314/sd0/model.h5
__________________________________________________________________________________________________
Layer (type)                    Output Shape         Param #     Connected to                     
==================================================================================================
input_1 (InputLayer)            (None, 80, 52, 1)    0                                            
__________________________________________________________________________________________________
conv2d_1 (Conv2D)               (None, 80, 52, 40)   400         input_1[0][0]                    
__________________________________________________________________________________________________
batch_normalization_1 (BatchNor (None, 80, 52, 40)   160         conv2d_1[0][0]                   
__________________________________________________________________________________________________
activation_1 (Activation)       (None, 80, 52, 40)   0           batch_normalization_1[0][0]      
__________________________________________________________________________________________________
dropout_1 (Dropout)             (None, 80, 52, 40)   0           activation_1[0][0]               
__________________________________________________________________________________________________
concatenate_1 (Concatenate)     (None, 80, 52, 41)   0           input_1[0][0]                    
                                                                 dropout_1[0][0]                  
__________________________________________________________________________________________________
conv2d_2 (Conv2D)               (None, 80, 52, 15)   5550        concatenate_1[0][0]              
__________________________________________________________________________________________________
batch_normalization_2 (BatchNor (None, 80, 52, 15)   60          conv2d_2[0][0]                   
__________________________________________________________________________________________________
activation_2 (Activation)       (None, 80, 52, 15)   0           batch_normalization_2[0][0]      
__________________________________________________________________________________________________
conv2d_3 (Conv2D)               (None, 80, 52, 15)   2040        activation_2[0][0]               
__________________________________________________________________________________________________
batch_normalization_3 (BatchNor (None, 80, 52, 15)   60          conv2d_3[0][0]                   
__________________________________________________________________________________________________
activation_3 (Activation)       (None, 80, 52, 15)   0           batch_normalization_3[0][0]      
__________________________________________________________________________________________________
max_pooling2d_1 (MaxPooling2D)  (None, 40, 26, 15)   0           activation_3[0][0]               
__________________________________________________________________________________________________
dropout_2 (Dropout)             (None, 40, 26, 15)   0           max_pooling2d_1[0][0]            
__________________________________________________________________________________________________
conv2d_4 (Conv2D)               (None, 40, 26, 30)   4080        dropout_2[0][0]                  
__________________________________________________________________________________________________
batch_normalization_4 (BatchNor (None, 40, 26, 30)   120         conv2d_4[0][0]                   
__________________________________________________________________________________________________
activation_4 (Activation)       (None, 40, 26, 30)   0           batch_normalization_4[0][0]      
__________________________________________________________________________________________________
conv2d_5 (Conv2D)               (None, 40, 26, 30)   8130        activation_4[0][0]               
__________________________________________________________________________________________________
batch_normalization_5 (BatchNor (None, 40, 26, 30)   120         conv2d_5[0][0]                   
__________________________________________________________________________________________________
activation_5 (Activation)       (None, 40, 26, 30)   0           batch_normalization_5[0][0]      
__________________________________________________________________________________________________
concatenate_2 (Concatenate)     (None, 40, 26, 45)   0           dropout_2[0][0]                  
                                                                 activation_5[0][0]               
__________________________________________________________________________________________________
max_pooling2d_2 (MaxPooling2D)  (None, 20, 13, 45)   0           concatenate_2[0][0]              
__________________________________________________________________________________________________
dropout_3 (Dropout)             (None, 20, 13, 45)   0           max_pooling2d_2[0][0]            
__________________________________________________________________________________________________
conv2d_6 (Conv2D)               (None, 20, 13, 60)   24360       dropout_3[0][0]                  
__________________________________________________________________________________________________
batch_normalization_6 (BatchNor (None, 20, 13, 60)   240         conv2d_6[0][0]                   
__________________________________________________________________________________________________
activation_6 (Activation)       (None, 20, 13, 60)   0           batch_normalization_6[0][0]      
__________________________________________________________________________________________________
conv2d_7 (Conv2D)               (None, 20, 13, 60)   32460       activation_6[0][0]               
__________________________________________________________________________________________________
batch_normalization_7 (BatchNor (None, 20, 13, 60)   240         conv2d_7[0][0]                   
__________________________________________________________________________________________________
activation_7 (Activation)       (None, 20, 13, 60)   0           batch_normalization_7[0][0]      
__________________________________________________________________________________________________
concatenate_3 (Concatenate)     (None, 20, 13, 105)  0           dropout_3[0][0]                  
                                                                 activation_7[0][0]               
__________________________________________________________________________________________________
dropout_4 (Dropout)             (None, 20, 13, 105)  0           concatenate_3[0][0]              
__________________________________________________________________________________________________
conv2d_transpose_1 (Conv2DTrans (None, 40, 26, 30)   12630       dropout_4[0][0]                  
__________________________________________________________________________________________________
concatenate_4 (Concatenate)     (None, 40, 26, 75)   0           conv2d_transpose_1[0][0]         
                                                                 concatenate_2[0][0]              
__________________________________________________________________________________________________
conv2d_8 (Conv2D)               (None, 40, 26, 30)   20280       concatenate_4[0][0]              
__________________________________________________________________________________________________
batch_normalization_8 (BatchNor (None, 40, 26, 30)   120         conv2d_8[0][0]                   
__________________________________________________________________________________________________
activation_8 (Activation)       (None, 40, 26, 30)   0           batch_normalization_8[0][0]      
__________________________________________________________________________________________________
conv2d_9 (Conv2D)               (None, 40, 26, 30)   8130        activation_8[0][0]               
__________________________________________________________________________________________________
batch_normalization_9 (BatchNor (None, 40, 26, 30)   120         conv2d_9[0][0]                   
__________________________________________________________________________________________________
activation_9 (Activation)       (None, 40, 26, 30)   0           batch_normalization_9[0][0]      
__________________________________________________________________________________________________
concatenate_5 (Concatenate)     (None, 40, 26, 105)  0           concatenate_4[0][0]              
                                                                 activation_9[0][0]               
__________________________________________________________________________________________________
dropout_5 (Dropout)             (None, 40, 26, 105)  0           concatenate_5[0][0]              
__________________________________________________________________________________________________
conv2d_transpose_2 (Conv2DTrans (None, 80, 52, 15)   6315        dropout_5[0][0]                  
__________________________________________________________________________________________________
concatenate_6 (Concatenate)     (None, 80, 52, 30)   0           conv2d_transpose_2[0][0]         
                                                                 activation_3[0][0]               
__________________________________________________________________________________________________
conv2d_10 (Conv2D)              (None, 80, 52, 15)   4065        concatenate_6[0][0]              
__________________________________________________________________________________________________
batch_normalization_10 (BatchNo (None, 80, 52, 15)   60          conv2d_10[0][0]                  
__________________________________________________________________________________________________
activation_10 (Activation)      (None, 80, 52, 15)   0           batch_normalization_10[0][0]     
__________________________________________________________________________________________________
conv2d_11 (Conv2D)              (None, 80, 52, 15)   2040        activation_10[0][0]              
__________________________________________________________________________________________________
batch_normalization_11 (BatchNo (None, 80, 52, 15)   60          conv2d_11[0][0]                  
__________________________________________________________________________________________________
activation_11 (Activation)      (None, 80, 52, 15)   0           batch_normalization_11[0][0]     
__________________________________________________________________________________________________
concatenate_7 (Concatenate)     (None, 80, 52, 45)   0           concatenate_6[0][0]              
                                                                 activation_11[0][0]              
__________________________________________________________________________________________________
dropout_6 (Dropout)             (None, 80, 52, 45)   0           concatenate_7[0][0]              
__________________________________________________________________________________________________
conv2d_12 (Conv2D)              (None, 80, 52, 40)   16240       dropout_6[0][0]                  
__________________________________________________________________________________________________
batch_normalization_12 (BatchNo (None, 80, 52, 40)   160         conv2d_12[0][0]                  
__________________________________________________________________________________________________
activation_12 (Activation)      (None, 80, 52, 40)   0           batch_normalization_12[0][0]     
__________________________________________________________________________________________________
dropout_7 (Dropout)             (None, 80, 52, 40)   0           activation_12[0][0]              
__________________________________________________________________________________________________
concatenate_8 (Concatenate)     (None, 80, 52, 85)   0           dropout_6[0][0]                  
                                                                 dropout_7[0][0]                  
__________________________________________________________________________________________________
conv2d_13 (Conv2D)              (None, 80, 52, 13)   1118        concatenate_8[0][0]              
==================================================================================================
Total params: 149,358
Trainable params: 50,738
Non-trainable params: 98,620
__________________________________________________________________________________________________
------------------------------------------------------------------
class_weights [6.48913484e-02 3.19509754e-02 7.49897764e-02 9.32025064e-03
…
