…
 Nucleus: [2, 4, 5, 6, 7, 8, 9, 10, 11, 12, 13, 14]  | GPU: 5  | SD 2  | Dropout 0.3  | LR 0.001  | NL 3  |  Cascade |  FM 20 |  Upsample 1
Experiment: exp6
SubExperiment: sE12_Cascade_FM20_U-Net4_NL3_LS_MyBCE_US1_CSFn1_Init_Main_CV_a
---------------------------------------------------------------
__________________________________________________________________________________________________
Layer (type)                    Output Shape         Param #     Connected to                     
==================================================================================================
input_1 (InputLayer)            (None, 52, 80, 1)    0                                            
__________________________________________________________________________________________________
conv2d_1 (Conv2D)               (None, 52, 80, 20)   200         input_1[0][0]                    
__________________________________________________________________________________________________
batch_normalization_1 (BatchNor (None, 52, 80, 20)   80          conv2d_1[0][0]                   
__________________________________________________________________________________________________
activation_1 (Activation)       (None, 52, 80, 20)   0           batch_normalization_1[0][0]      
__________________________________________________________________________________________________
conv2d_2 (Conv2D)               (None, 52, 80, 20)   3620        activation_1[0][0]               
__________________________________________________________________________________________________
batch_normalization_2 (BatchNor (None, 52, 80, 20)   80          conv2d_2[0][0]                   
__________________________________________________________________________________________________
activation_2 (Activation)       (None, 52, 80, 20)   0           batch_normalization_2[0][0]      
__________________________________________________________________________________________________
max_pooling2d_1 (MaxPooling2D)  (None, 26, 40, 20)   0           activation_2[0][0]               
__________________________________________________________________________________________________
dropout_1 (Dropout)             (None, 26, 40, 20)   0           max_pooling2d_1[0][0]            
__________________________________________________________________________________________________
conv2d_3 (Conv2D)               (None, 26, 40, 40)   7240        dropout_1[0][0]                  
__________________________________________________________________________________________________
batch_normalization_3 (BatchNor (None, 26, 40, 40)   160         conv2d_3[0][0]                   
__________________________________________________________________________________________________
activation_3 (Activation)       (None, 26, 40, 40)   0           batch_normalization_3[0][0]      
__________________________________________________________________________________________________
conv2d_4 (Conv2D)               (None, 26, 40, 40)   14440       activation_3[0][0]               
__________________________________________________________________________________________________
batch_normalization_4 (BatchNor (None, 26, 40, 40)   160         conv2d_4[0][0]                   
__________________________________________________________________________________________________
activation_4 (Activation)       (None, 26, 40, 40)   0           batch_normalization_4[0][0]      
__________________________________________________________________________________________________
max_pooling2d_2 (MaxPooling2D)  (None, 13, 20, 40)   0           activation_4[0][0]               
__________________________________________________________________________________________________
dropout_2 (Dropout)             (None, 13, 20, 40)   0           max_pooling2d_2[0][0]            
__________________________________________________________________________________________________
conv2d_5 (Conv2D)               (None, 13, 20, 80)   28880       dropout_2[0][0]                  
__________________________________________________________________________________________________
batch_normalization_5 (BatchNor (None, 13, 20, 80)   320         conv2d_5[0][0]                   
__________________________________________________________________________________________________
activation_5 (Activation)       (None, 13, 20, 80)   0           batch_normalization_5[0][0]      
__________________________________________________________________________________________________
conv2d_6 (Conv2D)               (None, 13, 20, 80)   57680       activation_5[0][0]               
__________________________________________________________________________________________________
batch_normalization_6 (BatchNor (None, 13, 20, 80)   320         conv2d_6[0][0]                   
__________________________________________________________________________________________________
activation_6 (Activation)       (None, 13, 20, 80)   0           batch_normalization_6[0][0]      
__________________________________________________________________________________________________
dropout_3 (Dropout)             (None, 13, 20, 80)   0           activation_6[0][0]               
__________________________________________________________________________________________________
conv2d_transpose_1 (Conv2DTrans (None, 26, 40, 40)   12840       dropout_3[0][0]                  
__________________________________________________________________________________________________
concatenate_1 (Concatenate)     (None, 26, 40, 80)   0           conv2d_transpose_1[0][0]         
                                                                 activation_4[0][0]               
__________________________________________________________________________________________________
conv2d_7 (Conv2D)               (None, 26, 40, 40)   28840       concatenate_1[0][0]              
__________________________________________________________________________________________________
batch_normalization_7 (BatchNor (None, 26, 40, 40)   160         conv2d_7[0][0]                   
__________________________________________________________________________________________________
activation_7 (Activation)       (None, 26, 40, 40)   0           batch_normalization_7[0][0]      
__________________________________________________________________________________________________
conv2d_8 (Conv2D)               (None, 26, 40, 40)   14440       activation_7[0][0]               
__________________________________________________________________________________________________
batch_normalization_8 (BatchNor (None, 26, 40, 40)   160         conv2d_8[0][0]                   
__________________________________________________________________________________________________
activation_8 (Activation)       (None, 26, 40, 40)   0           batch_normalization_8[0][0]      
__________________________________________________________________________________________________
dropout_4 (Dropout)             (None, 26, 40, 40)   0           activation_8[0][0]               
__________________________________________________________________________________________________
conv2d_transpose_2 (Conv2DTrans (None, 52, 80, 20)   3220        dropout_4[0][0]                  
__________________________________________________________________________________________________
concatenate_2 (Concatenate)     (None, 52, 80, 40)   0           conv2d_transpose_2[0][0]         
                                                                 activation_2[0][0]               
__________________________________________________________________________________________________
conv2d_9 (Conv2D)               (None, 52, 80, 20)   7220        concatenate_2[0][0]              
__________________________________________________________________________________________________
batch_normalization_9 (BatchNor (None, 52, 80, 20)   80          conv2d_9[0][0]                   
__________________________________________________________________________________________________
activation_9 (Activation)       (None, 52, 80, 20)   0           batch_normalization_9[0][0]      
__________________________________________________________________________________________________
conv2d_10 (Conv2D)              (None, 52, 80, 20)   3620        activation_9[0][0]               
__________________________________________________________________________________________________
batch_normalization_10 (BatchNo (None, 52, 80, 20)   80          conv2d_10[0][0]                  
__________________________________________________________________________________________________
activation_10 (Activation)      (None, 52, 80, 20)   0           batch_normalization_10[0][0]     
__________________________________________________________________________________________________
dropout_5 (Dropout)             (None, 52, 80, 20)   0           activation_10[0][0]              
__________________________________________________________________________________________________
conv2d_11 (Conv2D)              (None, 52, 80, 13)   273         dropout_5[0][0]                  
==================================================================================================
Total params: 184,113
Trainable params: 183,313
Non-trainable params: 800
__________________________________________________________________________________________________
 --- initialized from Model_7T /array/ssd/msmajdi/experiments/keras/exp6/models/sE12_Cascade_FM20_U-Net4_NL3_LS_MyBCE_US1_Main_Init_3T_CV_a/MultiClass_24567891011121314/sd2
…
 Nucleus: [2, 4, 5, 6, 7, 8, 9, 10, 11, 12, 13, 14]  | GPU: 5  | SD 1  | Dropout 0.3  | LR 0.001  | NL 3  |  Cascade |  FM 20 |  Upsample 1
Experiment: exp6
SubExperiment: sE12_Cascade_FM20_U-Net4_NL3_LS_MyBCE_US1_CSFn1_Init_Main_CV_a
---------------------------------------------------------------
__________________________________________________________________________________________________
Layer (type)                    Output Shape         Param #     Connected to                     
==================================================================================================
input_1 (InputLayer)            (None, 52, 52, 1)    0                                            
__________________________________________________________________________________________________
conv2d_1 (Conv2D)               (None, 52, 52, 20)   200         input_1[0][0]                    
__________________________________________________________________________________________________
batch_normalization_1 (BatchNor (None, 52, 52, 20)   80          conv2d_1[0][0]                   
__________________________________________________________________________________________________
activation_1 (Activation)       (None, 52, 52, 20)   0           batch_normalization_1[0][0]      
__________________________________________________________________________________________________
conv2d_2 (Conv2D)               (None, 52, 52, 20)   3620        activation_1[0][0]               
__________________________________________________________________________________________________
batch_normalization_2 (BatchNor (None, 52, 52, 20)   80          conv2d_2[0][0]                   
__________________________________________________________________________________________________
activation_2 (Activation)       (None, 52, 52, 20)   0           batch_normalization_2[0][0]      
__________________________________________________________________________________________________
max_pooling2d_1 (MaxPooling2D)  (None, 26, 26, 20)   0           activation_2[0][0]               
__________________________________________________________________________________________________
dropout_1 (Dropout)             (None, 26, 26, 20)   0           max_pooling2d_1[0][0]            
__________________________________________________________________________________________________
conv2d_3 (Conv2D)               (None, 26, 26, 40)   7240        dropout_1[0][0]                  
__________________________________________________________________________________________________
batch_normalization_3 (BatchNor (None, 26, 26, 40)   160         conv2d_3[0][0]                   
__________________________________________________________________________________________________
activation_3 (Activation)       (None, 26, 26, 40)   0           batch_normalization_3[0][0]      
__________________________________________________________________________________________________
conv2d_4 (Conv2D)               (None, 26, 26, 40)   14440       activation_3[0][0]               
__________________________________________________________________________________________________
batch_normalization_4 (BatchNor (None, 26, 26, 40)   160         conv2d_4[0][0]                   
__________________________________________________________________________________________________
activation_4 (Activation)       (None, 26, 26, 40)   0           batch_normalization_4[0][0]      
__________________________________________________________________________________________________
max_pooling2d_2 (MaxPooling2D)  (None, 13, 13, 40)   0           activation_4[0][0]               
__________________________________________________________________________________________________
dropout_2 (Dropout)             (None, 13, 13, 40)   0           max_pooling2d_2[0][0]            
__________________________________________________________________________________________________
conv2d_5 (Conv2D)               (None, 13, 13, 80)   28880       dropout_2[0][0]                  
__________________________________________________________________________________________________
batch_normalization_5 (BatchNor (None, 13, 13, 80)   320         conv2d_5[0][0]                   
__________________________________________________________________________________________________
activation_5 (Activation)       (None, 13, 13, 80)   0           batch_normalization_5[0][0]      
__________________________________________________________________________________________________
conv2d_6 (Conv2D)               (None, 13, 13, 80)   57680       activation_5[0][0]               
__________________________________________________________________________________________________
batch_normalization_6 (BatchNor (None, 13, 13, 80)   320         conv2d_6[0][0]                   
__________________________________________________________________________________________________
activation_6 (Activation)       (None, 13, 13, 80)   0           batch_normalization_6[0][0]      
__________________________________________________________________________________________________
dropout_3 (Dropout)             (None, 13, 13, 80)   0           activation_6[0][0]               
__________________________________________________________________________________________________
conv2d_transpose_1 (Conv2DTrans (None, 26, 26, 40)   12840       dropout_3[0][0]                  
__________________________________________________________________________________________________
concatenate_1 (Concatenate)     (None, 26, 26, 80)   0           conv2d_transpose_1[0][0]         
                                                                 activation_4[0][0]               
__________________________________________________________________________________________________
conv2d_7 (Conv2D)               (None, 26, 26, 40)   28840       concatenate_1[0][0]              
__________________________________________________________________________________________________
batch_normalization_7 (BatchNor (None, 26, 26, 40)   160         conv2d_7[0][0]                   
__________________________________________________________________________________________________
activation_7 (Activation)       (None, 26, 26, 40)   0           batch_normalization_7[0][0]      
__________________________________________________________________________________________________
conv2d_8 (Conv2D)               (None, 26, 26, 40)   14440       activation_7[0][0]               
__________________________________________________________________________________________________
batch_normalization_8 (BatchNor (None, 26, 26, 40)   160         conv2d_8[0][0]                   
__________________________________________________________________________________________________
activation_8 (Activation)       (None, 26, 26, 40)   0           batch_normalization_8[0][0]      
__________________________________________________________________________________________________
dropout_4 (Dropout)             (None, 26, 26, 40)   0           activation_8[0][0]               
__________________________________________________________________________________________________
conv2d_transpose_2 (Conv2DTrans (None, 52, 52, 20)   3220        dropout_4[0][0]                  
__________________________________________________________________________________________________
concatenate_2 (Concatenate)     (None, 52, 52, 40)   0           conv2d_transpose_2[0][0]         
                                                                 activation_2[0][0]               
__________________________________________________________________________________________________
conv2d_9 (Conv2D)               (None, 52, 52, 20)   7220        concatenate_2[0][0]              
__________________________________________________________________________________________________
batch_normalization_9 (BatchNor (None, 52, 52, 20)   80          conv2d_9[0][0]                   
__________________________________________________________________________________________________
activation_9 (Activation)       (None, 52, 52, 20)   0           batch_normalization_9[0][0]      2019-07-02 02:27:14.691930: I tensorflow/core/common_runtime/gpu/gpu_device.cc:1471] Adding visible gpu devices: 0
2019-07-02 02:27:14.692047: I tensorflow/core/common_runtime/gpu/gpu_device.cc:952] Device interconnect StreamExecutor with strength 1 edge matrix:
2019-07-02 02:27:14.692061: I tensorflow/core/common_runtime/gpu/gpu_device.cc:958]      0 
2019-07-02 02:27:14.692070: I tensorflow/core/common_runtime/gpu/gpu_device.cc:971] 0:   N 
2019-07-02 02:27:14.692537: I tensorflow/core/common_runtime/gpu/gpu_device.cc:1084] Created TensorFlow device (/job:localhost/replica:0/task:0/device:GPU:0 with 11041 MB memory) -> physical GPU (device: 0, name: Tesla P100-PCIE-16GB, pci bus id: 0000:85:00.0, compute capability: 6.0)

__________________________________________________________________________________________________
conv2d_10 (Conv2D)              (None, 52, 52, 20)   3620        activation_9[0][0]               
__________________________________________________________________________________________________
batch_normalization_10 (BatchNo (None, 52, 52, 20)   80          conv2d_10[0][0]                  
__________________________________________________________________________________________________
activation_10 (Activation)      (None, 52, 52, 20)   0           batch_normalization_10[0][0]     
__________________________________________________________________________________________________
dropout_5 (Dropout)             (None, 52, 52, 20)   0           activation_10[0][0]              
__________________________________________________________________________________________________
conv2d_11 (Conv2D)              (None, 52, 52, 13)   273         dropout_5[0][0]                  
==================================================================================================
Total params: 184,113
Trainable params: 183,313
Non-trainable params: 800
__________________________________________________________________________________________________
 --- initialized from Model_7T /array/ssd/msmajdi/experiments/keras/exp6/models/sE12_Cascade_FM20_U-Net4_NL3_LS_MyBCE_US1_Main_Init_3T_CV_a/MultiClass_24567891011121314/sd1
…
 Nucleus: [2, 4, 5, 6, 7, 8, 9, 10, 11, 12, 13, 14]  | GPU: 5  | SD 0  | Dropout 0.3  | LR 0.001  | NL 3  |  Cascade |  FM 20 |  Upsample 1
Experiment: exp6
SubExperiment: sE12_Cascade_FM20_U-Net4_NL3_LS_MyBCE_US1_CSFn1_Init_Main_CV_a
---------------------------------------------------------------
__________________________________________________________________________________________________
Layer (type)                    Output Shape         Param #     Connected to                     
==================================================================================================
input_1 (InputLayer)            (None, 80, 52, 1)    0                                            
__________________________________________________________________________________________________
conv2d_1 (Conv2D)               (None, 80, 52, 20)   200         input_1[0][0]                    
__________________________________________________________________________________________________
batch_normalization_1 (BatchNor (None, 80, 52, 20)   80          conv2d_1[0][0]                   
__________________________________________________________________________________________________
activation_1 (Activation)       (None, 80, 52, 20)   0           batch_normalization_1[0][0]      
__________________________________________________________________________________________________
conv2d_2 (Conv2D)               (None, 80, 52, 20)   3620        activation_1[0][0]               
__________________________________________________________________________________________________
batch_normalization_2 (BatchNor (None, 80, 52, 20)   80          conv2d_2[0][0]                   
__________________________________________________________________________________________________
activation_2 (Activation)       (None, 80, 52, 20)   0           batch_normalization_2[0][0]      
__________________________________________________________________________________________________
max_pooling2d_1 (MaxPooling2D)  (None, 40, 26, 20)   0           activation_2[0][0]               
__________________________________________________________________________________________________
dropout_1 (Dropout)             (None, 40, 26, 20)   0           max_pooling2d_1[0][0]            
__________________________________________________________________________________________________
conv2d_3 (Conv2D)               (None, 40, 26, 40)   7240        dropout_1[0][0]                  
__________________________________________________________________________________________________
batch_normalization_3 (BatchNor (None, 40, 26, 40)   160         conv2d_3[0][0]                   
__________________________________________________________________________________________________
activation_3 (Activation)       (None, 40, 26, 40)   0           batch_normalization_3[0][0]      
__________________________________________________________________________________________________
conv2d_4 (Conv2D)               (None, 40, 26, 40)   14440       activation_3[0][0]               
__________________________________________________________________________________________________
batch_normalization_4 (BatchNor (None, 40, 26, 40)   160         conv2d_4[0][0]                   
__________________________________________________________________________________________________
activation_4 (Activation)       (None, 40, 26, 40)   0           batch_normalization_4[0][0]      
__________________________________________________________________________________________________
max_pooling2d_2 (MaxPooling2D)  (None, 20, 13, 40)   0           activation_4[0][0]               
__________________________________________________________________________________________________
dropout_2 (Dropout)             (None, 20, 13, 40)   0           max_pooling2d_2[0][0]            
__________________________________________________________________________________________________
conv2d_5 (Conv2D)               (None, 20, 13, 80)   28880       dropout_2[0][0]                  
__________________________________________________________________________________________________
batch_normalization_5 (BatchNor (None, 20, 13, 80)   320         conv2d_5[0][0]                   
__________________________________________________________________________________________________
activation_5 (Activation)       (None, 20, 13, 80)   0           batch_normalization_5[0][0]      
__________________________________________________________________________________________________
conv2d_6 (Conv2D)               (None, 20, 13, 80)   57680       activation_5[0][0]               
__________________________________________________________________________________________________
batch_normalization_6 (BatchNor (None, 20, 13, 80)   320         conv2d_6[0][0]                   
__________________________________________________________________________________________________
activation_6 (Activation)       (None, 20, 13, 80)   0           batch_normalization_6[0][0]      
__________________________________________________________________________________________________
dropout_3 (Dropout)             (None, 20, 13, 80)   0           activation_6[0][0]               
__________________________________________________________________________________________________
conv2d_transpose_1 (Conv2DTrans (None, 40, 26, 40)   12840       dropout_3[0][0]                  
__________________________________________________________________________________________________
concatenate_1 (Concatenate)     (None, 40, 26, 80)   0           conv2d_transpose_1[0][0]         
                                                                 activation_4[0][0]               
__________________________________________________________________________________________________
conv2d_7 (Conv2D)               (None, 40, 26, 40)   28840       concatenate_1[0][0]              
__________________________________________________________________________________________________
batch_normalization_7 (BatchNor (None, 40, 26, 40)   160         conv2d_7[0][0]                   
__________________________________________________________________________________________________
activation_7 (Activation)       (None, 40, 26, 40)   0           batch_normalization_7[0][0]      
__________________________________________________________________________________________________
conv2d_8 (Conv2D)               (None, 40, 26, 40)   14440       activation_7[0][0]               
__________________________________________________________________________________________________
batch_normalization_8 (BatchNor (None, 40, 26, 40)   160         conv2d_8[0][0]                   
__________________________________________________________________________________________________
activation_8 (Activation)       (None, 40, 26, 40)   0           batch_normalization_8[0][0]      
__________________________________________________________________________________________________
dropout_4 (Dropout)             (None, 40, 26, 40)   0           activation_8[0][0]               
__________________________________________________________________________________________________
conv2d_transpose_2 (Conv2DTrans (None, 80, 52, 20)   3220        dropout_4[0][0]                  
__________________________________________________________________________________________________
concatenate_2 (Concatenate)     (None, 80, 52, 40)   0           conv2d_transpose_2[0][0]         
                                                                 activation_2[0][0]               
__________________________________________________________________________________________________
conv2d_9 (Conv2D)               (None, 80, 52, 20)   7220        concatenate_2[0][0]              
__________________________________________________________________________________________________
batch_normalization_9 (BatchNor (None, 80, 52, 20)   80          conv2d_9[0][0]                   
__________________________________________________________________________________________________
activation_9 (Activation)       (None, 80, 52, 20)   0           batch_normalization_9[0][0]      2019-07-02 05:22:39.424670: I tensorflow/core/common_runtime/gpu/gpu_device.cc:1471] Adding visible gpu devices: 0
2019-07-02 05:22:39.424795: I tensorflow/core/common_runtime/gpu/gpu_device.cc:952] Device interconnect StreamExecutor with strength 1 edge matrix:
2019-07-02 05:22:39.424809: I tensorflow/core/common_runtime/gpu/gpu_device.cc:958]      0 
2019-07-02 05:22:39.424819: I tensorflow/core/common_runtime/gpu/gpu_device.cc:971] 0:   N 
2019-07-02 05:22:39.425299: I tensorflow/core/common_runtime/gpu/gpu_device.cc:1084] Created TensorFlow device (/job:localhost/replica:0/task:0/device:GPU:0 with 11041 MB memory) -> physical GPU (device: 0, name: Tesla P100-PCIE-16GB, pci bus id: 0000:85:00.0, compute capability: 6.0)

__________________________________________________________________________________________________
conv2d_10 (Conv2D)              (None, 80, 52, 20)   3620        activation_9[0][0]               
__________________________________________________________________________________________________
batch_normalization_10 (BatchNo (None, 80, 52, 20)   80          conv2d_10[0][0]                  
__________________________________________________________________________________________________
activation_10 (Activation)      (None, 80, 52, 20)   0           batch_normalization_10[0][0]     
__________________________________________________________________________________________________
dropout_5 (Dropout)             (None, 80, 52, 20)   0           activation_10[0][0]              
__________________________________________________________________________________________________
conv2d_11 (Conv2D)              (None, 80, 52, 13)   273         dropout_5[0][0]                  
==================================================================================================
Total params: 184,113
Trainable params: 183,313
Non-trainable params: 800
__________________________________________________________________________________________________
 --- initialized from Model_7T /array/ssd/msmajdi/experiments/keras/exp6/models/sE12_Cascade_FM20_U-Net4_NL3_LS_MyBCE_US1_Main_Init_3T_CV_a/MultiClass_24567891011121314/sd0
…
 Nucleus: [2, 4, 5, 6, 7, 8, 9, 10, 11, 12, 13, 14]  | GPU: 5  | SD 2  | Dropout 0.3  | LR 0.001  | NL 3  |  Cascade |  FM 30 |  Upsample 1
Experiment: exp6
SubExperiment: sE12_Cascade_FM30_U-Net4_NL3_LS_MyBCE_US1_CSFn1_Init_Main_CV_a
---------------------------------------------------------------
__________________________________________________________________________________________________
Layer (type)                    Output Shape         Param #     Connected to                     
==================================================================================================
input_1 (InputLayer)            (None, 52, 80, 1)    0                                            
__________________________________________________________________________________________________
conv2d_1 (Conv2D)               (None, 52, 80, 30)   300         input_1[0][0]                    
__________________________________________________________________________________________________
batch_normalization_1 (BatchNor (None, 52, 80, 30)   120         conv2d_1[0][0]                   
__________________________________________________________________________________________________
activation_1 (Activation)       (None, 52, 80, 30)   0           batch_normalization_1[0][0]      
__________________________________________________________________________________________________
conv2d_2 (Conv2D)               (None, 52, 80, 30)   8130        activation_1[0][0]               
__________________________________________________________________________________________________
batch_normalization_2 (BatchNor (None, 52, 80, 30)   120         conv2d_2[0][0]                   
__________________________________________________________________________________________________
activation_2 (Activation)       (None, 52, 80, 30)   0           batch_normalization_2[0][0]      
__________________________________________________________________________________________________
max_pooling2d_1 (MaxPooling2D)  (None, 26, 40, 30)   0           activation_2[0][0]               
__________________________________________________________________________________________________
dropout_1 (Dropout)             (None, 26, 40, 30)   0           max_pooling2d_1[0][0]            
__________________________________________________________________________________________________
conv2d_3 (Conv2D)               (None, 26, 40, 60)   16260       dropout_1[0][0]                  
__________________________________________________________________________________________________
batch_normalization_3 (BatchNor (None, 26, 40, 60)   240         conv2d_3[0][0]                   
__________________________________________________________________________________________________
activation_3 (Activation)       (None, 26, 40, 60)   0           batch_normalization_3[0][0]      
__________________________________________________________________________________________________
conv2d_4 (Conv2D)               (None, 26, 40, 60)   32460       activation_3[0][0]               
__________________________________________________________________________________________________
batch_normalization_4 (BatchNor (None, 26, 40, 60)   240         conv2d_4[0][0]                   
__________________________________________________________________________________________________
activation_4 (Activation)       (None, 26, 40, 60)   0           batch_normalization_4[0][0]      
__________________________________________________________________________________________________
max_pooling2d_2 (MaxPooling2D)  (None, 13, 20, 60)   0           activation_4[0][0]               
__________________________________________________________________________________________________
dropout_2 (Dropout)             (None, 13, 20, 60)   0           max_pooling2d_2[0][0]            
__________________________________________________________________________________________________
conv2d_5 (Conv2D)               (None, 13, 20, 120)  64920       dropout_2[0][0]                  
__________________________________________________________________________________________________
batch_normalization_5 (BatchNor (None, 13, 20, 120)  480         conv2d_5[0][0]                   
__________________________________________________________________________________________________
activation_5 (Activation)       (None, 13, 20, 120)  0           batch_normalization_5[0][0]      
__________________________________________________________________________________________________
conv2d_6 (Conv2D)               (None, 13, 20, 120)  129720      activation_5[0][0]               
__________________________________________________________________________________________________
batch_normalization_6 (BatchNor (None, 13, 20, 120)  480         conv2d_6[0][0]                   
__________________________________________________________________________________________________
activation_6 (Activation)       (None, 13, 20, 120)  0           batch_normalization_6[0][0]      
__________________________________________________________________________________________________
dropout_3 (Dropout)             (None, 13, 20, 120)  0           activation_6[0][0]               
__________________________________________________________________________________________________
conv2d_transpose_1 (Conv2DTrans (None, 26, 40, 60)   28860       dropout_3[0][0]                  
__________________________________________________________________________________________________
concatenate_1 (Concatenate)     (None, 26, 40, 120)  0           conv2d_transpose_1[0][0]         
                                                                 activation_4[0][0]               
__________________________________________________________________________________________________
conv2d_7 (Conv2D)               (None, 26, 40, 60)   64860       concatenate_1[0][0]              
__________________________________________________________________________________________________
batch_normalization_7 (BatchNor (None, 26, 40, 60)   240         conv2d_7[0][0]                   
__________________________________________________________________________________________________
activation_7 (Activation)       (None, 26, 40, 60)   0           batch_normalization_7[0][0]      
__________________________________________________________________________________________________
conv2d_8 (Conv2D)               (None, 26, 40, 60)   32460       activation_7[0][0]               
__________________________________________________________________________________________________
batch_normalization_8 (BatchNor (None, 26, 40, 60)   240         conv2d_8[0][0]                   
__________________________________________________________________________________________________
activation_8 (Activation)       (None, 26, 40, 60)   0           batch_normalization_8[0][0]      
__________________________________________________________________________________________________
dropout_4 (Dropout)             (None, 26, 40, 60)   0           activation_8[0][0]               2019-07-02 08:10:44.181753: I tensorflow/core/common_runtime/gpu/gpu_device.cc:1471] Adding visible gpu devices: 0
2019-07-02 08:10:44.181875: I tensorflow/core/common_runtime/gpu/gpu_device.cc:952] Device interconnect StreamExecutor with strength 1 edge matrix:
2019-07-02 08:10:44.181891: I tensorflow/core/common_runtime/gpu/gpu_device.cc:958]      0 
2019-07-02 08:10:44.181900: I tensorflow/core/common_runtime/gpu/gpu_device.cc:971] 0:   N 
2019-07-02 08:10:44.182370: I tensorflow/core/common_runtime/gpu/gpu_device.cc:1084] Created TensorFlow device (/job:localhost/replica:0/task:0/device:GPU:0 with 11041 MB memory) -> physical GPU (device: 0, name: Tesla P100-PCIE-16GB, pci bus id: 0000:85:00.0, compute capability: 6.0)

__________________________________________________________________________________________________
conv2d_transpose_2 (Conv2DTrans (None, 52, 80, 30)   7230        dropout_4[0][0]                  
__________________________________________________________________________________________________
concatenate_2 (Concatenate)     (None, 52, 80, 60)   0           conv2d_transpose_2[0][0]         
                                                                 activation_2[0][0]               
__________________________________________________________________________________________________
conv2d_9 (Conv2D)               (None, 52, 80, 30)   16230       concatenate_2[0][0]              
__________________________________________________________________________________________________
batch_normalization_9 (BatchNor (None, 52, 80, 30)   120         conv2d_9[0][0]                   
__________________________________________________________________________________________________
activation_9 (Activation)       (None, 52, 80, 30)   0           batch_normalization_9[0][0]      
__________________________________________________________________________________________________
conv2d_10 (Conv2D)              (None, 52, 80, 30)   8130        activation_9[0][0]               
__________________________________________________________________________________________________
batch_normalization_10 (BatchNo (None, 52, 80, 30)   120         conv2d_10[0][0]                  
__________________________________________________________________________________________________
activation_10 (Activation)      (None, 52, 80, 30)   0           batch_normalization_10[0][0]     
__________________________________________________________________________________________________
dropout_5 (Dropout)             (None, 52, 80, 30)   0           activation_10[0][0]              
__________________________________________________________________________________________________
conv2d_11 (Conv2D)              (None, 52, 80, 13)   403         dropout_5[0][0]                  
==================================================================================================
Total params: 412,363
Trainable params: 411,163
Non-trainable params: 1,200
__________________________________________________________________________________________________
 --- initialized from Model_7T /array/ssd/msmajdi/experiments/keras/exp6/models/sE12_Cascade_FM30_U-Net4_NL3_LS_MyBCE_US1_Main_Init_3T_CV_a/MultiClass_24567891011121314/sd2
…
 Nucleus: [2, 4, 5, 6, 7, 8, 9, 10, 11, 12, 13, 14]  | GPU: 5  | SD 1  | Dropout 0.3  | LR 0.001  | NL 3  |  Cascade |  FM 30 |  Upsample 1
Experiment: exp6
SubExperiment: sE12_Cascade_FM30_U-Net4_NL3_LS_MyBCE_US1_CSFn1_Init_Main_CV_a
---------------------------------------------------------------
__________________________________________________________________________________________________
Layer (type)                    Output Shape         Param #     Connected to                     
==================================================================================================
input_1 (InputLayer)            (None, 52, 52, 1)    0                                            
__________________________________________________________________________________________________
conv2d_1 (Conv2D)               (None, 52, 52, 30)   300         input_1[0][0]                    
__________________________________________________________________________________________________
batch_normalization_1 (BatchNor (None, 52, 52, 30)   120         conv2d_1[0][0]                   
__________________________________________________________________________________________________
activation_1 (Activation)       (None, 52, 52, 30)   0           batch_normalization_1[0][0]      
__________________________________________________________________________________________________
conv2d_2 (Conv2D)               (None, 52, 52, 30)   8130        activation_1[0][0]               
__________________________________________________________________________________________________
batch_normalization_2 (BatchNor (None, 52, 52, 30)   120         conv2d_2[0][0]                   
__________________________________________________________________________________________________
activation_2 (Activation)       (None, 52, 52, 30)   0           batch_normalization_2[0][0]      
__________________________________________________________________________________________________
max_pooling2d_1 (MaxPooling2D)  (None, 26, 26, 30)   0           activation_2[0][0]               
__________________________________________________________________________________________________
dropout_1 (Dropout)             (None, 26, 26, 30)   0           max_pooling2d_1[0][0]            
__________________________________________________________________________________________________
conv2d_3 (Conv2D)               (None, 26, 26, 60)   16260       dropout_1[0][0]                  
__________________________________________________________________________________________________
batch_normalization_3 (BatchNor (None, 26, 26, 60)   240         conv2d_3[0][0]                   
__________________________________________________________________________________________________
activation_3 (Activation)       (None, 26, 26, 60)   0           batch_normalization_3[0][0]      
__________________________________________________________________________________________________
conv2d_4 (Conv2D)               (None, 26, 26, 60)   32460       activation_3[0][0]               
__________________________________________________________________________________________________
batch_normalization_4 (BatchNor (None, 26, 26, 60)   240         conv2d_4[0][0]                   
__________________________________________________________________________________________________
activation_4 (Activation)       (None, 26, 26, 60)   0           batch_normalization_4[0][0]      
__________________________________________________________________________________________________
max_pooling2d_2 (MaxPooling2D)  (None, 13, 13, 60)   0           activation_4[0][0]               
__________________________________________________________________________________________________
dropout_2 (Dropout)             (None, 13, 13, 60)   0           max_pooling2d_2[0][0]            
__________________________________________________________________________________________________
conv2d_5 (Conv2D)               (None, 13, 13, 120)  64920       dropout_2[0][0]                  
__________________________________________________________________________________________________
batch_normalization_5 (BatchNor (None, 13, 13, 120)  480         conv2d_5[0][0]                   
__________________________________________________________________________________________________
activation_5 (Activation)       (None, 13, 13, 120)  0           batch_normalization_5[0][0]      
__________________________________________________________________________________________________
conv2d_6 (Conv2D)               (None, 13, 13, 120)  129720      activation_5[0][0]               
__________________________________________________________________________________________________
batch_normalization_6 (BatchNor (None, 13, 13, 120)  480         conv2d_6[0][0]                   
__________________________________________________________________________________________________
activation_6 (Activation)       (None, 13, 13, 120)  0           batch_normalization_6[0][0]      
__________________________________________________________________________________________________
dropout_3 (Dropout)             (None, 13, 13, 120)  0           activation_6[0][0]               
__________________________________________________________________________________________________
conv2d_transpose_1 (Conv2DTrans (None, 26, 26, 60)   28860       dropout_3[0][0]                  
__________________________________________________________________________________________________
concatenate_1 (Concatenate)     (None, 26, 26, 120)  0           conv2d_transpose_1[0][0]         
                                                                 activation_4[0][0]               
__________________________________________________________________________________________________
conv2d_7 (Conv2D)               (None, 26, 26, 60)   64860       concatenate_1[0][0]              
__________________________________________________________________________________________________
batch_normalization_7 (BatchNor (None, 26, 26, 60)   240         conv2d_7[0][0]                   
__________________________________________________________________________________________________
activation_7 (Activation)       (None, 26, 26, 60)   0           batch_normalization_7[0][0]      
__________________________________________________________________________________________________
conv2d_8 (Conv2D)               (None, 26, 26, 60)   32460       activation_7[0][0]               
__________________________________________________________________________________________________
batch_normalization_8 (BatchNor (None, 26, 26, 60)   240         conv2d_8[0][0]                   
__________________________________________________________________________________________________
activation_8 (Activation)       (None, 26, 26, 60)   0           batch_normalization_8[0][0]      
__________________________________________________________________________________________________
dropout_4 (Dropout)             (None, 26, 26, 60)   0           activation_8[0][0]               
__________________________________________________________________________________________________
conv2d_transpose_2 (Conv2DTrans (None, 52, 52, 30)   7230        dropout_4[0][0]                  
__________________________________________________________________________________________________
concatenate_2 (Concatenate)     (None, 52, 52, 60)   0           conv2d_transpose_2[0][0]         
                                                                 activation_2[0][0]               
__________________________________________________________________________________________________
conv2d_9 (Conv2D)               (None, 52, 52, 30)   16230       concatenate_2[0][0]              
__________________________________________________________________________________________________
batch_normalization_9 (BatchNor (None, 52, 52, 30)   120         conv2d_9[0][0]                   
__________________________________________________________________________________________________
activation_9 (Activation)       (None, 52, 52, 30)   0           batch_normalization_9[0][0]      2019-07-02 10:53:56.932605: I tensorflow/core/common_runtime/gpu/gpu_device.cc:1471] Adding visible gpu devices: 0
2019-07-02 10:53:56.932733: I tensorflow/core/common_runtime/gpu/gpu_device.cc:952] Device interconnect StreamExecutor with strength 1 edge matrix:
2019-07-02 10:53:56.932747: I tensorflow/core/common_runtime/gpu/gpu_device.cc:958]      0 
2019-07-02 10:53:56.932757: I tensorflow/core/common_runtime/gpu/gpu_device.cc:971] 0:   N 
2019-07-02 10:53:56.933238: I tensorflow/core/common_runtime/gpu/gpu_device.cc:1084] Created TensorFlow device (/job:localhost/replica:0/task:0/device:GPU:0 with 11041 MB memory) -> physical GPU (device: 0, name: Tesla P100-PCIE-16GB, pci bus id: 0000:85:00.0, compute capability: 6.0)

__________________________________________________________________________________________________
conv2d_10 (Conv2D)              (None, 52, 52, 30)   8130        activation_9[0][0]               
__________________________________________________________________________________________________
batch_normalization_10 (BatchNo (None, 52, 52, 30)   120         conv2d_10[0][0]                  
__________________________________________________________________________________________________
activation_10 (Activation)      (None, 52, 52, 30)   0           batch_normalization_10[0][0]     
__________________________________________________________________________________________________
dropout_5 (Dropout)             (None, 52, 52, 30)   0           activation_10[0][0]              
__________________________________________________________________________________________________
conv2d_11 (Conv2D)              (None, 52, 52, 13)   403         dropout_5[0][0]                  
==================================================================================================
Total params: 412,363
Trainable params: 411,163
Non-trainable params: 1,200
__________________________________________________________________________________________________
 --- initialized from Model_7T /array/ssd/msmajdi/experiments/keras/exp6/models/sE12_Cascade_FM30_U-Net4_NL3_LS_MyBCE_US1_Main_Init_3T_CV_a/MultiClass_24567891011121314/sd1
…
 Nucleus: [2, 4, 5, 6, 7, 8, 9, 10, 11, 12, 13, 14]  | GPU: 5  | SD 0  | Dropout 0.3  | LR 0.001  | NL 3  |  Cascade |  FM 30 |  Upsample 1
Experiment: exp6
SubExperiment: sE12_Cascade_FM30_U-Net4_NL3_LS_MyBCE_US1_CSFn1_Init_Main_CV_a
---------------------------------------------------------------
__________________________________________________________________________________________________
Layer (type)                    Output Shape         Param #     Connected to                     
==================================================================================================
input_1 (InputLayer)            (None, 80, 52, 1)    0                                            
__________________________________________________________________________________________________
conv2d_1 (Conv2D)               (None, 80, 52, 30)   300         input_1[0][0]                    
__________________________________________________________________________________________________
batch_normalization_1 (BatchNor (None, 80, 52, 30)   120         conv2d_1[0][0]                   
__________________________________________________________________________________________________
activation_1 (Activation)       (None, 80, 52, 30)   0           batch_normalization_1[0][0]      
__________________________________________________________________________________________________
conv2d_2 (Conv2D)               (None, 80, 52, 30)   8130        activation_1[0][0]               
__________________________________________________________________________________________________
batch_normalization_2 (BatchNor (None, 80, 52, 30)   120         conv2d_2[0][0]                   
__________________________________________________________________________________________________
activation_2 (Activation)       (None, 80, 52, 30)   0           batch_normalization_2[0][0]      
__________________________________________________________________________________________________
max_pooling2d_1 (MaxPooling2D)  (None, 40, 26, 30)   0           activation_2[0][0]               
__________________________________________________________________________________________________
dropout_1 (Dropout)             (None, 40, 26, 30)   0           max_pooling2d_1[0][0]            
__________________________________________________________________________________________________
conv2d_3 (Conv2D)               (None, 40, 26, 60)   16260       dropout_1[0][0]                  
__________________________________________________________________________________________________
batch_normalization_3 (BatchNor (None, 40, 26, 60)   240         conv2d_3[0][0]                   
__________________________________________________________________________________________________
activation_3 (Activation)       (None, 40, 26, 60)   0           batch_normalization_3[0][0]      
__________________________________________________________________________________________________
conv2d_4 (Conv2D)               (None, 40, 26, 60)   32460       activation_3[0][0]               
__________________________________________________________________________________________________
batch_normalization_4 (BatchNor (None, 40, 26, 60)   240         conv2d_4[0][0]                   
__________________________________________________________________________________________________
activation_4 (Activation)       (None, 40, 26, 60)   0           batch_normalization_4[0][0]      
__________________________________________________________________________________________________
max_pooling2d_2 (MaxPooling2D)  (None, 20, 13, 60)   0           activation_4[0][0]               
__________________________________________________________________________________________________
dropout_2 (Dropout)             (None, 20, 13, 60)   0           max_pooling2d_2[0][0]            
__________________________________________________________________________________________________
conv2d_5 (Conv2D)               (None, 20, 13, 120)  64920       dropout_2[0][0]                  
__________________________________________________________________________________________________
batch_normalization_5 (BatchNor (None, 20, 13, 120)  480         conv2d_5[0][0]                   
__________________________________________________________________________________________________
activation_5 (Activation)       (None, 20, 13, 120)  0           batch_normalization_5[0][0]      
__________________________________________________________________________________________________
conv2d_6 (Conv2D)               (None, 20, 13, 120)  129720      activation_5[0][0]               
__________________________________________________________________________________________________
batch_normalization_6 (BatchNor (None, 20, 13, 120)  480         conv2d_6[0][0]                   
__________________________________________________________________________________________________
activation_6 (Activation)       (None, 20, 13, 120)  0           batch_normalization_6[0][0]      
__________________________________________________________________________________________________
dropout_3 (Dropout)             (None, 20, 13, 120)  0           activation_6[0][0]               
__________________________________________________________________________________________________
conv2d_transpose_1 (Conv2DTrans (None, 40, 26, 60)   28860       dropout_3[0][0]                  
__________________________________________________________________________________________________
concatenate_1 (Concatenate)     (None, 40, 26, 120)  0           conv2d_transpose_1[0][0]         
                                                                 activation_4[0][0]               
__________________________________________________________________________________________________
conv2d_7 (Conv2D)               (None, 40, 26, 60)   64860       concatenate_1[0][0]              
__________________________________________________________________________________________________
batch_normalization_7 (BatchNor (None, 40, 26, 60)   240         conv2d_7[0][0]                   
__________________________________________________________________________________________________
activation_7 (Activation)       (None, 40, 26, 60)   0           batch_normalization_7[0][0]      
__________________________________________________________________________________________________
conv2d_8 (Conv2D)               (None, 40, 26, 60)   32460       activation_7[0][0]               
__________________________________________________________________________________________________
batch_normalization_8 (BatchNor (None, 40, 26, 60)   240         conv2d_8[0][0]                   
__________________________________________________________________________________________________
activation_8 (Activation)       (None, 40, 26, 60)   0           batch_normalization_8[0][0]      
__________________________________________________________________________________________________
dropout_4 (Dropout)             (None, 40, 26, 60)   0           activation_8[0][0]               
__________________________________________________________________________________________________
conv2d_transpose_2 (Conv2DTrans (None, 80, 52, 30)   7230        dropout_4[0][0]                  
__________________________________________________________________________________________________
concatenate_2 (Concatenate)     (None, 80, 52, 60)   0           conv2d_transpose_2[0][0]         
                                                                 activation_2[0][0]               
__________________________________________________________________________________________________
conv2d_9 (Conv2D)               (None, 80, 52, 30)   16230       concatenate_2[0][0]              
__________________________________________________________________________________________________
batch_normalization_9 (BatchNor (None, 80, 52, 30)   120         conv2d_9[0][0]                   
__________________________________________________________________________________________________
activation_9 (Activation)       (None, 80, 52, 30)   0           batch_normalization_9[0][0]      2019-07-02 13:45:49.395746: I tensorflow/core/common_runtime/gpu/gpu_device.cc:1471] Adding visible gpu devices: 0
2019-07-02 13:45:49.395898: I tensorflow/core/common_runtime/gpu/gpu_device.cc:952] Device interconnect StreamExecutor with strength 1 edge matrix:
2019-07-02 13:45:49.395937: I tensorflow/core/common_runtime/gpu/gpu_device.cc:958]      0 
2019-07-02 13:45:49.395953: I tensorflow/core/common_runtime/gpu/gpu_device.cc:971] 0:   N 
2019-07-02 13:45:49.396457: I tensorflow/core/common_runtime/gpu/gpu_device.cc:1084] Created TensorFlow device (/job:localhost/replica:0/task:0/device:GPU:0 with 11041 MB memory) -> physical GPU (device: 0, name: Tesla P100-PCIE-16GB, pci bus id: 0000:85:00.0, compute capability: 6.0)

__________________________________________________________________________________________________
conv2d_10 (Conv2D)              (None, 80, 52, 30)   8130        activation_9[0][0]               
__________________________________________________________________________________________________
batch_normalization_10 (BatchNo (None, 80, 52, 30)   120         conv2d_10[0][0]                  
__________________________________________________________________________________________________
activation_10 (Activation)      (None, 80, 52, 30)   0           batch_normalization_10[0][0]     
__________________________________________________________________________________________________
dropout_5 (Dropout)             (None, 80, 52, 30)   0           activation_10[0][0]              
__________________________________________________________________________________________________
conv2d_11 (Conv2D)              (None, 80, 52, 13)   403         dropout_5[0][0]                  
==================================================================================================
Total params: 412,363
Trainable params: 411,163
Non-trainable params: 1,200
__________________________________________________________________________________________________
 --- initialized from Model_7T /array/ssd/msmajdi/experiments/keras/exp6/models/sE12_Cascade_FM30_U-Net4_NL3_LS_MyBCE_US1_Main_Init_3T_CV_a/MultiClass_24567891011121314/sd0
…
 Nucleus: [2, 4, 5, 6, 7, 8, 9, 10, 11, 12, 13, 14]  | GPU: 5  | SD 2  | Dropout 0.3  | LR 0.001  | NL 3  |  Cascade |  FM 40 |  Upsample 1
Experiment: exp6
SubExperiment: sE12_Cascade_FM40_U-Net4_NL3_LS_MyBCE_US1_CSFn1_Init_Main_CV_a
---------------------------------------------------------------
__________________________________________________________________________________________________
Layer (type)                    Output Shape         Param #     Connected to                     
==================================================================================================
input_1 (InputLayer)            (None, 52, 80, 1)    0                                            
__________________________________________________________________________________________________
conv2d_1 (Conv2D)               (None, 52, 80, 40)   400         input_1[0][0]                    
__________________________________________________________________________________________________
batch_normalization_1 (BatchNor (None, 52, 80, 40)   160         conv2d_1[0][0]                   
__________________________________________________________________________________________________
activation_1 (Activation)       (None, 52, 80, 40)   0           batch_normalization_1[0][0]      
__________________________________________________________________________________________________
conv2d_2 (Conv2D)               (None, 52, 80, 40)   14440       activation_1[0][0]               
__________________________________________________________________________________________________
batch_normalization_2 (BatchNor (None, 52, 80, 40)   160         conv2d_2[0][0]                   
__________________________________________________________________________________________________
activation_2 (Activation)       (None, 52, 80, 40)   0           batch_normalization_2[0][0]      
__________________________________________________________________________________________________
max_pooling2d_1 (MaxPooling2D)  (None, 26, 40, 40)   0           activation_2[0][0]               
__________________________________________________________________________________________________
dropout_1 (Dropout)             (None, 26, 40, 40)   0           max_pooling2d_1[0][0]            
__________________________________________________________________________________________________
conv2d_3 (Conv2D)               (None, 26, 40, 80)   28880       dropout_1[0][0]                  
__________________________________________________________________________________________________
batch_normalization_3 (BatchNor (None, 26, 40, 80)   320         conv2d_3[0][0]                   
__________________________________________________________________________________________________
activation_3 (Activation)       (None, 26, 40, 80)   0           batch_normalization_3[0][0]      
__________________________________________________________________________________________________
conv2d_4 (Conv2D)               (None, 26, 40, 80)   57680       activation_3[0][0]               
__________________________________________________________________________________________________
batch_normalization_4 (BatchNor (None, 26, 40, 80)   320         conv2d_4[0][0]                   
__________________________________________________________________________________________________
activation_4 (Activation)       (None, 26, 40, 80)   0           batch_normalization_4[0][0]      
__________________________________________________________________________________________________
max_pooling2d_2 (MaxPooling2D)  (None, 13, 20, 80)   0           activation_4[0][0]               
__________________________________________________________________________________________________
dropout_2 (Dropout)             (None, 13, 20, 80)   0           max_pooling2d_2[0][0]            
__________________________________________________________________________________________________
conv2d_5 (Conv2D)               (None, 13, 20, 160)  115360      dropout_2[0][0]                  
__________________________________________________________________________________________________
batch_normalization_5 (BatchNor (None, 13, 20, 160)  640         conv2d_5[0][0]                   
__________________________________________________________________________________________________
activation_5 (Activation)       (None, 13, 20, 160)  0           batch_normalization_5[0][0]      
__________________________________________________________________________________________________
conv2d_6 (Conv2D)               (None, 13, 20, 160)  230560      activation_5[0][0]               
__________________________________________________________________________________________________
batch_normalization_6 (BatchNor (None, 13, 20, 160)  640         conv2d_6[0][0]                   
__________________________________________________________________________________________________
activation_6 (Activation)       (None, 13, 20, 160)  0           batch_normalization_6[0][0]      
__________________________________________________________________________________________________
dropout_3 (Dropout)             (None, 13, 20, 160)  0           activation_6[0][0]               
__________________________________________________________________________________________________
conv2d_transpose_1 (Conv2DTrans (None, 26, 40, 80)   51280       dropout_3[0][0]                  
__________________________________________________________________________________________________
concatenate_1 (Concatenate)     (None, 26, 40, 160)  0           conv2d_transpose_1[0][0]         
                                                                 activation_4[0][0]               
__________________________________________________________________________________________________
conv2d_7 (Conv2D)               (None, 26, 40, 80)   115280      concatenate_1[0][0]              
__________________________________________________________________________________________________
batch_normalization_7 (BatchNor (None, 26, 40, 80)   320         conv2d_7[0][0]                   
__________________________________________________________________________________________________
activation_7 (Activation)       (None, 26, 40, 80)   0           batch_normalization_7[0][0]      
__________________________________________________________________________________________________
conv2d_8 (Conv2D)               (None, 26, 40, 80)   57680       activation_7[0][0]               
__________________________________________________________________________________________________
batch_normalization_8 (BatchNor (None, 26, 40, 80)   320         conv2d_8[0][0]                   
__________________________________________________________________________________________________
activation_8 (Activation)       (None, 26, 40, 80)   0           batch_normalization_8[0][0]      
__________________________________________________________________________________________________
dropout_4 (Dropout)             (None, 26, 40, 80)   0           activation_8[0][0]               2019-07-02 16:17:57.881043: I tensorflow/core/common_runtime/gpu/gpu_device.cc:1471] Adding visible gpu devices: 0
2019-07-02 16:17:57.881159: I tensorflow/core/common_runtime/gpu/gpu_device.cc:952] Device interconnect StreamExecutor with strength 1 edge matrix:
2019-07-02 16:17:57.881185: I tensorflow/core/common_runtime/gpu/gpu_device.cc:958]      0 
2019-07-02 16:17:57.881196: I tensorflow/core/common_runtime/gpu/gpu_device.cc:971] 0:   N 
2019-07-02 16:17:57.881609: I tensorflow/core/common_runtime/gpu/gpu_device.cc:1084] Created TensorFlow device (/job:localhost/replica:0/task:0/device:GPU:0 with 11041 MB memory) -> physical GPU (device: 0, name: Tesla P100-PCIE-16GB, pci bus id: 0000:85:00.0, compute capability: 6.0)

__________________________________________________________________________________________________
conv2d_transpose_2 (Conv2DTrans (None, 52, 80, 40)   12840       dropout_4[0][0]                  
__________________________________________________________________________________________________
concatenate_2 (Concatenate)     (None, 52, 80, 80)   0           conv2d_transpose_2[0][0]         
                                                                 activation_2[0][0]               
__________________________________________________________________________________________________
conv2d_9 (Conv2D)               (None, 52, 80, 40)   28840       concatenate_2[0][0]              
__________________________________________________________________________________________________
batch_normalization_9 (BatchNor (None, 52, 80, 40)   160         conv2d_9[0][0]                   
__________________________________________________________________________________________________
activation_9 (Activation)       (None, 52, 80, 40)   0           batch_normalization_9[0][0]      
__________________________________________________________________________________________________
conv2d_10 (Conv2D)              (None, 52, 80, 40)   14440       activation_9[0][0]               
__________________________________________________________________________________________________
batch_normalization_10 (BatchNo (None, 52, 80, 40)   160         conv2d_10[0][0]                  
__________________________________________________________________________________________________
activation_10 (Activation)      (None, 52, 80, 40)   0           batch_normalization_10[0][0]     
__________________________________________________________________________________________________
dropout_5 (Dropout)             (None, 52, 80, 40)   0           activation_10[0][0]              
__________________________________________________________________________________________________
conv2d_11 (Conv2D)              (None, 52, 80, 13)   533         dropout_5[0][0]                  
==================================================================================================
Total params: 731,413
Trainable params: 729,813
Non-trainable params: 1,600
__________________________________________________________________________________________________
 --- initialized from Model_7T /array/ssd/msmajdi/experiments/keras/exp6/models/sE12_Cascade_FM40_U-Net4_NL3_LS_MyBCE_US1_Main_Init_3T_CV_a/MultiClass_24567891011121314/sd2
…
