…
 Nucleus: [2, 4, 5, 6, 7, 8, 9, 10, 11, 12, 13, 14]  | GPU: 4  | SD 2  | Dropout 0.3  | LR 0.001  | NL 3  |  Cascade |  FM 10 |  Upsample 1
Experiment: exp6
SubExperiment: sE12_Cascade_FM10_Res_Unet_NL3_LS_MyLogDice_US1_Main_Init_3T_CV_a
---------------------------------------------------------------
__________________________________________________________________________________________________
Layer (type)                    Output Shape         Param #     Connected to                     
==================================================================================================
input_1 (InputLayer)            (None, 56, 88, 1)    0                                            
__________________________________________________________________________________________________
conv2d_1 (Conv2D)               (None, 56, 88, 10)   100         input_1[0][0]                    
__________________________________________________________________________________________________
batch_normalization_1 (BatchNor (None, 56, 88, 10)   40          conv2d_1[0][0]                   
__________________________________________________________________________________________________
activation_1 (Activation)       (None, 56, 88, 10)   0           batch_normalization_1[0][0]      
__________________________________________________________________________________________________
conv2d_2 (Conv2D)               (None, 56, 88, 10)   910         activation_1[0][0]               
__________________________________________________________________________________________________
batch_normalization_2 (BatchNor (None, 56, 88, 10)   40          conv2d_2[0][0]                   
__________________________________________________________________________________________________
activation_2 (Activation)       (None, 56, 88, 10)   0           batch_normalization_2[0][0]      
__________________________________________________________________________________________________
concatenate_1 (Concatenate)     (None, 56, 88, 11)   0           input_1[0][0]                    
                                                                 activation_2[0][0]               
__________________________________________________________________________________________________
max_pooling2d_1 (MaxPooling2D)  (None, 28, 44, 11)   0           concatenate_1[0][0]              
__________________________________________________________________________________________________
dropout_1 (Dropout)             (None, 28, 44, 11)   0           max_pooling2d_1[0][0]            
__________________________________________________________________________________________________
conv2d_3 (Conv2D)               (None, 28, 44, 20)   2000        dropout_1[0][0]                  
__________________________________________________________________________________________________
batch_normalization_3 (BatchNor (None, 28, 44, 20)   80          conv2d_3[0][0]                   
__________________________________________________________________________________________________
activation_3 (Activation)       (None, 28, 44, 20)   0           batch_normalization_3[0][0]      
__________________________________________________________________________________________________
conv2d_4 (Conv2D)               (None, 28, 44, 20)   3620        activation_3[0][0]               
__________________________________________________________________________________________________
batch_normalization_4 (BatchNor (None, 28, 44, 20)   80          conv2d_4[0][0]                   
__________________________________________________________________________________________________
activation_4 (Activation)       (None, 28, 44, 20)   0           batch_normalization_4[0][0]      
__________________________________________________________________________________________________
concatenate_2 (Concatenate)     (None, 28, 44, 31)   0           dropout_1[0][0]                  
                                                                 activation_4[0][0]               
__________________________________________________________________________________________________
max_pooling2d_2 (MaxPooling2D)  (None, 14, 22, 31)   0           concatenate_2[0][0]              
__________________________________________________________________________________________________
dropout_2 (Dropout)             (None, 14, 22, 31)   0           max_pooling2d_2[0][0]            
__________________________________________________________________________________________________
conv2d_5 (Conv2D)               (None, 14, 22, 40)   11200       dropout_2[0][0]                  
__________________________________________________________________________________________________
batch_normalization_5 (BatchNor (None, 14, 22, 40)   160         conv2d_5[0][0]                   
__________________________________________________________________________________________________
activation_5 (Activation)       (None, 14, 22, 40)   0           batch_normalization_5[0][0]      
__________________________________________________________________________________________________
conv2d_6 (Conv2D)               (None, 14, 22, 40)   14440       activation_5[0][0]               
__________________________________________________________________________________________________
batch_normalization_6 (BatchNor (None, 14, 22, 40)   160         conv2d_6[0][0]                   
__________________________________________________________________________________________________
activation_6 (Activation)       (None, 14, 22, 40)   0           batch_normalization_6[0][0]      
__________________________________________________________________________________________________
concatenate_3 (Concatenate)     (None, 14, 22, 71)   0           dropout_2[0][0]                  
                                                                 activation_6[0][0]               
__________________________________________________________________________________________________
dropout_3 (Dropout)             (None, 14, 22, 71)   0           concatenate_3[0][0]              
__________________________________________________________________________________________________
conv2d_transpose_1 (Conv2DTrans (None, 28, 44, 20)   5700        dropout_3[0][0]                  
__________________________________________________________________________________________________
concatenate_4 (Concatenate)     (None, 28, 44, 51)   0           conv2d_transpose_1[0][0]         
                                                                 concatenate_2[0][0]              
__________________________________________________________________________________________________
conv2d_7 (Conv2D)               (None, 28, 44, 20)   9200        concatenate_4[0][0]              
__________________________________________________________________________________________________
batch_normalization_7 (BatchNor (None, 28, 44, 20)   80          conv2d_7[0][0]                   
__________________________________________________________________________________________________
activation_7 (Activation)       (None, 28, 44, 20)   0           batch_normalization_7[0][0]      
__________________________________________________________________________________________________
conv2d_8 (Conv2D)               (None, 28, 44, 20)   3620        activation_7[0][0]               
__________________________________________________________________________________________________
batch_normalization_8 (BatchNor (None, 28, 44, 20)   80          conv2d_8[0][0]                   
__________________________________________________________________________________________________
activation_8 (Activation)       (None, 28, 44, 20)   0           batch_normalization_8[0][0]      
__________________________________________________________________________________________________
concatenate_5 (Concatenate)     (None, 28, 44, 71)   0           concatenate_4[0][0]              
                                                                 activation_8[0][0]               
__________________________________________________________________________________________________
dropout_4 (Dropout)             (None, 28, 44, 71)   0           concatenate_5[0][0]              
__________________________________________________________________________________________________
conv2d_transpose_2 (Conv2DTrans (None, 56, 88, 10)   2850        dropout_4[0][0]                  
__________________________________________________________________________________________________
concatenate_6 (Concatenate)     (None, 56, 88, 21)   0           conv2d_transpose_2[0][0]         
                                                                 concatenate_1[0][0]              
__________________________________________________________________________________________________
conv2d_9 (Conv2D)               (None, 56, 88, 10)   1900        concatenate_6[0][0]              
__________________________________________________________________________________________________
batch_normalization_9 (BatchNor (None, 56, 88, 10)   40          conv2d_9[0][0]                   
__________________________________________________________________________________________________
activation_9 (Activation)       (None, 56, 88, 10)   0           batch_normalization_9[0][0]      
__________________________________________________________________________________________________
conv2d_10 (Conv2D)              (None, 56, 88, 10)   910         activation_9[0][0]               
__________________________________________________________________________________________________
batch_normalization_10 (BatchNo (None, 56, 88, 10)   40          conv2d_10[0][0]                  
__________________________________________________________________________________________________
activation_10 (Activation)      (None, 56, 88, 10)   0           batch_normalization_10[0][0]     
__________________________________________________________________________________________________
concatenate_7 (Concatenate)     (None, 56, 88, 31)   0           concatenate_6[0][0]              
                                                                 activation_10[0][0]              
__________________________________________________________________________________________________
dropout_5 (Dropout)             (None, 56, 88, 31)   0           concatenate_7[0][0]              
__________________________________________________________________________________________________
conv2d_11 (Conv2D)              (None, 56, 88, 13)   416         dropout_5[0][0]                  
==================================================================================================
Total params: 57,666
Trainable params: 57,266
Non-trainable params: 400
__________________________________________________________________________________________________
----- /array/ssd/msmajdi/experiments/keras/exp6/models/sE8_Cascade_FM10_Res_Unet_NL3_LS_MyLogDice_US1/MultiClass_24567891011121314/sd2/model_weights.h5
…
 Nucleus: [2, 4, 5, 6, 7, 8, 9, 10, 11, 12, 13, 14]  | GPU: 4  | SD 1  | Dropout 0.3  | LR 0.001  | NL 3  |  Cascade |  FM 10 |  Upsample 1
Experiment: exp6
SubExperiment: sE12_Cascade_FM10_Res_Unet_NL3_LS_MyLogDice_US1_Main_Init_3T_CV_a
---------------------------------------------------------------
__________________________________________________________________________________________________
Layer (type)                    Output Shape         Param #     Connected to                     
==================================================================================================
input_1 (InputLayer)            (None, 56, 56, 1)    0                                            
__________________________________________________________________________________________________
conv2d_1 (Conv2D)               (None, 56, 56, 10)   100         input_1[0][0]                    
__________________________________________________________________________________________________
batch_normalization_1 (BatchNor (None, 56, 56, 10)   40          conv2d_1[0][0]                   
__________________________________________________________________________________________________
activation_1 (Activation)       (None, 56, 56, 10)   0           batch_normalization_1[0][0]      
__________________________________________________________________________________________________
conv2d_2 (Conv2D)               (None, 56, 56, 10)   910         activation_1[0][0]               
__________________________________________________________________________________________________
batch_normalization_2 (BatchNor (None, 56, 56, 10)   40          conv2d_2[0][0]                   
__________________________________________________________________________________________________
activation_2 (Activation)       (None, 56, 56, 10)   0           batch_normalization_2[0][0]      
__________________________________________________________________________________________________
concatenate_1 (Concatenate)     (None, 56, 56, 11)   0           input_1[0][0]                    
                                                                 activation_2[0][0]               
__________________________________________________________________________________________________
max_pooling2d_1 (MaxPooling2D)  (None, 28, 28, 11)   0           concatenate_1[0][0]              
__________________________________________________________________________________________________
dropout_1 (Dropout)             (None, 28, 28, 11)   0           max_pooling2d_1[0][0]            
__________________________________________________________________________________________________
conv2d_3 (Conv2D)               (None, 28, 28, 20)   2000        dropout_1[0][0]                  
__________________________________________________________________________________________________
batch_normalization_3 (BatchNor (None, 28, 28, 20)   80          conv2d_3[0][0]                   
__________________________________________________________________________________________________
activation_3 (Activation)       (None, 28, 28, 20)   0           batch_normalization_3[0][0]      
__________________________________________________________________________________________________
conv2d_4 (Conv2D)               (None, 28, 28, 20)   3620        activation_3[0][0]               
__________________________________________________________________________________________________
batch_normalization_4 (BatchNor (None, 28, 28, 20)   80          conv2d_4[0][0]                   
__________________________________________________________________________________________________
activation_4 (Activation)       (None, 28, 28, 20)   0           batch_normalization_4[0][0]      
__________________________________________________________________________________________________
concatenate_2 (Concatenate)     (None, 28, 28, 31)   0           dropout_1[0][0]                  
                                                                 activation_4[0][0]               
__________________________________________________________________________________________________
max_pooling2d_2 (MaxPooling2D)  (None, 14, 14, 31)   0           concatenate_2[0][0]              
__________________________________________________________________________________________________
dropout_2 (Dropout)             (None, 14, 14, 31)   0           max_pooling2d_2[0][0]            
__________________________________________________________________________________________________
conv2d_5 (Conv2D)               (None, 14, 14, 40)   11200       dropout_2[0][0]                  
__________________________________________________________________________________________________
batch_normalization_5 (BatchNor (None, 14, 14, 40)   160         conv2d_5[0][0]                   
__________________________________________________________________________________________________
activation_5 (Activation)       (None, 14, 14, 40)   0           batch_normalization_5[0][0]      
__________________________________________________________________________________________________
conv2d_6 (Conv2D)               (None, 14, 14, 40)   14440       activation_5[0][0]               
__________________________________________________________________________________________________
batch_normalization_6 (BatchNor (None, 14, 14, 40)   160         conv2d_6[0][0]                   
__________________________________________________________________________________________________
activation_6 (Activation)       (None, 14, 14, 40)   0           batch_normalization_6[0][0]      
__________________________________________________________________________________________________
concatenate_3 (Concatenate)     (None, 14, 14, 71)   0           dropout_2[0][0]                  
                                                                 activation_6[0][0]               
__________________________________________________________________________________________________
dropout_3 (Dropout)             (None, 14, 14, 71)   0           concatenate_3[0][0]              
__________________________________________________________________________________________________
conv2d_transpose_1 (Conv2DTrans (None, 28, 28, 20)   5700        dropout_3[0][0]                  
__________________________________________________________________________________________________
concatenate_4 (Concatenate)     (None, 28, 28, 51)   0           conv2d_transpose_1[0][0]         
                                                                 concatenate_2[0][0]              
__________________________________________________________________________________________________
conv2d_7 (Conv2D)               (None, 28, 28, 20)   9200        concatenate_4[0][0]              
__________________________________________________________________________________________________
batch_normalization_7 (BatchNor (None, 28, 28, 20)   80          conv2d_7[0][0]                   
__________________________________________________________________________________________________
activation_7 (Activation)       (None, 28, 28, 20)   0           batch_normalization_7[0][0]      
__________________________________________________________________________________________________
conv2d_8 (Conv2D)               (None, 28, 28, 20)   3620        activation_7[0][0]               
__________________________________________________________________________________________________
batch_normalization_8 (BatchNor (None, 28, 28, 20)   80          conv2d_8[0][0]                   
__________________________________________________________________________________________________
activation_8 (Activation)       (None, 28, 28, 20)   0           batch_normalization_8[0][0]      
__________________________________________________________________________________________________
concatenate_5 (Concatenate)     (None, 28, 28, 71)   0           concatenate_4[0][0]              
                                                                 activation_8[0][0]               
__________________________________________________________________________________________________
dropout_4 (Dropout)             (None, 28, 28, 71)   0           concatenate_5[0][0]              
__________________________________________________________________________________________________
conv2d_transpose_2 (Conv2DTrans (None, 56, 56, 10)   2850        dropout_4[0][0]                  
__________________________________________________________________________________________________
concatenate_6 (Concatenate)     (None, 56, 56, 21)   0           conv2d_transpose_2[0][0]         
                                                                 concatenate_1[0][0]              
__________________________________________________________________________________________________
conv2d_9 (Conv2D)               (None, 56, 56, 10)   1900        concatenate_6[0][0]              
__________________________________________________________________________________________________
batch_normalization_9 (BatchNor (None, 56, 56, 10)   40          conv2d_9[0][0]                   
__________________________________________________________________________________________________
activation_9 (Activation)       (None, 56, 56, 10)   0           batch_normalization_9[0][0]      
__________________________________________________________________________________________________
conv2d_10 (Conv2D)              (None, 56, 56, 10)   910         activation_9[0][0]               
__________________________________________________________________________________________________
batch_normalization_10 (BatchNo (None, 56, 56, 10)   40          conv2d_10[0][0]                  
__________________________________________________________________________________________________
activation_10 (Activation)      (None, 56, 56, 10)   0           batch_normalization_10[0][0]     
__________________________________________________________________________________________________
concatenate_7 (Concatenate)     (None, 56, 56, 31)   0           concatenate_6[0][0]              
                                                                 activation_10[0][0]              
__________________________________________________________________________________________________
dropout_5 (Dropout)             (None, 56, 56, 31)   0           concatenate_7[0][0]              
__________________________________________________________________________________________________
conv2d_11 (Conv2D)              (None, 56, 56, 13)   416         dropout_5[0][0]                  
==================================================================================================2019-07-09 18:19:24.692354: I tensorflow/core/common_runtime/gpu/gpu_device.cc:1471] Adding visible gpu devices: 0
2019-07-09 18:19:24.692462: I tensorflow/core/common_runtime/gpu/gpu_device.cc:952] Device interconnect StreamExecutor with strength 1 edge matrix:
…
 Nucleus: [2, 4, 5, 6, 7, 8, 9, 10, 11, 12, 13, 14]  | GPU: 4  | SD 0  | Dropout 0.3  | LR 0.001  | NL 3  |  Cascade |  FM 10 |  Upsample 1
Experiment: exp6
SubExperiment: sE12_Cascade_FM10_Res_Unet_NL3_LS_MyLogDice_US1_Main_Init_3T_CV_a
---------------------------------------------------------------
__________________________________________________________________________________________________
Layer (type)                    Output Shape         Param #     Connected to                     
==================================================================================================
input_1 (InputLayer)            (None, 88, 56, 1)    0                                            
__________________________________________________________________________________________________
conv2d_1 (Conv2D)               (None, 88, 56, 10)   100         input_1[0][0]                    
__________________________________________________________________________________________________
batch_normalization_1 (BatchNor (None, 88, 56, 10)   40          conv2d_1[0][0]                   
__________________________________________________________________________________________________
activation_1 (Activation)       (None, 88, 56, 10)   0           batch_normalization_1[0][0]      
__________________________________________________________________________________________________
conv2d_2 (Conv2D)               (None, 88, 56, 10)   910         activation_1[0][0]               
__________________________________________________________________________________________________
batch_normalization_2 (BatchNor (None, 88, 56, 10)   40          conv2d_2[0][0]                   
__________________________________________________________________________________________________
activation_2 (Activation)       (None, 88, 56, 10)   0           batch_normalization_2[0][0]      
__________________________________________________________________________________________________
concatenate_1 (Concatenate)     (None, 88, 56, 11)   0           input_1[0][0]                    
                                                                 activation_2[0][0]               
__________________________________________________________________________________________________
max_pooling2d_1 (MaxPooling2D)  (None, 44, 28, 11)   0           concatenate_1[0][0]              
__________________________________________________________________________________________________
dropout_1 (Dropout)             (None, 44, 28, 11)   0           max_pooling2d_1[0][0]            
__________________________________________________________________________________________________
conv2d_3 (Conv2D)               (None, 44, 28, 20)   2000        dropout_1[0][0]                  
__________________________________________________________________________________________________
batch_normalization_3 (BatchNor (None, 44, 28, 20)   80          conv2d_3[0][0]                   
__________________________________________________________________________________________________
activation_3 (Activation)       (None, 44, 28, 20)   0           batch_normalization_3[0][0]      
__________________________________________________________________________________________________
conv2d_4 (Conv2D)               (None, 44, 28, 20)   3620        activation_3[0][0]               
__________________________________________________________________________________________________
batch_normalization_4 (BatchNor (None, 44, 28, 20)   80          conv2d_4[0][0]                   
__________________________________________________________________________________________________
activation_4 (Activation)       (None, 44, 28, 20)   0           batch_normalization_4[0][0]      
__________________________________________________________________________________________________
concatenate_2 (Concatenate)     (None, 44, 28, 31)   0           dropout_1[0][0]                  
                                                                 activation_4[0][0]               
__________________________________________________________________________________________________
max_pooling2d_2 (MaxPooling2D)  (None, 22, 14, 31)   0           concatenate_2[0][0]              
__________________________________________________________________________________________________
dropout_2 (Dropout)             (None, 22, 14, 31)   0           max_pooling2d_2[0][0]            
__________________________________________________________________________________________________
conv2d_5 (Conv2D)               (None, 22, 14, 40)   11200       dropout_2[0][0]                  
__________________________________________________________________________________________________
batch_normalization_5 (BatchNor (None, 22, 14, 40)   160         conv2d_5[0][0]                   
__________________________________________________________________________________________________
activation_5 (Activation)       (None, 22, 14, 40)   0           batch_normalization_5[0][0]      
__________________________________________________________________________________________________
conv2d_6 (Conv2D)               (None, 22, 14, 40)   14440       activation_5[0][0]               
__________________________________________________________________________________________________
batch_normalization_6 (BatchNor (None, 22, 14, 40)   160         conv2d_6[0][0]                   
__________________________________________________________________________________________________
activation_6 (Activation)       (None, 22, 14, 40)   0           batch_normalization_6[0][0]      
__________________________________________________________________________________________________
concatenate_3 (Concatenate)     (None, 22, 14, 71)   0           dropout_2[0][0]                  
                                                                 activation_6[0][0]               
__________________________________________________________________________________________________
dropout_3 (Dropout)             (None, 22, 14, 71)   0           concatenate_3[0][0]              
__________________________________________________________________________________________________
conv2d_transpose_1 (Conv2DTrans (None, 44, 28, 20)   5700        dropout_3[0][0]                  
__________________________________________________________________________________________________
concatenate_4 (Concatenate)     (None, 44, 28, 51)   0           conv2d_transpose_1[0][0]         
                                                                 concatenate_2[0][0]              
__________________________________________________________________________________________________
conv2d_7 (Conv2D)               (None, 44, 28, 20)   9200        concatenate_4[0][0]              
__________________________________________________________________________________________________
batch_normalization_7 (BatchNor (None, 44, 28, 20)   80          conv2d_7[0][0]                   
__________________________________________________________________________________________________
activation_7 (Activation)       (None, 44, 28, 20)   0           batch_normalization_7[0][0]      
__________________________________________________________________________________________________
conv2d_8 (Conv2D)               (None, 44, 28, 20)   3620        activation_7[0][0]               
__________________________________________________________________________________________________
batch_normalization_8 (BatchNor (None, 44, 28, 20)   80          conv2d_8[0][0]                   
__________________________________________________________________________________________________
activation_8 (Activation)       (None, 44, 28, 20)   0           batch_normalization_8[0][0]      
__________________________________________________________________________________________________
concatenate_5 (Concatenate)     (None, 44, 28, 71)   0           concatenate_4[0][0]              
                                                                 activation_8[0][0]               
__________________________________________________________________________________________________
dropout_4 (Dropout)             (None, 44, 28, 71)   0           concatenate_5[0][0]              
__________________________________________________________________________________________________
conv2d_transpose_2 (Conv2DTrans (None, 88, 56, 10)   2850        dropout_4[0][0]                  
__________________________________________________________________________________________________
concatenate_6 (Concatenate)     (None, 88, 56, 21)   0           conv2d_transpose_2[0][0]         
                                                                 concatenate_1[0][0]              
__________________________________________________________________________________________________
conv2d_9 (Conv2D)               (None, 88, 56, 10)   1900        concatenate_6[0][0]              
__________________________________________________________________________________________________
batch_normalization_9 (BatchNor (None, 88, 56, 10)   40          conv2d_9[0][0]                   
__________________________________________________________________________________________________
activation_9 (Activation)       (None, 88, 56, 10)   0           batch_normalization_9[0][0]      
__________________________________________________________________________________________________
conv2d_10 (Conv2D)              (None, 88, 56, 10)   910         activation_9[0][0]               
__________________________________________________________________________________________________
batch_normalization_10 (BatchNo (None, 88, 56, 10)   40          conv2d_10[0][0]                  
__________________________________________________________________________________________________
activation_10 (Activation)      (None, 88, 56, 10)   0           batch_normalization_10[0][0]     2019-07-09 18:54:49.810201: I tensorflow/core/common_runtime/gpu/gpu_device.cc:1471] Adding visible gpu devices: 0
2019-07-09 18:54:49.810338: I tensorflow/core/common_runtime/gpu/gpu_device.cc:952] Device interconnect StreamExecutor with strength 1 edge matrix:
2019-07-09 18:54:49.810355: I tensorflow/core/common_runtime/gpu/gpu_device.cc:958]      0 
2019-07-09 18:54:49.810364: I tensorflow/core/common_runtime/gpu/gpu_device.cc:971] 0:   N 
…
 Nucleus: [2, 4, 5, 6, 7, 8, 9, 10, 11, 12, 13, 14]  | GPU: 4  | SD 2  | Dropout 0.3  | LR 0.001  | NL 3  |  Cascade |  FM 15 |  Upsample 1
Experiment: exp6
SubExperiment: sE12_Cascade_FM15_Res_Unet_NL3_LS_MyLogDice_US1_Main_Init_3T_CV_a
---------------------------------------------------------------
__________________________________________________________________________________________________
Layer (type)                    Output Shape         Param #     Connected to                     
==================================================================================================
input_1 (InputLayer)            (None, 56, 88, 1)    0                                            
__________________________________________________________________________________________________
conv2d_1 (Conv2D)               (None, 56, 88, 15)   150         input_1[0][0]                    
__________________________________________________________________________________________________
batch_normalization_1 (BatchNor (None, 56, 88, 15)   60          conv2d_1[0][0]                   
__________________________________________________________________________________________________
activation_1 (Activation)       (None, 56, 88, 15)   0           batch_normalization_1[0][0]      
__________________________________________________________________________________________________
conv2d_2 (Conv2D)               (None, 56, 88, 15)   2040        activation_1[0][0]               
__________________________________________________________________________________________________
batch_normalization_2 (BatchNor (None, 56, 88, 15)   60          conv2d_2[0][0]                   
__________________________________________________________________________________________________
activation_2 (Activation)       (None, 56, 88, 15)   0           batch_normalization_2[0][0]      
__________________________________________________________________________________________________
concatenate_1 (Concatenate)     (None, 56, 88, 16)   0           input_1[0][0]                    
                                                                 activation_2[0][0]               
__________________________________________________________________________________________________
max_pooling2d_1 (MaxPooling2D)  (None, 28, 44, 16)   0           concatenate_1[0][0]              
__________________________________________________________________________________________________
dropout_1 (Dropout)             (None, 28, 44, 16)   0           max_pooling2d_1[0][0]            
__________________________________________________________________________________________________
conv2d_3 (Conv2D)               (None, 28, 44, 30)   4350        dropout_1[0][0]                  
__________________________________________________________________________________________________
batch_normalization_3 (BatchNor (None, 28, 44, 30)   120         conv2d_3[0][0]                   
__________________________________________________________________________________________________
activation_3 (Activation)       (None, 28, 44, 30)   0           batch_normalization_3[0][0]      
__________________________________________________________________________________________________
conv2d_4 (Conv2D)               (None, 28, 44, 30)   8130        activation_3[0][0]               
__________________________________________________________________________________________________
batch_normalization_4 (BatchNor (None, 28, 44, 30)   120         conv2d_4[0][0]                   
__________________________________________________________________________________________________
activation_4 (Activation)       (None, 28, 44, 30)   0           batch_normalization_4[0][0]      
__________________________________________________________________________________________________
concatenate_2 (Concatenate)     (None, 28, 44, 46)   0           dropout_1[0][0]                  
                                                                 activation_4[0][0]               
__________________________________________________________________________________________________
max_pooling2d_2 (MaxPooling2D)  (None, 14, 22, 46)   0           concatenate_2[0][0]              
__________________________________________________________________________________________________
dropout_2 (Dropout)             (None, 14, 22, 46)   0           max_pooling2d_2[0][0]            
__________________________________________________________________________________________________
conv2d_5 (Conv2D)               (None, 14, 22, 60)   24900       dropout_2[0][0]                  
__________________________________________________________________________________________________
batch_normalization_5 (BatchNor (None, 14, 22, 60)   240         conv2d_5[0][0]                   
__________________________________________________________________________________________________
activation_5 (Activation)       (None, 14, 22, 60)   0           batch_normalization_5[0][0]      
__________________________________________________________________________________________________
conv2d_6 (Conv2D)               (None, 14, 22, 60)   32460       activation_5[0][0]               
__________________________________________________________________________________________________
batch_normalization_6 (BatchNor (None, 14, 22, 60)   240         conv2d_6[0][0]                   
__________________________________________________________________________________________________
activation_6 (Activation)       (None, 14, 22, 60)   0           batch_normalization_6[0][0]      
__________________________________________________________________________________________________
concatenate_3 (Concatenate)     (None, 14, 22, 106)  0           dropout_2[0][0]                  
                                                                 activation_6[0][0]               
__________________________________________________________________________________________________
dropout_3 (Dropout)             (None, 14, 22, 106)  0           concatenate_3[0][0]              
__________________________________________________________________________________________________
conv2d_transpose_1 (Conv2DTrans (None, 28, 44, 30)   12750       dropout_3[0][0]                  
__________________________________________________________________________________________________
concatenate_4 (Concatenate)     (None, 28, 44, 76)   0           conv2d_transpose_1[0][0]         
                                                                 concatenate_2[0][0]              
__________________________________________________________________________________________________
conv2d_7 (Conv2D)               (None, 28, 44, 30)   20550       concatenate_4[0][0]              
__________________________________________________________________________________________________
batch_normalization_7 (BatchNor (None, 28, 44, 30)   120         conv2d_7[0][0]                   
__________________________________________________________________________________________________
activation_7 (Activation)       (None, 28, 44, 30)   0           batch_normalization_7[0][0]      
__________________________________________________________________________________________________
conv2d_8 (Conv2D)               (None, 28, 44, 30)   8130        activation_7[0][0]               
__________________________________________________________________________________________________
batch_normalization_8 (BatchNor (None, 28, 44, 30)   120         conv2d_8[0][0]                   
__________________________________________________________________________________________________
activation_8 (Activation)       (None, 28, 44, 30)   0           batch_normalization_8[0][0]      
__________________________________________________________________________________________________
concatenate_5 (Concatenate)     (None, 28, 44, 106)  0           concatenate_4[0][0]              
                                                                 activation_8[0][0]               
__________________________________________________________________________________________________
dropout_4 (Dropout)             (None, 28, 44, 106)  0           concatenate_5[0][0]              
__________________________________________________________________________________________________
conv2d_transpose_2 (Conv2DTrans (None, 56, 88, 15)   6375        dropout_4[0][0]                  
__________________________________________________________________________________________________
concatenate_6 (Concatenate)     (None, 56, 88, 31)   0           conv2d_transpose_2[0][0]         
                                                                 concatenate_1[0][0]              
__________________________________________________________________________________________________
conv2d_9 (Conv2D)               (None, 56, 88, 15)   4200        concatenate_6[0][0]              
__________________________________________________________________________________________________
batch_normalization_9 (BatchNor (None, 56, 88, 15)   60          conv2d_9[0][0]                   
__________________________________________________________________________________________________
activation_9 (Activation)       (None, 56, 88, 15)   0           batch_normalization_9[0][0]      
__________________________________________________________________________________________________
conv2d_10 (Conv2D)              (None, 56, 88, 15)   2040        activation_9[0][0]               
__________________________________________________________________________________________________
batch_normalization_10 (BatchNo (None, 56, 88, 15)   60          conv2d_10[0][0]                  
__________________________________________________________________________________________________
activation_10 (Activation)      (None, 56, 88, 15)   0           batch_normalization_10[0][0]     
__________________________________________________________________________________________________
concatenate_7 (Concatenate)     (None, 56, 88, 46)   0           concatenate_6[0][0]              
                                                                 activation_10[0][0]              
__________________________________________________________________________________________________
dropout_5 (Dropout)             (None, 56, 88, 46)   0           concatenate_7[0][0]              
__________________________________________________________________________________________________
conv2d_11 (Conv2D)              (None, 56, 88, 13)   611         dropout_5[0][0]                  
==================================================================================================
Total params: 127,886
Trainable params: 127,286
Non-trainable params: 600
__________________________________________________________________________________________________
2019-07-09 19:26:28.593862: I tensorflow/core/common_runtime/gpu/gpu_device.cc:1471] Adding visible gpu devices: 0
…
 Nucleus: [2, 4, 5, 6, 7, 8, 9, 10, 11, 12, 13, 14]  | GPU: 4  | SD 1  | Dropout 0.3  | LR 0.001  | NL 3  |  Cascade |  FM 15 |  Upsample 1
Experiment: exp6
SubExperiment: sE12_Cascade_FM15_Res_Unet_NL3_LS_MyLogDice_US1_Main_Init_3T_CV_a
---------------------------------------------------------------
__________________________________________________________________________________________________
Layer (type)                    Output Shape         Param #     Connected to                     
==================================================================================================
input_1 (InputLayer)            (None, 56, 56, 1)    0                                            
__________________________________________________________________________________________________
conv2d_1 (Conv2D)               (None, 56, 56, 15)   150         input_1[0][0]                    
__________________________________________________________________________________________________
batch_normalization_1 (BatchNor (None, 56, 56, 15)   60          conv2d_1[0][0]                   
__________________________________________________________________________________________________
activation_1 (Activation)       (None, 56, 56, 15)   0           batch_normalization_1[0][0]      
__________________________________________________________________________________________________
conv2d_2 (Conv2D)               (None, 56, 56, 15)   2040        activation_1[0][0]               
__________________________________________________________________________________________________
batch_normalization_2 (BatchNor (None, 56, 56, 15)   60          conv2d_2[0][0]                   
__________________________________________________________________________________________________
activation_2 (Activation)       (None, 56, 56, 15)   0           batch_normalization_2[0][0]      
__________________________________________________________________________________________________
concatenate_1 (Concatenate)     (None, 56, 56, 16)   0           input_1[0][0]                    
                                                                 activation_2[0][0]               
__________________________________________________________________________________________________
max_pooling2d_1 (MaxPooling2D)  (None, 28, 28, 16)   0           concatenate_1[0][0]              
__________________________________________________________________________________________________
dropout_1 (Dropout)             (None, 28, 28, 16)   0           max_pooling2d_1[0][0]            
__________________________________________________________________________________________________
conv2d_3 (Conv2D)               (None, 28, 28, 30)   4350        dropout_1[0][0]                  
__________________________________________________________________________________________________
batch_normalization_3 (BatchNor (None, 28, 28, 30)   120         conv2d_3[0][0]                   
__________________________________________________________________________________________________
activation_3 (Activation)       (None, 28, 28, 30)   0           batch_normalization_3[0][0]      
__________________________________________________________________________________________________
conv2d_4 (Conv2D)               (None, 28, 28, 30)   8130        activation_3[0][0]               
__________________________________________________________________________________________________
batch_normalization_4 (BatchNor (None, 28, 28, 30)   120         conv2d_4[0][0]                   
__________________________________________________________________________________________________
activation_4 (Activation)       (None, 28, 28, 30)   0           batch_normalization_4[0][0]      
__________________________________________________________________________________________________
concatenate_2 (Concatenate)     (None, 28, 28, 46)   0           dropout_1[0][0]                  
                                                                 activation_4[0][0]               
__________________________________________________________________________________________________
max_pooling2d_2 (MaxPooling2D)  (None, 14, 14, 46)   0           concatenate_2[0][0]              2019-07-09 20:01:59.546810: I tensorflow/core/common_runtime/gpu/gpu_device.cc:1471] Adding visible gpu devices: 0
2019-07-09 20:01:59.546932: I tensorflow/core/common_runtime/gpu/gpu_device.cc:952] Device interconnect StreamExecutor with strength 1 edge matrix:
2019-07-09 20:01:59.546948: I tensorflow/core/common_runtime/gpu/gpu_device.cc:958]      0 
2019-07-09 20:01:59.546957: I tensorflow/core/common_runtime/gpu/gpu_device.cc:971] 0:   N 
2019-07-09 20:01:59.547415: I tensorflow/core/common_runtime/gpu/gpu_device.cc:1084] Created TensorFlow device (/job:localhost/replica:0/task:0/device:GPU:0 with 15123 MB memory) -> physical GPU (device: 0, name: Tesla P100-PCIE-16GB, pci bus id: 0000:84:00.0, compute capability: 6.0)

__________________________________________________________________________________________________
dropout_2 (Dropout)             (None, 14, 14, 46)   0           max_pooling2d_2[0][0]            
__________________________________________________________________________________________________
conv2d_5 (Conv2D)               (None, 14, 14, 60)   24900       dropout_2[0][0]                  
__________________________________________________________________________________________________
batch_normalization_5 (BatchNor (None, 14, 14, 60)   240         conv2d_5[0][0]                   
__________________________________________________________________________________________________
activation_5 (Activation)       (None, 14, 14, 60)   0           batch_normalization_5[0][0]      
__________________________________________________________________________________________________
conv2d_6 (Conv2D)               (None, 14, 14, 60)   32460       activation_5[0][0]               
__________________________________________________________________________________________________
batch_normalization_6 (BatchNor (None, 14, 14, 60)   240         conv2d_6[0][0]                   
__________________________________________________________________________________________________
activation_6 (Activation)       (None, 14, 14, 60)   0           batch_normalization_6[0][0]      
__________________________________________________________________________________________________
concatenate_3 (Concatenate)     (None, 14, 14, 106)  0           dropout_2[0][0]                  
                                                                 activation_6[0][0]               
__________________________________________________________________________________________________
dropout_3 (Dropout)             (None, 14, 14, 106)  0           concatenate_3[0][0]              
__________________________________________________________________________________________________
conv2d_transpose_1 (Conv2DTrans (None, 28, 28, 30)   12750       dropout_3[0][0]                  
__________________________________________________________________________________________________
concatenate_4 (Concatenate)     (None, 28, 28, 76)   0           conv2d_transpose_1[0][0]         
                                                                 concatenate_2[0][0]              
__________________________________________________________________________________________________
conv2d_7 (Conv2D)               (None, 28, 28, 30)   20550       concatenate_4[0][0]              
__________________________________________________________________________________________________
batch_normalization_7 (BatchNor (None, 28, 28, 30)   120         conv2d_7[0][0]                   
__________________________________________________________________________________________________
activation_7 (Activation)       (None, 28, 28, 30)   0           batch_normalization_7[0][0]      
__________________________________________________________________________________________________
conv2d_8 (Conv2D)               (None, 28, 28, 30)   8130        activation_7[0][0]               
__________________________________________________________________________________________________
batch_normalization_8 (BatchNor (None, 28, 28, 30)   120         conv2d_8[0][0]                   
__________________________________________________________________________________________________
activation_8 (Activation)       (None, 28, 28, 30)   0           batch_normalization_8[0][0]      
__________________________________________________________________________________________________
concatenate_5 (Concatenate)     (None, 28, 28, 106)  0           concatenate_4[0][0]              
                                                                 activation_8[0][0]               
__________________________________________________________________________________________________
dropout_4 (Dropout)             (None, 28, 28, 106)  0           concatenate_5[0][0]              
__________________________________________________________________________________________________
conv2d_transpose_2 (Conv2DTrans (None, 56, 56, 15)   6375        dropout_4[0][0]                  
__________________________________________________________________________________________________
concatenate_6 (Concatenate)     (None, 56, 56, 31)   0           conv2d_transpose_2[0][0]         
                                                                 concatenate_1[0][0]              
__________________________________________________________________________________________________
conv2d_9 (Conv2D)               (None, 56, 56, 15)   4200        concatenate_6[0][0]              
__________________________________________________________________________________________________
batch_normalization_9 (BatchNor (None, 56, 56, 15)   60          conv2d_9[0][0]                   
__________________________________________________________________________________________________
activation_9 (Activation)       (None, 56, 56, 15)   0           batch_normalization_9[0][0]      
__________________________________________________________________________________________________
conv2d_10 (Conv2D)              (None, 56, 56, 15)   2040        activation_9[0][0]               
__________________________________________________________________________________________________
batch_normalization_10 (BatchNo (None, 56, 56, 15)   60          conv2d_10[0][0]                  
__________________________________________________________________________________________________
activation_10 (Activation)      (None, 56, 56, 15)   0           batch_normalization_10[0][0]     
__________________________________________________________________________________________________
concatenate_7 (Concatenate)     (None, 56, 56, 46)   0           concatenate_6[0][0]              
                                                                 activation_10[0][0]              
__________________________________________________________________________________________________
dropout_5 (Dropout)             (None, 56, 56, 46)   0           concatenate_7[0][0]              
__________________________________________________________________________________________________
conv2d_11 (Conv2D)              (None, 56, 56, 13)   611         dropout_5[0][0]                  
==================================================================================================
Total params: 127,886
Trainable params: 127,286
Non-trainable params: 600
__________________________________________________________________________________________________
----- /array/ssd/msmajdi/experiments/keras/exp6/models/sE8_Cascade_FM15_Res_Unet_NL3_LS_MyLogDice_US1/MultiClass_24567891011121314/sd1/model_weights.h5
…
 Nucleus: [2, 4, 5, 6, 7, 8, 9, 10, 11, 12, 13, 14]  | GPU: 4  | SD 0  | Dropout 0.3  | LR 0.001  | NL 3  |  Cascade |  FM 15 |  Upsample 1
Experiment: exp6
SubExperiment: sE12_Cascade_FM15_Res_Unet_NL3_LS_MyLogDice_US1_Main_Init_3T_CV_a
---------------------------------------------------------------
__________________________________________________________________________________________________
Layer (type)                    Output Shape         Param #     Connected to                     
==================================================================================================
input_1 (InputLayer)            (None, 88, 56, 1)    0                                            
__________________________________________________________________________________________________
conv2d_1 (Conv2D)               (None, 88, 56, 15)   150         input_1[0][0]                    
__________________________________________________________________________________________________
batch_normalization_1 (BatchNor (None, 88, 56, 15)   60          conv2d_1[0][0]                   
__________________________________________________________________________________________________
activation_1 (Activation)       (None, 88, 56, 15)   0           batch_normalization_1[0][0]      
__________________________________________________________________________________________________
conv2d_2 (Conv2D)               (None, 88, 56, 15)   2040        activation_1[0][0]               
__________________________________________________________________________________________________
batch_normalization_2 (BatchNor (None, 88, 56, 15)   60          conv2d_2[0][0]                   
__________________________________________________________________________________________________
activation_2 (Activation)       (None, 88, 56, 15)   0           batch_normalization_2[0][0]      
__________________________________________________________________________________________________
concatenate_1 (Concatenate)     (None, 88, 56, 16)   0           input_1[0][0]                    
                                                                 activation_2[0][0]               
__________________________________________________________________________________________________
max_pooling2d_1 (MaxPooling2D)  (None, 44, 28, 16)   0           concatenate_1[0][0]              
__________________________________________________________________________________________________
dropout_1 (Dropout)             (None, 44, 28, 16)   0           max_pooling2d_1[0][0]            
__________________________________________________________________________________________________
conv2d_3 (Conv2D)               (None, 44, 28, 30)   4350        dropout_1[0][0]                  
__________________________________________________________________________________________________
batch_normalization_3 (BatchNor (None, 44, 28, 30)   120         conv2d_3[0][0]                   
__________________________________________________________________________________________________
activation_3 (Activation)       (None, 44, 28, 30)   0           batch_normalization_3[0][0]      
__________________________________________________________________________________________________
conv2d_4 (Conv2D)               (None, 44, 28, 30)   8130        activation_3[0][0]               
__________________________________________________________________________________________________
batch_normalization_4 (BatchNor (None, 44, 28, 30)   120         conv2d_4[0][0]                   2019-07-09 20:35:08.045525: I tensorflow/core/common_runtime/gpu/gpu_device.cc:1471] Adding visible gpu devices: 0
2019-07-09 20:35:08.045645: I tensorflow/core/common_runtime/gpu/gpu_device.cc:952] Device interconnect StreamExecutor with strength 1 edge matrix:
2019-07-09 20:35:08.045662: I tensorflow/core/common_runtime/gpu/gpu_device.cc:958]      0 
2019-07-09 20:35:08.045672: I tensorflow/core/common_runtime/gpu/gpu_device.cc:971] 0:   N 
2019-07-09 20:35:08.046110: I tensorflow/core/common_runtime/gpu/gpu_device.cc:1084] Created TensorFlow device (/job:localhost/replica:0/task:0/device:GPU:0 with 15123 MB memory) -> physical GPU (device: 0, name: Tesla P100-PCIE-16GB, pci bus id: 0000:84:00.0, compute capability: 6.0)

__________________________________________________________________________________________________
activation_4 (Activation)       (None, 44, 28, 30)   0           batch_normalization_4[0][0]      
__________________________________________________________________________________________________
concatenate_2 (Concatenate)     (None, 44, 28, 46)   0           dropout_1[0][0]                  
                                                                 activation_4[0][0]               
__________________________________________________________________________________________________
max_pooling2d_2 (MaxPooling2D)  (None, 22, 14, 46)   0           concatenate_2[0][0]              
__________________________________________________________________________________________________
dropout_2 (Dropout)             (None, 22, 14, 46)   0           max_pooling2d_2[0][0]            
__________________________________________________________________________________________________
conv2d_5 (Conv2D)               (None, 22, 14, 60)   24900       dropout_2[0][0]                  
__________________________________________________________________________________________________
batch_normalization_5 (BatchNor (None, 22, 14, 60)   240         conv2d_5[0][0]                   
__________________________________________________________________________________________________
activation_5 (Activation)       (None, 22, 14, 60)   0           batch_normalization_5[0][0]      
__________________________________________________________________________________________________
conv2d_6 (Conv2D)               (None, 22, 14, 60)   32460       activation_5[0][0]               
__________________________________________________________________________________________________
batch_normalization_6 (BatchNor (None, 22, 14, 60)   240         conv2d_6[0][0]                   
__________________________________________________________________________________________________
activation_6 (Activation)       (None, 22, 14, 60)   0           batch_normalization_6[0][0]      
__________________________________________________________________________________________________
concatenate_3 (Concatenate)     (None, 22, 14, 106)  0           dropout_2[0][0]                  
                                                                 activation_6[0][0]               
__________________________________________________________________________________________________
dropout_3 (Dropout)             (None, 22, 14, 106)  0           concatenate_3[0][0]              
__________________________________________________________________________________________________
conv2d_transpose_1 (Conv2DTrans (None, 44, 28, 30)   12750       dropout_3[0][0]                  
__________________________________________________________________________________________________
concatenate_4 (Concatenate)     (None, 44, 28, 76)   0           conv2d_transpose_1[0][0]         
                                                                 concatenate_2[0][0]              
__________________________________________________________________________________________________
conv2d_7 (Conv2D)               (None, 44, 28, 30)   20550       concatenate_4[0][0]              
__________________________________________________________________________________________________
batch_normalization_7 (BatchNor (None, 44, 28, 30)   120         conv2d_7[0][0]                   
__________________________________________________________________________________________________
activation_7 (Activation)       (None, 44, 28, 30)   0           batch_normalization_7[0][0]      
__________________________________________________________________________________________________
conv2d_8 (Conv2D)               (None, 44, 28, 30)   8130        activation_7[0][0]               
__________________________________________________________________________________________________
batch_normalization_8 (BatchNor (None, 44, 28, 30)   120         conv2d_8[0][0]                   
__________________________________________________________________________________________________
activation_8 (Activation)       (None, 44, 28, 30)   0           batch_normalization_8[0][0]      
__________________________________________________________________________________________________
concatenate_5 (Concatenate)     (None, 44, 28, 106)  0           concatenate_4[0][0]              
                                                                 activation_8[0][0]               
__________________________________________________________________________________________________
dropout_4 (Dropout)             (None, 44, 28, 106)  0           concatenate_5[0][0]              
__________________________________________________________________________________________________
conv2d_transpose_2 (Conv2DTrans (None, 88, 56, 15)   6375        dropout_4[0][0]                  
__________________________________________________________________________________________________
concatenate_6 (Concatenate)     (None, 88, 56, 31)   0           conv2d_transpose_2[0][0]         
                                                                 concatenate_1[0][0]              
__________________________________________________________________________________________________
conv2d_9 (Conv2D)               (None, 88, 56, 15)   4200        concatenate_6[0][0]              
__________________________________________________________________________________________________
batch_normalization_9 (BatchNor (None, 88, 56, 15)   60          conv2d_9[0][0]                   
__________________________________________________________________________________________________
activation_9 (Activation)       (None, 88, 56, 15)   0           batch_normalization_9[0][0]      
__________________________________________________________________________________________________
conv2d_10 (Conv2D)              (None, 88, 56, 15)   2040        activation_9[0][0]               
__________________________________________________________________________________________________
batch_normalization_10 (BatchNo (None, 88, 56, 15)   60          conv2d_10[0][0]                  
__________________________________________________________________________________________________
activation_10 (Activation)      (None, 88, 56, 15)   0           batch_normalization_10[0][0]     
__________________________________________________________________________________________________
concatenate_7 (Concatenate)     (None, 88, 56, 46)   0           concatenate_6[0][0]              
                                                                 activation_10[0][0]              
__________________________________________________________________________________________________
dropout_5 (Dropout)             (None, 88, 56, 46)   0           concatenate_7[0][0]              
__________________________________________________________________________________________________
conv2d_11 (Conv2D)              (None, 88, 56, 13)   611         dropout_5[0][0]                  
==================================================================================================
Total params: 127,886
Trainable params: 127,286
Non-trainable params: 600
__________________________________________________________________________________________________
----- /array/ssd/msmajdi/experiments/keras/exp6/models/sE8_Cascade_FM15_Res_Unet_NL3_LS_MyLogDice_US1/MultiClass_24567891011121314/sd0/model_weights.h5
…
 Nucleus: [2, 4, 5, 6, 7, 8, 9, 10, 11, 12, 13, 14]  | GPU: 4  | SD 2  | Dropout 0.3  | LR 0.001  | NL 3  |  Cascade |  FM 20 |  Upsample 1
Experiment: exp6
SubExperiment: sE12_Cascade_FM20_Res_Unet_NL3_LS_MyLogDice_US1_Main_Init_3T_CV_a
---------------------------------------------------------------
__________________________________________________________________________________________________
Layer (type)                    Output Shape         Param #     Connected to                     
==================================================================================================
input_1 (InputLayer)            (None, 56, 88, 1)    0                                            
__________________________________________________________________________________________________
conv2d_1 (Conv2D)               (None, 56, 88, 20)   200         input_1[0][0]                    
__________________________________________________________________________________________________
batch_normalization_1 (BatchNor (None, 56, 88, 20)   80          conv2d_1[0][0]                   
__________________________________________________________________________________________________
activation_1 (Activation)       (None, 56, 88, 20)   0           batch_normalization_1[0][0]      
__________________________________________________________________________________________________
conv2d_2 (Conv2D)               (None, 56, 88, 20)   3620        activation_1[0][0]               
__________________________________________________________________________________________________
batch_normalization_2 (BatchNor (None, 56, 88, 20)   80          conv2d_2[0][0]                   
__________________________________________________________________________________________________
activation_2 (Activation)       (None, 56, 88, 20)   0           batch_normalization_2[0][0]      
__________________________________________________________________________________________________
concatenate_1 (Concatenate)     (None, 56, 88, 21)   0           input_1[0][0]                    
                                                                 activation_2[0][0]               
__________________________________________________________________________________________________
max_pooling2d_1 (MaxPooling2D)  (None, 28, 44, 21)   0           concatenate_1[0][0]              
__________________________________________________________________________________________________
dropout_1 (Dropout)             (None, 28, 44, 21)   0           max_pooling2d_1[0][0]            
__________________________________________________________________________________________________
conv2d_3 (Conv2D)               (None, 28, 44, 40)   7600        dropout_1[0][0]                  
__________________________________________________________________________________________________
batch_normalization_3 (BatchNor (None, 28, 44, 40)   160         conv2d_3[0][0]                   
__________________________________________________________________________________________________
activation_3 (Activation)       (None, 28, 44, 40)   0           batch_normalization_3[0][0]      
__________________________________________________________________________________________________
conv2d_4 (Conv2D)               (None, 28, 44, 40)   14440       activation_3[0][0]               
__________________________________________________________________________________________________
batch_normalization_4 (BatchNor (None, 28, 44, 40)   160         conv2d_4[0][0]                   
__________________________________________________________________________________________________
activation_4 (Activation)       (None, 28, 44, 40)   0           batch_normalization_4[0][0]      
__________________________________________________________________________________________________
concatenate_2 (Concatenate)     (None, 28, 44, 61)   0           dropout_1[0][0]                  
                                                                 activation_4[0][0]               
__________________________________________________________________________________________________
max_pooling2d_2 (MaxPooling2D)  (None, 14, 22, 61)   0           concatenate_2[0][0]              
__________________________________________________________________________________________________
dropout_2 (Dropout)             (None, 14, 22, 61)   0           max_pooling2d_2[0][0]            
__________________________________________________________________________________________________
conv2d_5 (Conv2D)               (None, 14, 22, 80)   44000       dropout_2[0][0]                  
__________________________________________________________________________________________________
batch_normalization_5 (BatchNor (None, 14, 22, 80)   320         conv2d_5[0][0]                   
__________________________________________________________________________________________________
activation_5 (Activation)       (None, 14, 22, 80)   0           batch_normalization_5[0][0]      
__________________________________________________________________________________________________
conv2d_6 (Conv2D)               (None, 14, 22, 80)   57680       activation_5[0][0]               
__________________________________________________________________________________________________
batch_normalization_6 (BatchNor (None, 14, 22, 80)   320         conv2d_6[0][0]                   
__________________________________________________________________________________________________
activation_6 (Activation)       (None, 14, 22, 80)   0           batch_normalization_6[0][0]      
__________________________________________________________________________________________________
concatenate_3 (Concatenate)     (None, 14, 22, 141)  0           dropout_2[0][0]                  
                                                                 activation_6[0][0]               
__________________________________________________________________________________________________
dropout_3 (Dropout)             (None, 14, 22, 141)  0           concatenate_3[0][0]              
__________________________________________________________________________________________________
conv2d_transpose_1 (Conv2DTrans (None, 28, 44, 40)   22600       dropout_3[0][0]                  
__________________________________________________________________________________________________
concatenate_4 (Concatenate)     (None, 28, 44, 101)  0           conv2d_transpose_1[0][0]         
                                                                 concatenate_2[0][0]              
__________________________________________________________________________________________________
conv2d_7 (Conv2D)               (None, 28, 44, 40)   36400       concatenate_4[0][0]              
__________________________________________________________________________________________________
batch_normalization_7 (BatchNor (None, 28, 44, 40)   160         conv2d_7[0][0]                   
__________________________________________________________________________________________________
activation_7 (Activation)       (None, 28, 44, 40)   0           batch_normalization_7[0][0]      
__________________________________________________________________________________________________
conv2d_8 (Conv2D)               (None, 28, 44, 40)   14440       activation_7[0][0]               
__________________________________________________________________________________________________
batch_normalization_8 (BatchNor (None, 28, 44, 40)   160         conv2d_8[0][0]                   
__________________________________________________________________________________________________
activation_8 (Activation)       (None, 28, 44, 40)   0           batch_normalization_8[0][0]      
__________________________________________________________________________________________________
concatenate_5 (Concatenate)     (None, 28, 44, 141)  0           concatenate_4[0][0]              
                                                                 activation_8[0][0]               
__________________________________________________________________________________________________
dropout_4 (Dropout)             (None, 28, 44, 141)  0           concatenate_5[0][0]              
__________________________________________________________________________________________________
conv2d_transpose_2 (Conv2DTrans (None, 56, 88, 20)   11300       dropout_4[0][0]                  
__________________________________________________________________________________________________
concatenate_6 (Concatenate)     (None, 56, 88, 41)   0           conv2d_transpose_2[0][0]         
                                                                 concatenate_1[0][0]              
__________________________________________________________________________________________________
conv2d_9 (Conv2D)               (None, 56, 88, 20)   7400        concatenate_6[0][0]              
__________________________________________________________________________________________________
batch_normalization_9 (BatchNor (None, 56, 88, 20)   80          conv2d_9[0][0]                   
__________________________________________________________________________________________________
activation_9 (Activation)       (None, 56, 88, 20)   0           batch_normalization_9[0][0]      
__________________________________________________________________________________________________
conv2d_10 (Conv2D)              (None, 56, 88, 20)   3620        activation_9[0][0]               
__________________________________________________________________________________________________
batch_normalization_10 (BatchNo (None, 56, 88, 20)   80          conv2d_10[0][0]                  
__________________________________________________________________________________________________
activation_10 (Activation)      (None, 56, 88, 20)   0           batch_normalization_10[0][0]     
__________________________________________________________________________________________________
concatenate_7 (Concatenate)     (None, 56, 88, 61)   0           concatenate_6[0][0]              
                                                                 activation_10[0][0]              
__________________________________________________________________________________________________
dropout_5 (Dropout)             (None, 56, 88, 61)   0           concatenate_7[0][0]              
__________________________________________________________________________________________________2019-07-09 21:06:49.746800: I tensorflow/core/common_runtime/gpu/gpu_device.cc:1471] Adding visible gpu devices: 0
2019-07-09 21:06:49.746918: I tensorflow/core/common_runtime/gpu/gpu_device.cc:952] Device interconnect StreamExecutor with strength 1 edge matrix:
…
 Nucleus: [2, 4, 5, 6, 7, 8, 9, 10, 11, 12, 13, 14]  | GPU: 4  | SD 1  | Dropout 0.3  | LR 0.001  | NL 3  |  Cascade |  FM 20 |  Upsample 1
Experiment: exp6
SubExperiment: sE12_Cascade_FM20_Res_Unet_NL3_LS_MyLogDice_US1_Main_Init_3T_CV_a
---------------------------------------------------------------
__________________________________________________________________________________________________
Layer (type)                    Output Shape         Param #     Connected to                     
==================================================================================================
input_1 (InputLayer)            (None, 56, 56, 1)    0                                            
__________________________________________________________________________________________________
conv2d_1 (Conv2D)               (None, 56, 56, 20)   200         input_1[0][0]                    
__________________________________________________________________________________________________
batch_normalization_1 (BatchNor (None, 56, 56, 20)   80          conv2d_1[0][0]                   
__________________________________________________________________________________________________
activation_1 (Activation)       (None, 56, 56, 20)   0           batch_normalization_1[0][0]      
__________________________________________________________________________________________________
conv2d_2 (Conv2D)               (None, 56, 56, 20)   3620        activation_1[0][0]               
__________________________________________________________________________________________________
batch_normalization_2 (BatchNor (None, 56, 56, 20)   80          conv2d_2[0][0]                   
__________________________________________________________________________________________________
activation_2 (Activation)       (None, 56, 56, 20)   0           batch_normalization_2[0][0]      
__________________________________________________________________________________________________
concatenate_1 (Concatenate)     (None, 56, 56, 21)   0           input_1[0][0]                    
                                                                 activation_2[0][0]               
__________________________________________________________________________________________________
max_pooling2d_1 (MaxPooling2D)  (None, 28, 28, 21)   0           concatenate_1[0][0]              
__________________________________________________________________________________________________
dropout_1 (Dropout)             (None, 28, 28, 21)   0           max_pooling2d_1[0][0]            
__________________________________________________________________________________________________
conv2d_3 (Conv2D)               (None, 28, 28, 40)   7600        dropout_1[0][0]                  
__________________________________________________________________________________________________
batch_normalization_3 (BatchNor (None, 28, 28, 40)   160         conv2d_3[0][0]                   
__________________________________________________________________________________________________
activation_3 (Activation)       (None, 28, 28, 40)   0           batch_normalization_3[0][0]      
__________________________________________________________________________________________________
conv2d_4 (Conv2D)               (None, 28, 28, 40)   14440       activation_3[0][0]               
__________________________________________________________________________________________________
batch_normalization_4 (BatchNor (None, 28, 28, 40)   160         conv2d_4[0][0]                   
__________________________________________________________________________________________________
activation_4 (Activation)       (None, 28, 28, 40)   0           batch_normalization_4[0][0]      
__________________________________________________________________________________________________
concatenate_2 (Concatenate)     (None, 28, 28, 61)   0           dropout_1[0][0]                  
                                                                 activation_4[0][0]               
__________________________________________________________________________________________________
max_pooling2d_2 (MaxPooling2D)  (None, 14, 14, 61)   0           concatenate_2[0][0]              2019-07-09 21:42:01.165123: I tensorflow/core/common_runtime/gpu/gpu_device.cc:1471] Adding visible gpu devices: 0
2019-07-09 21:42:01.165266: I tensorflow/core/common_runtime/gpu/gpu_device.cc:952] Device interconnect StreamExecutor with strength 1 edge matrix:
2019-07-09 21:42:01.165293: I tensorflow/core/common_runtime/gpu/gpu_device.cc:958]      0 
2019-07-09 21:42:01.165308: I tensorflow/core/common_runtime/gpu/gpu_device.cc:971] 0:   N 
2019-07-09 21:42:01.165883: I tensorflow/core/common_runtime/gpu/gpu_device.cc:1084] Created TensorFlow device (/job:localhost/replica:0/task:0/device:GPU:0 with 15123 MB memory) -> physical GPU (device: 0, name: Tesla P100-PCIE-16GB, pci bus id: 0000:84:00.0, compute capability: 6.0)

__________________________________________________________________________________________________
dropout_2 (Dropout)             (None, 14, 14, 61)   0           max_pooling2d_2[0][0]            
__________________________________________________________________________________________________
conv2d_5 (Conv2D)               (None, 14, 14, 80)   44000       dropout_2[0][0]                  
__________________________________________________________________________________________________
batch_normalization_5 (BatchNor (None, 14, 14, 80)   320         conv2d_5[0][0]                   
__________________________________________________________________________________________________
activation_5 (Activation)       (None, 14, 14, 80)   0           batch_normalization_5[0][0]      
__________________________________________________________________________________________________
conv2d_6 (Conv2D)               (None, 14, 14, 80)   57680       activation_5[0][0]               
__________________________________________________________________________________________________
batch_normalization_6 (BatchNor (None, 14, 14, 80)   320         conv2d_6[0][0]                   
__________________________________________________________________________________________________
activation_6 (Activation)       (None, 14, 14, 80)   0           batch_normalization_6[0][0]      
__________________________________________________________________________________________________
concatenate_3 (Concatenate)     (None, 14, 14, 141)  0           dropout_2[0][0]                  
                                                                 activation_6[0][0]               
__________________________________________________________________________________________________
dropout_3 (Dropout)             (None, 14, 14, 141)  0           concatenate_3[0][0]              
__________________________________________________________________________________________________
conv2d_transpose_1 (Conv2DTrans (None, 28, 28, 40)   22600       dropout_3[0][0]                  
__________________________________________________________________________________________________
concatenate_4 (Concatenate)     (None, 28, 28, 101)  0           conv2d_transpose_1[0][0]         
                                                                 concatenate_2[0][0]              
__________________________________________________________________________________________________
conv2d_7 (Conv2D)               (None, 28, 28, 40)   36400       concatenate_4[0][0]              
__________________________________________________________________________________________________
batch_normalization_7 (BatchNor (None, 28, 28, 40)   160         conv2d_7[0][0]                   
__________________________________________________________________________________________________
activation_7 (Activation)       (None, 28, 28, 40)   0           batch_normalization_7[0][0]      
__________________________________________________________________________________________________
conv2d_8 (Conv2D)               (None, 28, 28, 40)   14440       activation_7[0][0]               
__________________________________________________________________________________________________
batch_normalization_8 (BatchNor (None, 28, 28, 40)   160         conv2d_8[0][0]                   
__________________________________________________________________________________________________
activation_8 (Activation)       (None, 28, 28, 40)   0           batch_normalization_8[0][0]      
__________________________________________________________________________________________________
concatenate_5 (Concatenate)     (None, 28, 28, 141)  0           concatenate_4[0][0]              
                                                                 activation_8[0][0]               
__________________________________________________________________________________________________
dropout_4 (Dropout)             (None, 28, 28, 141)  0           concatenate_5[0][0]              
__________________________________________________________________________________________________
conv2d_transpose_2 (Conv2DTrans (None, 56, 56, 20)   11300       dropout_4[0][0]                  
__________________________________________________________________________________________________
concatenate_6 (Concatenate)     (None, 56, 56, 41)   0           conv2d_transpose_2[0][0]         
                                                                 concatenate_1[0][0]              
__________________________________________________________________________________________________
conv2d_9 (Conv2D)               (None, 56, 56, 20)   7400        concatenate_6[0][0]              
__________________________________________________________________________________________________
batch_normalization_9 (BatchNor (None, 56, 56, 20)   80          conv2d_9[0][0]                   
__________________________________________________________________________________________________
activation_9 (Activation)       (None, 56, 56, 20)   0           batch_normalization_9[0][0]      
__________________________________________________________________________________________________
conv2d_10 (Conv2D)              (None, 56, 56, 20)   3620        activation_9[0][0]               
__________________________________________________________________________________________________
batch_normalization_10 (BatchNo (None, 56, 56, 20)   80          conv2d_10[0][0]                  
__________________________________________________________________________________________________
activation_10 (Activation)      (None, 56, 56, 20)   0           batch_normalization_10[0][0]     
__________________________________________________________________________________________________
concatenate_7 (Concatenate)     (None, 56, 56, 61)   0           concatenate_6[0][0]              
                                                                 activation_10[0][0]              
__________________________________________________________________________________________________
dropout_5 (Dropout)             (None, 56, 56, 61)   0           concatenate_7[0][0]              
__________________________________________________________________________________________________
conv2d_11 (Conv2D)              (None, 56, 56, 13)   806         dropout_5[0][0]                  
==================================================================================================
Total params: 225,706
Trainable params: 224,906
Non-trainable params: 800
__________________________________________________________________________________________________
----- /array/ssd/msmajdi/experiments/keras/exp6/models/sE8_Cascade_FM20_Res_Unet_NL3_LS_MyLogDice_US1/MultiClass_24567891011121314/sd1/model_weights.h5
…
 Nucleus: [2, 4, 5, 6, 7, 8, 9, 10, 11, 12, 13, 14]  | GPU: 4  | SD 0  | Dropout 0.3  | LR 0.001  | NL 3  |  Cascade |  FM 20 |  Upsample 1
Experiment: exp6
SubExperiment: sE12_Cascade_FM20_Res_Unet_NL3_LS_MyLogDice_US1_Main_Init_3T_CV_a
---------------------------------------------------------------
__________________________________________________________________________________________________
Layer (type)                    Output Shape         Param #     Connected to                     
==================================================================================================
input_1 (InputLayer)            (None, 88, 56, 1)    0                                            
__________________________________________________________________________________________________
conv2d_1 (Conv2D)               (None, 88, 56, 20)   200         input_1[0][0]                    
__________________________________________________________________________________________________
batch_normalization_1 (BatchNor (None, 88, 56, 20)   80          conv2d_1[0][0]                   
__________________________________________________________________________________________________
activation_1 (Activation)       (None, 88, 56, 20)   0           batch_normalization_1[0][0]      
__________________________________________________________________________________________________
conv2d_2 (Conv2D)               (None, 88, 56, 20)   3620        activation_1[0][0]               
__________________________________________________________________________________________________
batch_normalization_2 (BatchNor (None, 88, 56, 20)   80          conv2d_2[0][0]                   
__________________________________________________________________________________________________
activation_2 (Activation)       (None, 88, 56, 20)   0           batch_normalization_2[0][0]      
__________________________________________________________________________________________________
concatenate_1 (Concatenate)     (None, 88, 56, 21)   0           input_1[0][0]                    
                                                                 activation_2[0][0]               
__________________________________________________________________________________________________
max_pooling2d_1 (MaxPooling2D)  (None, 44, 28, 21)   0           concatenate_1[0][0]              
__________________________________________________________________________________________________
dropout_1 (Dropout)             (None, 44, 28, 21)   0           max_pooling2d_1[0][0]            
__________________________________________________________________________________________________
conv2d_3 (Conv2D)               (None, 44, 28, 40)   7600        dropout_1[0][0]                  
__________________________________________________________________________________________________
batch_normalization_3 (BatchNor (None, 44, 28, 40)   160         conv2d_3[0][0]                   
__________________________________________________________________________________________________
activation_3 (Activation)       (None, 44, 28, 40)   0           batch_normalization_3[0][0]      
__________________________________________________________________________________________________
conv2d_4 (Conv2D)               (None, 44, 28, 40)   14440       activation_3[0][0]               
__________________________________________________________________________________________________
batch_normalization_4 (BatchNor (None, 44, 28, 40)   160         conv2d_4[0][0]                   
__________________________________________________________________________________________________
activation_4 (Activation)       (None, 44, 28, 40)   0           batch_normalization_4[0][0]      
__________________________________________________________________________________________________
concatenate_2 (Concatenate)     (None, 44, 28, 61)   0           dropout_1[0][0]                  2019-07-09 22:20:43.254082: I tensorflow/core/common_runtime/gpu/gpu_device.cc:1471] Adding visible gpu devices: 0
2019-07-09 22:20:43.254214: I tensorflow/core/common_runtime/gpu/gpu_device.cc:952] Device interconnect StreamExecutor with strength 1 edge matrix:
2019-07-09 22:20:43.254235: I tensorflow/core/common_runtime/gpu/gpu_device.cc:958]      0 
2019-07-09 22:20:43.254249: I tensorflow/core/common_runtime/gpu/gpu_device.cc:971] 0:   N 
2019-07-09 22:20:43.363690: I tensorflow/core/common_runtime/gpu/gpu_device.cc:1084] Created TensorFlow device (/job:localhost/replica:0/task:0/device:GPU:0 with 15123 MB memory) -> physical GPU (device: 0, name: Tesla P100-PCIE-16GB, pci bus id: 0000:84:00.0, compute capability: 6.0)

                                                                 activation_4[0][0]               
__________________________________________________________________________________________________
max_pooling2d_2 (MaxPooling2D)  (None, 22, 14, 61)   0           concatenate_2[0][0]              
__________________________________________________________________________________________________
dropout_2 (Dropout)             (None, 22, 14, 61)   0           max_pooling2d_2[0][0]            
__________________________________________________________________________________________________
conv2d_5 (Conv2D)               (None, 22, 14, 80)   44000       dropout_2[0][0]                  
__________________________________________________________________________________________________
batch_normalization_5 (BatchNor (None, 22, 14, 80)   320         conv2d_5[0][0]                   
__________________________________________________________________________________________________
activation_5 (Activation)       (None, 22, 14, 80)   0           batch_normalization_5[0][0]      
__________________________________________________________________________________________________
conv2d_6 (Conv2D)               (None, 22, 14, 80)   57680       activation_5[0][0]               
__________________________________________________________________________________________________
batch_normalization_6 (BatchNor (None, 22, 14, 80)   320         conv2d_6[0][0]                   
__________________________________________________________________________________________________
activation_6 (Activation)       (None, 22, 14, 80)   0           batch_normalization_6[0][0]      
__________________________________________________________________________________________________
concatenate_3 (Concatenate)     (None, 22, 14, 141)  0           dropout_2[0][0]                  
                                                                 activation_6[0][0]               
__________________________________________________________________________________________________
dropout_3 (Dropout)             (None, 22, 14, 141)  0           concatenate_3[0][0]              
__________________________________________________________________________________________________
conv2d_transpose_1 (Conv2DTrans (None, 44, 28, 40)   22600       dropout_3[0][0]                  
__________________________________________________________________________________________________
concatenate_4 (Concatenate)     (None, 44, 28, 101)  0           conv2d_transpose_1[0][0]         
                                                                 concatenate_2[0][0]              
__________________________________________________________________________________________________
conv2d_7 (Conv2D)               (None, 44, 28, 40)   36400       concatenate_4[0][0]              
__________________________________________________________________________________________________
batch_normalization_7 (BatchNor (None, 44, 28, 40)   160         conv2d_7[0][0]                   
__________________________________________________________________________________________________
activation_7 (Activation)       (None, 44, 28, 40)   0           batch_normalization_7[0][0]      
__________________________________________________________________________________________________
conv2d_8 (Conv2D)               (None, 44, 28, 40)   14440       activation_7[0][0]               
__________________________________________________________________________________________________
batch_normalization_8 (BatchNor (None, 44, 28, 40)   160         conv2d_8[0][0]                   
__________________________________________________________________________________________________
activation_8 (Activation)       (None, 44, 28, 40)   0           batch_normalization_8[0][0]      
__________________________________________________________________________________________________
concatenate_5 (Concatenate)     (None, 44, 28, 141)  0           concatenate_4[0][0]              
                                                                 activation_8[0][0]               
__________________________________________________________________________________________________
dropout_4 (Dropout)             (None, 44, 28, 141)  0           concatenate_5[0][0]              
__________________________________________________________________________________________________
conv2d_transpose_2 (Conv2DTrans (None, 88, 56, 20)   11300       dropout_4[0][0]                  
__________________________________________________________________________________________________
concatenate_6 (Concatenate)     (None, 88, 56, 41)   0           conv2d_transpose_2[0][0]         
                                                                 concatenate_1[0][0]              
__________________________________________________________________________________________________
conv2d_9 (Conv2D)               (None, 88, 56, 20)   7400        concatenate_6[0][0]              
__________________________________________________________________________________________________
batch_normalization_9 (BatchNor (None, 88, 56, 20)   80          conv2d_9[0][0]                   
__________________________________________________________________________________________________
activation_9 (Activation)       (None, 88, 56, 20)   0           batch_normalization_9[0][0]      
__________________________________________________________________________________________________
conv2d_10 (Conv2D)              (None, 88, 56, 20)   3620        activation_9[0][0]               
__________________________________________________________________________________________________
batch_normalization_10 (BatchNo (None, 88, 56, 20)   80          conv2d_10[0][0]                  
__________________________________________________________________________________________________
activation_10 (Activation)      (None, 88, 56, 20)   0           batch_normalization_10[0][0]     
__________________________________________________________________________________________________
concatenate_7 (Concatenate)     (None, 88, 56, 61)   0           concatenate_6[0][0]              
                                                                 activation_10[0][0]              
__________________________________________________________________________________________________
dropout_5 (Dropout)             (None, 88, 56, 61)   0           concatenate_7[0][0]              
__________________________________________________________________________________________________
conv2d_11 (Conv2D)              (None, 88, 56, 13)   806         dropout_5[0][0]                  
==================================================================================================
Total params: 225,706
Trainable params: 224,906
Non-trainable params: 800
__________________________________________________________________________________________________
----- /array/ssd/msmajdi/experiments/keras/exp6/models/sE8_Cascade_FM20_Res_Unet_NL3_LS_MyLogDice_US1/MultiClass_24567891011121314/sd0/model_weights.h5
…
