…
---------------------------------------------------------------
 Nucleus: [2]  | GPU: 1  | SD 1  | Dropout 0.3  | LR 0.001  | NL 3  |  Cascade |  FM 10 |  Upsample 2
Experiment: exp6
SubExperiment: sE8_Cascade_FM10_Res_Unet2_NL3_LS_MyLogDice_US2_SingleClass
---------------------------------------------------------------
__________________________________________________________________________________________________
Layer (type)                    Output Shape         Param #     Connected to                     
==================================================================================================
input_1 (InputLayer)            (None, 112, 112, 1)  0                                            
__________________________________________________________________________________________________
conv2d_1 (Conv2D)               (None, 112, 112, 10) 100         input_1[0][0]                    
__________________________________________________________________________________________________
batch_normalization_1 (BatchNor (None, 112, 112, 10) 40          conv2d_1[0][0]                   
__________________________________________________________________________________________________
activation_1 (Activation)       (None, 112, 112, 10) 0           batch_normalization_1[0][0]      
__________________________________________________________________________________________________
conv2d_2 (Conv2D)               (None, 112, 112, 10) 910         activation_1[0][0]               
__________________________________________________________________________________________________
batch_normalization_2 (BatchNor (None, 112, 112, 10) 40          conv2d_2[0][0]                   
__________________________________________________________________________________________________
activation_2 (Activation)       (None, 112, 112, 10) 0           batch_normalization_2[0][0]      
__________________________________________________________________________________________________
max_pooling2d_1 (MaxPooling2D)  (None, 56, 56, 10)   0           activation_2[0][0]               
__________________________________________________________________________________________________
dropout_1 (Dropout)             (None, 56, 56, 10)   0           max_pooling2d_1[0][0]            
__________________________________________________________________________________________________
conv2d_3 (Conv2D)               (None, 56, 56, 20)   1820        dropout_1[0][0]                  
__________________________________________________________________________________________________
batch_normalization_3 (BatchNor (None, 56, 56, 20)   80          conv2d_3[0][0]                   
__________________________________________________________________________________________________
activation_3 (Activation)       (None, 56, 56, 20)   0           batch_normalization_3[0][0]      
__________________________________________________________________________________________________
conv2d_4 (Conv2D)               (None, 56, 56, 20)   3620        activation_3[0][0]               
__________________________________________________________________________________________________
batch_normalization_4 (BatchNor (None, 56, 56, 20)   80          conv2d_4[0][0]                   
__________________________________________________________________________________________________
activation_4 (Activation)       (None, 56, 56, 20)   0           batch_normalization_4[0][0]      
__________________________________________________________________________________________________
concatenate_1 (Concatenate)     (None, 56, 56, 30)   0           dropout_1[0][0]                  
                                                                 activation_4[0][0]               
__________________________________________________________________________________________________
max_pooling2d_2 (MaxPooling2D)  (None, 28, 28, 30)   0           concatenate_1[0][0]              
__________________________________________________________________________________________________
dropout_2 (Dropout)             (None, 28, 28, 30)   0           max_pooling2d_2[0][0]            
__________________________________________________________________________________________________
conv2d_5 (Conv2D)               (None, 28, 28, 40)   10840       dropout_2[0][0]                  
__________________________________________________________________________________________________
batch_normalization_5 (BatchNor (None, 28, 28, 40)   160         conv2d_5[0][0]                   
__________________________________________________________________________________________________
activation_5 (Activation)       (None, 28, 28, 40)   0           batch_normalization_5[0][0]      
__________________________________________________________________________________________________
conv2d_6 (Conv2D)               (None, 28, 28, 40)   14440       activation_5[0][0]               
__________________________________________________________________________________________________
batch_normalization_6 (BatchNor (None, 28, 28, 40)   160         conv2d_6[0][0]                   
__________________________________________________________________________________________________
activation_6 (Activation)       (None, 28, 28, 40)   0           batch_normalization_6[0][0]      
__________________________________________________________________________________________________
concatenate_2 (Concatenate)     (None, 28, 28, 70)   0           dropout_2[0][0]                  
                                                                 activation_6[0][0]               
__________________________________________________________________________________________________
dropout_3 (Dropout)             (None, 28, 28, 70)   0           concatenate_2[0][0]              
__________________________________________________________________________________________________
conv2d_transpose_1 (Conv2DTrans (None, 56, 56, 20)   5620        dropout_3[0][0]                  
__________________________________________________________________________________________________
concatenate_3 (Concatenate)     (None, 56, 56, 50)   0           conv2d_transpose_1[0][0]         
                                                                 concatenate_1[0][0]              
__________________________________________________________________________________________________
conv2d_7 (Conv2D)               (None, 56, 56, 20)   9020        concatenate_3[0][0]              
__________________________________________________________________________________________________
batch_normalization_7 (BatchNor (None, 56, 56, 20)   80          conv2d_7[0][0]                   
__________________________________________________________________________________________________
activation_7 (Activation)       (None, 56, 56, 20)   0           batch_normalization_7[0][0]      
__________________________________________________________________________________________________
conv2d_8 (Conv2D)               (None, 56, 56, 20)   3620        activation_7[0][0]               
__________________________________________________________________________________________________
batch_normalization_8 (BatchNor (None, 56, 56, 20)   80          conv2d_8[0][0]                   
__________________________________________________________________________________________________
activation_8 (Activation)       (None, 56, 56, 20)   0           batch_normalization_8[0][0]      
__________________________________________________________________________________________________
concatenate_4 (Concatenate)     (None, 56, 56, 70)   0           concatenate_3[0][0]              
                                                                 activation_8[0][0]               
__________________________________________________________________________________________________
dropout_4 (Dropout)             (None, 56, 56, 70)   0           concatenate_4[0][0]              
__________________________________________________________________________________________________
conv2d_transpose_2 (Conv2DTrans (None, 112, 112, 10) 2810        dropout_4[0][0]                  
__________________________________________________________________________________________________
concatenate_5 (Concatenate)     (None, 112, 112, 20) 0           conv2d_transpose_2[0][0]         
                                                                 activation_2[0][0]               
__________________________________________________________________________________________________
conv2d_9 (Conv2D)               (None, 112, 112, 10) 1810        concatenate_5[0][0]              
__________________________________________________________________________________________________
batch_normalization_9 (BatchNor (None, 112, 112, 10) 40          conv2d_9[0][0]                   
__________________________________________________________________________________________________
activation_9 (Activation)       (None, 112, 112, 10) 0           batch_normalization_9[0][0]      
__________________________________________________________________________________________________
conv2d_10 (Conv2D)              (None, 112, 112, 10) 910         activation_9[0][0]               
__________________________________________________________________________________________________
batch_normalization_10 (BatchNo (None, 112, 112, 10) 40          conv2d_10[0][0]                  
__________________________________________________________________________________________________
activation_10 (Activation)      (None, 112, 112, 10) 0           batch_normalization_10[0][0]     
__________________________________________________________________________________________________
concatenate_6 (Concatenate)     (None, 112, 112, 30) 0           concatenate_5[0][0]              
                                                                 activation_10[0][0]              
__________________________________________________________________________________________________
dropout_5 (Dropout)             (None, 112, 112, 30) 0           concatenate_6[0][0]              
__________________________________________________________________________________________________
conv2d_11 (Conv2D)              (None, 112, 112, 2)  62          dropout_5[0][0]                  
==================================================================================================
Total params: 56,382
Trainable params: 55,982
Non-trainable params: 400
__________________________________________________________________________________________________
------------------------------------------------------------------
class_weights [0.99752028 0.00247972]
…
 Nucleus: [2]  | GPU: 1  | SD 1  | Dropout 0.3  | LR 0.001  | NL 3  |  Cascade |  FM 10 |  Upsample 2
Experiment: exp6
SubExperiment: sE12_Cascade_FM10_Res_Unet2_NL3_LS_MyLogDice_US2_SingleClass_Main_Init_3T_CV_a
---------------------------------------------------------------
__________________________________________________________________________________________________
Layer (type)                    Output Shape         Param #     Connected to                     
==================================================================================================
input_1 (InputLayer)            (None, 112, 112, 1)  0                                            
__________________________________________________________________________________________________
conv2d_1 (Conv2D)               (None, 112, 112, 10) 100         input_1[0][0]                    
__________________________________________________________________________________________________
batch_normalization_1 (BatchNor (None, 112, 112, 10) 40          conv2d_1[0][0]                   
__________________________________________________________________________________________________
activation_1 (Activation)       (None, 112, 112, 10) 0           batch_normalization_1[0][0]      
__________________________________________________________________________________________________
conv2d_2 (Conv2D)               (None, 112, 112, 10) 910         activation_1[0][0]               
__________________________________________________________________________________________________
batch_normalization_2 (BatchNor (None, 112, 112, 10) 40          conv2d_2[0][0]                   
__________________________________________________________________________________________________
activation_2 (Activation)       (None, 112, 112, 10) 0           batch_normalization_2[0][0]      
__________________________________________________________________________________________________
max_pooling2d_1 (MaxPooling2D)  (None, 56, 56, 10)   0           activation_2[0][0]               
__________________________________________________________________________________________________
dropout_1 (Dropout)             (None, 56, 56, 10)   0           max_pooling2d_1[0][0]            
__________________________________________________________________________________________________
conv2d_3 (Conv2D)               (None, 56, 56, 20)   1820        dropout_1[0][0]                  
__________________________________________________________________________________________________
batch_normalization_3 (BatchNor (None, 56, 56, 20)   80          conv2d_3[0][0]                   
__________________________________________________________________________________________________
activation_3 (Activation)       (None, 56, 56, 20)   0           batch_normalization_3[0][0]      
__________________________________________________________________________________________________
conv2d_4 (Conv2D)               (None, 56, 56, 20)   3620        activation_3[0][0]               
__________________________________________________________________________________________________
batch_normalization_4 (BatchNor (None, 56, 56, 20)   80          conv2d_4[0][0]                   
__________________________________________________________________________________________________
activation_4 (Activation)       (None, 56, 56, 20)   0           batch_normalization_4[0][0]      
__________________________________________________________________________________________________
concatenate_1 (Concatenate)     (None, 56, 56, 30)   0           dropout_1[0][0]                  
                                                                 activation_4[0][0]               
__________________________________________________________________________________________________
max_pooling2d_2 (MaxPooling2D)  (None, 28, 28, 30)   0           concatenate_1[0][0]              
__________________________________________________________________________________________________
dropout_2 (Dropout)             (None, 28, 28, 30)   0           max_pooling2d_2[0][0]            
__________________________________________________________________________________________________
conv2d_5 (Conv2D)               (None, 28, 28, 40)   10840       dropout_2[0][0]                  
__________________________________________________________________________________________________
batch_normalization_5 (BatchNor (None, 28, 28, 40)   160         conv2d_5[0][0]                   
__________________________________________________________________________________________________
activation_5 (Activation)       (None, 28, 28, 40)   0           batch_normalization_5[0][0]      
__________________________________________________________________________________________________
conv2d_6 (Conv2D)               (None, 28, 28, 40)   14440       activation_5[0][0]               
__________________________________________________________________________________________________
batch_normalization_6 (BatchNor (None, 28, 28, 40)   160         conv2d_6[0][0]                   
__________________________________________________________________________________________________
activation_6 (Activation)       (None, 28, 28, 40)   0           batch_normalization_6[0][0]      
__________________________________________________________________________________________________
concatenate_2 (Concatenate)     (None, 28, 28, 70)   0           dropout_2[0][0]                  
                                                                 activation_6[0][0]               
__________________________________________________________________________________________________
dropout_3 (Dropout)             (None, 28, 28, 70)   0           concatenate_2[0][0]              
__________________________________________________________________________________________________
conv2d_transpose_1 (Conv2DTrans (None, 56, 56, 20)   5620        dropout_3[0][0]                  
__________________________________________________________________________________________________
concatenate_3 (Concatenate)     (None, 56, 56, 50)   0           conv2d_transpose_1[0][0]         
                                                                 concatenate_1[0][0]              
__________________________________________________________________________________________________
conv2d_7 (Conv2D)               (None, 56, 56, 20)   9020        concatenate_3[0][0]              
__________________________________________________________________________________________________
batch_normalization_7 (BatchNor (None, 56, 56, 20)   80          conv2d_7[0][0]                   
__________________________________________________________________________________________________
activation_7 (Activation)       (None, 56, 56, 20)   0           batch_normalization_7[0][0]      
__________________________________________________________________________________________________
conv2d_8 (Conv2D)               (None, 56, 56, 20)   3620        activation_7[0][0]               
__________________________________________________________________________________________________
batch_normalization_8 (BatchNor (None, 56, 56, 20)   80          conv2d_8[0][0]                   
__________________________________________________________________________________________________
activation_8 (Activation)       (None, 56, 56, 20)   0           batch_normalization_8[0][0]      2019-07-14 11:46:18.895446: I tensorflow/core/common_runtime/gpu/gpu_device.cc:1471] Adding visible gpu devices: 0
2019-07-14 11:46:18.895555: I tensorflow/core/common_runtime/gpu/gpu_device.cc:952] Device interconnect StreamExecutor with strength 1 edge matrix:
2019-07-14 11:46:18.895574: I tensorflow/core/common_runtime/gpu/gpu_device.cc:958]      0 
2019-07-14 11:46:18.895584: I tensorflow/core/common_runtime/gpu/gpu_device.cc:971] 0:   N 
2019-07-14 11:46:18.896007: I tensorflow/core/common_runtime/gpu/gpu_device.cc:1084] Created TensorFlow device (/job:localhost/replica:0/task:0/device:GPU:0 with 15123 MB memory) -> physical GPU (device: 0, name: Tesla P100-PCIE-16GB, pci bus id: 0000:05:00.0, compute capability: 6.0)

__________________________________________________________________________________________________
concatenate_4 (Concatenate)     (None, 56, 56, 70)   0           concatenate_3[0][0]              
                                                                 activation_8[0][0]               
__________________________________________________________________________________________________
dropout_4 (Dropout)             (None, 56, 56, 70)   0           concatenate_4[0][0]              
__________________________________________________________________________________________________
conv2d_transpose_2 (Conv2DTrans (None, 112, 112, 10) 2810        dropout_4[0][0]                  
__________________________________________________________________________________________________
concatenate_5 (Concatenate)     (None, 112, 112, 20) 0           conv2d_transpose_2[0][0]         
                                                                 activation_2[0][0]               
__________________________________________________________________________________________________
conv2d_9 (Conv2D)               (None, 112, 112, 10) 1810        concatenate_5[0][0]              
__________________________________________________________________________________________________
batch_normalization_9 (BatchNor (None, 112, 112, 10) 40          conv2d_9[0][0]                   
__________________________________________________________________________________________________
activation_9 (Activation)       (None, 112, 112, 10) 0           batch_normalization_9[0][0]      
__________________________________________________________________________________________________
conv2d_10 (Conv2D)              (None, 112, 112, 10) 910         activation_9[0][0]               
__________________________________________________________________________________________________
batch_normalization_10 (BatchNo (None, 112, 112, 10) 40          conv2d_10[0][0]                  
__________________________________________________________________________________________________
activation_10 (Activation)      (None, 112, 112, 10) 0           batch_normalization_10[0][0]     
__________________________________________________________________________________________________
concatenate_6 (Concatenate)     (None, 112, 112, 30) 0           concatenate_5[0][0]              
                                                                 activation_10[0][0]              
__________________________________________________________________________________________________
dropout_5 (Dropout)             (None, 112, 112, 30) 0           concatenate_6[0][0]              
__________________________________________________________________________________________________
conv2d_11 (Conv2D)              (None, 112, 112, 2)  62          dropout_5[0][0]                  
==================================================================================================
Total params: 56,382
Trainable params: 55,982
Non-trainable params: 400
__________________________________________________________________________________________________
----- /array/ssd/msmajdi/experiments/keras/exp6/models/sE8_Cascade_FM10_Res_Unet2_NL3_LS_MyLogDice_US2_SingleClass/2-AV/sd1/model_weights.h5
…
 Nucleus: [2]  | GPU: 1  | SD 1  | Dropout 0.3  | LR 0.001  | NL 3  |  Cascade |  FM 10 |  Upsample 2
Experiment: exp6
SubExperiment: sE12_Cascade_FM10_Res_Unet2_NL3_LS_MyLogDice_US2_SingleClass_ET_Init_Main_CV_a
---------------------------------------------------------------
__________________________________________________________________________________________________
Layer (type)                    Output Shape         Param #     Connected to                     
==================================================================================================
input_1 (InputLayer)            (None, 104, 104, 1)  0                                            
__________________________________________________________________________________________________
conv2d_1 (Conv2D)               (None, 104, 104, 10) 100         input_1[0][0]                    
__________________________________________________________________________________________________
batch_normalization_1 (BatchNor (None, 104, 104, 10) 40          conv2d_1[0][0]                   
__________________________________________________________________________________________________
activation_1 (Activation)       (None, 104, 104, 10) 0           batch_normalization_1[0][0]      
__________________________________________________________________________________________________
conv2d_2 (Conv2D)               (None, 104, 104, 10) 910         activation_1[0][0]               
__________________________________________________________________________________________________
batch_normalization_2 (BatchNor (None, 104, 104, 10) 40          conv2d_2[0][0]                   
__________________________________________________________________________________________________
activation_2 (Activation)       (None, 104, 104, 10) 0           batch_normalization_2[0][0]      
__________________________________________________________________________________________________
max_pooling2d_1 (MaxPooling2D)  (None, 52, 52, 10)   0           activation_2[0][0]               
__________________________________________________________________________________________________
dropout_1 (Dropout)             (None, 52, 52, 10)   0           max_pooling2d_1[0][0]            
__________________________________________________________________________________________________
conv2d_3 (Conv2D)               (None, 52, 52, 20)   1820        dropout_1[0][0]                  
__________________________________________________________________________________________________
batch_normalization_3 (BatchNor (None, 52, 52, 20)   80          conv2d_3[0][0]                   
__________________________________________________________________________________________________
activation_3 (Activation)       (None, 52, 52, 20)   0           batch_normalization_3[0][0]      
__________________________________________________________________________________________________
conv2d_4 (Conv2D)               (None, 52, 52, 20)   3620        activation_3[0][0]               
__________________________________________________________________________________________________
batch_normalization_4 (BatchNor (None, 52, 52, 20)   80          conv2d_4[0][0]                   
__________________________________________________________________________________________________
activation_4 (Activation)       (None, 52, 52, 20)   0           batch_normalization_4[0][0]      
__________________________________________________________________________________________________
concatenate_1 (Concatenate)     (None, 52, 52, 30)   0           dropout_1[0][0]                  
                                                                 activation_4[0][0]               
__________________________________________________________________________________________________
max_pooling2d_2 (MaxPooling2D)  (None, 26, 26, 30)   0           concatenate_1[0][0]              
__________________________________________________________________________________________________
dropout_2 (Dropout)             (None, 26, 26, 30)   0           max_pooling2d_2[0][0]            
__________________________________________________________________________________________________
conv2d_5 (Conv2D)               (None, 26, 26, 40)   10840       dropout_2[0][0]                  
__________________________________________________________________________________________________
batch_normalization_5 (BatchNor (None, 26, 26, 40)   160         conv2d_5[0][0]                   
__________________________________________________________________________________________________
activation_5 (Activation)       (None, 26, 26, 40)   0           batch_normalization_5[0][0]      
__________________________________________________________________________________________________
conv2d_6 (Conv2D)               (None, 26, 26, 40)   14440       activation_5[0][0]               
__________________________________________________________________________________________________
batch_normalization_6 (BatchNor (None, 26, 26, 40)   160         conv2d_6[0][0]                   
__________________________________________________________________________________________________
activation_6 (Activation)       (None, 26, 26, 40)   0           batch_normalization_6[0][0]      
__________________________________________________________________________________________________
concatenate_2 (Concatenate)     (None, 26, 26, 70)   0           dropout_2[0][0]                  
                                                                 activation_6[0][0]               
__________________________________________________________________________________________________
dropout_3 (Dropout)             (None, 26, 26, 70)   0           concatenate_2[0][0]              
__________________________________________________________________________________________________
conv2d_transpose_1 (Conv2DTrans (None, 52, 52, 20)   5620        dropout_3[0][0]                  
__________________________________________________________________________________________________
concatenate_3 (Concatenate)     (None, 52, 52, 50)   0           conv2d_transpose_1[0][0]         
                                                                 concatenate_1[0][0]              
__________________________________________________________________________________________________
conv2d_7 (Conv2D)               (None, 52, 52, 20)   9020        concatenate_3[0][0]              
__________________________________________________________________________________________________
batch_normalization_7 (BatchNor (None, 52, 52, 20)   80          conv2d_7[0][0]                   
__________________________________________________________________________________________________
activation_7 (Activation)       (None, 52, 52, 20)   0           batch_normalization_7[0][0]      
__________________________________________________________________________________________________
conv2d_8 (Conv2D)               (None, 52, 52, 20)   3620        activation_7[0][0]               
__________________________________________________________________________________________________
batch_normalization_8 (BatchNor (None, 52, 52, 20)   80          conv2d_8[0][0]                   
__________________________________________________________________________________________________
activation_8 (Activation)       (None, 52, 52, 20)   0           batch_normalization_8[0][0]      
__________________________________________________________________________________________________
concatenate_4 (Concatenate)     (None, 52, 52, 70)   0           concatenate_3[0][0]              
                                                                 activation_8[0][0]               
__________________________________________________________________________________________________
dropout_4 (Dropout)             (None, 52, 52, 70)   0           concatenate_4[0][0]              
__________________________________________________________________________________________________
conv2d_transpose_2 (Conv2DTrans (None, 104, 104, 10) 2810        dropout_4[0][0]                  
__________________________________________________________________________________________________
concatenate_5 (Concatenate)     (None, 104, 104, 20) 0           conv2d_transpose_2[0][0]         
                                                                 activation_2[0][0]               
__________________________________________________________________________________________________
conv2d_9 (Conv2D)               (None, 104, 104, 10) 1810        concatenate_5[0][0]              
__________________________________________________________________________________________________
batch_normalization_9 (BatchNor (None, 104, 104, 10) 40          conv2d_9[0][0]                   
__________________________________________________________________________________________________
activation_9 (Activation)       (None, 104, 104, 10) 0           batch_normalization_9[0][0]      
__________________________________________________________________________________________________
conv2d_10 (Conv2D)              (None, 104, 104, 10) 910         activation_9[0][0]               
__________________________________________________________________________________________________
batch_normalization_10 (BatchNo (None, 104, 104, 10) 40          conv2d_10[0][0]                  
__________________________________________________________________________________________________
activation_10 (Activation)      (None, 104, 104, 10) 0           batch_normalization_10[0][0]     
__________________________________________________________________________________________________
concatenate_6 (Concatenate)     (None, 104, 104, 30) 0           concatenate_5[0][0]              
                                                                 activation_10[0][0]              
__________________________________________________________________________________________________
dropout_5 (Dropout)             (None, 104, 104, 30) 0           concatenate_6[0][0]              
__________________________________________________________________________________________________
conv2d_11 (Conv2D)              (None, 104, 104, 2)  62          dropout_5[0][0]                  
==================================================================================================2019-07-14 12:10:57.096970: I tensorflow/core/common_runtime/gpu/gpu_device.cc:1471] Adding visible gpu devices: 0
2019-07-14 12:10:57.097063: I tensorflow/core/common_runtime/gpu/gpu_device.cc:952] Device interconnect StreamExecutor with strength 1 edge matrix:
…
---------------------------------------------------------------
 Nucleus: [2]  | GPU: 1  | SD 1  | Dropout 0.3  | LR 0.001  | NL 3  |  Cascade |  FM 15 |  Upsample 2
Experiment: exp6
SubExperiment: sE8_Cascade_FM15_Res_Unet2_NL3_LS_MyLogDice_US2_SingleClass
---------------------------------------------------------------
__________________________________________________________________________________________________
Layer (type)                    Output Shape         Param #     Connected to                     
==================================================================================================
input_1 (InputLayer)            (None, 112, 112, 1)  0                                            
__________________________________________________________________________________________________
conv2d_1 (Conv2D)               (None, 112, 112, 15) 150         input_1[0][0]                    
__________________________________________________________________________________________________
batch_normalization_1 (BatchNor (None, 112, 112, 15) 60          conv2d_1[0][0]                   
__________________________________________________________________________________________________
activation_1 (Activation)       (None, 112, 112, 15) 0           batch_normalization_1[0][0]      
__________________________________________________________________________________________________
conv2d_2 (Conv2D)               (None, 112, 112, 15) 2040        activation_1[0][0]               
__________________________________________________________________________________________________
batch_normalization_2 (BatchNor (None, 112, 112, 15) 60          conv2d_2[0][0]                   
__________________________________________________________________________________________________
activation_2 (Activation)       (None, 112, 112, 15) 0           batch_normalization_2[0][0]      
__________________________________________________________________________________________________
max_pooling2d_1 (MaxPooling2D)  (None, 56, 56, 15)   0           activation_2[0][0]               
__________________________________________________________________________________________________
dropout_1 (Dropout)             (None, 56, 56, 15)   0           max_pooling2d_1[0][0]            
__________________________________________________________________________________________________
conv2d_3 (Conv2D)               (None, 56, 56, 30)   4080        dropout_1[0][0]                  
__________________________________________________________________________________________________
batch_normalization_3 (BatchNor (None, 56, 56, 30)   120         conv2d_3[0][0]                   
__________________________________________________________________________________________________
activation_3 (Activation)       (None, 56, 56, 30)   0           batch_normalization_3[0][0]      
__________________________________________________________________________________________________
conv2d_4 (Conv2D)               (None, 56, 56, 30)   8130        activation_3[0][0]               
__________________________________________________________________________________________________
batch_normalization_4 (BatchNor (None, 56, 56, 30)   120         conv2d_4[0][0]                   
__________________________________________________________________________________________________
activation_4 (Activation)       (None, 56, 56, 30)   0           batch_normalization_4[0][0]      
__________________________________________________________________________________________________
concatenate_1 (Concatenate)     (None, 56, 56, 45)   0           dropout_1[0][0]                  
                                                                 activation_4[0][0]               
__________________________________________________________________________________________________
max_pooling2d_2 (MaxPooling2D)  (None, 28, 28, 45)   0           concatenate_1[0][0]              
__________________________________________________________________________________________________
dropout_2 (Dropout)             (None, 28, 28, 45)   0           max_pooling2d_2[0][0]            
__________________________________________________________________________________________________
conv2d_5 (Conv2D)               (None, 28, 28, 60)   24360       dropout_2[0][0]                  
__________________________________________________________________________________________________
batch_normalization_5 (BatchNor (None, 28, 28, 60)   240         conv2d_5[0][0]                   
__________________________________________________________________________________________________
activation_5 (Activation)       (None, 28, 28, 60)   0           batch_normalization_5[0][0]      
__________________________________________________________________________________________________
conv2d_6 (Conv2D)               (None, 28, 28, 60)   32460       activation_5[0][0]               
__________________________________________________________________________________________________
batch_normalization_6 (BatchNor (None, 28, 28, 60)   240         conv2d_6[0][0]                   
__________________________________________________________________________________________________
activation_6 (Activation)       (None, 28, 28, 60)   0           batch_normalization_6[0][0]      
__________________________________________________________________________________________________
concatenate_2 (Concatenate)     (None, 28, 28, 105)  0           dropout_2[0][0]                  
                                                                 activation_6[0][0]               
__________________________________________________________________________________________________
dropout_3 (Dropout)             (None, 28, 28, 105)  0           concatenate_2[0][0]              
__________________________________________________________________________________________________
conv2d_transpose_1 (Conv2DTrans (None, 56, 56, 30)   12630       dropout_3[0][0]                  
__________________________________________________________________________________________________
concatenate_3 (Concatenate)     (None, 56, 56, 75)   0           conv2d_transpose_1[0][0]         
                                                                 concatenate_1[0][0]              
__________________________________________________________________________________________________
conv2d_7 (Conv2D)               (None, 56, 56, 30)   20280       concatenate_3[0][0]              
__________________________________________________________________________________________________
batch_normalization_7 (BatchNor (None, 56, 56, 30)   120         conv2d_7[0][0]                   
__________________________________________________________________________________________________
activation_7 (Activation)       (None, 56, 56, 30)   0           batch_normalization_7[0][0]      
__________________________________________________________________________________________________
conv2d_8 (Conv2D)               (None, 56, 56, 30)   8130        activation_7[0][0]               
__________________________________________________________________________________________________
batch_normalization_8 (BatchNor (None, 56, 56, 30)   120         conv2d_8[0][0]                   
__________________________________________________________________________________________________
activation_8 (Activation)       (None, 56, 56, 30)   0           batch_normalization_8[0][0]      2019-07-14 12:40:37.704656: I tensorflow/core/common_runtime/gpu/gpu_device.cc:1471] Adding visible gpu devices: 0
2019-07-14 12:40:37.704755: I tensorflow/core/common_runtime/gpu/gpu_device.cc:952] Device interconnect StreamExecutor with strength 1 edge matrix:
2019-07-14 12:40:37.704773: I tensorflow/core/common_runtime/gpu/gpu_device.cc:958]      0 
2019-07-14 12:40:37.704783: I tensorflow/core/common_runtime/gpu/gpu_device.cc:971] 0:   N 
2019-07-14 12:40:37.705671: I tensorflow/core/common_runtime/gpu/gpu_device.cc:1084] Created TensorFlow device (/job:localhost/replica:0/task:0/device:GPU:0 with 15123 MB memory) -> physical GPU (device: 0, name: Tesla P100-PCIE-16GB, pci bus id: 0000:05:00.0, compute capability: 6.0)

__________________________________________________________________________________________________
concatenate_4 (Concatenate)     (None, 56, 56, 105)  0           concatenate_3[0][0]              
                                                                 activation_8[0][0]               
__________________________________________________________________________________________________
dropout_4 (Dropout)             (None, 56, 56, 105)  0           concatenate_4[0][0]              
__________________________________________________________________________________________________
conv2d_transpose_2 (Conv2DTrans (None, 112, 112, 15) 6315        dropout_4[0][0]                  
__________________________________________________________________________________________________
concatenate_5 (Concatenate)     (None, 112, 112, 30) 0           conv2d_transpose_2[0][0]         
                                                                 activation_2[0][0]               
__________________________________________________________________________________________________
conv2d_9 (Conv2D)               (None, 112, 112, 15) 4065        concatenate_5[0][0]              
__________________________________________________________________________________________________
batch_normalization_9 (BatchNor (None, 112, 112, 15) 60          conv2d_9[0][0]                   
__________________________________________________________________________________________________
activation_9 (Activation)       (None, 112, 112, 15) 0           batch_normalization_9[0][0]      
__________________________________________________________________________________________________
conv2d_10 (Conv2D)              (None, 112, 112, 15) 2040        activation_9[0][0]               
__________________________________________________________________________________________________
batch_normalization_10 (BatchNo (None, 112, 112, 15) 60          conv2d_10[0][0]                  
__________________________________________________________________________________________________
activation_10 (Activation)      (None, 112, 112, 15) 0           batch_normalization_10[0][0]     
__________________________________________________________________________________________________
concatenate_6 (Concatenate)     (None, 112, 112, 45) 0           concatenate_5[0][0]              
                                                                 activation_10[0][0]              
__________________________________________________________________________________________________
dropout_5 (Dropout)             (None, 112, 112, 45) 0           concatenate_6[0][0]              
__________________________________________________________________________________________________
conv2d_11 (Conv2D)              (None, 112, 112, 2)  92          dropout_5[0][0]                  
==================================================================================================
Total params: 125,972
Trainable params: 125,372
Non-trainable params: 600
__________________________________________________________________________________________________
------------------------------------------------------------------
class_weights [0.99752028 0.00247972]
…
 Nucleus: [2]  | GPU: 1  | SD 1  | Dropout 0.3  | LR 0.001  | NL 3  |  Cascade |  FM 15 |  Upsample 2
Experiment: exp6
SubExperiment: sE12_Cascade_FM15_Res_Unet2_NL3_LS_MyLogDice_US2_SingleClass_Main_Init_3T_CV_a
---------------------------------------------------------------
__________________________________________________________________________________________________
Layer (type)                    Output Shape         Param #     Connected to                     
==================================================================================================
input_1 (InputLayer)            (None, 112, 112, 1)  0                                            
__________________________________________________________________________________________________
conv2d_1 (Conv2D)               (None, 112, 112, 15) 150         input_1[0][0]                    
__________________________________________________________________________________________________
batch_normalization_1 (BatchNor (None, 112, 112, 15) 60          conv2d_1[0][0]                   
__________________________________________________________________________________________________
activation_1 (Activation)       (None, 112, 112, 15) 0           batch_normalization_1[0][0]      
__________________________________________________________________________________________________
conv2d_2 (Conv2D)               (None, 112, 112, 15) 2040        activation_1[0][0]               
__________________________________________________________________________________________________
batch_normalization_2 (BatchNor (None, 112, 112, 15) 60          conv2d_2[0][0]                   
__________________________________________________________________________________________________
activation_2 (Activation)       (None, 112, 112, 15) 0           batch_normalization_2[0][0]      
__________________________________________________________________________________________________
max_pooling2d_1 (MaxPooling2D)  (None, 56, 56, 15)   0           activation_2[0][0]               
__________________________________________________________________________________________________
dropout_1 (Dropout)             (None, 56, 56, 15)   0           max_pooling2d_1[0][0]            
__________________________________________________________________________________________________
conv2d_3 (Conv2D)               (None, 56, 56, 30)   4080        dropout_1[0][0]                  
__________________________________________________________________________________________________
batch_normalization_3 (BatchNor (None, 56, 56, 30)   120         conv2d_3[0][0]                   
__________________________________________________________________________________________________
activation_3 (Activation)       (None, 56, 56, 30)   0           batch_normalization_3[0][0]      
__________________________________________________________________________________________________
conv2d_4 (Conv2D)               (None, 56, 56, 30)   8130        activation_3[0][0]               
__________________________________________________________________________________________________
batch_normalization_4 (BatchNor (None, 56, 56, 30)   120         conv2d_4[0][0]                   
__________________________________________________________________________________________________
activation_4 (Activation)       (None, 56, 56, 30)   0           batch_normalization_4[0][0]      
__________________________________________________________________________________________________
concatenate_1 (Concatenate)     (None, 56, 56, 45)   0           dropout_1[0][0]                  
                                                                 activation_4[0][0]               
__________________________________________________________________________________________________
max_pooling2d_2 (MaxPooling2D)  (None, 28, 28, 45)   0           concatenate_1[0][0]              
__________________________________________________________________________________________________
dropout_2 (Dropout)             (None, 28, 28, 45)   0           max_pooling2d_2[0][0]            
__________________________________________________________________________________________________
conv2d_5 (Conv2D)               (None, 28, 28, 60)   24360       dropout_2[0][0]                  
__________________________________________________________________________________________________
batch_normalization_5 (BatchNor (None, 28, 28, 60)   240         conv2d_5[0][0]                   
__________________________________________________________________________________________________
activation_5 (Activation)       (None, 28, 28, 60)   0           batch_normalization_5[0][0]      
__________________________________________________________________________________________________
conv2d_6 (Conv2D)               (None, 28, 28, 60)   32460       activation_5[0][0]               
__________________________________________________________________________________________________
batch_normalization_6 (BatchNor (None, 28, 28, 60)   240         conv2d_6[0][0]                   
__________________________________________________________________________________________________
activation_6 (Activation)       (None, 28, 28, 60)   0           batch_normalization_6[0][0]      
__________________________________________________________________________________________________
concatenate_2 (Concatenate)     (None, 28, 28, 105)  0           dropout_2[0][0]                  
                                                                 activation_6[0][0]               
__________________________________________________________________________________________________
dropout_3 (Dropout)             (None, 28, 28, 105)  0           concatenate_2[0][0]              
__________________________________________________________________________________________________
conv2d_transpose_1 (Conv2DTrans (None, 56, 56, 30)   12630       dropout_3[0][0]                  
__________________________________________________________________________________________________
concatenate_3 (Concatenate)     (None, 56, 56, 75)   0           conv2d_transpose_1[0][0]         
                                                                 concatenate_1[0][0]              
__________________________________________________________________________________________________
conv2d_7 (Conv2D)               (None, 56, 56, 30)   20280       concatenate_3[0][0]              
__________________________________________________________________________________________________
batch_normalization_7 (BatchNor (None, 56, 56, 30)   120         conv2d_7[0][0]                   
__________________________________________________________________________________________________
activation_7 (Activation)       (None, 56, 56, 30)   0           batch_normalization_7[0][0]      
__________________________________________________________________________________________________
conv2d_8 (Conv2D)               (None, 56, 56, 30)   8130        activation_7[0][0]               
__________________________________________________________________________________________________
batch_normalization_8 (BatchNor (None, 56, 56, 30)   120         conv2d_8[0][0]                   
__________________________________________________________________________________________________2019-07-14 14:17:12.013461: I tensorflow/core/common_runtime/gpu/gpu_device.cc:1471] Adding visible gpu devices: 0
2019-07-14 14:17:12.013559: I tensorflow/core/common_runtime/gpu/gpu_device.cc:952] Device interconnect StreamExecutor with strength 1 edge matrix:
2019-07-14 14:17:12.013575: I tensorflow/core/common_runtime/gpu/gpu_device.cc:958]      0 
2019-07-14 14:17:12.013584: I tensorflow/core/common_runtime/gpu/gpu_device.cc:971] 0:   N 
2019-07-14 14:17:12.013942: I tensorflow/core/common_runtime/gpu/gpu_device.cc:1084] Created TensorFlow device (/job:localhost/replica:0/task:0/device:GPU:0 with 15123 MB memory) -> physical GPU (device: 0, name: Tesla P100-PCIE-16GB, pci bus id: 0000:05:00.0, compute capability: 6.0)

activation_8 (Activation)       (None, 56, 56, 30)   0           batch_normalization_8[0][0]      
__________________________________________________________________________________________________
concatenate_4 (Concatenate)     (None, 56, 56, 105)  0           concatenate_3[0][0]              
                                                                 activation_8[0][0]               
__________________________________________________________________________________________________
dropout_4 (Dropout)             (None, 56, 56, 105)  0           concatenate_4[0][0]              
__________________________________________________________________________________________________
conv2d_transpose_2 (Conv2DTrans (None, 112, 112, 15) 6315        dropout_4[0][0]                  
__________________________________________________________________________________________________
concatenate_5 (Concatenate)     (None, 112, 112, 30) 0           conv2d_transpose_2[0][0]         
                                                                 activation_2[0][0]               
__________________________________________________________________________________________________
conv2d_9 (Conv2D)               (None, 112, 112, 15) 4065        concatenate_5[0][0]              
__________________________________________________________________________________________________
batch_normalization_9 (BatchNor (None, 112, 112, 15) 60          conv2d_9[0][0]                   
__________________________________________________________________________________________________
activation_9 (Activation)       (None, 112, 112, 15) 0           batch_normalization_9[0][0]      
__________________________________________________________________________________________________
conv2d_10 (Conv2D)              (None, 112, 112, 15) 2040        activation_9[0][0]               
__________________________________________________________________________________________________
batch_normalization_10 (BatchNo (None, 112, 112, 15) 60          conv2d_10[0][0]                  
__________________________________________________________________________________________________
activation_10 (Activation)      (None, 112, 112, 15) 0           batch_normalization_10[0][0]     
__________________________________________________________________________________________________
concatenate_6 (Concatenate)     (None, 112, 112, 45) 0           concatenate_5[0][0]              
                                                                 activation_10[0][0]              
__________________________________________________________________________________________________
dropout_5 (Dropout)             (None, 112, 112, 45) 0           concatenate_6[0][0]              
__________________________________________________________________________________________________
conv2d_11 (Conv2D)              (None, 112, 112, 2)  92          dropout_5[0][0]                  
==================================================================================================
Total params: 125,972
Trainable params: 125,372
Non-trainable params: 600
__________________________________________________________________________________________________
----- /array/ssd/msmajdi/experiments/keras/exp6/models/sE8_Cascade_FM15_Res_Unet2_NL3_LS_MyLogDice_US2_SingleClass/2-AV/sd1/model_weights.h5
…
 Nucleus: [2]  | GPU: 1  | SD 1  | Dropout 0.3  | LR 0.001  | NL 3  |  Cascade |  FM 15 |  Upsample 2
Experiment: exp6
SubExperiment: sE12_Cascade_FM15_Res_Unet2_NL3_LS_MyLogDice_US2_SingleClass_ET_Init_Main_CV_a
---------------------------------------------------------------
__________________________________________________________________________________________________
Layer (type)                    Output Shape         Param #     Connected to                     
==================================================================================================
input_1 (InputLayer)            (None, 104, 104, 1)  0                                            
__________________________________________________________________________________________________
conv2d_1 (Conv2D)               (None, 104, 104, 15) 150         input_1[0][0]                    
__________________________________________________________________________________________________
batch_normalization_1 (BatchNor (None, 104, 104, 15) 60          conv2d_1[0][0]                   
__________________________________________________________________________________________________
activation_1 (Activation)       (None, 104, 104, 15) 0           batch_normalization_1[0][0]      
__________________________________________________________________________________________________
conv2d_2 (Conv2D)               (None, 104, 104, 15) 2040        activation_1[0][0]               
__________________________________________________________________________________________________
batch_normalization_2 (BatchNor (None, 104, 104, 15) 60          conv2d_2[0][0]                   
__________________________________________________________________________________________________
activation_2 (Activation)       (None, 104, 104, 15) 0           batch_normalization_2[0][0]      
__________________________________________________________________________________________________
max_pooling2d_1 (MaxPooling2D)  (None, 52, 52, 15)   0           activation_2[0][0]               
__________________________________________________________________________________________________
dropout_1 (Dropout)             (None, 52, 52, 15)   0           max_pooling2d_1[0][0]            
__________________________________________________________________________________________________
conv2d_3 (Conv2D)               (None, 52, 52, 30)   4080        dropout_1[0][0]                  
__________________________________________________________________________________________________
batch_normalization_3 (BatchNor (None, 52, 52, 30)   120         conv2d_3[0][0]                   
__________________________________________________________________________________________________
activation_3 (Activation)       (None, 52, 52, 30)   0           batch_normalization_3[0][0]      
__________________________________________________________________________________________________
conv2d_4 (Conv2D)               (None, 52, 52, 30)   8130        activation_3[0][0]               
__________________________________________________________________________________________________
batch_normalization_4 (BatchNor (None, 52, 52, 30)   120         conv2d_4[0][0]                   
__________________________________________________________________________________________________
activation_4 (Activation)       (None, 52, 52, 30)   0           batch_normalization_4[0][0]      
__________________________________________________________________________________________________
concatenate_1 (Concatenate)     (None, 52, 52, 45)   0           dropout_1[0][0]                  
                                                                 activation_4[0][0]               
__________________________________________________________________________________________________
max_pooling2d_2 (MaxPooling2D)  (None, 26, 26, 45)   0           concatenate_1[0][0]              
__________________________________________________________________________________________________
dropout_2 (Dropout)             (None, 26, 26, 45)   0           max_pooling2d_2[0][0]            
__________________________________________________________________________________________________
conv2d_5 (Conv2D)               (None, 26, 26, 60)   24360       dropout_2[0][0]                  
__________________________________________________________________________________________________
batch_normalization_5 (BatchNor (None, 26, 26, 60)   240         conv2d_5[0][0]                   
__________________________________________________________________________________________________
activation_5 (Activation)       (None, 26, 26, 60)   0           batch_normalization_5[0][0]      
__________________________________________________________________________________________________
conv2d_6 (Conv2D)               (None, 26, 26, 60)   32460       activation_5[0][0]               
__________________________________________________________________________________________________
batch_normalization_6 (BatchNor (None, 26, 26, 60)   240         conv2d_6[0][0]                   
__________________________________________________________________________________________________
activation_6 (Activation)       (None, 26, 26, 60)   0           batch_normalization_6[0][0]      
__________________________________________________________________________________________________
concatenate_2 (Concatenate)     (None, 26, 26, 105)  0           dropout_2[0][0]                  
                                                                 activation_6[0][0]               
__________________________________________________________________________________________________
dropout_3 (Dropout)             (None, 26, 26, 105)  0           concatenate_2[0][0]              
__________________________________________________________________________________________________
conv2d_transpose_1 (Conv2DTrans (None, 52, 52, 30)   12630       dropout_3[0][0]                  
__________________________________________________________________________________________________
concatenate_3 (Concatenate)     (None, 52, 52, 75)   0           conv2d_transpose_1[0][0]         
                                                                 concatenate_1[0][0]              
__________________________________________________________________________________________________
conv2d_7 (Conv2D)               (None, 52, 52, 30)   20280       concatenate_3[0][0]              
__________________________________________________________________________________________________
batch_normalization_7 (BatchNor (None, 52, 52, 30)   120         conv2d_7[0][0]                   
__________________________________________________________________________________________________
activation_7 (Activation)       (None, 52, 52, 30)   0           batch_normalization_7[0][0]      
__________________________________________________________________________________________________
conv2d_8 (Conv2D)               (None, 52, 52, 30)   8130        activation_7[0][0]               
__________________________________________________________________________________________________
batch_normalization_8 (BatchNor (None, 52, 52, 30)   120         conv2d_8[0][0]                   
__________________________________________________________________________________________________
activation_8 (Activation)       (None, 52, 52, 30)   0           batch_normalization_8[0][0]      
__________________________________________________________________________________________________
concatenate_4 (Concatenate)     (None, 52, 52, 105)  0           concatenate_3[0][0]              
                                                                 activation_8[0][0]               
__________________________________________________________________________________________________
dropout_4 (Dropout)             (None, 52, 52, 105)  0           concatenate_4[0][0]              
__________________________________________________________________________________________________
conv2d_transpose_2 (Conv2DTrans (None, 104, 104, 15) 6315        dropout_4[0][0]                  
__________________________________________________________________________________________________
concatenate_5 (Concatenate)     (None, 104, 104, 30) 0           conv2d_transpose_2[0][0]         
                                                                 activation_2[0][0]               
__________________________________________________________________________________________________
conv2d_9 (Conv2D)               (None, 104, 104, 15) 4065        concatenate_5[0][0]              
__________________________________________________________________________________________________
batch_normalization_9 (BatchNor (None, 104, 104, 15) 60          conv2d_9[0][0]                   
__________________________________________________________________________________________________
activation_9 (Activation)       (None, 104, 104, 15) 0           batch_normalization_9[0][0]      
__________________________________________________________________________________________________
conv2d_10 (Conv2D)              (None, 104, 104, 15) 2040        activation_9[0][0]               
__________________________________________________________________________________________________
batch_normalization_10 (BatchNo (None, 104, 104, 15) 60          conv2d_10[0][0]                  
__________________________________________________________________________________________________
activation_10 (Activation)      (None, 104, 104, 15) 0           batch_normalization_10[0][0]     
__________________________________________________________________________________________________
concatenate_6 (Concatenate)     (None, 104, 104, 45) 0           concatenate_5[0][0]              
                                                                 activation_10[0][0]              
__________________________________________________________________________________________________
dropout_5 (Dropout)             (None, 104, 104, 45) 0           concatenate_6[0][0]              
__________________________________________________________________________________________________
conv2d_11 (Conv2D)              (None, 104, 104, 2)  92          dropout_5[0][0]                  2019-07-14 14:49:12.299055: I tensorflow/core/common_runtime/gpu/gpu_device.cc:1471] Adding visible gpu devices: 0
2019-07-14 14:49:12.299149: I tensorflow/core/common_runtime/gpu/gpu_device.cc:952] Device interconnect StreamExecutor with strength 1 edge matrix:
2019-07-14 14:49:12.299167: I tensorflow/core/common_runtime/gpu/gpu_device.cc:958]      0 
2019-07-14 14:49:12.299177: I tensorflow/core/common_runtime/gpu/gpu_device.cc:971] 0:   N 
…
---------------------------------------------------------------
 Nucleus: [2]  | GPU: 1  | SD 1  | Dropout 0.3  | LR 0.001  | NL 3  |  Cascade |  FM 20 |  Upsample 2
Experiment: exp6
SubExperiment: sE8_Cascade_FM20_Res_Unet2_NL3_LS_MyLogDice_US2_SingleClass
---------------------------------------------------------------
__________________________________________________________________________________________________
Layer (type)                    Output Shape         Param #     Connected to                     
==================================================================================================
input_1 (InputLayer)            (None, 112, 112, 1)  0                                            
__________________________________________________________________________________________________
conv2d_1 (Conv2D)               (None, 112, 112, 20) 200         input_1[0][0]                    
__________________________________________________________________________________________________
batch_normalization_1 (BatchNor (None, 112, 112, 20) 80          conv2d_1[0][0]                   
__________________________________________________________________________________________________
activation_1 (Activation)       (None, 112, 112, 20) 0           batch_normalization_1[0][0]      
__________________________________________________________________________________________________
conv2d_2 (Conv2D)               (None, 112, 112, 20) 3620        activation_1[0][0]               
__________________________________________________________________________________________________
batch_normalization_2 (BatchNor (None, 112, 112, 20) 80          conv2d_2[0][0]                   
__________________________________________________________________________________________________
activation_2 (Activation)       (None, 112, 112, 20) 0           batch_normalization_2[0][0]      
__________________________________________________________________________________________________
max_pooling2d_1 (MaxPooling2D)  (None, 56, 56, 20)   0           activation_2[0][0]               
__________________________________________________________________________________________________
dropout_1 (Dropout)             (None, 56, 56, 20)   0           max_pooling2d_1[0][0]            
__________________________________________________________________________________________________
conv2d_3 (Conv2D)               (None, 56, 56, 40)   7240        dropout_1[0][0]                  
__________________________________________________________________________________________________
batch_normalization_3 (BatchNor (None, 56, 56, 40)   160         conv2d_3[0][0]                   
__________________________________________________________________________________________________
activation_3 (Activation)       (None, 56, 56, 40)   0           batch_normalization_3[0][0]      
__________________________________________________________________________________________________
conv2d_4 (Conv2D)               (None, 56, 56, 40)   14440       activation_3[0][0]               
__________________________________________________________________________________________________
batch_normalization_4 (BatchNor (None, 56, 56, 40)   160         conv2d_4[0][0]                   
__________________________________________________________________________________________________
activation_4 (Activation)       (None, 56, 56, 40)   0           batch_normalization_4[0][0]      
__________________________________________________________________________________________________
concatenate_1 (Concatenate)     (None, 56, 56, 60)   0           dropout_1[0][0]                  
                                                                 activation_4[0][0]               
__________________________________________________________________________________________________
max_pooling2d_2 (MaxPooling2D)  (None, 28, 28, 60)   0           concatenate_1[0][0]              
__________________________________________________________________________________________________
dropout_2 (Dropout)             (None, 28, 28, 60)   0           max_pooling2d_2[0][0]            
__________________________________________________________________________________________________
conv2d_5 (Conv2D)               (None, 28, 28, 80)   43280       dropout_2[0][0]                  
__________________________________________________________________________________________________
batch_normalization_5 (BatchNor (None, 28, 28, 80)   320         conv2d_5[0][0]                   
__________________________________________________________________________________________________
activation_5 (Activation)       (None, 28, 28, 80)   0           batch_normalization_5[0][0]      
__________________________________________________________________________________________________
conv2d_6 (Conv2D)               (None, 28, 28, 80)   57680       activation_5[0][0]               
__________________________________________________________________________________________________
batch_normalization_6 (BatchNor (None, 28, 28, 80)   320         conv2d_6[0][0]                   
__________________________________________________________________________________________________
activation_6 (Activation)       (None, 28, 28, 80)   0           batch_normalization_6[0][0]      
__________________________________________________________________________________________________
concatenate_2 (Concatenate)     (None, 28, 28, 140)  0           dropout_2[0][0]                  
                                                                 activation_6[0][0]               
__________________________________________________________________________________________________
dropout_3 (Dropout)             (None, 28, 28, 140)  0           concatenate_2[0][0]              
__________________________________________________________________________________________________
conv2d_transpose_1 (Conv2DTrans (None, 56, 56, 40)   22440       dropout_3[0][0]                  
__________________________________________________________________________________________________
concatenate_3 (Concatenate)     (None, 56, 56, 100)  0           conv2d_transpose_1[0][0]         
                                                                 concatenate_1[0][0]              
__________________________________________________________________________________________________
conv2d_7 (Conv2D)               (None, 56, 56, 40)   36040       concatenate_3[0][0]              
__________________________________________________________________________________________________
batch_normalization_7 (BatchNor (None, 56, 56, 40)   160         conv2d_7[0][0]                   
__________________________________________________________________________________________________
activation_7 (Activation)       (None, 56, 56, 40)   0           batch_normalization_7[0][0]      
__________________________________________________________________________________________________
conv2d_8 (Conv2D)               (None, 56, 56, 40)   14440       activation_7[0][0]               
__________________________________________________________________________________________________
batch_normalization_8 (BatchNor (None, 56, 56, 40)   160         conv2d_8[0][0]                   
__________________________________________________________________________________________________
activation_8 (Activation)       (None, 56, 56, 40)   0           batch_normalization_8[0][0]      
__________________________________________________________________________________________________
concatenate_4 (Concatenate)     (None, 56, 56, 140)  0           concatenate_3[0][0]              
                                                                 activation_8[0][0]               
__________________________________________________________________________________________________
dropout_4 (Dropout)             (None, 56, 56, 140)  0           concatenate_4[0][0]              
__________________________________________________________________________________________________
conv2d_transpose_2 (Conv2DTrans (None, 112, 112, 20) 11220       dropout_4[0][0]                  
__________________________________________________________________________________________________
concatenate_5 (Concatenate)     (None, 112, 112, 40) 0           conv2d_transpose_2[0][0]         
                                                                 activation_2[0][0]               
__________________________________________________________________________________________________
conv2d_9 (Conv2D)               (None, 112, 112, 20) 7220        concatenate_5[0][0]              
__________________________________________________________________________________________________
batch_normalization_9 (BatchNor (None, 112, 112, 20) 80          conv2d_9[0][0]                   
__________________________________________________________________________________________________
activation_9 (Activation)       (None, 112, 112, 20) 0           batch_normalization_9[0][0]      
__________________________________________________________________________________________________
conv2d_10 (Conv2D)              (None, 112, 112, 20) 3620        activation_9[0][0]               
__________________________________________________________________________________________________
batch_normalization_10 (BatchNo (None, 112, 112, 20) 80          conv2d_10[0][0]                  
__________________________________________________________________________________________________
activation_10 (Activation)      (None, 112, 112, 20) 0           batch_normalization_10[0][0]     
__________________________________________________________________________________________________
concatenate_6 (Concatenate)     (None, 112, 112, 60) 0           concatenate_5[0][0]              
                                                                 activation_10[0][0]              
__________________________________________________________________________________________________
dropout_5 (Dropout)             (None, 112, 112, 60) 0           concatenate_6[0][0]              
__________________________________________________________________________________________________2019-07-14 15:14:27.888360: I tensorflow/core/common_runtime/gpu/gpu_device.cc:1471] Adding visible gpu devices: 0
2019-07-14 15:14:27.888483: I tensorflow/core/common_runtime/gpu/gpu_device.cc:952] Device interconnect StreamExecutor with strength 1 edge matrix:
…
