…
---------------------------------------------------------------
 Nucleus: [4, 5, 6, 7]  | GPU: 6  | SD 2  | Dropout 0.3  | LR 0.001  | NL 5  |  HCascade |  FM 50 |  Upsample 2
Experiment: exp6
SubExperiment: sE8_HCascade_FM50_U-Net4_NL5_LS_MyBCE_US2_NEW
---------------------------------------------------------------
__________________________________________________________________________________________________
Layer (type)                    Output Shape         Param #     Connected to                     
==================================================================================================
input_1 (InputLayer)            (None, 96, 128, 1)   0                                            
__________________________________________________________________________________________________
conv2d_1 (Conv2D)               (None, 96, 128, 50)  500         input_1[0][0]                    
__________________________________________________________________________________________________
batch_normalization_1 (BatchNor (None, 96, 128, 50)  200         conv2d_1[0][0]                   
__________________________________________________________________________________________________
activation_1 (Activation)       (None, 96, 128, 50)  0           batch_normalization_1[0][0]      
__________________________________________________________________________________________________
conv2d_2 (Conv2D)               (None, 96, 128, 50)  22550       activation_1[0][0]               
__________________________________________________________________________________________________
batch_normalization_2 (BatchNor (None, 96, 128, 50)  200         conv2d_2[0][0]                   
__________________________________________________________________________________________________
activation_2 (Activation)       (None, 96, 128, 50)  0           batch_normalization_2[0][0]      
__________________________________________________________________________________________________
max_pooling2d_1 (MaxPooling2D)  (None, 48, 64, 50)   0           activation_2[0][0]               
__________________________________________________________________________________________________
dropout_1 (Dropout)             (None, 48, 64, 50)   0           max_pooling2d_1[0][0]            
__________________________________________________________________________________________________
conv2d_3 (Conv2D)               (None, 48, 64, 100)  45100       dropout_1[0][0]                  
__________________________________________________________________________________________________
batch_normalization_3 (BatchNor (None, 48, 64, 100)  400         conv2d_3[0][0]                   
__________________________________________________________________________________________________
activation_3 (Activation)       (None, 48, 64, 100)  0           batch_normalization_3[0][0]      
__________________________________________________________________________________________________
conv2d_4 (Conv2D)               (None, 48, 64, 100)  90100       activation_3[0][0]               
__________________________________________________________________________________________________
batch_normalization_4 (BatchNor (None, 48, 64, 100)  400         conv2d_4[0][0]                   
__________________________________________________________________________________________________
activation_4 (Activation)       (None, 48, 64, 100)  0           batch_normalization_4[0][0]      
__________________________________________________________________________________________________
max_pooling2d_2 (MaxPooling2D)  (None, 24, 32, 100)  0           activation_4[0][0]               
__________________________________________________________________________________________________
dropout_2 (Dropout)             (None, 24, 32, 100)  0           max_pooling2d_2[0][0]            
__________________________________________________________________________________________________
conv2d_5 (Conv2D)               (None, 24, 32, 200)  180200      dropout_2[0][0]                  
__________________________________________________________________________________________________
batch_normalization_5 (BatchNor (None, 24, 32, 200)  800         conv2d_5[0][0]                   
__________________________________________________________________________________________________
activation_5 (Activation)       (None, 24, 32, 200)  0           batch_normalization_5[0][0]      
__________________________________________________________________________________________________
conv2d_6 (Conv2D)               (None, 24, 32, 200)  360200      activation_5[0][0]               
__________________________________________________________________________________________________
batch_normalization_6 (BatchNor (None, 24, 32, 200)  800         conv2d_6[0][0]                   
__________________________________________________________________________________________________
activation_6 (Activation)       (None, 24, 32, 200)  0           batch_normalization_6[0][0]      
__________________________________________________________________________________________________
max_pooling2d_3 (MaxPooling2D)  (None, 12, 16, 200)  0           activation_6[0][0]               
__________________________________________________________________________________________________
dropout_3 (Dropout)             (None, 12, 16, 200)  0           max_pooling2d_3[0][0]            
__________________________________________________________________________________________________
conv2d_7 (Conv2D)               (None, 12, 16, 400)  720400      dropout_3[0][0]                  
__________________________________________________________________________________________________
batch_normalization_7 (BatchNor (None, 12, 16, 400)  1600        conv2d_7[0][0]                   
__________________________________________________________________________________________________
activation_7 (Activation)       (None, 12, 16, 400)  0           batch_normalization_7[0][0]      
__________________________________________________________________________________________________
conv2d_8 (Conv2D)               (None, 12, 16, 400)  1440400     activation_7[0][0]               
__________________________________________________________________________________________________
batch_normalization_8 (BatchNor (None, 12, 16, 400)  1600        conv2d_8[0][0]                   
__________________________________________________________________________________________________
activation_8 (Activation)       (None, 12, 16, 400)  0           batch_normalization_8[0][0]      
__________________________________________________________________________________________________
max_pooling2d_4 (MaxPooling2D)  (None, 6, 8, 400)    0           activation_8[0][0]               
__________________________________________________________________________________________________
dropout_4 (Dropout)             (None, 6, 8, 400)    0           max_pooling2d_4[0][0]            
__________________________________________________________________________________________________
conv2d_9 (Conv2D)               (None, 6, 8, 800)    2880800     dropout_4[0][0]                  
__________________________________________________________________________________________________
batch_normalization_9 (BatchNor (None, 6, 8, 800)    3200        conv2d_9[0][0]                   
__________________________________________________________________________________________________
activation_9 (Activation)       (None, 6, 8, 800)    0           batch_normalization_9[0][0]      
__________________________________________________________________________________________________
conv2d_10 (Conv2D)              (None, 6, 8, 800)    5760800     activation_9[0][0]               
__________________________________________________________________________________________________
batch_normalization_10 (BatchNo (None, 6, 8, 800)    3200        conv2d_10[0][0]                  
__________________________________________________________________________________________________
activation_10 (Activation)      (None, 6, 8, 800)    0           batch_normalization_10[0][0]     
__________________________________________________________________________________________________
dropout_5 (Dropout)             (None, 6, 8, 800)    0           activation_10[0][0]              
__________________________________________________________________________________________________
conv2d_transpose_1 (Conv2DTrans (None, 12, 16, 400)  1280400     dropout_5[0][0]                  
__________________________________________________________________________________________________
concatenate_1 (Concatenate)     (None, 12, 16, 800)  0           conv2d_transpose_1[0][0]         
                                                                 activation_8[0][0]               
__________________________________________________________________________________________________
conv2d_11 (Conv2D)              (None, 12, 16, 400)  2880400     concatenate_1[0][0]              
__________________________________________________________________________________________________
batch_normalization_11 (BatchNo (None, 12, 16, 400)  1600        conv2d_11[0][0]                  
__________________________________________________________________________________________________
activation_11 (Activation)      (None, 12, 16, 400)  0           batch_normalization_11[0][0]     
__________________________________________________________________________________________________
conv2d_12 (Conv2D)              (None, 12, 16, 400)  1440400     activation_11[0][0]              
__________________________________________________________________________________________________
batch_normalization_12 (BatchNo (None, 12, 16, 400)  1600        conv2d_12[0][0]                  
__________________________________________________________________________________________________
activation_12 (Activation)      (None, 12, 16, 400)  0           batch_normalization_12[0][0]     
__________________________________________________________________________________________________
dropout_6 (Dropout)             (None, 12, 16, 400)  0           activation_12[0][0]              
__________________________________________________________________________________________________
conv2d_transpose_2 (Conv2DTrans (None, 24, 32, 200)  320200      dropout_6[0][0]                  
__________________________________________________________________________________________________
concatenate_2 (Concatenate)     (None, 24, 32, 400)  0           conv2d_transpose_2[0][0]         
                                                                 activation_6[0][0]               
__________________________________________________________________________________________________
conv2d_13 (Conv2D)              (None, 24, 32, 200)  720200      concatenate_2[0][0]              
__________________________________________________________________________________________________
batch_normalization_13 (BatchNo (None, 24, 32, 200)  800         conv2d_13[0][0]                  
__________________________________________________________________________________________________
activation_13 (Activation)      (None, 24, 32, 200)  0           batch_normalization_13[0][0]     
__________________________________________________________________________________________________
conv2d_14 (Conv2D)              (None, 24, 32, 200)  360200      activation_13[0][0]              
__________________________________________________________________________________________________
batch_normalization_14 (BatchNo (None, 24, 32, 200)  800         conv2d_14[0][0]                  
__________________________________________________________________________________________________
activation_14 (Activation)      (None, 24, 32, 200)  0           batch_normalization_14[0][0]     
__________________________________________________________________________________________________
dropout_7 (Dropout)             (None, 24, 32, 200)  0           activation_14[0][0]              
__________________________________________________________________________________________________
conv2d_transpose_3 (Conv2DTrans (None, 48, 64, 100)  80100       dropout_7[0][0]                  
__________________________________________________________________________________________________
concatenate_3 (Concatenate)     (None, 48, 64, 200)  0           conv2d_transpose_3[0][0]         
                                                                 activation_4[0][0]               
__________________________________________________________________________________________________
conv2d_15 (Conv2D)              (None, 48, 64, 100)  180100      concatenate_3[0][0]              
__________________________________________________________________________________________________
batch_normalization_15 (BatchNo (None, 48, 64, 100)  400         conv2d_15[0][0]                  
__________________________________________________________________________________________________
activation_15 (Activation)      (None, 48, 64, 100)  0           batch_normalization_15[0][0]     
__________________________________________________________________________________________________
conv2d_16 (Conv2D)              (None, 48, 64, 100)  90100       activation_15[0][0]              
__________________________________________________________________________________________________
batch_normalization_16 (BatchNo (None, 48, 64, 100)  400         conv2d_16[0][0]                  
__________________________________________________________________________________________________
activation_16 (Activation)      (None, 48, 64, 100)  0           batch_normalization_16[0][0]     
__________________________________________________________________________________________________
dropout_8 (Dropout)             (None, 48, 64, 100)  0           activation_16[0][0]              
__________________________________________________________________________________________________
conv2d_transpose_4 (Conv2DTrans (None, 96, 128, 50)  20050       dropout_8[0][0]                  
__________________________________________________________________________________________________
concatenate_4 (Concatenate)     (None, 96, 128, 100) 0           conv2d_transpose_4[0][0]         
                                                                 activation_2[0][0]               
__________________________________________________________________________________________________
conv2d_17 (Conv2D)              (None, 96, 128, 50)  45050       concatenate_4[0][0]              
__________________________________________________________________________________________________
batch_normalization_17 (BatchNo (None, 96, 128, 50)  200         conv2d_17[0][0]                  
__________________________________________________________________________________________________
activation_17 (Activation)      (None, 96, 128, 50)  0           batch_normalization_17[0][0]     
__________________________________________________________________________________________________
conv2d_18 (Conv2D)              (None, 96, 128, 50)  22550       activation_17[0][0]              
__________________________________________________________________________________________________
batch_normalization_18 (BatchNo (None, 96, 128, 50)  200         conv2d_18[0][0]                  
__________________________________________________________________________________________________
activation_18 (Activation)      (None, 96, 128, 50)  0           batch_normalization_18[0][0]     
__________________________________________________________________________________________________
dropout_9 (Dropout)             (None, 96, 128, 50)  0           activation_18[0][0]              
__________________________________________________________________________________________________
conv2d_19 (Conv2D)              (None, 96, 128, 5)   255         dropout_9[0][0]                  
==================================================================================================
Total params: 18,959,455
Trainable params: 18,950,255
Non-trainable params: 9,200
__________________________________________________________________________________________________
------------------------------------------------------------------
class_weights [15.90693708 64.2547108   5.51553544 16.69896768  0.22123299]
…
---------------------------------------------------------------
 Nucleus: [4, 5, 6, 7]  | GPU: 6  | SD 1  | Dropout 0.3  | LR 0.001  | NL 5  |  HCascade |  FM 50 |  Upsample 2
Experiment: exp6
SubExperiment: sE8_HCascade_FM50_U-Net4_NL5_LS_MyBCE_US2_NEW
---------------------------------------------------------------
__________________________________________________________________________________________________
Layer (type)                    Output Shape         Param #     Connected to                     
==================================================================================================
input_1 (InputLayer)            (None, 96, 96, 1)    0                                            
__________________________________________________________________________________________________
conv2d_1 (Conv2D)               (None, 96, 96, 50)   500         input_1[0][0]                    
__________________________________________________________________________________________________
batch_normalization_1 (BatchNor (None, 96, 96, 50)   200         conv2d_1[0][0]                   
__________________________________________________________________________________________________
activation_1 (Activation)       (None, 96, 96, 50)   0           batch_normalization_1[0][0]      
__________________________________________________________________________________________________
conv2d_2 (Conv2D)               (None, 96, 96, 50)   22550       activation_1[0][0]               
__________________________________________________________________________________________________
batch_normalization_2 (BatchNor (None, 96, 96, 50)   200         conv2d_2[0][0]                   
__________________________________________________________________________________________________
activation_2 (Activation)       (None, 96, 96, 50)   0           batch_normalization_2[0][0]      
__________________________________________________________________________________________________
max_pooling2d_1 (MaxPooling2D)  (None, 48, 48, 50)   0           activation_2[0][0]               
__________________________________________________________________________________________________
dropout_1 (Dropout)             (None, 48, 48, 50)   0           max_pooling2d_1[0][0]            
__________________________________________________________________________________________________
conv2d_3 (Conv2D)               (None, 48, 48, 100)  45100       dropout_1[0][0]                  
__________________________________________________________________________________________________
batch_normalization_3 (BatchNor (None, 48, 48, 100)  400         conv2d_3[0][0]                   
__________________________________________________________________________________________________
activation_3 (Activation)       (None, 48, 48, 100)  0           batch_normalization_3[0][0]      
__________________________________________________________________________________________________
conv2d_4 (Conv2D)               (None, 48, 48, 100)  90100       activation_3[0][0]               
__________________________________________________________________________________________________
batch_normalization_4 (BatchNor (None, 48, 48, 100)  400         conv2d_4[0][0]                   
__________________________________________________________________________________________________
activation_4 (Activation)       (None, 48, 48, 100)  0           batch_normalization_4[0][0]      
__________________________________________________________________________________________________
max_pooling2d_2 (MaxPooling2D)  (None, 24, 24, 100)  0           activation_4[0][0]               
__________________________________________________________________________________________________
dropout_2 (Dropout)             (None, 24, 24, 100)  0           max_pooling2d_2[0][0]            
__________________________________________________________________________________________________
conv2d_5 (Conv2D)               (None, 24, 24, 200)  180200      dropout_2[0][0]                  
__________________________________________________________________________________________________
batch_normalization_5 (BatchNor (None, 24, 24, 200)  800         conv2d_5[0][0]                   
__________________________________________________________________________________________________
activation_5 (Activation)       (None, 24, 24, 200)  0           batch_normalization_5[0][0]      
__________________________________________________________________________________________________
conv2d_6 (Conv2D)               (None, 24, 24, 200)  360200      activation_5[0][0]               
__________________________________________________________________________________________________
batch_normalization_6 (BatchNor (None, 24, 24, 200)  800         conv2d_6[0][0]                   
__________________________________________________________________________________________________
activation_6 (Activation)       (None, 24, 24, 200)  0           batch_normalization_6[0][0]      
__________________________________________________________________________________________________
max_pooling2d_3 (MaxPooling2D)  (None, 12, 12, 200)  0           activation_6[0][0]               
__________________________________________________________________________________________________
dropout_3 (Dropout)             (None, 12, 12, 200)  0           max_pooling2d_3[0][0]            
__________________________________________________________________________________________________
conv2d_7 (Conv2D)               (None, 12, 12, 400)  720400      dropout_3[0][0]                  
__________________________________________________________________________________________________
batch_normalization_7 (BatchNor (None, 12, 12, 400)  1600        conv2d_7[0][0]                   
__________________________________________________________________________________________________
activation_7 (Activation)       (None, 12, 12, 400)  0           batch_normalization_7[0][0]      
__________________________________________________________________________________________________
conv2d_8 (Conv2D)               (None, 12, 12, 400)  1440400     activation_7[0][0]               
__________________________________________________________________________________________________
batch_normalization_8 (BatchNor (None, 12, 12, 400)  1600        conv2d_8[0][0]                   
__________________________________________________________________________________________________
activation_8 (Activation)       (None, 12, 12, 400)  0           batch_normalization_8[0][0]      
__________________________________________________________________________________________________
max_pooling2d_4 (MaxPooling2D)  (None, 6, 6, 400)    0           activation_8[0][0]               
__________________________________________________________________________________________________
dropout_4 (Dropout)             (None, 6, 6, 400)    0           max_pooling2d_4[0][0]            
__________________________________________________________________________________________________
conv2d_9 (Conv2D)               (None, 6, 6, 800)    2880800     dropout_4[0][0]                  
__________________________________________________________________________________________________
batch_normalization_9 (BatchNor (None, 6, 6, 800)    3200        conv2d_9[0][0]                   
__________________________________________________________________________________________________
activation_9 (Activation)       (None, 6, 6, 800)    0           batch_normalization_9[0][0]      
__________________________________________________________________________________________________
conv2d_10 (Conv2D)              (None, 6, 6, 800)    5760800     activation_9[0][0]               
__________________________________________________________________________________________________
batch_normalization_10 (BatchNo (None, 6, 6, 800)    3200        conv2d_10[0][0]                  
__________________________________________________________________________________________________
activation_10 (Activation)      (None, 6, 6, 800)    0           batch_normalization_10[0][0]     
__________________________________________________________________________________________________
dropout_5 (Dropout)             (None, 6, 6, 800)    0           activation_10[0][0]              
__________________________________________________________________________________________________
conv2d_transpose_1 (Conv2DTrans (None, 12, 12, 400)  1280400     dropout_5[0][0]                  
__________________________________________________________________________________________________
concatenate_1 (Concatenate)     (None, 12, 12, 800)  0           conv2d_transpose_1[0][0]         
                                                                 activation_8[0][0]               
__________________________________________________________________________________________________
conv2d_11 (Conv2D)              (None, 12, 12, 400)  2880400     concatenate_1[0][0]              
__________________________________________________________________________________________________
batch_normalization_11 (BatchNo (None, 12, 12, 400)  1600        conv2d_11[0][0]                  
__________________________________________________________________________________________________
activation_11 (Activation)      (None, 12, 12, 400)  0           batch_normalization_11[0][0]     
__________________________________________________________________________________________________
conv2d_12 (Conv2D)              (None, 12, 12, 400)  1440400     activation_11[0][0]              
__________________________________________________________________________________________________
batch_normalization_12 (BatchNo (None, 12, 12, 400)  1600        conv2d_12[0][0]                  
__________________________________________________________________________________________________
activation_12 (Activation)      (None, 12, 12, 400)  0           batch_normalization_12[0][0]     
__________________________________________________________________________________________________
dropout_6 (Dropout)             (None, 12, 12, 400)  0           activation_12[0][0]              
__________________________________________________________________________________________________
conv2d_transpose_2 (Conv2DTrans (None, 24, 24, 200)  320200      dropout_6[0][0]                  
__________________________________________________________________________________________________
concatenate_2 (Concatenate)     (None, 24, 24, 400)  0           conv2d_transpose_2[0][0]         
                                                                 activation_6[0][0]               
__________________________________________________________________________________________________
conv2d_13 (Conv2D)              (None, 24, 24, 200)  720200      concatenate_2[0][0]              
__________________________________________________________________________________________________
batch_normalization_13 (BatchNo (None, 24, 24, 200)  800         conv2d_13[0][0]                  
__________________________________________________________________________________________________
activation_13 (Activation)      (None, 24, 24, 200)  0           batch_normalization_13[0][0]     
__________________________________________________________________________________________________
conv2d_14 (Conv2D)              (None, 24, 24, 200)  360200      activation_13[0][0]              
__________________________________________________________________________________________________
batch_normalization_14 (BatchNo (None, 24, 24, 200)  800         conv2d_14[0][0]                  
__________________________________________________________________________________________________
activation_14 (Activation)      (None, 24, 24, 200)  0           batch_normalization_14[0][0]     
__________________________________________________________________________________________________
dropout_7 (Dropout)             (None, 24, 24, 200)  0           activation_14[0][0]              
__________________________________________________________________________________________________
conv2d_transpose_3 (Conv2DTrans (None, 48, 48, 100)  80100       dropout_7[0][0]                  
__________________________________________________________________________________________________
concatenate_3 (Concatenate)     (None, 48, 48, 200)  0           conv2d_transpose_3[0][0]         
                                                                 activation_4[0][0]               
__________________________________________________________________________________________________
conv2d_15 (Conv2D)              (None, 48, 48, 100)  180100      concatenate_3[0][0]              
__________________________________________________________________________________________________
batch_normalization_15 (BatchNo (None, 48, 48, 100)  400         conv2d_15[0][0]                  
__________________________________________________________________________________________________
activation_15 (Activation)      (None, 48, 48, 100)  0           batch_normalization_15[0][0]     
__________________________________________________________________________________________________
conv2d_16 (Conv2D)              (None, 48, 48, 100)  90100       activation_15[0][0]              
__________________________________________________________________________________________________
batch_normalization_16 (BatchNo (None, 48, 48, 100)  400         conv2d_16[0][0]                  
__________________________________________________________________________________________________
activation_16 (Activation)      (None, 48, 48, 100)  0           batch_normalization_16[0][0]     
__________________________________________________________________________________________________
dropout_8 (Dropout)             (None, 48, 48, 100)  0           activation_16[0][0]              
__________________________________________________________________________________________________
conv2d_transpose_4 (Conv2DTrans (None, 96, 96, 50)   20050       dropout_8[0][0]                  
__________________________________________________________________________________________________
concatenate_4 (Concatenate)     (None, 96, 96, 100)  0           conv2d_transpose_4[0][0]         
                                                                 activation_2[0][0]               
__________________________________________________________________________________________________
conv2d_17 (Conv2D)              (None, 96, 96, 50)   45050       concatenate_4[0][0]              
__________________________________________________________________________________________________
batch_normalization_17 (BatchNo (None, 96, 96, 50)   200         conv2d_17[0][0]                  
__________________________________________________________________________________________________
activation_17 (Activation)      (None, 96, 96, 50)   0           batch_normalization_17[0][0]     
__________________________________________________________________________________________________
conv2d_18 (Conv2D)              (None, 96, 96, 50)   22550       activation_17[0][0]              
__________________________________________________________________________________________________
batch_normalization_18 (BatchNo (None, 96, 96, 50)   200         conv2d_18[0][0]                  
__________________________________________________________________________________________________
activation_18 (Activation)      (None, 96, 96, 50)   0           batch_normalization_18[0][0]     
__________________________________________________________________________________________________
dropout_9 (Dropout)             (None, 96, 96, 50)   0           activation_18[0][0]              
__________________________________________________________________________________________________
conv2d_19 (Conv2D)              (None, 96, 96, 5)    255         dropout_9[0][0]                  
==================================================================================================
Total params: 18,959,455
Trainable params: 18,950,255
Non-trainable params: 9,200
__________________________________________________________________________________________________2019-06-27 00:23:39.150437: I tensorflow/core/common_runtime/gpu/gpu_device.cc:1471] Adding visible gpu devices: 0
…
{'val_loss': [… 'val_acc': [… 'val_mDice': [… 'loss': [… 'acc': [… 'mDice': [… ---------------------------------------------------------------
 Nucleus: [4, 5, 6, 7]  | GPU: 6  | SD 0  | Dropout 0.3  | LR 0.001  | NL 5  |  HCascade |  FM 50 |  Upsample 2
Experiment: exp6
SubExperiment: sE8_HCascade_FM50_U-Net4_NL5_LS_MyBCE_US2_NEW
---------------------------------------------------------------
__________________________________________________________________________________________________
Layer (type)                    Output Shape         Param #     Connected to                     
==================================================================================================
input_1 (InputLayer)            (None, 128, 96, 1)   0                                            
__________________________________________________________________________________________________
conv2d_1 (Conv2D)               (None, 128, 96, 50)  500         input_1[0][0]                    
__________________________________________________________________________________________________
batch_normalization_1 (BatchNor (None, 128, 96, 50)  200         conv2d_1[0][0]                   
__________________________________________________________________________________________________
activation_1 (Activation)       (None, 128, 96, 50)  0           batch_normalization_1[0][0]      
__________________________________________________________________________________________________
conv2d_2 (Conv2D)               (None, 128, 96, 50)  22550       activation_1[0][0]               
__________________________________________________________________________________________________
batch_normalization_2 (BatchNor (None, 128, 96, 50)  200         conv2d_2[0][0]                   
__________________________________________________________________________________________________
activation_2 (Activation)       (None, 128, 96, 50)  0           batch_normalization_2[0][0]      
__________________________________________________________________________________________________
max_pooling2d_1 (MaxPooling2D)  (None, 64, 48, 50)   0           activation_2[0][0]               
__________________________________________________________________________________________________
dropout_1 (Dropout)             (None, 64, 48, 50)   0           max_pooling2d_1[0][0]            
__________________________________________________________________________________________________
conv2d_3 (Conv2D)               (None, 64, 48, 100)  45100       dropout_1[0][0]                  
__________________________________________________________________________________________________
batch_normalization_3 (BatchNor (None, 64, 48, 100)  400         conv2d_3[0][0]                   
__________________________________________________________________________________________________
activation_3 (Activation)       (None, 64, 48, 100)  0           batch_normalization_3[0][0]      
__________________________________________________________________________________________________
conv2d_4 (Conv2D)               (None, 64, 48, 100)  90100       activation_3[0][0]               
__________________________________________________________________________________________________
batch_normalization_4 (BatchNor (None, 64, 48, 100)  400         conv2d_4[0][0]                   
__________________________________________________________________________________________________
activation_4 (Activation)       (None, 64, 48, 100)  0           batch_normalization_4[0][0]      
__________________________________________________________________________________________________
max_pooling2d_2 (MaxPooling2D)  (None, 32, 24, 100)  0           activation_4[0][0]               
__________________________________________________________________________________________________
dropout_2 (Dropout)             (None, 32, 24, 100)  0           max_pooling2d_2[0][0]            
__________________________________________________________________________________________________
conv2d_5 (Conv2D)               (None, 32, 24, 200)  180200      dropout_2[0][0]                  
__________________________________________________________________________________________________
batch_normalization_5 (BatchNor (None, 32, 24, 200)  800         conv2d_5[0][0]                   
__________________________________________________________________________________________________
activation_5 (Activation)       (None, 32, 24, 200)  0           batch_normalization_5[0][0]      
__________________________________________________________________________________________________
conv2d_6 (Conv2D)               (None, 32, 24, 200)  360200      activation_5[0][0]               
__________________________________________________________________________________________________
batch_normalization_6 (BatchNor (None, 32, 24, 200)  800         conv2d_6[0][0]                   
__________________________________________________________________________________________________
activation_6 (Activation)       (None, 32, 24, 200)  0           batch_normalization_6[0][0]      
__________________________________________________________________________________________________
max_pooling2d_3 (MaxPooling2D)  (None, 16, 12, 200)  0           activation_6[0][0]               
__________________________________________________________________________________________________
dropout_3 (Dropout)             (None, 16, 12, 200)  0           max_pooling2d_3[0][0]            
__________________________________________________________________________________________________
conv2d_7 (Conv2D)               (None, 16, 12, 400)  720400      dropout_3[0][0]                  
__________________________________________________________________________________________________
batch_normalization_7 (BatchNor (None, 16, 12, 400)  1600        conv2d_7[0][0]                   
__________________________________________________________________________________________________
activation_7 (Activation)       (None, 16, 12, 400)  0           batch_normalization_7[0][0]      
__________________________________________________________________________________________________
conv2d_8 (Conv2D)               (None, 16, 12, 400)  1440400     activation_7[0][0]               
__________________________________________________________________________________________________
batch_normalization_8 (BatchNor (None, 16, 12, 400)  1600        conv2d_8[0][0]                   
__________________________________________________________________________________________________
activation_8 (Activation)       (None, 16, 12, 400)  0           batch_normalization_8[0][0]      
__________________________________________________________________________________________________
max_pooling2d_4 (MaxPooling2D)  (None, 8, 6, 400)    0           activation_8[0][0]               
__________________________________________________________________________________________________
dropout_4 (Dropout)             (None, 8, 6, 400)    0           max_pooling2d_4[0][0]            
__________________________________________________________________________________________________
conv2d_9 (Conv2D)               (None, 8, 6, 800)    2880800     dropout_4[0][0]                  
__________________________________________________________________________________________________
batch_normalization_9 (BatchNor (None, 8, 6, 800)    3200        conv2d_9[0][0]                   
__________________________________________________________________________________________________
activation_9 (Activation)       (None, 8, 6, 800)    0           batch_normalization_9[0][0]      
__________________________________________________________________________________________________
conv2d_10 (Conv2D)              (None, 8, 6, 800)    5760800     activation_9[0][0]               
__________________________________________________________________________________________________
batch_normalization_10 (BatchNo (None, 8, 6, 800)    3200        conv2d_10[0][0]                  
__________________________________________________________________________________________________
activation_10 (Activation)      (None, 8, 6, 800)    0           batch_normalization_10[0][0]     
__________________________________________________________________________________________________
dropout_5 (Dropout)             (None, 8, 6, 800)    0           activation_10[0][0]              
__________________________________________________________________________________________________
conv2d_transpose_1 (Conv2DTrans (None, 16, 12, 400)  1280400     dropout_5[0][0]                  
__________________________________________________________________________________________________
concatenate_1 (Concatenate)     (None, 16, 12, 800)  0           conv2d_transpose_1[0][0]         
                                                                 activation_8[0][0]               
__________________________________________________________________________________________________
conv2d_11 (Conv2D)              (None, 16, 12, 400)  2880400     concatenate_1[0][0]              
__________________________________________________________________________________________________
batch_normalization_11 (BatchNo (None, 16, 12, 400)  1600        conv2d_11[0][0]                  
__________________________________________________________________________________________________
activation_11 (Activation)      (None, 16, 12, 400)  0           batch_normalization_11[0][0]     
__________________________________________________________________________________________________
conv2d_12 (Conv2D)              (None, 16, 12, 400)  1440400     activation_11[0][0]              
__________________________________________________________________________________________________
batch_normalization_12 (BatchNo (None, 16, 12, 400)  1600        conv2d_12[0][0]                  
__________________________________________________________________________________________________
activation_12 (Activation)      (None, 16, 12, 400)  0           batch_normalization_12[0][0]     
__________________________________________________________________________________________________
dropout_6 (Dropout)             (None, 16, 12, 400)  0           activation_12[0][0]              
__________________________________________________________________________________________________
conv2d_transpose_2 (Conv2DTrans (None, 32, 24, 200)  320200      dropout_6[0][0]                  
__________________________________________________________________________________________________
concatenate_2 (Concatenate)     (None, 32, 24, 400)  0           conv2d_transpose_2[0][0]         
                                                                 activation_6[0][0]               2019-06-27 02:51:28.635580: I tensorflow/core/common_runtime/gpu/gpu_device.cc:1471] Adding visible gpu devices: 0
2019-06-27 02:51:28.635685: I tensorflow/core/common_runtime/gpu/gpu_device.cc:952] Device interconnect StreamExecutor with strength 1 edge matrix:
2019-06-27 02:51:28.635700: I tensorflow/core/common_runtime/gpu/gpu_device.cc:958]      0 
2019-06-27 02:51:28.635708: I tensorflow/core/common_runtime/gpu/gpu_device.cc:971] 0:   N 
2019-06-27 02:51:28.636041: I tensorflow/core/common_runtime/gpu/gpu_device.cc:1084] Created TensorFlow device (/job:localhost/replica:0/task:0/device:GPU:0 with 12743 MB memory) -> physical GPU (device: 0, name: Tesla P100-PCIE-16GB, pci bus id: 0000:88:00.0, compute capability: 6.0)

__________________________________________________________________________________________________
conv2d_13 (Conv2D)              (None, 32, 24, 200)  720200      concatenate_2[0][0]              
__________________________________________________________________________________________________
batch_normalization_13 (BatchNo (None, 32, 24, 200)  800         conv2d_13[0][0]                  
__________________________________________________________________________________________________
activation_13 (Activation)      (None, 32, 24, 200)  0           batch_normalization_13[0][0]     
__________________________________________________________________________________________________
conv2d_14 (Conv2D)              (None, 32, 24, 200)  360200      activation_13[0][0]              
__________________________________________________________________________________________________
batch_normalization_14 (BatchNo (None, 32, 24, 200)  800         conv2d_14[0][0]                  
__________________________________________________________________________________________________
activation_14 (Activation)      (None, 32, 24, 200)  0           batch_normalization_14[0][0]     
__________________________________________________________________________________________________
dropout_7 (Dropout)             (None, 32, 24, 200)  0           activation_14[0][0]              
__________________________________________________________________________________________________
conv2d_transpose_3 (Conv2DTrans (None, 64, 48, 100)  80100       dropout_7[0][0]                  
__________________________________________________________________________________________________
concatenate_3 (Concatenate)     (None, 64, 48, 200)  0           conv2d_transpose_3[0][0]         
                                                                 activation_4[0][0]               
__________________________________________________________________________________________________
conv2d_15 (Conv2D)              (None, 64, 48, 100)  180100      concatenate_3[0][0]              
__________________________________________________________________________________________________
batch_normalization_15 (BatchNo (None, 64, 48, 100)  400         conv2d_15[0][0]                  
__________________________________________________________________________________________________
activation_15 (Activation)      (None, 64, 48, 100)  0           batch_normalization_15[0][0]     
__________________________________________________________________________________________________
conv2d_16 (Conv2D)              (None, 64, 48, 100)  90100       activation_15[0][0]              
__________________________________________________________________________________________________
batch_normalization_16 (BatchNo (None, 64, 48, 100)  400         conv2d_16[0][0]                  
__________________________________________________________________________________________________
activation_16 (Activation)      (None, 64, 48, 100)  0           batch_normalization_16[0][0]     
__________________________________________________________________________________________________
dropout_8 (Dropout)             (None, 64, 48, 100)  0           activation_16[0][0]              
__________________________________________________________________________________________________
conv2d_transpose_4 (Conv2DTrans (None, 128, 96, 50)  20050       dropout_8[0][0]                  
__________________________________________________________________________________________________
concatenate_4 (Concatenate)     (None, 128, 96, 100) 0           conv2d_transpose_4[0][0]         
                                                                 activation_2[0][0]               
__________________________________________________________________________________________________
conv2d_17 (Conv2D)              (None, 128, 96, 50)  45050       concatenate_4[0][0]              
__________________________________________________________________________________________________
batch_normalization_17 (BatchNo (None, 128, 96, 50)  200         conv2d_17[0][0]                  
__________________________________________________________________________________________________
activation_17 (Activation)      (None, 128, 96, 50)  0           batch_normalization_17[0][0]     
__________________________________________________________________________________________________
conv2d_18 (Conv2D)              (None, 128, 96, 50)  22550       activation_17[0][0]              
__________________________________________________________________________________________________
batch_normalization_18 (BatchNo (None, 128, 96, 50)  200         conv2d_18[0][0]                  
__________________________________________________________________________________________________
activation_18 (Activation)      (None, 128, 96, 50)  0           batch_normalization_18[0][0]     
__________________________________________________________________________________________________
dropout_9 (Dropout)             (None, 128, 96, 50)  0           activation_18[0][0]              
__________________________________________________________________________________________________
conv2d_19 (Conv2D)              (None, 128, 96, 5)   255         dropout_9[0][0]                  
==================================================================================================
Total params: 18,959,455
Trainable params: 18,950,255
Non-trainable params: 9,200
__________________________________________________________________________________________________
------------------------------------------------------------------
class_weights [16.3223256  65.9326372   5.65956632 17.13503904  0.22074934]
…
---------------------------------------------------------------
 Nucleus: [8, 9, 10]  | GPU: 6  | SD 2  | Dropout 0.3  | LR 0.001  | NL 5  |  HCascade |  FM 50 |  Upsample 2
Experiment: exp6
SubExperiment: sE8_HCascade_FM50_U-Net4_NL5_LS_MyBCE_US2_NEW
---------------------------------------------------------------
__________________________________________________________________________________________________
Layer (type)                    Output Shape         Param #     Connected to                     
==================================================================================================
input_1 (InputLayer)            (None, 96, 128, 1)   0                                            
__________________________________________________________________________________________________
conv2d_1 (Conv2D)               (None, 96, 128, 50)  500         input_1[0][0]                    
__________________________________________________________________________________________________
batch_normalization_1 (BatchNor (None, 96, 128, 50)  200         conv2d_1[0][0]                   
__________________________________________________________________________________________________
activation_1 (Activation)       (None, 96, 128, 50)  0           batch_normalization_1[0][0]      
__________________________________________________________________________________________________
conv2d_2 (Conv2D)               (None, 96, 128, 50)  22550       activation_1[0][0]               
__________________________________________________________________________________________________
batch_normalization_2 (BatchNor (None, 96, 128, 50)  200         conv2d_2[0][0]                   
__________________________________________________________________________________________________
activation_2 (Activation)       (None, 96, 128, 50)  0           batch_normalization_2[0][0]      
__________________________________________________________________________________________________
max_pooling2d_1 (MaxPooling2D)  (None, 48, 64, 50)   0           activation_2[0][0]               
__________________________________________________________________________________________________
dropout_1 (Dropout)             (None, 48, 64, 50)   0           max_pooling2d_1[0][0]            
__________________________________________________________________________________________________
conv2d_3 (Conv2D)               (None, 48, 64, 100)  45100       dropout_1[0][0]                  
__________________________________________________________________________________________________
batch_normalization_3 (BatchNor (None, 48, 64, 100)  400         conv2d_3[0][0]                   
__________________________________________________________________________________________________
activation_3 (Activation)       (None, 48, 64, 100)  0           batch_normalization_3[0][0]      
__________________________________________________________________________________________________
conv2d_4 (Conv2D)               (None, 48, 64, 100)  90100       activation_3[0][0]               
__________________________________________________________________________________________________
batch_normalization_4 (BatchNor (None, 48, 64, 100)  400         conv2d_4[0][0]                   
__________________________________________________________________________________________________
activation_4 (Activation)       (None, 48, 64, 100)  0           batch_normalization_4[0][0]      
__________________________________________________________________________________________________
max_pooling2d_2 (MaxPooling2D)  (None, 24, 32, 100)  0           activation_4[0][0]               
__________________________________________________________________________________________________
dropout_2 (Dropout)             (None, 24, 32, 100)  0           max_pooling2d_2[0][0]            
__________________________________________________________________________________________________
conv2d_5 (Conv2D)               (None, 24, 32, 200)  180200      dropout_2[0][0]                  
__________________________________________________________________________________________________
batch_normalization_5 (BatchNor (None, 24, 32, 200)  800         conv2d_5[0][0]                   
__________________________________________________________________________________________________
activation_5 (Activation)       (None, 24, 32, 200)  0           batch_normalization_5[0][0]      
__________________________________________________________________________________________________
conv2d_6 (Conv2D)               (None, 24, 32, 200)  360200      activation_5[0][0]               
__________________________________________________________________________________________________
batch_normalization_6 (BatchNor (None, 24, 32, 200)  800         conv2d_6[0][0]                   
__________________________________________________________________________________________________
activation_6 (Activation)       (None, 24, 32, 200)  0           batch_normalization_6[0][0]      
__________________________________________________________________________________________________
max_pooling2d_3 (MaxPooling2D)  (None, 12, 16, 200)  0           activation_6[0][0]               
__________________________________________________________________________________________________
dropout_3 (Dropout)             (None, 12, 16, 200)  0           max_pooling2d_3[0][0]            
__________________________________________________________________________________________________
conv2d_7 (Conv2D)               (None, 12, 16, 400)  720400      dropout_3[0][0]                  
__________________________________________________________________________________________________
batch_normalization_7 (BatchNor (None, 12, 16, 400)  1600        conv2d_7[0][0]                   
__________________________________________________________________________________________________
activation_7 (Activation)       (None, 12, 16, 400)  0           batch_normalization_7[0][0]      
__________________________________________________________________________________________________
conv2d_8 (Conv2D)               (None, 12, 16, 400)  1440400     activation_7[0][0]               
__________________________________________________________________________________________________
batch_normalization_8 (BatchNor (None, 12, 16, 400)  1600        conv2d_8[0][0]                   
__________________________________________________________________________________________________
activation_8 (Activation)       (None, 12, 16, 400)  0           batch_normalization_8[0][0]      
__________________________________________________________________________________________________
max_pooling2d_4 (MaxPooling2D)  (None, 6, 8, 400)    0           activation_8[0][0]               
__________________________________________________________________________________________________
dropout_4 (Dropout)             (None, 6, 8, 400)    0           max_pooling2d_4[0][0]            
__________________________________________________________________________________________________
conv2d_9 (Conv2D)               (None, 6, 8, 800)    2880800     dropout_4[0][0]                  
__________________________________________________________________________________________________
batch_normalization_9 (BatchNor (None, 6, 8, 800)    3200        conv2d_9[0][0]                   
__________________________________________________________________________________________________
activation_9 (Activation)       (None, 6, 8, 800)    0           batch_normalization_9[0][0]      
__________________________________________________________________________________________________
conv2d_10 (Conv2D)              (None, 6, 8, 800)    5760800     activation_9[0][0]               
__________________________________________________________________________________________________
batch_normalization_10 (BatchNo (None, 6, 8, 800)    3200        conv2d_10[0][0]                  
__________________________________________________________________________________________________
activation_10 (Activation)      (None, 6, 8, 800)    0           batch_normalization_10[0][0]     
__________________________________________________________________________________________________
dropout_5 (Dropout)             (None, 6, 8, 800)    0           activation_10[0][0]              
__________________________________________________________________________________________________
conv2d_transpose_1 (Conv2DTrans (None, 12, 16, 400)  1280400     dropout_5[0][0]                  
__________________________________________________________________________________________________
concatenate_1 (Concatenate)     (None, 12, 16, 800)  0           conv2d_transpose_1[0][0]         
                                                                 activation_8[0][0]               
__________________________________________________________________________________________________
conv2d_11 (Conv2D)              (None, 12, 16, 400)  2880400     concatenate_1[0][0]              
__________________________________________________________________________________________________
batch_normalization_11 (BatchNo (None, 12, 16, 400)  1600        conv2d_11[0][0]                  
__________________________________________________________________________________________________
activation_11 (Activation)      (None, 12, 16, 400)  0           batch_normalization_11[0][0]     
__________________________________________________________________________________________________
conv2d_12 (Conv2D)              (None, 12, 16, 400)  1440400     activation_11[0][0]              
__________________________________________________________________________________________________
batch_normalization_12 (BatchNo (None, 12, 16, 400)  1600        conv2d_12[0][0]                  
__________________________________________________________________________________________________
activation_12 (Activation)      (None, 12, 16, 400)  0           batch_normalization_12[0][0]     
__________________________________________________________________________________________________
dropout_6 (Dropout)             (None, 12, 16, 400)  0           activation_12[0][0]              
__________________________________________________________________________________________________
conv2d_transpose_2 (Conv2DTrans (None, 24, 32, 200)  320200      dropout_6[0][0]                  
__________________________________________________________________________________________________
concatenate_2 (Concatenate)     (None, 24, 32, 400)  0           conv2d_transpose_2[0][0]         
                                                                 activation_6[0][0]               
__________________________________________________________________________________________________
conv2d_13 (Conv2D)              (None, 24, 32, 200)  720200      concatenate_2[0][0]              
__________________________________________________________________________________________________
batch_normalization_13 (BatchNo (None, 24, 32, 200)  800         conv2d_13[0][0]                  
__________________________________________________________________________________________________
activation_13 (Activation)      (None, 24, 32, 200)  0           batch_normalization_13[0][0]     
__________________________________________________________________________________________________
conv2d_14 (Conv2D)              (None, 24, 32, 200)  360200      activation_13[0][0]              
__________________________________________________________________________________________________
batch_normalization_14 (BatchNo (None, 24, 32, 200)  800         conv2d_14[0][0]                  
__________________________________________________________________________________________________
activation_14 (Activation)      (None, 24, 32, 200)  0           batch_normalization_14[0][0]     
__________________________________________________________________________________________________
dropout_7 (Dropout)             (None, 24, 32, 200)  0           activation_14[0][0]              
__________________________________________________________________________________________________
conv2d_transpose_3 (Conv2DTrans (None, 48, 64, 100)  80100       dropout_7[0][0]                  
__________________________________________________________________________________________________
concatenate_3 (Concatenate)     (None, 48, 64, 200)  0           conv2d_transpose_3[0][0]         
                                                                 activation_4[0][0]               
__________________________________________________________________________________________________
conv2d_15 (Conv2D)              (None, 48, 64, 100)  180100      concatenate_3[0][0]              
__________________________________________________________________________________________________
batch_normalization_15 (BatchNo (None, 48, 64, 100)  400         conv2d_15[0][0]                  
__________________________________________________________________________________________________
activation_15 (Activation)      (None, 48, 64, 100)  0           batch_normalization_15[0][0]     
__________________________________________________________________________________________________
conv2d_16 (Conv2D)              (None, 48, 64, 100)  90100       activation_15[0][0]              
__________________________________________________________________________________________________
batch_normalization_16 (BatchNo (None, 48, 64, 100)  400         conv2d_16[0][0]                  
__________________________________________________________________________________________________
activation_16 (Activation)      (None, 48, 64, 100)  0           batch_normalization_16[0][0]     
__________________________________________________________________________________________________
dropout_8 (Dropout)             (None, 48, 64, 100)  0           activation_16[0][0]              
__________________________________________________________________________________________________
conv2d_transpose_4 (Conv2DTrans (None, 96, 128, 50)  20050       dropout_8[0][0]                  
__________________________________________________________________________________________________
concatenate_4 (Concatenate)     (None, 96, 128, 100) 0           conv2d_transpose_4[0][0]         
                                                                 activation_2[0][0]               
__________________________________________________________________________________________________
conv2d_17 (Conv2D)              (None, 96, 128, 50)  45050       concatenate_4[0][0]              
__________________________________________________________________________________________________
batch_normalization_17 (BatchNo (None, 96, 128, 50)  200         conv2d_17[0][0]                  
__________________________________________________________________________________________________
activation_17 (Activation)      (None, 96, 128, 50)  0           batch_normalization_17[0][0]     
__________________________________________________________________________________________________
conv2d_18 (Conv2D)              (None, 96, 128, 50)  22550       activation_17[0][0]              
__________________________________________________________________________________________________
batch_normalization_18 (BatchNo (None, 96, 128, 50)  200         conv2d_18[0][0]                  
__________________________________________________________________________________________________
activation_18 (Activation)      (None, 96, 128, 50)  0           batch_normalization_18[0][0]     
__________________________________________________________________________________________________
dropout_9 (Dropout)             (None, 96, 128, 50)  0           activation_18[0][0]              
__________________________________________________________________________________________________
conv2d_19 (Conv2D)              (None, 96, 128, 4)   204         dropout_9[0][0]                  
==================================================================================================2019-06-27 06:05:31.799133: I tensorflow/core/common_runtime/gpu/gpu_device.cc:1471] Adding visible gpu devices: 0
2019-06-27 06:05:31.799247: I tensorflow/core/common_runtime/gpu/gpu_device.cc:952] Device interconnect StreamExecutor with strength 1 edge matrix:
…
---------------------------------------------------------------
 Nucleus: [8, 9, 10]  | GPU: 6  | SD 1  | Dropout 0.3  | LR 0.001  | NL 5  |  HCascade |  FM 50 |  Upsample 2
Experiment: exp6
SubExperiment: sE8_HCascade_FM50_U-Net4_NL5_LS_MyBCE_US2_NEW
---------------------------------------------------------------
__________________________________________________________________________________________________
Layer (type)                    Output Shape         Param #     Connected to                     
==================================================================================================
input_1 (InputLayer)            (None, 128, 96, 1)   0                                            
__________________________________________________________________________________________________
conv2d_1 (Conv2D)               (None, 128, 96, 50)  500         input_1[0][0]                    
__________________________________________________________________________________________________
batch_normalization_1 (BatchNor (None, 128, 96, 50)  200         conv2d_1[0][0]                   
__________________________________________________________________________________________________
activation_1 (Activation)       (None, 128, 96, 50)  0           batch_normalization_1[0][0]      
__________________________________________________________________________________________________
conv2d_2 (Conv2D)               (None, 128, 96, 50)  22550       activation_1[0][0]               
__________________________________________________________________________________________________
batch_normalization_2 (BatchNor (None, 128, 96, 50)  200         conv2d_2[0][0]                   
__________________________________________________________________________________________________
activation_2 (Activation)       (None, 128, 96, 50)  0           batch_normalization_2[0][0]      
__________________________________________________________________________________________________
max_pooling2d_1 (MaxPooling2D)  (None, 64, 48, 50)   0           activation_2[0][0]               
__________________________________________________________________________________________________
dropout_1 (Dropout)             (None, 64, 48, 50)   0           max_pooling2d_1[0][0]            
__________________________________________________________________________________________________
conv2d_3 (Conv2D)               (None, 64, 48, 100)  45100       dropout_1[0][0]                  
__________________________________________________________________________________________________
batch_normalization_3 (BatchNor (None, 64, 48, 100)  400         conv2d_3[0][0]                   
__________________________________________________________________________________________________
activation_3 (Activation)       (None, 64, 48, 100)  0           batch_normalization_3[0][0]      
__________________________________________________________________________________________________
conv2d_4 (Conv2D)               (None, 64, 48, 100)  90100       activation_3[0][0]               
__________________________________________________________________________________________________
batch_normalization_4 (BatchNor (None, 64, 48, 100)  400         conv2d_4[0][0]                   
__________________________________________________________________________________________________
activation_4 (Activation)       (None, 64, 48, 100)  0           batch_normalization_4[0][0]      
__________________________________________________________________________________________________
max_pooling2d_2 (MaxPooling2D)  (None, 32, 24, 100)  0           activation_4[0][0]               
__________________________________________________________________________________________________
dropout_2 (Dropout)             (None, 32, 24, 100)  0           max_pooling2d_2[0][0]            
__________________________________________________________________________________________________
conv2d_5 (Conv2D)               (None, 32, 24, 200)  180200      dropout_2[0][0]                  
__________________________________________________________________________________________________
batch_normalization_5 (BatchNor (None, 32, 24, 200)  800         conv2d_5[0][0]                   
__________________________________________________________________________________________________
activation_5 (Activation)       (None, 32, 24, 200)  0           batch_normalization_5[0][0]      
__________________________________________________________________________________________________
conv2d_6 (Conv2D)               (None, 32, 24, 200)  360200      activation_5[0][0]               
__________________________________________________________________________________________________
batch_normalization_6 (BatchNor (None, 32, 24, 200)  800         conv2d_6[0][0]                   
__________________________________________________________________________________________________
activation_6 (Activation)       (None, 32, 24, 200)  0           batch_normalization_6[0][0]      
__________________________________________________________________________________________________
max_pooling2d_3 (MaxPooling2D)  (None, 16, 12, 200)  0           activation_6[0][0]               
__________________________________________________________________________________________________
dropout_3 (Dropout)             (None, 16, 12, 200)  0           max_pooling2d_3[0][0]            
__________________________________________________________________________________________________
conv2d_7 (Conv2D)               (None, 16, 12, 400)  720400      dropout_3[0][0]                  
__________________________________________________________________________________________________
batch_normalization_7 (BatchNor (None, 16, 12, 400)  1600        conv2d_7[0][0]                   
__________________________________________________________________________________________________
activation_7 (Activation)       (None, 16, 12, 400)  0           batch_normalization_7[0][0]      
__________________________________________________________________________________________________
conv2d_8 (Conv2D)               (None, 16, 12, 400)  1440400     activation_7[0][0]               
__________________________________________________________________________________________________
batch_normalization_8 (BatchNor (None, 16, 12, 400)  1600        conv2d_8[0][0]                   
__________________________________________________________________________________________________
activation_8 (Activation)       (None, 16, 12, 400)  0           batch_normalization_8[0][0]      
__________________________________________________________________________________________________
max_pooling2d_4 (MaxPooling2D)  (None, 8, 6, 400)    0           activation_8[0][0]               
__________________________________________________________________________________________________
dropout_4 (Dropout)             (None, 8, 6, 400)    0           max_pooling2d_4[0][0]            
__________________________________________________________________________________________________
conv2d_9 (Conv2D)               (None, 8, 6, 800)    2880800     dropout_4[0][0]                  
__________________________________________________________________________________________________
batch_normalization_9 (BatchNor (None, 8, 6, 800)    3200        conv2d_9[0][0]                   
__________________________________________________________________________________________________
activation_9 (Activation)       (None, 8, 6, 800)    0           batch_normalization_9[0][0]      
__________________________________________________________________________________________________
conv2d_10 (Conv2D)              (None, 8, 6, 800)    5760800     activation_9[0][0]               
__________________________________________________________________________________________________
batch_normalization_10 (BatchNo (None, 8, 6, 800)    3200        conv2d_10[0][0]                  
__________________________________________________________________________________________________
activation_10 (Activation)      (None, 8, 6, 800)    0           batch_normalization_10[0][0]     
__________________________________________________________________________________________________
dropout_5 (Dropout)             (None, 8, 6, 800)    0           activation_10[0][0]              
__________________________________________________________________________________________________
conv2d_transpose_1 (Conv2DTrans (None, 16, 12, 400)  1280400     dropout_5[0][0]                  
__________________________________________________________________________________________________
concatenate_1 (Concatenate)     (None, 16, 12, 800)  0           conv2d_transpose_1[0][0]         
                                                                 activation_8[0][0]               
__________________________________________________________________________________________________
conv2d_11 (Conv2D)              (None, 16, 12, 400)  2880400     concatenate_1[0][0]              
__________________________________________________________________________________________________
batch_normalization_11 (BatchNo (None, 16, 12, 400)  1600        conv2d_11[0][0]                  
__________________________________________________________________________________________________
activation_11 (Activation)      (None, 16, 12, 400)  0           batch_normalization_11[0][0]     
__________________________________________________________________________________________________
conv2d_12 (Conv2D)              (None, 16, 12, 400)  1440400     activation_11[0][0]              
__________________________________________________________________________________________________
batch_normalization_12 (BatchNo (None, 16, 12, 400)  1600        conv2d_12[0][0]                  
__________________________________________________________________________________________________
activation_12 (Activation)      (None, 16, 12, 400)  0           batch_normalization_12[0][0]     
__________________________________________________________________________________________________
dropout_6 (Dropout)             (None, 16, 12, 400)  0           activation_12[0][0]              
__________________________________________________________________________________________________
conv2d_transpose_2 (Conv2DTrans (None, 32, 24, 200)  320200      dropout_6[0][0]                  
__________________________________________________________________________________________________
concatenate_2 (Concatenate)     (None, 32, 24, 400)  0           conv2d_transpose_2[0][0]         
                                                                 activation_6[0][0]               
__________________________________________________________________________________________________
conv2d_13 (Conv2D)              (None, 32, 24, 200)  720200      concatenate_2[0][0]              
__________________________________________________________________________________________________
batch_normalization_13 (BatchNo (None, 32, 24, 200)  800         conv2d_13[0][0]                  
__________________________________________________________________________________________________
activation_13 (Activation)      (None, 32, 24, 200)  0           batch_normalization_13[0][0]     
__________________________________________________________________________________________________
conv2d_14 (Conv2D)              (None, 32, 24, 200)  360200      activation_13[0][0]              
__________________________________________________________________________________________________
batch_normalization_14 (BatchNo (None, 32, 24, 200)  800         conv2d_14[0][0]                  
__________________________________________________________________________________________________
activation_14 (Activation)      (None, 32, 24, 200)  0           batch_normalization_14[0][0]     
__________________________________________________________________________________________________
dropout_7 (Dropout)             (None, 32, 24, 200)  0           activation_14[0][0]              
__________________________________________________________________________________________________
conv2d_transpose_3 (Conv2DTrans (None, 64, 48, 100)  80100       dropout_7[0][0]                  
__________________________________________________________________________________________________
concatenate_3 (Concatenate)     (None, 64, 48, 200)  0           conv2d_transpose_3[0][0]         
                                                                 activation_4[0][0]               
__________________________________________________________________________________________________
conv2d_15 (Conv2D)              (None, 64, 48, 100)  180100      concatenate_3[0][0]              
__________________________________________________________________________________________________
batch_normalization_15 (BatchNo (None, 64, 48, 100)  400         conv2d_15[0][0]                  
__________________________________________________________________________________________________
activation_15 (Activation)      (None, 64, 48, 100)  0           batch_normalization_15[0][0]     
__________________________________________________________________________________________________
conv2d_16 (Conv2D)              (None, 64, 48, 100)  90100       activation_15[0][0]              
__________________________________________________________________________________________________
batch_normalization_16 (BatchNo (None, 64, 48, 100)  400         conv2d_16[0][0]                  
__________________________________________________________________________________________________
activation_16 (Activation)      (None, 64, 48, 100)  0           batch_normalization_16[0][0]     
__________________________________________________________________________________________________
dropout_8 (Dropout)             (None, 64, 48, 100)  0           activation_16[0][0]              
__________________________________________________________________________________________________
conv2d_transpose_4 (Conv2DTrans (None, 128, 96, 50)  20050       dropout_8[0][0]                  
__________________________________________________________________________________________________
concatenate_4 (Concatenate)     (None, 128, 96, 100) 0           conv2d_transpose_4[0][0]         
                                                                 activation_2[0][0]               
__________________________________________________________________________________________________
conv2d_17 (Conv2D)              (None, 128, 96, 50)  45050       concatenate_4[0][0]              
__________________________________________________________________________________________________
batch_normalization_17 (BatchNo (None, 128, 96, 50)  200         conv2d_17[0][0]                  
__________________________________________________________________________________________________
activation_17 (Activation)      (None, 128, 96, 50)  0           batch_normalization_17[0][0]     
__________________________________________________________________________________________________
conv2d_18 (Conv2D)              (None, 128, 96, 50)  22550       activation_17[0][0]              
__________________________________________________________________________________________________
batch_normalization_18 (BatchNo (None, 128, 96, 50)  200         conv2d_18[0][0]                  
__________________________________________________________________________________________________
activation_18 (Activation)      (None, 128, 96, 50)  0           batch_normalization_18[0][0]     
__________________________________________________________________________________________________
dropout_9 (Dropout)             (None, 128, 96, 50)  0           activation_18[0][0]              
__________________________________________________________________________________________________
conv2d_19 (Conv2D)              (None, 128, 96, 4)   204         dropout_9[0][0]                  
==================================================================================================
Total params: 18,959,404
Trainable params: 18,950,204
Non-trainable params: 9,200
__________________________________________________________________________________________________2019-06-27 09:56:54.458109: I tensorflow/core/common_runtime/gpu/gpu_device.cc:1471] Adding visible gpu devices: 0
…
---------------------------------------------------------------
 Nucleus: [8, 9, 10]  | GPU: 6  | SD 0  | Dropout 0.3  | LR 0.001  | NL 5  |  HCascade |  FM 50 |  Upsample 2
Experiment: exp6
SubExperiment: sE8_HCascade_FM50_U-Net4_NL5_LS_MyBCE_US2_NEW
---------------------------------------------------------------
__________________________________________________________________________________________________
Layer (type)                    Output Shape         Param #     Connected to                     
==================================================================================================
input_1 (InputLayer)            (None, 128, 128, 1)  0                                            
__________________________________________________________________________________________________
conv2d_1 (Conv2D)               (None, 128, 128, 50) 500         input_1[0][0]                    
__________________________________________________________________________________________________
batch_normalization_1 (BatchNor (None, 128, 128, 50) 200         conv2d_1[0][0]                   
__________________________________________________________________________________________________
activation_1 (Activation)       (None, 128, 128, 50) 0           batch_normalization_1[0][0]      
__________________________________________________________________________________________________
conv2d_2 (Conv2D)               (None, 128, 128, 50) 22550       activation_1[0][0]               
__________________________________________________________________________________________________
batch_normalization_2 (BatchNor (None, 128, 128, 50) 200         conv2d_2[0][0]                   
__________________________________________________________________________________________________
activation_2 (Activation)       (None, 128, 128, 50) 0           batch_normalization_2[0][0]      
__________________________________________________________________________________________________
max_pooling2d_1 (MaxPooling2D)  (None, 64, 64, 50)   0           activation_2[0][0]               
__________________________________________________________________________________________________
dropout_1 (Dropout)             (None, 64, 64, 50)   0           max_pooling2d_1[0][0]            
__________________________________________________________________________________________________
conv2d_3 (Conv2D)               (None, 64, 64, 100)  45100       dropout_1[0][0]                  
__________________________________________________________________________________________________
batch_normalization_3 (BatchNor (None, 64, 64, 100)  400         conv2d_3[0][0]                   
__________________________________________________________________________________________________
activation_3 (Activation)       (None, 64, 64, 100)  0           batch_normalization_3[0][0]      
__________________________________________________________________________________________________
conv2d_4 (Conv2D)               (None, 64, 64, 100)  90100       activation_3[0][0]               
__________________________________________________________________________________________________
batch_normalization_4 (BatchNor (None, 64, 64, 100)  400         conv2d_4[0][0]                   
__________________________________________________________________________________________________
activation_4 (Activation)       (None, 64, 64, 100)  0           batch_normalization_4[0][0]      
__________________________________________________________________________________________________
max_pooling2d_2 (MaxPooling2D)  (None, 32, 32, 100)  0           activation_4[0][0]               
__________________________________________________________________________________________________
dropout_2 (Dropout)             (None, 32, 32, 100)  0           max_pooling2d_2[0][0]            
__________________________________________________________________________________________________
conv2d_5 (Conv2D)               (None, 32, 32, 200)  180200      dropout_2[0][0]                  
__________________________________________________________________________________________________
batch_normalization_5 (BatchNor (None, 32, 32, 200)  800         conv2d_5[0][0]                   
__________________________________________________________________________________________________
activation_5 (Activation)       (None, 32, 32, 200)  0           batch_normalization_5[0][0]      
__________________________________________________________________________________________________
conv2d_6 (Conv2D)               (None, 32, 32, 200)  360200      activation_5[0][0]               
__________________________________________________________________________________________________
batch_normalization_6 (BatchNor (None, 32, 32, 200)  800         conv2d_6[0][0]                   
__________________________________________________________________________________________________
activation_6 (Activation)       (None, 32, 32, 200)  0           batch_normalization_6[0][0]      
__________________________________________________________________________________________________
max_pooling2d_3 (MaxPooling2D)  (None, 16, 16, 200)  0           activation_6[0][0]               
__________________________________________________________________________________________________
dropout_3 (Dropout)             (None, 16, 16, 200)  0           max_pooling2d_3[0][0]            
__________________________________________________________________________________________________
conv2d_7 (Conv2D)               (None, 16, 16, 400)  720400      dropout_3[0][0]                  
__________________________________________________________________________________________________
batch_normalization_7 (BatchNor (None, 16, 16, 400)  1600        conv2d_7[0][0]                   
__________________________________________________________________________________________________
activation_7 (Activation)       (None, 16, 16, 400)  0           batch_normalization_7[0][0]      
__________________________________________________________________________________________________
conv2d_8 (Conv2D)               (None, 16, 16, 400)  1440400     activation_7[0][0]               
__________________________________________________________________________________________________
batch_normalization_8 (BatchNor (None, 16, 16, 400)  1600        conv2d_8[0][0]                   
__________________________________________________________________________________________________
activation_8 (Activation)       (None, 16, 16, 400)  0           batch_normalization_8[0][0]      
__________________________________________________________________________________________________
max_pooling2d_4 (MaxPooling2D)  (None, 8, 8, 400)    0           activation_8[0][0]               
__________________________________________________________________________________________________
dropout_4 (Dropout)             (None, 8, 8, 400)    0           max_pooling2d_4[0][0]            
__________________________________________________________________________________________________
conv2d_9 (Conv2D)               (None, 8, 8, 800)    2880800     dropout_4[0][0]                  
__________________________________________________________________________________________________
batch_normalization_9 (BatchNor (None, 8, 8, 800)    3200        conv2d_9[0][0]                   
__________________________________________________________________________________________________
activation_9 (Activation)       (None, 8, 8, 800)    0           batch_normalization_9[0][0]      
__________________________________________________________________________________________________
conv2d_10 (Conv2D)              (None, 8, 8, 800)    5760800     activation_9[0][0]               
__________________________________________________________________________________________________
batch_normalization_10 (BatchNo (None, 8, 8, 800)    3200        conv2d_10[0][0]                  
__________________________________________________________________________________________________
activation_10 (Activation)      (None, 8, 8, 800)    0           batch_normalization_10[0][0]     
__________________________________________________________________________________________________
dropout_5 (Dropout)             (None, 8, 8, 800)    0           activation_10[0][0]              
__________________________________________________________________________________________________
conv2d_transpose_1 (Conv2DTrans (None, 16, 16, 400)  1280400     dropout_5[0][0]                  
__________________________________________________________________________________________________
concatenate_1 (Concatenate)     (None, 16, 16, 800)  0           conv2d_transpose_1[0][0]         
                                                                 activation_8[0][0]               
__________________________________________________________________________________________________
conv2d_11 (Conv2D)              (None, 16, 16, 400)  2880400     concatenate_1[0][0]              
__________________________________________________________________________________________________
batch_normalization_11 (BatchNo (None, 16, 16, 400)  1600        conv2d_11[0][0]                  
__________________________________________________________________________________________________
activation_11 (Activation)      (None, 16, 16, 400)  0           batch_normalization_11[0][0]     
__________________________________________________________________________________________________
conv2d_12 (Conv2D)              (None, 16, 16, 400)  1440400     activation_11[0][0]              
__________________________________________________________________________________________________
batch_normalization_12 (BatchNo (None, 16, 16, 400)  1600        conv2d_12[0][0]                  
__________________________________________________________________________________________________
activation_12 (Activation)      (None, 16, 16, 400)  0           batch_normalization_12[0][0]     
__________________________________________________________________________________________________
dropout_6 (Dropout)             (None, 16, 16, 400)  0           activation_12[0][0]              
__________________________________________________________________________________________________
conv2d_transpose_2 (Conv2DTrans (None, 32, 32, 200)  320200      dropout_6[0][0]                  
__________________________________________________________________________________________________
concatenate_2 (Concatenate)     (None, 32, 32, 400)  0           conv2d_transpose_2[0][0]         
                                                                 activation_6[0][0]               
__________________________________________________________________________________________________
conv2d_13 (Conv2D)              (None, 32, 32, 200)  720200      concatenate_2[0][0]              
__________________________________________________________________________________________________
batch_normalization_13 (BatchNo (None, 32, 32, 200)  800         conv2d_13[0][0]                  
__________________________________________________________________________________________________
activation_13 (Activation)      (None, 32, 32, 200)  0           batch_normalization_13[0][0]     
__________________________________________________________________________________________________
conv2d_14 (Conv2D)              (None, 32, 32, 200)  360200      activation_13[0][0]              
__________________________________________________________________________________________________
batch_normalization_14 (BatchNo (None, 32, 32, 200)  800         conv2d_14[0][0]                  
__________________________________________________________________________________________________
activation_14 (Activation)      (None, 32, 32, 200)  0           batch_normalization_14[0][0]     
__________________________________________________________________________________________________
dropout_7 (Dropout)             (None, 32, 32, 200)  0           activation_14[0][0]              
__________________________________________________________________________________________________
conv2d_transpose_3 (Conv2DTrans (None, 64, 64, 100)  80100       dropout_7[0][0]                  
__________________________________________________________________________________________________
concatenate_3 (Concatenate)     (None, 64, 64, 200)  0           conv2d_transpose_3[0][0]         
                                                                 activation_4[0][0]               
__________________________________________________________________________________________________
conv2d_15 (Conv2D)              (None, 64, 64, 100)  180100      concatenate_3[0][0]              
__________________________________________________________________________________________________
batch_normalization_15 (BatchNo (None, 64, 64, 100)  400         conv2d_15[0][0]                  
__________________________________________________________________________________________________
activation_15 (Activation)      (None, 64, 64, 100)  0           batch_normalization_15[0][0]     
__________________________________________________________________________________________________
conv2d_16 (Conv2D)              (None, 64, 64, 100)  90100       activation_15[0][0]              
__________________________________________________________________________________________________
batch_normalization_16 (BatchNo (None, 64, 64, 100)  400         conv2d_16[0][0]                  
__________________________________________________________________________________________________
activation_16 (Activation)      (None, 64, 64, 100)  0           batch_normalization_16[0][0]     
__________________________________________________________________________________________________
dropout_8 (Dropout)             (None, 64, 64, 100)  0           activation_16[0][0]              
__________________________________________________________________________________________________
conv2d_transpose_4 (Conv2DTrans (None, 128, 128, 50) 20050       dropout_8[0][0]                  
__________________________________________________________________________________________________
concatenate_4 (Concatenate)     (None, 128, 128, 100 0           conv2d_transpose_4[0][0]         
                                                                 activation_2[0][0]               
__________________________________________________________________________________________________
conv2d_17 (Conv2D)              (None, 128, 128, 50) 45050       concatenate_4[0][0]              
__________________________________________________________________________________________________
batch_normalization_17 (BatchNo (None, 128, 128, 50) 200         conv2d_17[0][0]                  
__________________________________________________________________________________________________
activation_17 (Activation)      (None, 128, 128, 50) 0           batch_normalization_17[0][0]     
__________________________________________________________________________________________________
conv2d_18 (Conv2D)              (None, 128, 128, 50) 22550       activation_17[0][0]              
__________________________________________________________________________________________________
batch_normalization_18 (BatchNo (None, 128, 128, 50) 200         conv2d_18[0][0]                  
__________________________________________________________________________________________________
activation_18 (Activation)      (None, 128, 128, 50) 0           batch_normalization_18[0][0]     
__________________________________________________________________________________________________
dropout_9 (Dropout)             (None, 128, 128, 50) 0           activation_18[0][0]              
__________________________________________________________________________________________________
conv2d_19 (Conv2D)              (None, 128, 128, 4)  204         dropout_9[0][0]                  
==================================================================================================
Total params: 18,959,404
Trainable params: 18,950,204
Non-trainable params: 9,200
__________________________________________________________________________________________________2019-06-27 13:32:51.440436: I tensorflow/core/common_runtime/gpu/gpu_device.cc:1471] Adding visible gpu devices: 0
…
---------------------------------------------------------------
 Nucleus: [11, 12, 13]  | GPU: 6  | SD 1  | Dropout 0.3  | LR 0.001  | NL 5  |  HCascade |  FM 50 |  Upsample 2
Experiment: exp6
SubExperiment: sE8_HCascade_FM50_U-Net4_NL5_LS_MyBCE_US2_NEW
---------------------------------------------------------------
__________________________________________________________________________________________________
Layer (type)                    Output Shape         Param #     Connected to                     
==================================================================================================
input_1 (InputLayer)            (None, 96, 96, 1)    0                                            
__________________________________________________________________________________________________
conv2d_1 (Conv2D)               (None, 96, 96, 50)   500         input_1[0][0]                    
__________________________________________________________________________________________________
batch_normalization_1 (BatchNor (None, 96, 96, 50)   200         conv2d_1[0][0]                   
__________________________________________________________________________________________________
activation_1 (Activation)       (None, 96, 96, 50)   0           batch_normalization_1[0][0]      
__________________________________________________________________________________________________
conv2d_2 (Conv2D)               (None, 96, 96, 50)   22550       activation_1[0][0]               
__________________________________________________________________________________________________
batch_normalization_2 (BatchNor (None, 96, 96, 50)   200         conv2d_2[0][0]                   
__________________________________________________________________________________________________
activation_2 (Activation)       (None, 96, 96, 50)   0           batch_normalization_2[0][0]      
__________________________________________________________________________________________________
max_pooling2d_1 (MaxPooling2D)  (None, 48, 48, 50)   0           activation_2[0][0]               
__________________________________________________________________________________________________
dropout_1 (Dropout)             (None, 48, 48, 50)   0           max_pooling2d_1[0][0]            
__________________________________________________________________________________________________
conv2d_3 (Conv2D)               (None, 48, 48, 100)  45100       dropout_1[0][0]                  
__________________________________________________________________________________________________
batch_normalization_3 (BatchNor (None, 48, 48, 100)  400         conv2d_3[0][0]                   
__________________________________________________________________________________________________
activation_3 (Activation)       (None, 48, 48, 100)  0           batch_normalization_3[0][0]      
__________________________________________________________________________________________________
conv2d_4 (Conv2D)               (None, 48, 48, 100)  90100       activation_3[0][0]               
__________________________________________________________________________________________________
batch_normalization_4 (BatchNor (None, 48, 48, 100)  400         conv2d_4[0][0]                   
__________________________________________________________________________________________________
activation_4 (Activation)       (None, 48, 48, 100)  0           batch_normalization_4[0][0]      
__________________________________________________________________________________________________
max_pooling2d_2 (MaxPooling2D)  (None, 24, 24, 100)  0           activation_4[0][0]               
__________________________________________________________________________________________________
dropout_2 (Dropout)             (None, 24, 24, 100)  0           max_pooling2d_2[0][0]            
__________________________________________________________________________________________________
conv2d_5 (Conv2D)               (None, 24, 24, 200)  180200      dropout_2[0][0]                  
__________________________________________________________________________________________________
batch_normalization_5 (BatchNor (None, 24, 24, 200)  800         conv2d_5[0][0]                   
__________________________________________________________________________________________________
activation_5 (Activation)       (None, 24, 24, 200)  0           batch_normalization_5[0][0]      
__________________________________________________________________________________________________
conv2d_6 (Conv2D)               (None, 24, 24, 200)  360200      activation_5[0][0]               
__________________________________________________________________________________________________
batch_normalization_6 (BatchNor (None, 24, 24, 200)  800         conv2d_6[0][0]                   
__________________________________________________________________________________________________
activation_6 (Activation)       (None, 24, 24, 200)  0           batch_normalization_6[0][0]      
__________________________________________________________________________________________________
max_pooling2d_3 (MaxPooling2D)  (None, 12, 12, 200)  0           activation_6[0][0]               
__________________________________________________________________________________________________
dropout_3 (Dropout)             (None, 12, 12, 200)  0           max_pooling2d_3[0][0]            
__________________________________________________________________________________________________
conv2d_7 (Conv2D)               (None, 12, 12, 400)  720400      dropout_3[0][0]                  
__________________________________________________________________________________________________
batch_normalization_7 (BatchNor (None, 12, 12, 400)  1600        conv2d_7[0][0]                   
__________________________________________________________________________________________________
activation_7 (Activation)       (None, 12, 12, 400)  0           batch_normalization_7[0][0]      
__________________________________________________________________________________________________
conv2d_8 (Conv2D)               (None, 12, 12, 400)  1440400     activation_7[0][0]               
__________________________________________________________________________________________________
batch_normalization_8 (BatchNor (None, 12, 12, 400)  1600        conv2d_8[0][0]                   
__________________________________________________________________________________________________
activation_8 (Activation)       (None, 12, 12, 400)  0           batch_normalization_8[0][0]      
__________________________________________________________________________________________________
max_pooling2d_4 (MaxPooling2D)  (None, 6, 6, 400)    0           activation_8[0][0]               
__________________________________________________________________________________________________
dropout_4 (Dropout)             (None, 6, 6, 400)    0           max_pooling2d_4[0][0]            
__________________________________________________________________________________________________
conv2d_9 (Conv2D)               (None, 6, 6, 800)    2880800     dropout_4[0][0]                  
__________________________________________________________________________________________________
batch_normalization_9 (BatchNor (None, 6, 6, 800)    3200        conv2d_9[0][0]                   
__________________________________________________________________________________________________
activation_9 (Activation)       (None, 6, 6, 800)    0           batch_normalization_9[0][0]      
__________________________________________________________________________________________________
conv2d_10 (Conv2D)              (None, 6, 6, 800)    5760800     activation_9[0][0]               
__________________________________________________________________________________________________
batch_normalization_10 (BatchNo (None, 6, 6, 800)    3200        conv2d_10[0][0]                  
__________________________________________________________________________________________________
activation_10 (Activation)      (None, 6, 6, 800)    0           batch_normalization_10[0][0]     
__________________________________________________________________________________________________
dropout_5 (Dropout)             (None, 6, 6, 800)    0           activation_10[0][0]              
__________________________________________________________________________________________________
conv2d_transpose_1 (Conv2DTrans (None, 12, 12, 400)  1280400     dropout_5[0][0]                  
__________________________________________________________________________________________________
concatenate_1 (Concatenate)     (None, 12, 12, 800)  0           conv2d_transpose_1[0][0]         
                                                                 activation_8[0][0]               
__________________________________________________________________________________________________
conv2d_11 (Conv2D)              (None, 12, 12, 400)  2880400     concatenate_1[0][0]              
__________________________________________________________________________________________________
batch_normalization_11 (BatchNo (None, 12, 12, 400)  1600        conv2d_11[0][0]                  
__________________________________________________________________________________________________
activation_11 (Activation)      (None, 12, 12, 400)  0           batch_normalization_11[0][0]     
__________________________________________________________________________________________________
conv2d_12 (Conv2D)              (None, 12, 12, 400)  1440400     activation_11[0][0]              
__________________________________________________________________________________________________
batch_normalization_12 (BatchNo (None, 12, 12, 400)  1600        conv2d_12[0][0]                  
__________________________________________________________________________________________________
activation_12 (Activation)      (None, 12, 12, 400)  0           batch_normalization_12[0][0]     
__________________________________________________________________________________________________
dropout_6 (Dropout)             (None, 12, 12, 400)  0           activation_12[0][0]              
__________________________________________________________________________________________________
conv2d_transpose_2 (Conv2DTrans (None, 24, 24, 200)  320200      dropout_6[0][0]                  
__________________________________________________________________________________________________
concatenate_2 (Concatenate)     (None, 24, 24, 400)  0           conv2d_transpose_2[0][0]         
                                                                 activation_6[0][0]               
__________________________________________________________________________________________________
conv2d_13 (Conv2D)              (None, 24, 24, 200)  720200      concatenate_2[0][0]              
__________________________________________________________________________________________________
batch_normalization_13 (BatchNo (None, 24, 24, 200)  800         conv2d_13[0][0]                  
__________________________________________________________________________________________________
activation_13 (Activation)      (None, 24, 24, 200)  0           batch_normalization_13[0][0]     
__________________________________________________________________________________________________
conv2d_14 (Conv2D)              (None, 24, 24, 200)  360200      activation_13[0][0]              
__________________________________________________________________________________________________
batch_normalization_14 (BatchNo (None, 24, 24, 200)  800         conv2d_14[0][0]                  
__________________________________________________________________________________________________
activation_14 (Activation)      (None, 24, 24, 200)  0           batch_normalization_14[0][0]     
__________________________________________________________________________________________________
dropout_7 (Dropout)             (None, 24, 24, 200)  0           activation_14[0][0]              
__________________________________________________________________________________________________
conv2d_transpose_3 (Conv2DTrans (None, 48, 48, 100)  80100       dropout_7[0][0]                  
__________________________________________________________________________________________________
concatenate_3 (Concatenate)     (None, 48, 48, 200)  0           conv2d_transpose_3[0][0]         
                                                                 activation_4[0][0]               
__________________________________________________________________________________________________
conv2d_15 (Conv2D)              (None, 48, 48, 100)  180100      concatenate_3[0][0]              
__________________________________________________________________________________________________
batch_normalization_15 (BatchNo (None, 48, 48, 100)  400         conv2d_15[0][0]                  
__________________________________________________________________________________________________
activation_15 (Activation)      (None, 48, 48, 100)  0           batch_normalization_15[0][0]     
__________________________________________________________________________________________________
conv2d_16 (Conv2D)              (None, 48, 48, 100)  90100       activation_15[0][0]              
__________________________________________________________________________________________________
batch_normalization_16 (BatchNo (None, 48, 48, 100)  400         conv2d_16[0][0]                  
__________________________________________________________________________________________________
activation_16 (Activation)      (None, 48, 48, 100)  0           batch_normalization_16[0][0]     
__________________________________________________________________________________________________
dropout_8 (Dropout)             (None, 48, 48, 100)  0           activation_16[0][0]              
__________________________________________________________________________________________________
conv2d_transpose_4 (Conv2DTrans (None, 96, 96, 50)   20050       dropout_8[0][0]                  
__________________________________________________________________________________________________
concatenate_4 (Concatenate)     (None, 96, 96, 100)  0           conv2d_transpose_4[0][0]         
                                                                 activation_2[0][0]               
__________________________________________________________________________________________________
conv2d_17 (Conv2D)              (None, 96, 96, 50)   45050       concatenate_4[0][0]              
__________________________________________________________________________________________________
batch_normalization_17 (BatchNo (None, 96, 96, 50)   200         conv2d_17[0][0]                  
__________________________________________________________________________________________________
activation_17 (Activation)      (None, 96, 96, 50)   0           batch_normalization_17[0][0]     
__________________________________________________________________________________________________
conv2d_18 (Conv2D)              (None, 96, 96, 50)   22550       activation_17[0][0]              
__________________________________________________________________________________________________
batch_normalization_18 (BatchNo (None, 96, 96, 50)   200         conv2d_18[0][0]                  
__________________________________________________________________________________________________
activation_18 (Activation)      (None, 96, 96, 50)   0           batch_normalization_18[0][0]     
__________________________________________________________________________________________________
dropout_9 (Dropout)             (None, 96, 96, 50)   0           activation_18[0][0]              
__________________________________________________________________________________________________
conv2d_19 (Conv2D)              (None, 96, 96, 4)    204         dropout_9[0][0]                  
==================================================================================================
Total params: 18,959,404
Trainable params: 18,950,204
Non-trainable params: 9,200
__________________________________________________________________________________________________2019-06-27 21:13:14.265248: I tensorflow/core/common_runtime/gpu/gpu_device.cc:1471] Adding visible gpu devices: 0
…
 Nucleus: [4, 5, 6, 7]  | GPU: 6  | SD 2  | Dropout 0.3  | LR 0.001  | NL 5  |  HCascade |  FM 50 |  Upsample 2
Experiment: exp6
SubExperiment: sE12_HCascade_FM50_U-Net4_NL5_LS_MyBCE_US2_Main_Init_3T_NEW_CV_a
---------------------------------------------------------------
__________________________________________________________________________________________________
Layer (type)                    Output Shape         Param #     Connected to                     
==================================================================================================
input_1 (InputLayer)            (None, 96, 160, 1)   0                                            
__________________________________________________________________________________________________
conv2d_1 (Conv2D)               (None, 96, 160, 50)  500         input_1[0][0]                    
__________________________________________________________________________________________________
batch_normalization_1 (BatchNor (None, 96, 160, 50)  200         conv2d_1[0][0]                   
__________________________________________________________________________________________________
activation_1 (Activation)       (None, 96, 160, 50)  0           batch_normalization_1[0][0]      
__________________________________________________________________________________________________
conv2d_2 (Conv2D)               (None, 96, 160, 50)  22550       activation_1[0][0]               
__________________________________________________________________________________________________
batch_normalization_2 (BatchNor (None, 96, 160, 50)  200         conv2d_2[0][0]                   
__________________________________________________________________________________________________
activation_2 (Activation)       (None, 96, 160, 50)  0           batch_normalization_2[0][0]      
__________________________________________________________________________________________________
max_pooling2d_1 (MaxPooling2D)  (None, 48, 80, 50)   0           activation_2[0][0]               
__________________________________________________________________________________________________
dropout_1 (Dropout)             (None, 48, 80, 50)   0           max_pooling2d_1[0][0]            
__________________________________________________________________________________________________
conv2d_3 (Conv2D)               (None, 48, 80, 100)  45100       dropout_1[0][0]                  
__________________________________________________________________________________________________
batch_normalization_3 (BatchNor (None, 48, 80, 100)  400         conv2d_3[0][0]                   
__________________________________________________________________________________________________
activation_3 (Activation)       (None, 48, 80, 100)  0           batch_normalization_3[0][0]      
__________________________________________________________________________________________________
conv2d_4 (Conv2D)               (None, 48, 80, 100)  90100       activation_3[0][0]               
__________________________________________________________________________________________________
batch_normalization_4 (BatchNor (None, 48, 80, 100)  400         conv2d_4[0][0]                   
__________________________________________________________________________________________________
activation_4 (Activation)       (None, 48, 80, 100)  0           batch_normalization_4[0][0]      
__________________________________________________________________________________________________
max_pooling2d_2 (MaxPooling2D)  (None, 24, 40, 100)  0           activation_4[0][0]               
__________________________________________________________________________________________________
dropout_2 (Dropout)             (None, 24, 40, 100)  0           max_pooling2d_2[0][0]            
__________________________________________________________________________________________________
conv2d_5 (Conv2D)               (None, 24, 40, 200)  180200      dropout_2[0][0]                  
__________________________________________________________________________________________________
batch_normalization_5 (BatchNor (None, 24, 40, 200)  800         conv2d_5[0][0]                   
__________________________________________________________________________________________________
activation_5 (Activation)       (None, 24, 40, 200)  0           batch_normalization_5[0][0]      
__________________________________________________________________________________________________
conv2d_6 (Conv2D)               (None, 24, 40, 200)  360200      activation_5[0][0]               
__________________________________________________________________________________________________
batch_normalization_6 (BatchNor (None, 24, 40, 200)  800         conv2d_6[0][0]                   
__________________________________________________________________________________________________
activation_6 (Activation)       (None, 24, 40, 200)  0           batch_normalization_6[0][0]      
__________________________________________________________________________________________________
max_pooling2d_3 (MaxPooling2D)  (None, 12, 20, 200)  0           activation_6[0][0]               
__________________________________________________________________________________________________
dropout_3 (Dropout)             (None, 12, 20, 200)  0           max_pooling2d_3[0][0]            
__________________________________________________________________________________________________
conv2d_7 (Conv2D)               (None, 12, 20, 400)  720400      dropout_3[0][0]                  
__________________________________________________________________________________________________
batch_normalization_7 (BatchNor (None, 12, 20, 400)  1600        conv2d_7[0][0]                   
__________________________________________________________________________________________________
activation_7 (Activation)       (None, 12, 20, 400)  0           batch_normalization_7[0][0]      
__________________________________________________________________________________________________
conv2d_8 (Conv2D)               (None, 12, 20, 400)  1440400     activation_7[0][0]               
__________________________________________________________________________________________________
batch_normalization_8 (BatchNor (None, 12, 20, 400)  1600        conv2d_8[0][0]                   
__________________________________________________________________________________________________
activation_8 (Activation)       (None, 12, 20, 400)  0           batch_normalization_8[0][0]      
__________________________________________________________________________________________________
max_pooling2d_4 (MaxPooling2D)  (None, 6, 10, 400)   0           activation_8[0][0]               
__________________________________________________________________________________________________
dropout_4 (Dropout)             (None, 6, 10, 400)   0           max_pooling2d_4[0][0]            
__________________________________________________________________________________________________
conv2d_9 (Conv2D)               (None, 6, 10, 800)   2880800     dropout_4[0][0]                  
__________________________________________________________________________________________________
batch_normalization_9 (BatchNor (None, 6, 10, 800)   3200        conv2d_9[0][0]                   
__________________________________________________________________________________________________
activation_9 (Activation)       (None, 6, 10, 800)   0           batch_normalization_9[0][0]      
__________________________________________________________________________________________________
conv2d_10 (Conv2D)              (None, 6, 10, 800)   5760800     activation_9[0][0]               
__________________________________________________________________________________________________
batch_normalization_10 (BatchNo (None, 6, 10, 800)   3200        conv2d_10[0][0]                  
__________________________________________________________________________________________________
activation_10 (Activation)      (None, 6, 10, 800)   0           batch_normalization_10[0][0]     
__________________________________________________________________________________________________
dropout_5 (Dropout)             (None, 6, 10, 800)   0           activation_10[0][0]              
__________________________________________________________________________________________________
conv2d_transpose_1 (Conv2DTrans (None, 12, 20, 400)  1280400     dropout_5[0][0]                  
__________________________________________________________________________________________________
concatenate_1 (Concatenate)     (None, 12, 20, 800)  0           conv2d_transpose_1[0][0]         
                                                                 activation_8[0][0]               
__________________________________________________________________________________________________
conv2d_11 (Conv2D)              (None, 12, 20, 400)  2880400     concatenate_1[0][0]              
__________________________________________________________________________________________________
batch_normalization_11 (BatchNo (None, 12, 20, 400)  1600        conv2d_11[0][0]                  
__________________________________________________________________________________________________
activation_11 (Activation)      (None, 12, 20, 400)  0           batch_normalization_11[0][0]     
__________________________________________________________________________________________________
conv2d_12 (Conv2D)              (None, 12, 20, 400)  1440400     activation_11[0][0]              
__________________________________________________________________________________________________
batch_normalization_12 (BatchNo (None, 12, 20, 400)  1600        conv2d_12[0][0]                  
__________________________________________________________________________________________________
activation_12 (Activation)      (None, 12, 20, 400)  0           batch_normalization_12[0][0]     
__________________________________________________________________________________________________
dropout_6 (Dropout)             (None, 12, 20, 400)  0           activation_12[0][0]              
__________________________________________________________________________________________________
conv2d_transpose_2 (Conv2DTrans (None, 24, 40, 200)  320200      dropout_6[0][0]                  
__________________________________________________________________________________________________
concatenate_2 (Concatenate)     (None, 24, 40, 400)  0           conv2d_transpose_2[0][0]         
                                                                 activation_6[0][0]               
__________________________________________________________________________________________________
conv2d_13 (Conv2D)              (None, 24, 40, 200)  720200      concatenate_2[0][0]              
__________________________________________________________________________________________________
batch_normalization_13 (BatchNo (None, 24, 40, 200)  800         conv2d_13[0][0]                  
__________________________________________________________________________________________________
activation_13 (Activation)      (None, 24, 40, 200)  0           batch_normalization_13[0][0]     
__________________________________________________________________________________________________
conv2d_14 (Conv2D)              (None, 24, 40, 200)  360200      activation_13[0][0]              
__________________________________________________________________________________________________
batch_normalization_14 (BatchNo (None, 24, 40, 200)  800         conv2d_14[0][0]                  
__________________________________________________________________________________________________
activation_14 (Activation)      (None, 24, 40, 200)  0           batch_normalization_14[0][0]     
__________________________________________________________________________________________________
dropout_7 (Dropout)             (None, 24, 40, 200)  0           activation_14[0][0]              
__________________________________________________________________________________________________
conv2d_transpose_3 (Conv2DTrans (None, 48, 80, 100)  80100       dropout_7[0][0]                  
__________________________________________________________________________________________________
concatenate_3 (Concatenate)     (None, 48, 80, 200)  0           conv2d_transpose_3[0][0]         
                                                                 activation_4[0][0]               
__________________________________________________________________________________________________
conv2d_15 (Conv2D)              (None, 48, 80, 100)  180100      concatenate_3[0][0]              
__________________________________________________________________________________________________
batch_normalization_15 (BatchNo (None, 48, 80, 100)  400         conv2d_15[0][0]                  
__________________________________________________________________________________________________
activation_15 (Activation)      (None, 48, 80, 100)  0           batch_normalization_15[0][0]     
__________________________________________________________________________________________________
conv2d_16 (Conv2D)              (None, 48, 80, 100)  90100       activation_15[0][0]              
__________________________________________________________________________________________________
batch_normalization_16 (BatchNo (None, 48, 80, 100)  400         conv2d_16[0][0]                  
__________________________________________________________________________________________________
activation_16 (Activation)      (None, 48, 80, 100)  0           batch_normalization_16[0][0]     
__________________________________________________________________________________________________2019-06-28 01:01:07.493346: I tensorflow/core/common_runtime/gpu/gpu_device.cc:1471] Adding visible gpu devices: 0
2019-06-28 01:01:07.493457: I tensorflow/core/common_runtime/gpu/gpu_device.cc:952] Device interconnect StreamExecutor with strength 1 edge matrix:
2019-06-28 01:01:07.493471: I tensorflow/core/common_runtime/gpu/gpu_device.cc:958]      0 
2019-06-28 01:01:07.493480: I tensorflow/core/common_runtime/gpu/gpu_device.cc:971] 0:   N 
2019-06-28 01:01:07.493843: I tensorflow/core/common_runtime/gpu/gpu_device.cc:1084] Created TensorFlow device (/job:localhost/replica:0/task:0/device:GPU:0 with 12743 MB memory) -> physical GPU (device: 0, name: Tesla P100-PCIE-16GB, pci bus id: 0000:88:00.0, compute capability: 6.0)

dropout_8 (Dropout)             (None, 48, 80, 100)  0           activation_16[0][0]              
__________________________________________________________________________________________________
conv2d_transpose_4 (Conv2DTrans (None, 96, 160, 50)  20050       dropout_8[0][0]                  
__________________________________________________________________________________________________
concatenate_4 (Concatenate)     (None, 96, 160, 100) 0           conv2d_transpose_4[0][0]         
                                                                 activation_2[0][0]               
__________________________________________________________________________________________________
conv2d_17 (Conv2D)              (None, 96, 160, 50)  45050       concatenate_4[0][0]              
__________________________________________________________________________________________________
batch_normalization_17 (BatchNo (None, 96, 160, 50)  200         conv2d_17[0][0]                  
__________________________________________________________________________________________________
activation_17 (Activation)      (None, 96, 160, 50)  0           batch_normalization_17[0][0]     
__________________________________________________________________________________________________
conv2d_18 (Conv2D)              (None, 96, 160, 50)  22550       activation_17[0][0]              
__________________________________________________________________________________________________
batch_normalization_18 (BatchNo (None, 96, 160, 50)  200         conv2d_18[0][0]                  
__________________________________________________________________________________________________
activation_18 (Activation)      (None, 96, 160, 50)  0           batch_normalization_18[0][0]     
__________________________________________________________________________________________________
dropout_9 (Dropout)             (None, 96, 160, 50)  0           activation_18[0][0]              
__________________________________________________________________________________________________
conv2d_19 (Conv2D)              (None, 96, 160, 5)   255         dropout_9[0][0]                  
==================================================================================================
Total params: 18,959,455
Trainable params: 18,950,255
Non-trainable params: 9,200
__________________________________________________________________________________________________
------------------------------------------------------------------
class_weights [18.50651422 48.58692996  6.61992355 16.26546733  0.21934335]
…
 Nucleus: [4, 5, 6, 7]  | GPU: 6  | SD 0  | Dropout 0.3  | LR 0.001  | NL 5  |  HCascade |  FM 50 |  Upsample 2
Experiment: exp6
SubExperiment: sE12_HCascade_FM50_U-Net4_NL5_LS_MyBCE_US2_Main_Init_3T_NEW_CV_a
---------------------------------------------------------------
__________________________________________________________________________________________________
Layer (type)                    Output Shape         Param #     Connected to                     
==================================================================================================
input_1 (InputLayer)            (None, 160, 96, 1)   0                                            
__________________________________________________________________________________________________
conv2d_1 (Conv2D)               (None, 160, 96, 50)  500         input_1[0][0]                    
__________________________________________________________________________________________________
batch_normalization_1 (BatchNor (None, 160, 96, 50)  200         conv2d_1[0][0]                   
__________________________________________________________________________________________________
activation_1 (Activation)       (None, 160, 96, 50)  0           batch_normalization_1[0][0]      
__________________________________________________________________________________________________
conv2d_2 (Conv2D)               (None, 160, 96, 50)  22550       activation_1[0][0]               
__________________________________________________________________________________________________
batch_normalization_2 (BatchNor (None, 160, 96, 50)  200         conv2d_2[0][0]                   
__________________________________________________________________________________________________
activation_2 (Activation)       (None, 160, 96, 50)  0           batch_normalization_2[0][0]      
__________________________________________________________________________________________________
max_pooling2d_1 (MaxPooling2D)  (None, 80, 48, 50)   0           activation_2[0][0]               
__________________________________________________________________________________________________
dropout_1 (Dropout)             (None, 80, 48, 50)   0           max_pooling2d_1[0][0]            
__________________________________________________________________________________________________
conv2d_3 (Conv2D)               (None, 80, 48, 100)  45100       dropout_1[0][0]                  
__________________________________________________________________________________________________
batch_normalization_3 (BatchNor (None, 80, 48, 100)  400         conv2d_3[0][0]                   
__________________________________________________________________________________________________
activation_3 (Activation)       (None, 80, 48, 100)  0           batch_normalization_3[0][0]      
__________________________________________________________________________________________________
conv2d_4 (Conv2D)               (None, 80, 48, 100)  90100       activation_3[0][0]               
__________________________________________________________________________________________________
batch_normalization_4 (BatchNor (None, 80, 48, 100)  400         conv2d_4[0][0]                   
__________________________________________________________________________________________________
activation_4 (Activation)       (None, 80, 48, 100)  0           batch_normalization_4[0][0]      
__________________________________________________________________________________________________
max_pooling2d_2 (MaxPooling2D)  (None, 40, 24, 100)  0           activation_4[0][0]               
__________________________________________________________________________________________________
dropout_2 (Dropout)             (None, 40, 24, 100)  0           max_pooling2d_2[0][0]            
__________________________________________________________________________________________________
conv2d_5 (Conv2D)               (None, 40, 24, 200)  180200      dropout_2[0][0]                  
__________________________________________________________________________________________________
batch_normalization_5 (BatchNor (None, 40, 24, 200)  800         conv2d_5[0][0]                   
__________________________________________________________________________________________________
activation_5 (Activation)       (None, 40, 24, 200)  0           batch_normalization_5[0][0]      
__________________________________________________________________________________________________
conv2d_6 (Conv2D)               (None, 40, 24, 200)  360200      activation_5[0][0]               
__________________________________________________________________________________________________
batch_normalization_6 (BatchNor (None, 40, 24, 200)  800         conv2d_6[0][0]                   
__________________________________________________________________________________________________
activation_6 (Activation)       (None, 40, 24, 200)  0           batch_normalization_6[0][0]      
__________________________________________________________________________________________________
max_pooling2d_3 (MaxPooling2D)  (None, 20, 12, 200)  0           activation_6[0][0]               
__________________________________________________________________________________________________
dropout_3 (Dropout)             (None, 20, 12, 200)  0           max_pooling2d_3[0][0]            
__________________________________________________________________________________________________
conv2d_7 (Conv2D)               (None, 20, 12, 400)  720400      dropout_3[0][0]                  
__________________________________________________________________________________________________
batch_normalization_7 (BatchNor (None, 20, 12, 400)  1600        conv2d_7[0][0]                   
__________________________________________________________________________________________________
activation_7 (Activation)       (None, 20, 12, 400)  0           batch_normalization_7[0][0]      
__________________________________________________________________________________________________
conv2d_8 (Conv2D)               (None, 20, 12, 400)  1440400     activation_7[0][0]               
__________________________________________________________________________________________________
batch_normalization_8 (BatchNor (None, 20, 12, 400)  1600        conv2d_8[0][0]                   
__________________________________________________________________________________________________
activation_8 (Activation)       (None, 20, 12, 400)  0           batch_normalization_8[0][0]      
__________________________________________________________________________________________________
max_pooling2d_4 (MaxPooling2D)  (None, 10, 6, 400)   0           activation_8[0][0]               
__________________________________________________________________________________________________
dropout_4 (Dropout)             (None, 10, 6, 400)   0           max_pooling2d_4[0][0]            
__________________________________________________________________________________________________
conv2d_9 (Conv2D)               (None, 10, 6, 800)   2880800     dropout_4[0][0]                  
__________________________________________________________________________________________________
batch_normalization_9 (BatchNor (None, 10, 6, 800)   3200        conv2d_9[0][0]                   
__________________________________________________________________________________________________
activation_9 (Activation)       (None, 10, 6, 800)   0           batch_normalization_9[0][0]      
__________________________________________________________________________________________________
conv2d_10 (Conv2D)              (None, 10, 6, 800)   5760800     activation_9[0][0]               
__________________________________________________________________________________________________
batch_normalization_10 (BatchNo (None, 10, 6, 800)   3200        conv2d_10[0][0]                  
__________________________________________________________________________________________________
activation_10 (Activation)      (None, 10, 6, 800)   0           batch_normalization_10[0][0]     
__________________________________________________________________________________________________
dropout_5 (Dropout)             (None, 10, 6, 800)   0           activation_10[0][0]              
__________________________________________________________________________________________________
conv2d_transpose_1 (Conv2DTrans (None, 20, 12, 400)  1280400     dropout_5[0][0]                  
__________________________________________________________________________________________________
concatenate_1 (Concatenate)     (None, 20, 12, 800)  0           conv2d_transpose_1[0][0]         
                                                                 activation_8[0][0]               
__________________________________________________________________________________________________
conv2d_11 (Conv2D)              (None, 20, 12, 400)  2880400     concatenate_1[0][0]              
__________________________________________________________________________________________________
batch_normalization_11 (BatchNo (None, 20, 12, 400)  1600        conv2d_11[0][0]                  
__________________________________________________________________________________________________
activation_11 (Activation)      (None, 20, 12, 400)  0           batch_normalization_11[0][0]     
__________________________________________________________________________________________________
conv2d_12 (Conv2D)              (None, 20, 12, 400)  1440400     activation_11[0][0]              
__________________________________________________________________________________________________
batch_normalization_12 (BatchNo (None, 20, 12, 400)  1600        conv2d_12[0][0]                  
__________________________________________________________________________________________________
activation_12 (Activation)      (None, 20, 12, 400)  0           batch_normalization_12[0][0]     
__________________________________________________________________________________________________
dropout_6 (Dropout)             (None, 20, 12, 400)  0           activation_12[0][0]              
__________________________________________________________________________________________________
conv2d_transpose_2 (Conv2DTrans (None, 40, 24, 200)  320200      dropout_6[0][0]                  
__________________________________________________________________________________________________
concatenate_2 (Concatenate)     (None, 40, 24, 400)  0           conv2d_transpose_2[0][0]         
                                                                 activation_6[0][0]               
__________________________________________________________________________________________________
conv2d_13 (Conv2D)              (None, 40, 24, 200)  720200      concatenate_2[0][0]              
__________________________________________________________________________________________________
batch_normalization_13 (BatchNo (None, 40, 24, 200)  800         conv2d_13[0][0]                  
__________________________________________________________________________________________________
activation_13 (Activation)      (None, 40, 24, 200)  0           batch_normalization_13[0][0]     
__________________________________________________________________________________________________
conv2d_14 (Conv2D)              (None, 40, 24, 200)  360200      activation_13[0][0]              
__________________________________________________________________________________________________
batch_normalization_14 (BatchNo (None, 40, 24, 200)  800         conv2d_14[0][0]                  
__________________________________________________________________________________________________
activation_14 (Activation)      (None, 40, 24, 200)  0           batch_normalization_14[0][0]     
__________________________________________________________________________________________________
dropout_7 (Dropout)             (None, 40, 24, 200)  0           activation_14[0][0]              
__________________________________________________________________________________________________
conv2d_transpose_3 (Conv2DTrans (None, 80, 48, 100)  80100       dropout_7[0][0]                  
__________________________________________________________________________________________________
concatenate_3 (Concatenate)     (None, 80, 48, 200)  0           conv2d_transpose_3[0][0]         
                                                                 activation_4[0][0]               
__________________________________________________________________________________________________
conv2d_15 (Conv2D)              (None, 80, 48, 100)  180100      concatenate_3[0][0]              
__________________________________________________________________________________________________
batch_normalization_15 (BatchNo (None, 80, 48, 100)  400         conv2d_15[0][0]                  
__________________________________________________________________________________________________
activation_15 (Activation)      (None, 80, 48, 100)  0           batch_normalization_15[0][0]     
__________________________________________________________________________________________________
conv2d_16 (Conv2D)              (None, 80, 48, 100)  90100       activation_15[0][0]              
__________________________________________________________________________________________________
batch_normalization_16 (BatchNo (None, 80, 48, 100)  400         conv2d_16[0][0]                  
__________________________________________________________________________________________________
activation_16 (Activation)      (None, 80, 48, 100)  0           batch_normalization_16[0][0]     
__________________________________________________________________________________________________
dropout_8 (Dropout)             (None, 80, 48, 100)  0           activation_16[0][0]              
__________________________________________________________________________________________________
conv2d_transpose_4 (Conv2DTrans (None, 160, 96, 50)  20050       dropout_8[0][0]                  
__________________________________________________________________________________________________
concatenate_4 (Concatenate)     (None, 160, 96, 100) 0           conv2d_transpose_4[0][0]         
                                                                 activation_2[0][0]               
__________________________________________________________________________________________________
conv2d_17 (Conv2D)              (None, 160, 96, 50)  45050       concatenate_4[0][0]              
__________________________________________________________________________________________________
batch_normalization_17 (BatchNo (None, 160, 96, 50)  200         conv2d_17[0][0]                  
__________________________________________________________________________________________________
activation_17 (Activation)      (None, 160, 96, 50)  0           batch_normalization_17[0][0]     
__________________________________________________________________________________________________
conv2d_18 (Conv2D)              (None, 160, 96, 50)  22550       activation_17[0][0]              
__________________________________________________________________________________________________
batch_normalization_18 (BatchNo (None, 160, 96, 50)  200         conv2d_18[0][0]                  
__________________________________________________________________________________________________
activation_18 (Activation)      (None, 160, 96, 50)  0           batch_normalization_18[0][0]     
__________________________________________________________________________________________________
dropout_9 (Dropout)             (None, 160, 96, 50)  0           activation_18[0][0]              
__________________________________________________________________________________________________
conv2d_19 (Conv2D)              (None, 160, 96, 5)   255         dropout_9[0][0]                  
==================================================================================================
Total params: 18,959,455
Trainable params: 18,950,255
Non-trainable params: 9,200
__________________________________________________________________________________________________2019-06-28 06:56:01.834972: I tensorflow/core/common_runtime/gpu/gpu_device.cc:1471] Adding visible gpu devices: 0
…
 Nucleus: [8, 9, 10]  | GPU: 6  | SD 0  | Dropout 0.3  | LR 0.001  | NL 5  |  HCascade |  FM 50 |  Upsample 2
Experiment: exp6
SubExperiment: sE12_HCascade_FM50_U-Net4_NL5_LS_MyBCE_US2_Main_Init_3T_NEW_CV_a
---------------------------------------------------------------
__________________________________________________________________________________________________
Layer (type)                    Output Shape         Param #     Connected to                     
==================================================================================================
input_1 (InputLayer)            (None, 128, 128, 1)  0                                            
__________________________________________________________________________________________________
conv2d_1 (Conv2D)               (None, 128, 128, 50) 500         input_1[0][0]                    
__________________________________________________________________________________________________
batch_normalization_1 (BatchNor (None, 128, 128, 50) 200         conv2d_1[0][0]                   
__________________________________________________________________________________________________
activation_1 (Activation)       (None, 128, 128, 50) 0           batch_normalization_1[0][0]      
__________________________________________________________________________________________________
conv2d_2 (Conv2D)               (None, 128, 128, 50) 22550       activation_1[0][0]               
__________________________________________________________________________________________________
batch_normalization_2 (BatchNor (None, 128, 128, 50) 200         conv2d_2[0][0]                   
__________________________________________________________________________________________________
activation_2 (Activation)       (None, 128, 128, 50) 0           batch_normalization_2[0][0]      
__________________________________________________________________________________________________
max_pooling2d_1 (MaxPooling2D)  (None, 64, 64, 50)   0           activation_2[0][0]               
__________________________________________________________________________________________________
dropout_1 (Dropout)             (None, 64, 64, 50)   0           max_pooling2d_1[0][0]            
__________________________________________________________________________________________________
conv2d_3 (Conv2D)               (None, 64, 64, 100)  45100       dropout_1[0][0]                  
__________________________________________________________________________________________________
batch_normalization_3 (BatchNor (None, 64, 64, 100)  400         conv2d_3[0][0]                   
__________________________________________________________________________________________________
activation_3 (Activation)       (None, 64, 64, 100)  0           batch_normalization_3[0][0]      
__________________________________________________________________________________________________
conv2d_4 (Conv2D)               (None, 64, 64, 100)  90100       activation_3[0][0]               
__________________________________________________________________________________________________
batch_normalization_4 (BatchNor (None, 64, 64, 100)  400         conv2d_4[0][0]                   
__________________________________________________________________________________________________
activation_4 (Activation)       (None, 64, 64, 100)  0           batch_normalization_4[0][0]      
__________________________________________________________________________________________________
max_pooling2d_2 (MaxPooling2D)  (None, 32, 32, 100)  0           activation_4[0][0]               
__________________________________________________________________________________________________
dropout_2 (Dropout)             (None, 32, 32, 100)  0           max_pooling2d_2[0][0]            
__________________________________________________________________________________________________
conv2d_5 (Conv2D)               (None, 32, 32, 200)  180200      dropout_2[0][0]                  
__________________________________________________________________________________________________
batch_normalization_5 (BatchNor (None, 32, 32, 200)  800         conv2d_5[0][0]                   
__________________________________________________________________________________________________
activation_5 (Activation)       (None, 32, 32, 200)  0           batch_normalization_5[0][0]      
__________________________________________________________________________________________________
conv2d_6 (Conv2D)               (None, 32, 32, 200)  360200      activation_5[0][0]               
__________________________________________________________________________________________________
batch_normalization_6 (BatchNor (None, 32, 32, 200)  800         conv2d_6[0][0]                   
__________________________________________________________________________________________________
activation_6 (Activation)       (None, 32, 32, 200)  0           batch_normalization_6[0][0]      
__________________________________________________________________________________________________
max_pooling2d_3 (MaxPooling2D)  (None, 16, 16, 200)  0           activation_6[0][0]               
__________________________________________________________________________________________________
dropout_3 (Dropout)             (None, 16, 16, 200)  0           max_pooling2d_3[0][0]            
__________________________________________________________________________________________________
conv2d_7 (Conv2D)               (None, 16, 16, 400)  720400      dropout_3[0][0]                  
__________________________________________________________________________________________________
batch_normalization_7 (BatchNor (None, 16, 16, 400)  1600        conv2d_7[0][0]                   
__________________________________________________________________________________________________
activation_7 (Activation)       (None, 16, 16, 400)  0           batch_normalization_7[0][0]      
__________________________________________________________________________________________________
conv2d_8 (Conv2D)               (None, 16, 16, 400)  1440400     activation_7[0][0]               
__________________________________________________________________________________________________
batch_normalization_8 (BatchNor (None, 16, 16, 400)  1600        conv2d_8[0][0]                   
__________________________________________________________________________________________________
activation_8 (Activation)       (None, 16, 16, 400)  0           batch_normalization_8[0][0]      
__________________________________________________________________________________________________
max_pooling2d_4 (MaxPooling2D)  (None, 8, 8, 400)    0           activation_8[0][0]               
__________________________________________________________________________________________________
dropout_4 (Dropout)             (None, 8, 8, 400)    0           max_pooling2d_4[0][0]            
__________________________________________________________________________________________________
conv2d_9 (Conv2D)               (None, 8, 8, 800)    2880800     dropout_4[0][0]                  
__________________________________________________________________________________________________
batch_normalization_9 (BatchNor (None, 8, 8, 800)    3200        conv2d_9[0][0]                   
__________________________________________________________________________________________________
activation_9 (Activation)       (None, 8, 8, 800)    0           batch_normalization_9[0][0]      
__________________________________________________________________________________________________
conv2d_10 (Conv2D)              (None, 8, 8, 800)    5760800     activation_9[0][0]               
__________________________________________________________________________________________________
batch_normalization_10 (BatchNo (None, 8, 8, 800)    3200        conv2d_10[0][0]                  
__________________________________________________________________________________________________
activation_10 (Activation)      (None, 8, 8, 800)    0           batch_normalization_10[0][0]     
__________________________________________________________________________________________________
dropout_5 (Dropout)             (None, 8, 8, 800)    0           activation_10[0][0]              
__________________________________________________________________________________________________
conv2d_transpose_1 (Conv2DTrans (None, 16, 16, 400)  1280400     dropout_5[0][0]                  
__________________________________________________________________________________________________
concatenate_1 (Concatenate)     (None, 16, 16, 800)  0           conv2d_transpose_1[0][0]         
                                                                 activation_8[0][0]               
__________________________________________________________________________________________________
conv2d_11 (Conv2D)              (None, 16, 16, 400)  2880400     concatenate_1[0][0]              
__________________________________________________________________________________________________
batch_normalization_11 (BatchNo (None, 16, 16, 400)  1600        conv2d_11[0][0]                  
__________________________________________________________________________________________________
activation_11 (Activation)      (None, 16, 16, 400)  0           batch_normalization_11[0][0]     
__________________________________________________________________________________________________
conv2d_12 (Conv2D)              (None, 16, 16, 400)  1440400     activation_11[0][0]              
__________________________________________________________________________________________________
batch_normalization_12 (BatchNo (None, 16, 16, 400)  1600        conv2d_12[0][0]                  
__________________________________________________________________________________________________
activation_12 (Activation)      (None, 16, 16, 400)  0           batch_normalization_12[0][0]     
__________________________________________________________________________________________________
dropout_6 (Dropout)             (None, 16, 16, 400)  0           activation_12[0][0]              2019-06-28 12:24:00.044980: I tensorflow/core/common_runtime/gpu/gpu_device.cc:1471] Adding visible gpu devices: 0
2019-06-28 12:24:00.045082: I tensorflow/core/common_runtime/gpu/gpu_device.cc:952] Device interconnect StreamExecutor with strength 1 edge matrix:
2019-06-28 12:24:00.045095: I tensorflow/core/common_runtime/gpu/gpu_device.cc:958]      0 
2019-06-28 12:24:00.045103: I tensorflow/core/common_runtime/gpu/gpu_device.cc:971] 0:   N 
2019-06-28 12:24:00.045449: I tensorflow/core/common_runtime/gpu/gpu_device.cc:1084] Created TensorFlow device (/job:localhost/replica:0/task:0/device:GPU:0 with 12743 MB memory) -> physical GPU (device: 0, name: Tesla P100-PCIE-16GB, pci bus id: 0000:88:00.0, compute capability: 6.0)

__________________________________________________________________________________________________
conv2d_transpose_2 (Conv2DTrans (None, 32, 32, 200)  320200      dropout_6[0][0]                  
__________________________________________________________________________________________________
concatenate_2 (Concatenate)     (None, 32, 32, 400)  0           conv2d_transpose_2[0][0]         
                                                                 activation_6[0][0]               
__________________________________________________________________________________________________
conv2d_13 (Conv2D)              (None, 32, 32, 200)  720200      concatenate_2[0][0]              
__________________________________________________________________________________________________
batch_normalization_13 (BatchNo (None, 32, 32, 200)  800         conv2d_13[0][0]                  
__________________________________________________________________________________________________
activation_13 (Activation)      (None, 32, 32, 200)  0           batch_normalization_13[0][0]     
__________________________________________________________________________________________________
conv2d_14 (Conv2D)              (None, 32, 32, 200)  360200      activation_13[0][0]              
__________________________________________________________________________________________________
batch_normalization_14 (BatchNo (None, 32, 32, 200)  800         conv2d_14[0][0]                  
__________________________________________________________________________________________________
activation_14 (Activation)      (None, 32, 32, 200)  0           batch_normalization_14[0][0]     
__________________________________________________________________________________________________
dropout_7 (Dropout)             (None, 32, 32, 200)  0           activation_14[0][0]              
__________________________________________________________________________________________________
conv2d_transpose_3 (Conv2DTrans (None, 64, 64, 100)  80100       dropout_7[0][0]                  
__________________________________________________________________________________________________
concatenate_3 (Concatenate)     (None, 64, 64, 200)  0           conv2d_transpose_3[0][0]         
                                                                 activation_4[0][0]               
__________________________________________________________________________________________________
conv2d_15 (Conv2D)              (None, 64, 64, 100)  180100      concatenate_3[0][0]              
__________________________________________________________________________________________________
batch_normalization_15 (BatchNo (None, 64, 64, 100)  400         conv2d_15[0][0]                  
__________________________________________________________________________________________________
activation_15 (Activation)      (None, 64, 64, 100)  0           batch_normalization_15[0][0]     
__________________________________________________________________________________________________
conv2d_16 (Conv2D)              (None, 64, 64, 100)  90100       activation_15[0][0]              
__________________________________________________________________________________________________
batch_normalization_16 (BatchNo (None, 64, 64, 100)  400         conv2d_16[0][0]                  
__________________________________________________________________________________________________
activation_16 (Activation)      (None, 64, 64, 100)  0           batch_normalization_16[0][0]     
__________________________________________________________________________________________________
dropout_8 (Dropout)             (None, 64, 64, 100)  0           activation_16[0][0]              
__________________________________________________________________________________________________
conv2d_transpose_4 (Conv2DTrans (None, 128, 128, 50) 20050       dropout_8[0][0]                  
__________________________________________________________________________________________________
concatenate_4 (Concatenate)     (None, 128, 128, 100 0           conv2d_transpose_4[0][0]         
                                                                 activation_2[0][0]               
__________________________________________________________________________________________________
conv2d_17 (Conv2D)              (None, 128, 128, 50) 45050       concatenate_4[0][0]              
__________________________________________________________________________________________________
batch_normalization_17 (BatchNo (None, 128, 128, 50) 200         conv2d_17[0][0]                  
__________________________________________________________________________________________________
activation_17 (Activation)      (None, 128, 128, 50) 0           batch_normalization_17[0][0]     
__________________________________________________________________________________________________
conv2d_18 (Conv2D)              (None, 128, 128, 50) 22550       activation_17[0][0]              
__________________________________________________________________________________________________
batch_normalization_18 (BatchNo (None, 128, 128, 50) 200         conv2d_18[0][0]                  
__________________________________________________________________________________________________
activation_18 (Activation)      (None, 128, 128, 50) 0           batch_normalization_18[0][0]     
__________________________________________________________________________________________________
dropout_9 (Dropout)             (None, 128, 128, 50) 0           activation_18[0][0]              
__________________________________________________________________________________________________
conv2d_19 (Conv2D)              (None, 128, 128, 4)  204         dropout_9[0][0]                  
==================================================================================================
Total params: 18,959,404
Trainable params: 18,950,204
Non-trainable params: 9,200
__________________________________________________________________________________________________
------------------------------------------------------------------
class_weights [  5.76226636  71.28080205 103.25650201   0.27042278]
…
