…
---------------------------------------------------------------
 Nucleus: [1]  | GPU: 6  | SD 2  | Dropout 0.3  | LR 0.001  | NL 3  |  Cascade |  FM 10 |  Upsample 1
Experiment: exp7
SubExperiment: sE8_Cascade_FM10_Res_Unet_NL3_LS_MyBCE_US1
---------------------------------------------------------------
__________________________________________________________________________________________________
Layer (type)                    Output Shape         Param #     Connected to                     
==================================================================================================
input_1 (InputLayer)            (None, 112, 148, 1)  0                                            
__________________________________________________________________________________________________
conv2d_1 (Conv2D)               (None, 112, 148, 40) 400         input_1[0][0]                    
__________________________________________________________________________________________________
batch_normalization_1 (BatchNor (None, 112, 148, 40) 160         conv2d_1[0][0]                   
__________________________________________________________________________________________________
activation_1 (Activation)       (None, 112, 148, 40) 0           batch_normalization_1[0][0]      
__________________________________________________________________________________________________
dropout_1 (Dropout)             (None, 112, 148, 40) 0           activation_1[0][0]               
__________________________________________________________________________________________________
conv2d_2 (Conv2D)               (None, 112, 148, 40) 14440       dropout_1[0][0]                  
__________________________________________________________________________________________________
batch_normalization_2 (BatchNor (None, 112, 148, 40) 160         conv2d_2[0][0]                   
__________________________________________________________________________________________________
activation_2 (Activation)       (None, 112, 148, 40) 0           batch_normalization_2[0][0]      
__________________________________________________________________________________________________
dropout_2 (Dropout)             (None, 112, 148, 40) 0           activation_2[0][0]               
__________________________________________________________________________________________________
conv2d_3 (Conv2D)               (None, 112, 148, 40) 14440       dropout_2[0][0]                  
__________________________________________________________________________________________________
batch_normalization_3 (BatchNor (None, 112, 148, 40) 160         conv2d_3[0][0]                   
__________________________________________________________________________________________________
activation_3 (Activation)       (None, 112, 148, 40) 0           batch_normalization_3[0][0]      
__________________________________________________________________________________________________
dropout_3 (Dropout)             (None, 112, 148, 40) 0           activation_3[0][0]               
__________________________________________________________________________________________________
conv2d_4 (Conv2D)               (None, 112, 148, 10) 3610        dropout_3[0][0]                  
__________________________________________________________________________________________________
batch_normalization_4 (BatchNor (None, 112, 148, 10) 40          conv2d_4[0][0]                   
__________________________________________________________________________________________________
activation_4 (Activation)       (None, 112, 148, 10) 0           batch_normalization_4[0][0]      
__________________________________________________________________________________________________
conv2d_5 (Conv2D)               (None, 112, 148, 10) 910         activation_4[0][0]               
__________________________________________________________________________________________________
batch_normalization_5 (BatchNor (None, 112, 148, 10) 40          conv2d_5[0][0]                   
__________________________________________________________________________________________________
activation_5 (Activation)       (None, 112, 148, 10) 0           batch_normalization_5[0][0]      
__________________________________________________________________________________________________
concatenate_1 (Concatenate)     (None, 112, 148, 50) 0           dropout_3[0][0]                  
                                                                 activation_5[0][0]               
__________________________________________________________________________________________________
max_pooling2d_1 (MaxPooling2D)  (None, 56, 74, 50)   0           concatenate_1[0][0]              
__________________________________________________________________________________________________
dropout_4 (Dropout)             (None, 56, 74, 50)   0           max_pooling2d_1[0][0]            
__________________________________________________________________________________________________
conv2d_6 (Conv2D)               (None, 56, 74, 20)   9020        dropout_4[0][0]                  
__________________________________________________________________________________________________
batch_normalization_6 (BatchNor (None, 56, 74, 20)   80          conv2d_6[0][0]                   
__________________________________________________________________________________________________
activation_6 (Activation)       (None, 56, 74, 20)   0           batch_normalization_6[0][0]      
__________________________________________________________________________________________________
conv2d_7 (Conv2D)               (None, 56, 74, 20)   3620        activation_6[0][0]               
__________________________________________________________________________________________________
batch_normalization_7 (BatchNor (None, 56, 74, 20)   80          conv2d_7[0][0]                   
__________________________________________________________________________________________________
activation_7 (Activation)       (None, 56, 74, 20)   0           batch_normalization_7[0][0]      
__________________________________________________________________________________________________
concatenate_2 (Concatenate)     (None, 56, 74, 70)   0           dropout_4[0][0]                  
                                                                 activation_7[0][0]               
__________________________________________________________________________________________________
max_pooling2d_2 (MaxPooling2D)  (None, 28, 37, 70)   0           concatenate_2[0][0]              
__________________________________________________________________________________________________
dropout_5 (Dropout)             (None, 28, 37, 70)   0           max_pooling2d_2[0][0]            
__________________________________________________________________________________________________
conv2d_8 (Conv2D)               (None, 28, 37, 40)   25240       dropout_5[0][0]                  
__________________________________________________________________________________________________
batch_normalization_8 (BatchNor (None, 28, 37, 40)   160         conv2d_8[0][0]                   
__________________________________________________________________________________________________
activation_8 (Activation)       (None, 28, 37, 40)   0           batch_normalization_8[0][0]      
__________________________________________________________________________________________________
conv2d_9 (Conv2D)               (None, 28, 37, 40)   14440       activation_8[0][0]               
__________________________________________________________________________________________________
batch_normalization_9 (BatchNor (None, 28, 37, 40)   160         conv2d_9[0][0]                   
__________________________________________________________________________________________________
activation_9 (Activation)       (None, 28, 37, 40)   0           batch_normalization_9[0][0]      
__________________________________________________________________________________________________
concatenate_3 (Concatenate)     (None, 28, 37, 110)  0           dropout_5[0][0]                  
                                                                 activation_9[0][0]               
__________________________________________________________________________________________________
dropout_6 (Dropout)             (None, 28, 37, 110)  0           concatenate_3[0][0]              
__________________________________________________________________________________________________
conv2d_transpose_1 (Conv2DTrans (None, 56, 74, 20)   8820        dropout_6[0][0]                  
__________________________________________________________________________________________________
concatenate_4 (Concatenate)     (None, 56, 74, 90)   0           conv2d_transpose_1[0][0]         
                                                                 concatenate_2[0][0]              
__________________________________________________________________________________________________
conv2d_10 (Conv2D)              (None, 56, 74, 20)   16220       concatenate_4[0][0]              
__________________________________________________________________________________________________
batch_normalization_10 (BatchNo (None, 56, 74, 20)   80          conv2d_10[0][0]                  
__________________________________________________________________________________________________
activation_10 (Activation)      (None, 56, 74, 20)   0           batch_normalization_10[0][0]     
__________________________________________________________________________________________________
conv2d_11 (Conv2D)              (None, 56, 74, 20)   3620        activation_10[0][0]              
__________________________________________________________________________________________________
batch_normalization_11 (BatchNo (None, 56, 74, 20)   80          conv2d_11[0][0]                  
__________________________________________________________________________________________________
activation_11 (Activation)      (None, 56, 74, 20)   0           batch_normalization_11[0][0]     
__________________________________________________________________________________________________
concatenate_5 (Concatenate)     (None, 56, 74, 110)  0           concatenate_4[0][0]              
                                                                 activation_11[0][0]              
__________________________________________________________________________________________________
dropout_7 (Dropout)             (None, 56, 74, 110)  0           concatenate_5[0][0]              
__________________________________________________________________________________________________
conv2d_transpose_2 (Conv2DTrans (None, 112, 148, 10) 4410        dropout_7[0][0]                  
__________________________________________________________________________________________________
concatenate_6 (Concatenate)     (None, 112, 148, 60) 0           conv2d_transpose_2[0][0]         
                                                                 concatenate_1[0][0]              
__________________________________________________________________________________________________
conv2d_12 (Conv2D)              (None, 112, 148, 10) 5410        concatenate_6[0][0]              
__________________________________________________________________________________________________
batch_normalization_12 (BatchNo (None, 112, 148, 10) 40          conv2d_12[0][0]                  
__________________________________________________________________________________________________
activation_12 (Activation)      (None, 112, 148, 10) 0           batch_normalization_12[0][0]     
__________________________________________________________________________________________________
conv2d_13 (Conv2D)              (None, 112, 148, 10) 910         activation_12[0][0]              
__________________________________________________________________________________________________
batch_normalization_13 (BatchNo (None, 112, 148, 10) 40          conv2d_13[0][0]                  
__________________________________________________________________________________________________
activation_13 (Activation)      (None, 112, 148, 10) 0           batch_normalization_13[0][0]     
__________________________________________________________________________________________________
concatenate_7 (Concatenate)     (None, 112, 148, 70) 0           concatenate_6[0][0]              
                                                                 activation_13[0][0]              
__________________________________________________________________________________________________
dropout_8 (Dropout)             (None, 112, 148, 70) 0           concatenate_7[0][0]              
__________________________________________________________________________________________________
conv2d_14 (Conv2D)              (None, 112, 148, 2)  142         dropout_8[0][0]                  
==================================================================================================
Total params: 126,932
Trainable params: 126,292
Non-trainable params: 640
__________________________________________________________________________________________________
------------------------------------------------------------------
class_weights [26.29834709  0.51066887]
…
---------------------------------------------------------------
 Nucleus: [1]  | GPU: 6  | SD 1  | Dropout 0.3  | LR 0.001  | NL 3  |  Cascade |  FM 10 |  Upsample 1
Experiment: exp7
SubExperiment: sE8_Cascade_FM10_Res_Unet_NL3_LS_MyBCE_US1
---------------------------------------------------------------
__________________________________________________________________________________________________
Layer (type)                    Output Shape         Param #     Connected to                     
==================================================================================================
input_1 (InputLayer)            (None, 84, 112, 1)   0                                            
__________________________________________________________________________________________________
conv2d_1 (Conv2D)               (None, 84, 112, 40)  400         input_1[0][0]                    
__________________________________________________________________________________________________
batch_normalization_1 (BatchNor (None, 84, 112, 40)  160         conv2d_1[0][0]                   
__________________________________________________________________________________________________
activation_1 (Activation)       (None, 84, 112, 40)  0           batch_normalization_1[0][0]      
__________________________________________________________________________________________________
dropout_1 (Dropout)             (None, 84, 112, 40)  0           activation_1[0][0]               
__________________________________________________________________________________________________
conv2d_2 (Conv2D)               (None, 84, 112, 40)  14440       dropout_1[0][0]                  
__________________________________________________________________________________________________
batch_normalization_2 (BatchNor (None, 84, 112, 40)  160         conv2d_2[0][0]                   
__________________________________________________________________________________________________
activation_2 (Activation)       (None, 84, 112, 40)  0           batch_normalization_2[0][0]      
__________________________________________________________________________________________________
dropout_2 (Dropout)             (None, 84, 112, 40)  0           activation_2[0][0]               
__________________________________________________________________________________________________
conv2d_3 (Conv2D)               (None, 84, 112, 40)  14440       dropout_2[0][0]                  
__________________________________________________________________________________________________
batch_normalization_3 (BatchNor (None, 84, 112, 40)  160         conv2d_3[0][0]                   
__________________________________________________________________________________________________
activation_3 (Activation)       (None, 84, 112, 40)  0           batch_normalization_3[0][0]      
__________________________________________________________________________________________________
dropout_3 (Dropout)             (None, 84, 112, 40)  0           activation_3[0][0]               
__________________________________________________________________________________________________
conv2d_4 (Conv2D)               (None, 84, 112, 10)  3610        dropout_3[0][0]                  
__________________________________________________________________________________________________
batch_normalization_4 (BatchNor (None, 84, 112, 10)  40          conv2d_4[0][0]                   
__________________________________________________________________________________________________
activation_4 (Activation)       (None, 84, 112, 10)  0           batch_normalization_4[0][0]      
__________________________________________________________________________________________________
conv2d_5 (Conv2D)               (None, 84, 112, 10)  910         activation_4[0][0]               
__________________________________________________________________________________________________
batch_normalization_5 (BatchNor (None, 84, 112, 10)  40          conv2d_5[0][0]                   
__________________________________________________________________________________________________
activation_5 (Activation)       (None, 84, 112, 10)  0           batch_normalization_5[0][0]      
__________________________________________________________________________________________________
concatenate_1 (Concatenate)     (None, 84, 112, 50)  0           dropout_3[0][0]                  
                                                                 activation_5[0][0]               
__________________________________________________________________________________________________
max_pooling2d_1 (MaxPooling2D)  (None, 42, 56, 50)   0           concatenate_1[0][0]              
__________________________________________________________________________________________________
dropout_4 (Dropout)             (None, 42, 56, 50)   0           max_pooling2d_1[0][0]            
__________________________________________________________________________________________________
conv2d_6 (Conv2D)               (None, 42, 56, 20)   9020        dropout_4[0][0]                  
__________________________________________________________________________________________________
batch_normalization_6 (BatchNor (None, 42, 56, 20)   80          conv2d_6[0][0]                   
__________________________________________________________________________________________________
activation_6 (Activation)       (None, 42, 56, 20)   0           batch_normalization_6[0][0]      
__________________________________________________________________________________________________
conv2d_7 (Conv2D)               (None, 42, 56, 20)   3620        activation_6[0][0]               
__________________________________________________________________________________________________
batch_normalization_7 (BatchNor (None, 42, 56, 20)   80          conv2d_7[0][0]                   
__________________________________________________________________________________________________
activation_7 (Activation)       (None, 42, 56, 20)   0           batch_normalization_7[0][0]      
__________________________________________________________________________________________________
concatenate_2 (Concatenate)     (None, 42, 56, 70)   0           dropout_4[0][0]                  
                                                                 activation_7[0][0]               
__________________________________________________________________________________________________
max_pooling2d_2 (MaxPooling2D)  (None, 21, 28, 70)   0           concatenate_2[0][0]              
__________________________________________________________________________________________________
dropout_5 (Dropout)             (None, 21, 28, 70)   0           max_pooling2d_2[0][0]            
__________________________________________________________________________________________________
conv2d_8 (Conv2D)               (None, 21, 28, 40)   25240       dropout_5[0][0]                  
__________________________________________________________________________________________________
batch_normalization_8 (BatchNor (None, 21, 28, 40)   160         conv2d_8[0][0]                   
__________________________________________________________________________________________________
activation_8 (Activation)       (None, 21, 28, 40)   0           batch_normalization_8[0][0]      
__________________________________________________________________________________________________
conv2d_9 (Conv2D)               (None, 21, 28, 40)   14440       activation_8[0][0]               
__________________________________________________________________________________________________
batch_normalization_9 (BatchNor (None, 21, 28, 40)   160         conv2d_9[0][0]                   
__________________________________________________________________________________________________
activation_9 (Activation)       (None, 21, 28, 40)   0           batch_normalization_9[0][0]      
__________________________________________________________________________________________________
concatenate_3 (Concatenate)     (None, 21, 28, 110)  0           dropout_5[0][0]                  2019-06-29 05:41:58.311204: I tensorflow/core/common_runtime/gpu/gpu_device.cc:1471] Adding visible gpu devices: 0
2019-06-29 05:41:58.311365: I tensorflow/core/common_runtime/gpu/gpu_device.cc:952] Device interconnect StreamExecutor with strength 1 edge matrix:
2019-06-29 05:41:58.311385: I tensorflow/core/common_runtime/gpu/gpu_device.cc:958]      0 
2019-06-29 05:41:58.311398: I tensorflow/core/common_runtime/gpu/gpu_device.cc:971] 0:   N 
2019-06-29 05:41:58.311815: I tensorflow/core/common_runtime/gpu/gpu_device.cc:1084] Created TensorFlow device (/job:localhost/replica:0/task:0/device:GPU:0 with 15123 MB memory) -> physical GPU (device: 0, name: Tesla P100-PCIE-16GB, pci bus id: 0000:88:00.0, compute capability: 6.0)

                                                                 activation_9[0][0]               
__________________________________________________________________________________________________
dropout_6 (Dropout)             (None, 21, 28, 110)  0           concatenate_3[0][0]              
__________________________________________________________________________________________________
conv2d_transpose_1 (Conv2DTrans (None, 42, 56, 20)   8820        dropout_6[0][0]                  
__________________________________________________________________________________________________
concatenate_4 (Concatenate)     (None, 42, 56, 90)   0           conv2d_transpose_1[0][0]         
                                                                 concatenate_2[0][0]              
__________________________________________________________________________________________________
conv2d_10 (Conv2D)              (None, 42, 56, 20)   16220       concatenate_4[0][0]              
__________________________________________________________________________________________________
batch_normalization_10 (BatchNo (None, 42, 56, 20)   80          conv2d_10[0][0]                  
__________________________________________________________________________________________________
activation_10 (Activation)      (None, 42, 56, 20)   0           batch_normalization_10[0][0]     
__________________________________________________________________________________________________
conv2d_11 (Conv2D)              (None, 42, 56, 20)   3620        activation_10[0][0]              
__________________________________________________________________________________________________
batch_normalization_11 (BatchNo (None, 42, 56, 20)   80          conv2d_11[0][0]                  
__________________________________________________________________________________________________
activation_11 (Activation)      (None, 42, 56, 20)   0           batch_normalization_11[0][0]     
__________________________________________________________________________________________________
concatenate_5 (Concatenate)     (None, 42, 56, 110)  0           concatenate_4[0][0]              
                                                                 activation_11[0][0]              
__________________________________________________________________________________________________
dropout_7 (Dropout)             (None, 42, 56, 110)  0           concatenate_5[0][0]              
__________________________________________________________________________________________________
conv2d_transpose_2 (Conv2DTrans (None, 84, 112, 10)  4410        dropout_7[0][0]                  
__________________________________________________________________________________________________
concatenate_6 (Concatenate)     (None, 84, 112, 60)  0           conv2d_transpose_2[0][0]         
                                                                 concatenate_1[0][0]              
__________________________________________________________________________________________________
conv2d_12 (Conv2D)              (None, 84, 112, 10)  5410        concatenate_6[0][0]              
__________________________________________________________________________________________________
batch_normalization_12 (BatchNo (None, 84, 112, 10)  40          conv2d_12[0][0]                  
__________________________________________________________________________________________________
activation_12 (Activation)      (None, 84, 112, 10)  0           batch_normalization_12[0][0]     
__________________________________________________________________________________________________
conv2d_13 (Conv2D)              (None, 84, 112, 10)  910         activation_12[0][0]              
__________________________________________________________________________________________________
batch_normalization_13 (BatchNo (None, 84, 112, 10)  40          conv2d_13[0][0]                  
__________________________________________________________________________________________________
activation_13 (Activation)      (None, 84, 112, 10)  0           batch_normalization_13[0][0]     
__________________________________________________________________________________________________
concatenate_7 (Concatenate)     (None, 84, 112, 70)  0           concatenate_6[0][0]              
                                                                 activation_13[0][0]              
__________________________________________________________________________________________________
dropout_8 (Dropout)             (None, 84, 112, 70)  0           concatenate_7[0][0]              
__________________________________________________________________________________________________
conv2d_14 (Conv2D)              (None, 84, 112, 2)   142         dropout_8[0][0]                  
==================================================================================================
Total params: 126,932
Trainable params: 126,292
Non-trainable params: 640
__________________________________________________________________________________________________
------------------------------------------------------------------
class_weights [23.93457794  0.51174728]
…
 Nucleus: [2, 4, 5, 6, 7, 8, 9, 10, 11, 12, 13, 14]  | GPU: 6  | SD 2  | Dropout 0.3  | LR 0.001  | NL 3  |  Cascade |  FM 10 |  Upsample 1
Experiment: exp7
SubExperiment: sE8_Cascade_FM10_Res_Unet_NL3_LS_MyBCE_US1
---------------------------------------------------------------
__________________________________________________________________________________________________
Layer (type)                    Output Shape         Param #     Connected to                     
==================================================================================================
input_1 (InputLayer)            (None, 52, 80, 1)    0                                            
__________________________________________________________________________________________________
conv2d_1 (Conv2D)               (None, 52, 80, 40)   400         input_1[0][0]                    
__________________________________________________________________________________________________
batch_normalization_1 (BatchNor (None, 52, 80, 40)   160         conv2d_1[0][0]                   
__________________________________________________________________________________________________
activation_1 (Activation)       (None, 52, 80, 40)   0           batch_normalization_1[0][0]      
__________________________________________________________________________________________________
dropout_1 (Dropout)             (None, 52, 80, 40)   0           activation_1[0][0]               
__________________________________________________________________________________________________
conv2d_2 (Conv2D)               (None, 52, 80, 40)   14440       dropout_1[0][0]                  
__________________________________________________________________________________________________
batch_normalization_2 (BatchNor (None, 52, 80, 40)   160         conv2d_2[0][0]                   
__________________________________________________________________________________________________
activation_2 (Activation)       (None, 52, 80, 40)   0           batch_normalization_2[0][0]      
__________________________________________________________________________________________________
dropout_2 (Dropout)             (None, 52, 80, 40)   0           activation_2[0][0]               
__________________________________________________________________________________________________
conv2d_3 (Conv2D)               (None, 52, 80, 40)   14440       dropout_2[0][0]                  
__________________________________________________________________________________________________
batch_normalization_3 (BatchNor (None, 52, 80, 40)   160         conv2d_3[0][0]                   
__________________________________________________________________________________________________
activation_3 (Activation)       (None, 52, 80, 40)   0           batch_normalization_3[0][0]      
__________________________________________________________________________________________________
dropout_3 (Dropout)             (None, 52, 80, 40)   0           activation_3[0][0]               
__________________________________________________________________________________________________
conv2d_4 (Conv2D)               (None, 52, 80, 10)   3610        dropout_3[0][0]                  
__________________________________________________________________________________________________
batch_normalization_4 (BatchNor (None, 52, 80, 10)   40          conv2d_4[0][0]                   
__________________________________________________________________________________________________
activation_4 (Activation)       (None, 52, 80, 10)   0           batch_normalization_4[0][0]      
__________________________________________________________________________________________________
conv2d_5 (Conv2D)               (None, 52, 80, 10)   910         activation_4[0][0]               
__________________________________________________________________________________________________
batch_normalization_5 (BatchNor (None, 52, 80, 10)   40          conv2d_5[0][0]                   
__________________________________________________________________________________________________
activation_5 (Activation)       (None, 52, 80, 10)   0           batch_normalization_5[0][0]      
__________________________________________________________________________________________________
concatenate_1 (Concatenate)     (None, 52, 80, 50)   0           dropout_3[0][0]                  
                                                                 activation_5[0][0]               
__________________________________________________________________________________________________
max_pooling2d_1 (MaxPooling2D)  (None, 26, 40, 50)   0           concatenate_1[0][0]              
__________________________________________________________________________________________________
dropout_4 (Dropout)             (None, 26, 40, 50)   0           max_pooling2d_1[0][0]            
__________________________________________________________________________________________________
conv2d_6 (Conv2D)               (None, 26, 40, 20)   9020        dropout_4[0][0]                  
__________________________________________________________________________________________________
batch_normalization_6 (BatchNor (None, 26, 40, 20)   80          conv2d_6[0][0]                   
__________________________________________________________________________________________________
activation_6 (Activation)       (None, 26, 40, 20)   0           batch_normalization_6[0][0]      
__________________________________________________________________________________________________
conv2d_7 (Conv2D)               (None, 26, 40, 20)   3620        activation_6[0][0]               
__________________________________________________________________________________________________
batch_normalization_7 (BatchNor (None, 26, 40, 20)   80          conv2d_7[0][0]                   
__________________________________________________________________________________________________
activation_7 (Activation)       (None, 26, 40, 20)   0           batch_normalization_7[0][0]      
__________________________________________________________________________________________________
concatenate_2 (Concatenate)     (None, 26, 40, 70)   0           dropout_4[0][0]                  
                                                                 activation_7[0][0]               
__________________________________________________________________________________________________
max_pooling2d_2 (MaxPooling2D)  (None, 13, 20, 70)   0           concatenate_2[0][0]              
__________________________________________________________________________________________________
dropout_5 (Dropout)             (None, 13, 20, 70)   0           max_pooling2d_2[0][0]            
__________________________________________________________________________________________________
conv2d_8 (Conv2D)               (None, 13, 20, 40)   25240       dropout_5[0][0]                  
__________________________________________________________________________________________________
batch_normalization_8 (BatchNor (None, 13, 20, 40)   160         conv2d_8[0][0]                   
__________________________________________________________________________________________________
activation_8 (Activation)       (None, 13, 20, 40)   0           batch_normalization_8[0][0]      
__________________________________________________________________________________________________
conv2d_9 (Conv2D)               (None, 13, 20, 40)   14440       activation_8[0][0]               
__________________________________________________________________________________________________
batch_normalization_9 (BatchNor (None, 13, 20, 40)   160         conv2d_9[0][0]                   
__________________________________________________________________________________________________2019-06-29 12:43:56.037973: I tensorflow/core/common_runtime/gpu/gpu_device.cc:1471] Adding visible gpu devices: 0
2019-06-29 12:43:56.038080: I tensorflow/core/common_runtime/gpu/gpu_device.cc:952] Device interconnect StreamExecutor with strength 1 edge matrix:
2019-06-29 12:43:56.038098: I tensorflow/core/common_runtime/gpu/gpu_device.cc:958]      0 
2019-06-29 12:43:56.038108: I tensorflow/core/common_runtime/gpu/gpu_device.cc:971] 0:   N 
2019-06-29 12:43:56.038400: I tensorflow/core/common_runtime/gpu/gpu_device.cc:1084] Created TensorFlow device (/job:localhost/replica:0/task:0/device:GPU:0 with 15123 MB memory) -> physical GPU (device: 0, name: Tesla P100-PCIE-16GB, pci bus id: 0000:88:00.0, compute capability: 6.0)

activation_9 (Activation)       (None, 13, 20, 40)   0           batch_normalization_9[0][0]      
__________________________________________________________________________________________________
concatenate_3 (Concatenate)     (None, 13, 20, 110)  0           dropout_5[0][0]                  
                                                                 activation_9[0][0]               
__________________________________________________________________________________________________
dropout_6 (Dropout)             (None, 13, 20, 110)  0           concatenate_3[0][0]              
__________________________________________________________________________________________________
conv2d_transpose_1 (Conv2DTrans (None, 26, 40, 20)   8820        dropout_6[0][0]                  
__________________________________________________________________________________________________
concatenate_4 (Concatenate)     (None, 26, 40, 90)   0           conv2d_transpose_1[0][0]         
                                                                 concatenate_2[0][0]              
__________________________________________________________________________________________________
conv2d_10 (Conv2D)              (None, 26, 40, 20)   16220       concatenate_4[0][0]              
__________________________________________________________________________________________________
batch_normalization_10 (BatchNo (None, 26, 40, 20)   80          conv2d_10[0][0]                  
__________________________________________________________________________________________________
activation_10 (Activation)      (None, 26, 40, 20)   0           batch_normalization_10[0][0]     
__________________________________________________________________________________________________
conv2d_11 (Conv2D)              (None, 26, 40, 20)   3620        activation_10[0][0]              
__________________________________________________________________________________________________
batch_normalization_11 (BatchNo (None, 26, 40, 20)   80          conv2d_11[0][0]                  
__________________________________________________________________________________________________
activation_11 (Activation)      (None, 26, 40, 20)   0           batch_normalization_11[0][0]     
__________________________________________________________________________________________________
concatenate_5 (Concatenate)     (None, 26, 40, 110)  0           concatenate_4[0][0]              
                                                                 activation_11[0][0]              
__________________________________________________________________________________________________
dropout_7 (Dropout)             (None, 26, 40, 110)  0           concatenate_5[0][0]              
__________________________________________________________________________________________________
conv2d_transpose_2 (Conv2DTrans (None, 52, 80, 10)   4410        dropout_7[0][0]                  
__________________________________________________________________________________________________
concatenate_6 (Concatenate)     (None, 52, 80, 60)   0           conv2d_transpose_2[0][0]         
                                                                 concatenate_1[0][0]              
__________________________________________________________________________________________________
conv2d_12 (Conv2D)              (None, 52, 80, 10)   5410        concatenate_6[0][0]              
__________________________________________________________________________________________________
batch_normalization_12 (BatchNo (None, 52, 80, 10)   40          conv2d_12[0][0]                  
__________________________________________________________________________________________________
activation_12 (Activation)      (None, 52, 80, 10)   0           batch_normalization_12[0][0]     
__________________________________________________________________________________________________
conv2d_13 (Conv2D)              (None, 52, 80, 10)   910         activation_12[0][0]              
__________________________________________________________________________________________________
batch_normalization_13 (BatchNo (None, 52, 80, 10)   40          conv2d_13[0][0]                  
__________________________________________________________________________________________________
activation_13 (Activation)      (None, 52, 80, 10)   0           batch_normalization_13[0][0]     
__________________________________________________________________________________________________
concatenate_7 (Concatenate)     (None, 52, 80, 70)   0           concatenate_6[0][0]              
                                                                 activation_13[0][0]              
__________________________________________________________________________________________________
dropout_8 (Dropout)             (None, 52, 80, 70)   0           concatenate_7[0][0]              
__________________________________________________________________________________________________
conv2d_14 (Conv2D)              (None, 52, 80, 13)   923         dropout_8[0][0]                  
==================================================================================================
Total params: 127,713
Trainable params: 127,073
Non-trainable params: 640
__________________________________________________________________________________________________
------------------------------------------------------------------
class_weights [2.60869361e+01 1.15300859e+01 4.65747952e+01 3.99791595e+00
…
 Nucleus: [2, 4, 5, 6, 7, 8, 9, 10, 11, 12, 13, 14]  | GPU: 6  | SD 1  | Dropout 0.3  | LR 0.001  | NL 3  |  Cascade |  FM 10 |  Upsample 1
Experiment: exp7
SubExperiment: sE8_Cascade_FM10_Res_Unet_NL3_LS_MyBCE_US1
---------------------------------------------------------------
__________________________________________________________________________________________________
Layer (type)                    Output Shape         Param #     Connected to                     
==================================================================================================
input_1 (InputLayer)            (None, 52, 52, 1)    0                                            
__________________________________________________________________________________________________
conv2d_1 (Conv2D)               (None, 52, 52, 40)   400         input_1[0][0]                    
__________________________________________________________________________________________________
batch_normalization_1 (BatchNor (None, 52, 52, 40)   160         conv2d_1[0][0]                   
__________________________________________________________________________________________________
activation_1 (Activation)       (None, 52, 52, 40)   0           batch_normalization_1[0][0]      
__________________________________________________________________________________________________
dropout_1 (Dropout)             (None, 52, 52, 40)   0           activation_1[0][0]               
__________________________________________________________________________________________________
conv2d_2 (Conv2D)               (None, 52, 52, 40)   14440       dropout_1[0][0]                  
__________________________________________________________________________________________________
batch_normalization_2 (BatchNor (None, 52, 52, 40)   160         conv2d_2[0][0]                   
__________________________________________________________________________________________________
activation_2 (Activation)       (None, 52, 52, 40)   0           batch_normalization_2[0][0]      
__________________________________________________________________________________________________
dropout_2 (Dropout)             (None, 52, 52, 40)   0           activation_2[0][0]               
__________________________________________________________________________________________________
conv2d_3 (Conv2D)               (None, 52, 52, 40)   14440       dropout_2[0][0]                  
__________________________________________________________________________________________________
batch_normalization_3 (BatchNor (None, 52, 52, 40)   160         conv2d_3[0][0]                   
__________________________________________________________________________________________________
activation_3 (Activation)       (None, 52, 52, 40)   0           batch_normalization_3[0][0]      
__________________________________________________________________________________________________
dropout_3 (Dropout)             (None, 52, 52, 40)   0           activation_3[0][0]               
__________________________________________________________________________________________________
conv2d_4 (Conv2D)               (None, 52, 52, 10)   3610        dropout_3[0][0]                  
__________________________________________________________________________________________________
batch_normalization_4 (BatchNor (None, 52, 52, 10)   40          conv2d_4[0][0]                   
__________________________________________________________________________________________________
activation_4 (Activation)       (None, 52, 52, 10)   0           batch_normalization_4[0][0]      
__________________________________________________________________________________________________
conv2d_5 (Conv2D)               (None, 52, 52, 10)   910         activation_4[0][0]               
__________________________________________________________________________________________________
batch_normalization_5 (BatchNor (None, 52, 52, 10)   40          conv2d_5[0][0]                   
__________________________________________________________________________________________________
activation_5 (Activation)       (None, 52, 52, 10)   0           batch_normalization_5[0][0]      
__________________________________________________________________________________________________
concatenate_1 (Concatenate)     (None, 52, 52, 50)   0           dropout_3[0][0]                  
                                                                 activation_5[0][0]               
__________________________________________________________________________________________________
max_pooling2d_1 (MaxPooling2D)  (None, 26, 26, 50)   0           concatenate_1[0][0]              
__________________________________________________________________________________________________
dropout_4 (Dropout)             (None, 26, 26, 50)   0           max_pooling2d_1[0][0]            
__________________________________________________________________________________________________
conv2d_6 (Conv2D)               (None, 26, 26, 20)   9020        dropout_4[0][0]                  
__________________________________________________________________________________________________
batch_normalization_6 (BatchNor (None, 26, 26, 20)   80          conv2d_6[0][0]                   
__________________________________________________________________________________________________
activation_6 (Activation)       (None, 26, 26, 20)   0           batch_normalization_6[0][0]      
__________________________________________________________________________________________________
conv2d_7 (Conv2D)               (None, 26, 26, 20)   3620        activation_6[0][0]               
__________________________________________________________________________________________________
batch_normalization_7 (BatchNor (None, 26, 26, 20)   80          conv2d_7[0][0]                   
__________________________________________________________________________________________________
activation_7 (Activation)       (None, 26, 26, 20)   0           batch_normalization_7[0][0]      
__________________________________________________________________________________________________
concatenate_2 (Concatenate)     (None, 26, 26, 70)   0           dropout_4[0][0]                  
                                                                 activation_7[0][0]               
__________________________________________________________________________________________________
max_pooling2d_2 (MaxPooling2D)  (None, 13, 13, 70)   0           concatenate_2[0][0]              
__________________________________________________________________________________________________
dropout_5 (Dropout)             (None, 13, 13, 70)   0           max_pooling2d_2[0][0]            
__________________________________________________________________________________________________
conv2d_8 (Conv2D)               (None, 13, 13, 40)   25240       dropout_5[0][0]                  
__________________________________________________________________________________________________
batch_normalization_8 (BatchNor (None, 13, 13, 40)   160         conv2d_8[0][0]                   
__________________________________________________________________________________________________
activation_8 (Activation)       (None, 13, 13, 40)   0           batch_normalization_8[0][0]      
__________________________________________________________________________________________________
conv2d_9 (Conv2D)               (None, 13, 13, 40)   14440       activation_8[0][0]               
__________________________________________________________________________________________________
batch_normalization_9 (BatchNor (None, 13, 13, 40)   160         conv2d_9[0][0]                   
__________________________________________________________________________________________________
activation_9 (Activation)       (None, 13, 13, 40)   0           batch_normalization_9[0][0]      
__________________________________________________________________________________________________
concatenate_3 (Concatenate)     (None, 13, 13, 110)  0           dropout_5[0][0]                  2019-06-29 15:09:37.964412: I tensorflow/core/common_runtime/gpu/gpu_device.cc:1471] Adding visible gpu devices: 0
2019-06-29 15:09:37.964518: I tensorflow/core/common_runtime/gpu/gpu_device.cc:952] Device interconnect StreamExecutor with strength 1 edge matrix:
2019-06-29 15:09:37.964533: I tensorflow/core/common_runtime/gpu/gpu_device.cc:958]      0 
2019-06-29 15:09:37.964542: I tensorflow/core/common_runtime/gpu/gpu_device.cc:971] 0:   N 
2019-06-29 15:09:37.967163: I tensorflow/core/common_runtime/gpu/gpu_device.cc:1084] Created TensorFlow device (/job:localhost/replica:0/task:0/device:GPU:0 with 15123 MB memory) -> physical GPU (device: 0, name: Tesla P100-PCIE-16GB, pci bus id: 0000:88:00.0, compute capability: 6.0)

                                                                 activation_9[0][0]               
__________________________________________________________________________________________________
dropout_6 (Dropout)             (None, 13, 13, 110)  0           concatenate_3[0][0]              
__________________________________________________________________________________________________
conv2d_transpose_1 (Conv2DTrans (None, 26, 26, 20)   8820        dropout_6[0][0]                  
__________________________________________________________________________________________________
concatenate_4 (Concatenate)     (None, 26, 26, 90)   0           conv2d_transpose_1[0][0]         
                                                                 concatenate_2[0][0]              
__________________________________________________________________________________________________
conv2d_10 (Conv2D)              (None, 26, 26, 20)   16220       concatenate_4[0][0]              
__________________________________________________________________________________________________
batch_normalization_10 (BatchNo (None, 26, 26, 20)   80          conv2d_10[0][0]                  
__________________________________________________________________________________________________
activation_10 (Activation)      (None, 26, 26, 20)   0           batch_normalization_10[0][0]     
__________________________________________________________________________________________________
conv2d_11 (Conv2D)              (None, 26, 26, 20)   3620        activation_10[0][0]              
__________________________________________________________________________________________________
batch_normalization_11 (BatchNo (None, 26, 26, 20)   80          conv2d_11[0][0]                  
__________________________________________________________________________________________________
activation_11 (Activation)      (None, 26, 26, 20)   0           batch_normalization_11[0][0]     
__________________________________________________________________________________________________
concatenate_5 (Concatenate)     (None, 26, 26, 110)  0           concatenate_4[0][0]              
                                                                 activation_11[0][0]              
__________________________________________________________________________________________________
dropout_7 (Dropout)             (None, 26, 26, 110)  0           concatenate_5[0][0]              
__________________________________________________________________________________________________
conv2d_transpose_2 (Conv2DTrans (None, 52, 52, 10)   4410        dropout_7[0][0]                  
__________________________________________________________________________________________________
concatenate_6 (Concatenate)     (None, 52, 52, 60)   0           conv2d_transpose_2[0][0]         
                                                                 concatenate_1[0][0]              
__________________________________________________________________________________________________
conv2d_12 (Conv2D)              (None, 52, 52, 10)   5410        concatenate_6[0][0]              
__________________________________________________________________________________________________
batch_normalization_12 (BatchNo (None, 52, 52, 10)   40          conv2d_12[0][0]                  
__________________________________________________________________________________________________
activation_12 (Activation)      (None, 52, 52, 10)   0           batch_normalization_12[0][0]     
__________________________________________________________________________________________________
conv2d_13 (Conv2D)              (None, 52, 52, 10)   910         activation_12[0][0]              
__________________________________________________________________________________________________
batch_normalization_13 (BatchNo (None, 52, 52, 10)   40          conv2d_13[0][0]                  
__________________________________________________________________________________________________
activation_13 (Activation)      (None, 52, 52, 10)   0           batch_normalization_13[0][0]     
__________________________________________________________________________________________________
concatenate_7 (Concatenate)     (None, 52, 52, 70)   0           concatenate_6[0][0]              
                                                                 activation_13[0][0]              
__________________________________________________________________________________________________
dropout_8 (Dropout)             (None, 52, 52, 70)   0           concatenate_7[0][0]              
__________________________________________________________________________________________________
conv2d_14 (Conv2D)              (None, 52, 52, 13)   923         dropout_8[0][0]                  
==================================================================================================
Total params: 127,713
Trainable params: 127,073
Non-trainable params: 640
__________________________________________________________________________________________________
------------------------------------------------------------------
class_weights [2.73925974e+01 1.21071712e+01 4.89058818e+01 4.19801320e+00
…
 Nucleus: [2, 4, 5, 6, 7, 8, 9, 10, 11, 12, 13, 14]  | GPU: 6  | SD 0  | Dropout 0.3  | LR 0.001  | NL 3  |  Cascade |  FM 10 |  Upsample 1
Experiment: exp7
SubExperiment: sE8_Cascade_FM10_Res_Unet_NL3_LS_MyBCE_US1
---------------------------------------------------------------
__________________________________________________________________________________________________
Layer (type)                    Output Shape         Param #     Connected to                     
==================================================================================================
input_1 (InputLayer)            (None, 80, 52, 1)    0                                            
__________________________________________________________________________________________________
conv2d_1 (Conv2D)               (None, 80, 52, 40)   400         input_1[0][0]                    
__________________________________________________________________________________________________
batch_normalization_1 (BatchNor (None, 80, 52, 40)   160         conv2d_1[0][0]                   
__________________________________________________________________________________________________
activation_1 (Activation)       (None, 80, 52, 40)   0           batch_normalization_1[0][0]      
__________________________________________________________________________________________________
dropout_1 (Dropout)             (None, 80, 52, 40)   0           activation_1[0][0]               
__________________________________________________________________________________________________
conv2d_2 (Conv2D)               (None, 80, 52, 40)   14440       dropout_1[0][0]                  
__________________________________________________________________________________________________
batch_normalization_2 (BatchNor (None, 80, 52, 40)   160         conv2d_2[0][0]                   
__________________________________________________________________________________________________
activation_2 (Activation)       (None, 80, 52, 40)   0           batch_normalization_2[0][0]      
__________________________________________________________________________________________________
dropout_2 (Dropout)             (None, 80, 52, 40)   0           activation_2[0][0]               
__________________________________________________________________________________________________
conv2d_3 (Conv2D)               (None, 80, 52, 40)   14440       dropout_2[0][0]                  
__________________________________________________________________________________________________
batch_normalization_3 (BatchNor (None, 80, 52, 40)   160         conv2d_3[0][0]                   
__________________________________________________________________________________________________
activation_3 (Activation)       (None, 80, 52, 40)   0           batch_normalization_3[0][0]      
__________________________________________________________________________________________________
dropout_3 (Dropout)             (None, 80, 52, 40)   0           activation_3[0][0]               
__________________________________________________________________________________________________
conv2d_4 (Conv2D)               (None, 80, 52, 10)   3610        dropout_3[0][0]                  
__________________________________________________________________________________________________
batch_normalization_4 (BatchNor (None, 80, 52, 10)   40          conv2d_4[0][0]                   
__________________________________________________________________________________________________
activation_4 (Activation)       (None, 80, 52, 10)   0           batch_normalization_4[0][0]      
__________________________________________________________________________________________________
conv2d_5 (Conv2D)               (None, 80, 52, 10)   910         activation_4[0][0]               
__________________________________________________________________________________________________
batch_normalization_5 (BatchNor (None, 80, 52, 10)   40          conv2d_5[0][0]                   
__________________________________________________________________________________________________
activation_5 (Activation)       (None, 80, 52, 10)   0           batch_normalization_5[0][0]      
__________________________________________________________________________________________________
concatenate_1 (Concatenate)     (None, 80, 52, 50)   0           dropout_3[0][0]                  
                                                                 activation_5[0][0]               
__________________________________________________________________________________________________
max_pooling2d_1 (MaxPooling2D)  (None, 40, 26, 50)   0           concatenate_1[0][0]              
__________________________________________________________________________________________________
dropout_4 (Dropout)             (None, 40, 26, 50)   0           max_pooling2d_1[0][0]            
__________________________________________________________________________________________________
conv2d_6 (Conv2D)               (None, 40, 26, 20)   9020        dropout_4[0][0]                  
__________________________________________________________________________________________________
batch_normalization_6 (BatchNor (None, 40, 26, 20)   80          conv2d_6[0][0]                   
__________________________________________________________________________________________________
activation_6 (Activation)       (None, 40, 26, 20)   0           batch_normalization_6[0][0]      
__________________________________________________________________________________________________
conv2d_7 (Conv2D)               (None, 40, 26, 20)   3620        activation_6[0][0]               
__________________________________________________________________________________________________
batch_normalization_7 (BatchNor (None, 40, 26, 20)   80          conv2d_7[0][0]                   
__________________________________________________________________________________________________
activation_7 (Activation)       (None, 40, 26, 20)   0           batch_normalization_7[0][0]      
__________________________________________________________________________________________________
concatenate_2 (Concatenate)     (None, 40, 26, 70)   0           dropout_4[0][0]                  
                                                                 activation_7[0][0]               
__________________________________________________________________________________________________
max_pooling2d_2 (MaxPooling2D)  (None, 20, 13, 70)   0           concatenate_2[0][0]              
__________________________________________________________________________________________________
dropout_5 (Dropout)             (None, 20, 13, 70)   0           max_pooling2d_2[0][0]            
__________________________________________________________________________________________________
conv2d_8 (Conv2D)               (None, 20, 13, 40)   25240       dropout_5[0][0]                  
__________________________________________________________________________________________________
batch_normalization_8 (BatchNor (None, 20, 13, 40)   160         conv2d_8[0][0]                   
__________________________________________________________________________________________________
activation_8 (Activation)       (None, 20, 13, 40)   0           batch_normalization_8[0][0]      
__________________________________________________________________________________________________
conv2d_9 (Conv2D)               (None, 20, 13, 40)   14440       activation_8[0][0]               
__________________________________________________________________________________________________
batch_normalization_9 (BatchNor (None, 20, 13, 40)   160         conv2d_9[0][0]                   
__________________________________________________________________________________________________
activation_9 (Activation)       (None, 20, 13, 40)   0           batch_normalization_9[0][0]      
__________________________________________________________________________________________________
concatenate_3 (Concatenate)     (None, 20, 13, 110)  0           dropout_5[0][0]                  2019-06-29 17:28:14.253211: I tensorflow/core/common_runtime/gpu/gpu_device.cc:1471] Adding visible gpu devices: 0
2019-06-29 17:28:14.253317: I tensorflow/core/common_runtime/gpu/gpu_device.cc:952] Device interconnect StreamExecutor with strength 1 edge matrix:
2019-06-29 17:28:14.253332: I tensorflow/core/common_runtime/gpu/gpu_device.cc:958]      0 
2019-06-29 17:28:14.253350: I tensorflow/core/common_runtime/gpu/gpu_device.cc:971] 0:   N 
2019-06-29 17:28:14.253592: I tensorflow/core/common_runtime/gpu/gpu_device.cc:1084] Created TensorFlow device (/job:localhost/replica:0/task:0/device:GPU:0 with 15123 MB memory) -> physical GPU (device: 0, name: Tesla P100-PCIE-16GB, pci bus id: 0000:88:00.0, compute capability: 6.0)

                                                                 activation_9[0][0]               
__________________________________________________________________________________________________
dropout_6 (Dropout)             (None, 20, 13, 110)  0           concatenate_3[0][0]              
__________________________________________________________________________________________________
conv2d_transpose_1 (Conv2DTrans (None, 40, 26, 20)   8820        dropout_6[0][0]                  
__________________________________________________________________________________________________
concatenate_4 (Concatenate)     (None, 40, 26, 90)   0           conv2d_transpose_1[0][0]         
                                                                 concatenate_2[0][0]              
__________________________________________________________________________________________________
conv2d_10 (Conv2D)              (None, 40, 26, 20)   16220       concatenate_4[0][0]              
__________________________________________________________________________________________________
batch_normalization_10 (BatchNo (None, 40, 26, 20)   80          conv2d_10[0][0]                  
__________________________________________________________________________________________________
activation_10 (Activation)      (None, 40, 26, 20)   0           batch_normalization_10[0][0]     
__________________________________________________________________________________________________
conv2d_11 (Conv2D)              (None, 40, 26, 20)   3620        activation_10[0][0]              
__________________________________________________________________________________________________
batch_normalization_11 (BatchNo (None, 40, 26, 20)   80          conv2d_11[0][0]                  
__________________________________________________________________________________________________
activation_11 (Activation)      (None, 40, 26, 20)   0           batch_normalization_11[0][0]     
__________________________________________________________________________________________________
concatenate_5 (Concatenate)     (None, 40, 26, 110)  0           concatenate_4[0][0]              
                                                                 activation_11[0][0]              
__________________________________________________________________________________________________
dropout_7 (Dropout)             (None, 40, 26, 110)  0           concatenate_5[0][0]              
__________________________________________________________________________________________________
conv2d_transpose_2 (Conv2DTrans (None, 80, 52, 10)   4410        dropout_7[0][0]                  
__________________________________________________________________________________________________
concatenate_6 (Concatenate)     (None, 80, 52, 60)   0           conv2d_transpose_2[0][0]         
                                                                 concatenate_1[0][0]              
__________________________________________________________________________________________________
conv2d_12 (Conv2D)              (None, 80, 52, 10)   5410        concatenate_6[0][0]              
__________________________________________________________________________________________________
batch_normalization_12 (BatchNo (None, 80, 52, 10)   40          conv2d_12[0][0]                  
__________________________________________________________________________________________________
activation_12 (Activation)      (None, 80, 52, 10)   0           batch_normalization_12[0][0]     
__________________________________________________________________________________________________
conv2d_13 (Conv2D)              (None, 80, 52, 10)   910         activation_12[0][0]              
__________________________________________________________________________________________________
batch_normalization_13 (BatchNo (None, 80, 52, 10)   40          conv2d_13[0][0]                  
__________________________________________________________________________________________________
activation_13 (Activation)      (None, 80, 52, 10)   0           batch_normalization_13[0][0]     
__________________________________________________________________________________________________
concatenate_7 (Concatenate)     (None, 80, 52, 70)   0           concatenate_6[0][0]              
                                                                 activation_13[0][0]              
__________________________________________________________________________________________________
dropout_8 (Dropout)             (None, 80, 52, 70)   0           concatenate_7[0][0]              
__________________________________________________________________________________________________
conv2d_14 (Conv2D)              (None, 80, 52, 13)   923         dropout_8[0][0]                  
==================================================================================================
Total params: 127,713
Trainable params: 127,073
Non-trainable params: 640
__________________________________________________________________________________________________
------------------------------------------------------------------
class_weights [2.50503691e+01 1.10719368e+01 4.47241411e+01 3.83905837e+00
…
---------------------------------------------------------------
 Nucleus: [1]  | GPU: 6  | SD 2  | Dropout 0.3  | LR 0.001  | NL 3  |  Cascade |  FM 10 |  Upsample 1
Experiment: exp7
SubExperiment: sE12_Cascade_FM10_Res_Unet_NL3_LS_MyBCE_US1_Main_Init_3T_CV_a
---------------------------------------------------------------
__________________________________________________________________________________________________
Layer (type)                    Output Shape         Param #     Connected to                     
==================================================================================================
input_1 (InputLayer)            (None, 116, 116, 1)  0                                            
__________________________________________________________________________________________________
conv2d_1 (Conv2D)               (None, 116, 116, 40) 400         input_1[0][0]                    
__________________________________________________________________________________________________
batch_normalization_1 (BatchNor (None, 116, 116, 40) 160         conv2d_1[0][0]                   
__________________________________________________________________________________________________
activation_1 (Activation)       (None, 116, 116, 40) 0           batch_normalization_1[0][0]      
__________________________________________________________________________________________________
dropout_1 (Dropout)             (None, 116, 116, 40) 0           activation_1[0][0]               
__________________________________________________________________________________________________
conv2d_2 (Conv2D)               (None, 116, 116, 40) 14440       dropout_1[0][0]                  
__________________________________________________________________________________________________
batch_normalization_2 (BatchNor (None, 116, 116, 40) 160         conv2d_2[0][0]                   
__________________________________________________________________________________________________
activation_2 (Activation)       (None, 116, 116, 40) 0           batch_normalization_2[0][0]      
__________________________________________________________________________________________________
dropout_2 (Dropout)             (None, 116, 116, 40) 0           activation_2[0][0]               
__________________________________________________________________________________________________
conv2d_3 (Conv2D)               (None, 116, 116, 40) 14440       dropout_2[0][0]                  
__________________________________________________________________________________________________
batch_normalization_3 (BatchNor (None, 116, 116, 40) 160         conv2d_3[0][0]                   
__________________________________________________________________________________________________
activation_3 (Activation)       (None, 116, 116, 40) 0           batch_normalization_3[0][0]      
__________________________________________________________________________________________________
dropout_3 (Dropout)             (None, 116, 116, 40) 0           activation_3[0][0]               
__________________________________________________________________________________________________
conv2d_4 (Conv2D)               (None, 116, 116, 10) 3610        dropout_3[0][0]                  
__________________________________________________________________________________________________
batch_normalization_4 (BatchNor (None, 116, 116, 10) 40          conv2d_4[0][0]                   
__________________________________________________________________________________________________
activation_4 (Activation)       (None, 116, 116, 10) 0           batch_normalization_4[0][0]      
__________________________________________________________________________________________________
conv2d_5 (Conv2D)               (None, 116, 116, 10) 910         activation_4[0][0]               
__________________________________________________________________________________________________
batch_normalization_5 (BatchNor (None, 116, 116, 10) 40          conv2d_5[0][0]                   
__________________________________________________________________________________________________
activation_5 (Activation)       (None, 116, 116, 10) 0           batch_normalization_5[0][0]      
__________________________________________________________________________________________________
concatenate_1 (Concatenate)     (None, 116, 116, 50) 0           dropout_3[0][0]                  
                                                                 activation_5[0][0]               
__________________________________________________________________________________________________
max_pooling2d_1 (MaxPooling2D)  (None, 58, 58, 50)   0           concatenate_1[0][0]              
__________________________________________________________________________________________________
dropout_4 (Dropout)             (None, 58, 58, 50)   0           max_pooling2d_1[0][0]            
__________________________________________________________________________________________________
conv2d_6 (Conv2D)               (None, 58, 58, 20)   9020        dropout_4[0][0]                  
__________________________________________________________________________________________________
batch_normalization_6 (BatchNor (None, 58, 58, 20)   80          conv2d_6[0][0]                   
__________________________________________________________________________________________________
activation_6 (Activation)       (None, 58, 58, 20)   0           batch_normalization_6[0][0]      
__________________________________________________________________________________________________
conv2d_7 (Conv2D)               (None, 58, 58, 20)   3620        activation_6[0][0]               
__________________________________________________________________________________________________
batch_normalization_7 (BatchNor (None, 58, 58, 20)   80          conv2d_7[0][0]                   
__________________________________________________________________________________________________
activation_7 (Activation)       (None, 58, 58, 20)   0           batch_normalization_7[0][0]      
__________________________________________________________________________________________________
concatenate_2 (Concatenate)     (None, 58, 58, 70)   0           dropout_4[0][0]                  
                                                                 activation_7[0][0]               
__________________________________________________________________________________________________
max_pooling2d_2 (MaxPooling2D)  (None, 29, 29, 70)   0           concatenate_2[0][0]              
__________________________________________________________________________________________________
dropout_5 (Dropout)             (None, 29, 29, 70)   0           max_pooling2d_2[0][0]            
__________________________________________________________________________________________________
conv2d_8 (Conv2D)               (None, 29, 29, 40)   25240       dropout_5[0][0]                  
__________________________________________________________________________________________________
batch_normalization_8 (BatchNor (None, 29, 29, 40)   160         conv2d_8[0][0]                   
__________________________________________________________________________________________________
activation_8 (Activation)       (None, 29, 29, 40)   0           batch_normalization_8[0][0]      
__________________________________________________________________________________________________
conv2d_9 (Conv2D)               (None, 29, 29, 40)   14440       activation_8[0][0]               
__________________________________________________________________________________________________
batch_normalization_9 (BatchNor (None, 29, 29, 40)   160         conv2d_9[0][0]                   
__________________________________________________________________________________________________
activation_9 (Activation)       (None, 29, 29, 40)   0           batch_normalization_9[0][0]      2019-06-29 20:06:35.278264: I tensorflow/core/common_runtime/gpu/gpu_device.cc:1471] Adding visible gpu devices: 0
2019-06-29 20:06:35.278382: I tensorflow/core/common_runtime/gpu/gpu_device.cc:952] Device interconnect StreamExecutor with strength 1 edge matrix:
2019-06-29 20:06:35.278405: I tensorflow/core/common_runtime/gpu/gpu_device.cc:958]      0 
2019-06-29 20:06:35.278420: I tensorflow/core/common_runtime/gpu/gpu_device.cc:971] 0:   N 
2019-06-29 20:06:35.278708: I tensorflow/core/common_runtime/gpu/gpu_device.cc:1084] Created TensorFlow device (/job:localhost/replica:0/task:0/device:GPU:0 with 15123 MB memory) -> physical GPU (device: 0, name: Tesla P100-PCIE-16GB, pci bus id: 0000:88:00.0, compute capability: 6.0)

__________________________________________________________________________________________________
concatenate_3 (Concatenate)     (None, 29, 29, 110)  0           dropout_5[0][0]                  
                                                                 activation_9[0][0]               
__________________________________________________________________________________________________
dropout_6 (Dropout)             (None, 29, 29, 110)  0           concatenate_3[0][0]              
__________________________________________________________________________________________________
conv2d_transpose_1 (Conv2DTrans (None, 58, 58, 20)   8820        dropout_6[0][0]                  
__________________________________________________________________________________________________
concatenate_4 (Concatenate)     (None, 58, 58, 90)   0           conv2d_transpose_1[0][0]         
                                                                 concatenate_2[0][0]              
__________________________________________________________________________________________________
conv2d_10 (Conv2D)              (None, 58, 58, 20)   16220       concatenate_4[0][0]              
__________________________________________________________________________________________________
batch_normalization_10 (BatchNo (None, 58, 58, 20)   80          conv2d_10[0][0]                  
__________________________________________________________________________________________________
activation_10 (Activation)      (None, 58, 58, 20)   0           batch_normalization_10[0][0]     
__________________________________________________________________________________________________
conv2d_11 (Conv2D)              (None, 58, 58, 20)   3620        activation_10[0][0]              
__________________________________________________________________________________________________
batch_normalization_11 (BatchNo (None, 58, 58, 20)   80          conv2d_11[0][0]                  
__________________________________________________________________________________________________
activation_11 (Activation)      (None, 58, 58, 20)   0           batch_normalization_11[0][0]     
__________________________________________________________________________________________________
concatenate_5 (Concatenate)     (None, 58, 58, 110)  0           concatenate_4[0][0]              
                                                                 activation_11[0][0]              
__________________________________________________________________________________________________
dropout_7 (Dropout)             (None, 58, 58, 110)  0           concatenate_5[0][0]              
__________________________________________________________________________________________________
conv2d_transpose_2 (Conv2DTrans (None, 116, 116, 10) 4410        dropout_7[0][0]                  
__________________________________________________________________________________________________
concatenate_6 (Concatenate)     (None, 116, 116, 60) 0           conv2d_transpose_2[0][0]         
                                                                 concatenate_1[0][0]              
__________________________________________________________________________________________________
conv2d_12 (Conv2D)              (None, 116, 116, 10) 5410        concatenate_6[0][0]              
__________________________________________________________________________________________________
batch_normalization_12 (BatchNo (None, 116, 116, 10) 40          conv2d_12[0][0]                  
__________________________________________________________________________________________________
activation_12 (Activation)      (None, 116, 116, 10) 0           batch_normalization_12[0][0]     
__________________________________________________________________________________________________
conv2d_13 (Conv2D)              (None, 116, 116, 10) 910         activation_12[0][0]              
__________________________________________________________________________________________________
batch_normalization_13 (BatchNo (None, 116, 116, 10) 40          conv2d_13[0][0]                  
__________________________________________________________________________________________________
activation_13 (Activation)      (None, 116, 116, 10) 0           batch_normalization_13[0][0]     
__________________________________________________________________________________________________
concatenate_7 (Concatenate)     (None, 116, 116, 70) 0           concatenate_6[0][0]              
                                                                 activation_13[0][0]              
__________________________________________________________________________________________________
dropout_8 (Dropout)             (None, 116, 116, 70) 0           concatenate_7[0][0]              
__________________________________________________________________________________________________
conv2d_14 (Conv2D)              (None, 116, 116, 2)  142         dropout_8[0][0]                  
==================================================================================================
Total params: 126,932
Trainable params: 126,292
Non-trainable params: 640
__________________________________________________________________________________________________
----- /array/ssd/msmajdi/experiments/keras/exp7/models/sE8_Cascade_FM10_Res_Unet_NL3_LS_MyBCE_US1/1-THALAMUS/sd2/model_weights.h5
…
---------------------------------------------------------------
 Nucleus: [1]  | GPU: 6  | SD 1  | Dropout 0.3  | LR 0.001  | NL 3  |  Cascade |  FM 10 |  Upsample 1
Experiment: exp7
SubExperiment: sE12_Cascade_FM10_Res_Unet_NL3_LS_MyBCE_US1_Main_Init_3T_CV_a
---------------------------------------------------------------
__________________________________________________________________________________________________
Layer (type)                    Output Shape         Param #     Connected to                     
==================================================================================================
input_1 (InputLayer)            (None, 72, 116, 1)   0                                            
__________________________________________________________________________________________________
conv2d_1 (Conv2D)               (None, 72, 116, 40)  400         input_1[0][0]                    
__________________________________________________________________________________________________
batch_normalization_1 (BatchNor (None, 72, 116, 40)  160         conv2d_1[0][0]                   
__________________________________________________________________________________________________
activation_1 (Activation)       (None, 72, 116, 40)  0           batch_normalization_1[0][0]      
__________________________________________________________________________________________________
dropout_1 (Dropout)             (None, 72, 116, 40)  0           activation_1[0][0]               
__________________________________________________________________________________________________
conv2d_2 (Conv2D)               (None, 72, 116, 40)  14440       dropout_1[0][0]                  
__________________________________________________________________________________________________
batch_normalization_2 (BatchNor (None, 72, 116, 40)  160         conv2d_2[0][0]                   
__________________________________________________________________________________________________
activation_2 (Activation)       (None, 72, 116, 40)  0           batch_normalization_2[0][0]      
__________________________________________________________________________________________________
dropout_2 (Dropout)             (None, 72, 116, 40)  0           activation_2[0][0]               
__________________________________________________________________________________________________
conv2d_3 (Conv2D)               (None, 72, 116, 40)  14440       dropout_2[0][0]                  
__________________________________________________________________________________________________
batch_normalization_3 (BatchNor (None, 72, 116, 40)  160         conv2d_3[0][0]                   
__________________________________________________________________________________________________
activation_3 (Activation)       (None, 72, 116, 40)  0           batch_normalization_3[0][0]      
__________________________________________________________________________________________________
dropout_3 (Dropout)             (None, 72, 116, 40)  0           activation_3[0][0]               
__________________________________________________________________________________________________
conv2d_4 (Conv2D)               (None, 72, 116, 10)  3610        dropout_3[0][0]                  
__________________________________________________________________________________________________
batch_normalization_4 (BatchNor (None, 72, 116, 10)  40          conv2d_4[0][0]                   
__________________________________________________________________________________________________
activation_4 (Activation)       (None, 72, 116, 10)  0           batch_normalization_4[0][0]      
__________________________________________________________________________________________________
conv2d_5 (Conv2D)               (None, 72, 116, 10)  910         activation_4[0][0]               
__________________________________________________________________________________________________
batch_normalization_5 (BatchNor (None, 72, 116, 10)  40          conv2d_5[0][0]                   
__________________________________________________________________________________________________
activation_5 (Activation)       (None, 72, 116, 10)  0           batch_normalization_5[0][0]      
__________________________________________________________________________________________________
concatenate_1 (Concatenate)     (None, 72, 116, 50)  0           dropout_3[0][0]                  
                                                                 activation_5[0][0]               
__________________________________________________________________________________________________
max_pooling2d_1 (MaxPooling2D)  (None, 36, 58, 50)   0           concatenate_1[0][0]              
__________________________________________________________________________________________________
dropout_4 (Dropout)             (None, 36, 58, 50)   0           max_pooling2d_1[0][0]            
__________________________________________________________________________________________________
conv2d_6 (Conv2D)               (None, 36, 58, 20)   9020        dropout_4[0][0]                  
__________________________________________________________________________________________________
batch_normalization_6 (BatchNor (None, 36, 58, 20)   80          conv2d_6[0][0]                   
__________________________________________________________________________________________________
activation_6 (Activation)       (None, 36, 58, 20)   0           batch_normalization_6[0][0]      
__________________________________________________________________________________________________
conv2d_7 (Conv2D)               (None, 36, 58, 20)   3620        activation_6[0][0]               
__________________________________________________________________________________________________
batch_normalization_7 (BatchNor (None, 36, 58, 20)   80          conv2d_7[0][0]                   
__________________________________________________________________________________________________
activation_7 (Activation)       (None, 36, 58, 20)   0           batch_normalization_7[0][0]      
__________________________________________________________________________________________________
concatenate_2 (Concatenate)     (None, 36, 58, 70)   0           dropout_4[0][0]                  
                                                                 activation_7[0][0]               
__________________________________________________________________________________________________
max_pooling2d_2 (MaxPooling2D)  (None, 18, 29, 70)   0           concatenate_2[0][0]              
__________________________________________________________________________________________________
dropout_5 (Dropout)             (None, 18, 29, 70)   0           max_pooling2d_2[0][0]            
__________________________________________________________________________________________________
conv2d_8 (Conv2D)               (None, 18, 29, 40)   25240       dropout_5[0][0]                  
__________________________________________________________________________________________________
batch_normalization_8 (BatchNor (None, 18, 29, 40)   160         conv2d_8[0][0]                   
__________________________________________________________________________________________________
activation_8 (Activation)       (None, 18, 29, 40)   0           batch_normalization_8[0][0]      
__________________________________________________________________________________________________
conv2d_9 (Conv2D)               (None, 18, 29, 40)   14440       activation_8[0][0]               
__________________________________________________________________________________________________
batch_normalization_9 (BatchNor (None, 18, 29, 40)   160         conv2d_9[0][0]                   
__________________________________________________________________________________________________
activation_9 (Activation)       (None, 18, 29, 40)   0           batch_normalization_9[0][0]      
__________________________________________________________________________________________________
concatenate_3 (Concatenate)     (None, 18, 29, 110)  0           dropout_5[0][0]                  2019-06-29 22:56:28.215164: I tensorflow/core/common_runtime/gpu/gpu_device.cc:1471] Adding visible gpu devices: 0
2019-06-29 22:56:28.215281: I tensorflow/core/common_runtime/gpu/gpu_device.cc:952] Device interconnect StreamExecutor with strength 1 edge matrix:
2019-06-29 22:56:28.215299: I tensorflow/core/common_runtime/gpu/gpu_device.cc:958]      0 
2019-06-29 22:56:28.215312: I tensorflow/core/common_runtime/gpu/gpu_device.cc:971] 0:   N 
2019-06-29 22:56:28.215626: I tensorflow/core/common_runtime/gpu/gpu_device.cc:1084] Created TensorFlow device (/job:localhost/replica:0/task:0/device:GPU:0 with 15123 MB memory) -> physical GPU (device: 0, name: Tesla P100-PCIE-16GB, pci bus id: 0000:88:00.0, compute capability: 6.0)

                                                                 activation_9[0][0]               
__________________________________________________________________________________________________
dropout_6 (Dropout)             (None, 18, 29, 110)  0           concatenate_3[0][0]              
__________________________________________________________________________________________________
conv2d_transpose_1 (Conv2DTrans (None, 36, 58, 20)   8820        dropout_6[0][0]                  
__________________________________________________________________________________________________
concatenate_4 (Concatenate)     (None, 36, 58, 90)   0           conv2d_transpose_1[0][0]         
                                                                 concatenate_2[0][0]              
__________________________________________________________________________________________________
conv2d_10 (Conv2D)              (None, 36, 58, 20)   16220       concatenate_4[0][0]              
__________________________________________________________________________________________________
batch_normalization_10 (BatchNo (None, 36, 58, 20)   80          conv2d_10[0][0]                  
__________________________________________________________________________________________________
activation_10 (Activation)      (None, 36, 58, 20)   0           batch_normalization_10[0][0]     
__________________________________________________________________________________________________
conv2d_11 (Conv2D)              (None, 36, 58, 20)   3620        activation_10[0][0]              
__________________________________________________________________________________________________
batch_normalization_11 (BatchNo (None, 36, 58, 20)   80          conv2d_11[0][0]                  
__________________________________________________________________________________________________
activation_11 (Activation)      (None, 36, 58, 20)   0           batch_normalization_11[0][0]     
__________________________________________________________________________________________________
concatenate_5 (Concatenate)     (None, 36, 58, 110)  0           concatenate_4[0][0]              
                                                                 activation_11[0][0]              
__________________________________________________________________________________________________
dropout_7 (Dropout)             (None, 36, 58, 110)  0           concatenate_5[0][0]              
__________________________________________________________________________________________________
conv2d_transpose_2 (Conv2DTrans (None, 72, 116, 10)  4410        dropout_7[0][0]                  
__________________________________________________________________________________________________
concatenate_6 (Concatenate)     (None, 72, 116, 60)  0           conv2d_transpose_2[0][0]         
                                                                 concatenate_1[0][0]              
__________________________________________________________________________________________________
conv2d_12 (Conv2D)              (None, 72, 116, 10)  5410        concatenate_6[0][0]              
__________________________________________________________________________________________________
batch_normalization_12 (BatchNo (None, 72, 116, 10)  40          conv2d_12[0][0]                  
__________________________________________________________________________________________________
activation_12 (Activation)      (None, 72, 116, 10)  0           batch_normalization_12[0][0]     
__________________________________________________________________________________________________
conv2d_13 (Conv2D)              (None, 72, 116, 10)  910         activation_12[0][0]              
__________________________________________________________________________________________________
batch_normalization_13 (BatchNo (None, 72, 116, 10)  40          conv2d_13[0][0]                  
__________________________________________________________________________________________________
activation_13 (Activation)      (None, 72, 116, 10)  0           batch_normalization_13[0][0]     
__________________________________________________________________________________________________
concatenate_7 (Concatenate)     (None, 72, 116, 70)  0           concatenate_6[0][0]              
                                                                 activation_13[0][0]              
__________________________________________________________________________________________________
dropout_8 (Dropout)             (None, 72, 116, 70)  0           concatenate_7[0][0]              
__________________________________________________________________________________________________
conv2d_14 (Conv2D)              (None, 72, 116, 2)   142         dropout_8[0][0]                  
==================================================================================================
Total params: 126,932
Trainable params: 126,292
Non-trainable params: 640
__________________________________________________________________________________________________
----- /array/ssd/msmajdi/experiments/keras/exp7/models/sE8_Cascade_FM10_Res_Unet_NL3_LS_MyBCE_US1/1-THALAMUS/sd1/model_weights.h5
…
 Nucleus: [2, 4, 5, 6, 7, 8, 9, 10, 11, 12, 13, 14]  | GPU: 6  | SD 2  | Dropout 0.3  | LR 0.001  | NL 3  |  Cascade |  FM 10 |  Upsample 1
Experiment: exp7
SubExperiment: sE12_Cascade_FM10_Res_Unet_NL3_LS_MyBCE_US1_Main_Init_3T_CV_a
---------------------------------------------------------------
__________________________________________________________________________________________________
Layer (type)                    Output Shape         Param #     Connected to                     
==================================================================================================
input_1 (InputLayer)            (None, 52, 84, 1)    0                                            
__________________________________________________________________________________________________
conv2d_1 (Conv2D)               (None, 52, 84, 40)   400         input_1[0][0]                    
__________________________________________________________________________________________________
batch_normalization_1 (BatchNor (None, 52, 84, 40)   160         conv2d_1[0][0]                   
__________________________________________________________________________________________________
activation_1 (Activation)       (None, 52, 84, 40)   0           batch_normalization_1[0][0]      
__________________________________________________________________________________________________
dropout_1 (Dropout)             (None, 52, 84, 40)   0           activation_1[0][0]               
__________________________________________________________________________________________________
conv2d_2 (Conv2D)               (None, 52, 84, 40)   14440       dropout_1[0][0]                  
__________________________________________________________________________________________________
batch_normalization_2 (BatchNor (None, 52, 84, 40)   160         conv2d_2[0][0]                   
__________________________________________________________________________________________________
activation_2 (Activation)       (None, 52, 84, 40)   0           batch_normalization_2[0][0]      
__________________________________________________________________________________________________
dropout_2 (Dropout)             (None, 52, 84, 40)   0           activation_2[0][0]               
__________________________________________________________________________________________________
conv2d_3 (Conv2D)               (None, 52, 84, 40)   14440       dropout_2[0][0]                  
__________________________________________________________________________________________________
batch_normalization_3 (BatchNor (None, 52, 84, 40)   160         conv2d_3[0][0]                   
__________________________________________________________________________________________________
activation_3 (Activation)       (None, 52, 84, 40)   0           batch_normalization_3[0][0]      
__________________________________________________________________________________________________
dropout_3 (Dropout)             (None, 52, 84, 40)   0           activation_3[0][0]               
__________________________________________________________________________________________________
conv2d_4 (Conv2D)               (None, 52, 84, 10)   3610        dropout_3[0][0]                  
__________________________________________________________________________________________________
batch_normalization_4 (BatchNor (None, 52, 84, 10)   40          conv2d_4[0][0]                   
__________________________________________________________________________________________________
activation_4 (Activation)       (None, 52, 84, 10)   0           batch_normalization_4[0][0]      
__________________________________________________________________________________________________
conv2d_5 (Conv2D)               (None, 52, 84, 10)   910         activation_4[0][0]               
__________________________________________________________________________________________________
batch_normalization_5 (BatchNor (None, 52, 84, 10)   40          conv2d_5[0][0]                   
__________________________________________________________________________________________________
activation_5 (Activation)       (None, 52, 84, 10)   0           batch_normalization_5[0][0]      
__________________________________________________________________________________________________
concatenate_1 (Concatenate)     (None, 52, 84, 50)   0           dropout_3[0][0]                  
                                                                 activation_5[0][0]               
__________________________________________________________________________________________________
max_pooling2d_1 (MaxPooling2D)  (None, 26, 42, 50)   0           concatenate_1[0][0]              
__________________________________________________________________________________________________
dropout_4 (Dropout)             (None, 26, 42, 50)   0           max_pooling2d_1[0][0]            
__________________________________________________________________________________________________
conv2d_6 (Conv2D)               (None, 26, 42, 20)   9020        dropout_4[0][0]                  
__________________________________________________________________________________________________
batch_normalization_6 (BatchNor (None, 26, 42, 20)   80          conv2d_6[0][0]                   
__________________________________________________________________________________________________
activation_6 (Activation)       (None, 26, 42, 20)   0           batch_normalization_6[0][0]      
__________________________________________________________________________________________________
conv2d_7 (Conv2D)               (None, 26, 42, 20)   3620        activation_6[0][0]               
__________________________________________________________________________________________________
batch_normalization_7 (BatchNor (None, 26, 42, 20)   80          conv2d_7[0][0]                   
__________________________________________________________________________________________________
activation_7 (Activation)       (None, 26, 42, 20)   0           batch_normalization_7[0][0]      
__________________________________________________________________________________________________
concatenate_2 (Concatenate)     (None, 26, 42, 70)   0           dropout_4[0][0]                  
                                                                 activation_7[0][0]               
__________________________________________________________________________________________________
max_pooling2d_2 (MaxPooling2D)  (None, 13, 21, 70)   0           concatenate_2[0][0]              
__________________________________________________________________________________________________
dropout_5 (Dropout)             (None, 13, 21, 70)   0           max_pooling2d_2[0][0]            
__________________________________________________________________________________________________
conv2d_8 (Conv2D)               (None, 13, 21, 40)   25240       dropout_5[0][0]                  
__________________________________________________________________________________________________
batch_normalization_8 (BatchNor (None, 13, 21, 40)   160         conv2d_8[0][0]                   
__________________________________________________________________________________________________
activation_8 (Activation)       (None, 13, 21, 40)   0           batch_normalization_8[0][0]      
__________________________________________________________________________________________________
conv2d_9 (Conv2D)               (None, 13, 21, 40)   14440       activation_8[0][0]               
__________________________________________________________________________________________________
batch_normalization_9 (BatchNor (None, 13, 21, 40)   160         conv2d_9[0][0]                   
__________________________________________________________________________________________________2019-06-30 02:09:36.995328: I tensorflow/core/common_runtime/gpu/gpu_device.cc:1471] Adding visible gpu devices: 0
2019-06-30 02:09:36.995414: I tensorflow/core/common_runtime/gpu/gpu_device.cc:952] Device interconnect StreamExecutor with strength 1 edge matrix:
2019-06-30 02:09:36.995429: I tensorflow/core/common_runtime/gpu/gpu_device.cc:958]      0 
2019-06-30 02:09:36.995437: I tensorflow/core/common_runtime/gpu/gpu_device.cc:971] 0:   N 
2019-06-30 02:09:36.995667: I tensorflow/core/common_runtime/gpu/gpu_device.cc:1084] Created TensorFlow device (/job:localhost/replica:0/task:0/device:GPU:0 with 15123 MB memory) -> physical GPU (device: 0, name: Tesla P100-PCIE-16GB, pci bus id: 0000:88:00.0, compute capability: 6.0)

activation_9 (Activation)       (None, 13, 21, 40)   0           batch_normalization_9[0][0]      
__________________________________________________________________________________________________
concatenate_3 (Concatenate)     (None, 13, 21, 110)  0           dropout_5[0][0]                  
                                                                 activation_9[0][0]               
__________________________________________________________________________________________________
dropout_6 (Dropout)             (None, 13, 21, 110)  0           concatenate_3[0][0]              
__________________________________________________________________________________________________
conv2d_transpose_1 (Conv2DTrans (None, 26, 42, 20)   8820        dropout_6[0][0]                  
__________________________________________________________________________________________________
concatenate_4 (Concatenate)     (None, 26, 42, 90)   0           conv2d_transpose_1[0][0]         
                                                                 concatenate_2[0][0]              
__________________________________________________________________________________________________
conv2d_10 (Conv2D)              (None, 26, 42, 20)   16220       concatenate_4[0][0]              
__________________________________________________________________________________________________
batch_normalization_10 (BatchNo (None, 26, 42, 20)   80          conv2d_10[0][0]                  
__________________________________________________________________________________________________
activation_10 (Activation)      (None, 26, 42, 20)   0           batch_normalization_10[0][0]     
__________________________________________________________________________________________________
conv2d_11 (Conv2D)              (None, 26, 42, 20)   3620        activation_10[0][0]              
__________________________________________________________________________________________________
batch_normalization_11 (BatchNo (None, 26, 42, 20)   80          conv2d_11[0][0]                  
__________________________________________________________________________________________________
activation_11 (Activation)      (None, 26, 42, 20)   0           batch_normalization_11[0][0]     
__________________________________________________________________________________________________
concatenate_5 (Concatenate)     (None, 26, 42, 110)  0           concatenate_4[0][0]              
                                                                 activation_11[0][0]              
__________________________________________________________________________________________________
dropout_7 (Dropout)             (None, 26, 42, 110)  0           concatenate_5[0][0]              
__________________________________________________________________________________________________
conv2d_transpose_2 (Conv2DTrans (None, 52, 84, 10)   4410        dropout_7[0][0]                  
__________________________________________________________________________________________________
concatenate_6 (Concatenate)     (None, 52, 84, 60)   0           conv2d_transpose_2[0][0]         
                                                                 concatenate_1[0][0]              
__________________________________________________________________________________________________
conv2d_12 (Conv2D)              (None, 52, 84, 10)   5410        concatenate_6[0][0]              
__________________________________________________________________________________________________
batch_normalization_12 (BatchNo (None, 52, 84, 10)   40          conv2d_12[0][0]                  
__________________________________________________________________________________________________
activation_12 (Activation)      (None, 52, 84, 10)   0           batch_normalization_12[0][0]     
__________________________________________________________________________________________________
conv2d_13 (Conv2D)              (None, 52, 84, 10)   910         activation_12[0][0]              
__________________________________________________________________________________________________
batch_normalization_13 (BatchNo (None, 52, 84, 10)   40          conv2d_13[0][0]                  
__________________________________________________________________________________________________
activation_13 (Activation)      (None, 52, 84, 10)   0           batch_normalization_13[0][0]     
__________________________________________________________________________________________________
concatenate_7 (Concatenate)     (None, 52, 84, 70)   0           concatenate_6[0][0]              
                                                                 activation_13[0][0]              
__________________________________________________________________________________________________
dropout_8 (Dropout)             (None, 52, 84, 70)   0           concatenate_7[0][0]              
__________________________________________________________________________________________________
conv2d_14 (Conv2D)              (None, 52, 84, 13)   923         dropout_8[0][0]                  
==================================================================================================
Total params: 127,713
Trainable params: 127,073
Non-trainable params: 640
__________________________________________________________________________________________________
----- /array/ssd/msmajdi/experiments/keras/exp7/models/sE8_Cascade_FM10_Res_Unet_NL3_LS_MyBCE_US1/MultiClass_24567891011121314/sd2/model_weights.h5
…
 Nucleus: [2, 4, 5, 6, 7, 8, 9, 10, 11, 12, 13, 14]  | GPU: 6  | SD 0  | Dropout 0.3  | LR 0.001  | NL 3  |  Cascade |  FM 10 |  Upsample 1
Experiment: exp7
SubExperiment: sE12_Cascade_FM10_Res_Unet_NL3_LS_MyBCE_US1_Main_Init_3T_CV_a
---------------------------------------------------------------
__________________________________________________________________________________________________
Layer (type)                    Output Shape         Param #     Connected to                     
==================================================================================================
input_1 (InputLayer)            (None, 84, 52, 1)    0                                            
__________________________________________________________________________________________________
conv2d_1 (Conv2D)               (None, 84, 52, 40)   400         input_1[0][0]                    
__________________________________________________________________________________________________
batch_normalization_1 (BatchNor (None, 84, 52, 40)   160         conv2d_1[0][0]                   
__________________________________________________________________________________________________
activation_1 (Activation)       (None, 84, 52, 40)   0           batch_normalization_1[0][0]      
__________________________________________________________________________________________________
dropout_1 (Dropout)             (None, 84, 52, 40)   0           activation_1[0][0]               
__________________________________________________________________________________________________
conv2d_2 (Conv2D)               (None, 84, 52, 40)   14440       dropout_1[0][0]                  
__________________________________________________________________________________________________
batch_normalization_2 (BatchNor (None, 84, 52, 40)   160         conv2d_2[0][0]                   
__________________________________________________________________________________________________
activation_2 (Activation)       (None, 84, 52, 40)   0           batch_normalization_2[0][0]      
__________________________________________________________________________________________________
dropout_2 (Dropout)             (None, 84, 52, 40)   0           activation_2[0][0]               
__________________________________________________________________________________________________
conv2d_3 (Conv2D)               (None, 84, 52, 40)   14440       dropout_2[0][0]                  
__________________________________________________________________________________________________
batch_normalization_3 (BatchNor (None, 84, 52, 40)   160         conv2d_3[0][0]                   
__________________________________________________________________________________________________
activation_3 (Activation)       (None, 84, 52, 40)   0           batch_normalization_3[0][0]      
__________________________________________________________________________________________________
dropout_3 (Dropout)             (None, 84, 52, 40)   0           activation_3[0][0]               
__________________________________________________________________________________________________
conv2d_4 (Conv2D)               (None, 84, 52, 10)   3610        dropout_3[0][0]                  
__________________________________________________________________________________________________
batch_normalization_4 (BatchNor (None, 84, 52, 10)   40          conv2d_4[0][0]                   
__________________________________________________________________________________________________
activation_4 (Activation)       (None, 84, 52, 10)   0           batch_normalization_4[0][0]      
__________________________________________________________________________________________________
conv2d_5 (Conv2D)               (None, 84, 52, 10)   910         activation_4[0][0]               
__________________________________________________________________________________________________
batch_normalization_5 (BatchNor (None, 84, 52, 10)   40          conv2d_5[0][0]                   
__________________________________________________________________________________________________
activation_5 (Activation)       (None, 84, 52, 10)   0           batch_normalization_5[0][0]      
__________________________________________________________________________________________________
concatenate_1 (Concatenate)     (None, 84, 52, 50)   0           dropout_3[0][0]                  
                                                                 activation_5[0][0]               
__________________________________________________________________________________________________
max_pooling2d_1 (MaxPooling2D)  (None, 42, 26, 50)   0           concatenate_1[0][0]              
__________________________________________________________________________________________________
dropout_4 (Dropout)             (None, 42, 26, 50)   0           max_pooling2d_1[0][0]            
__________________________________________________________________________________________________
conv2d_6 (Conv2D)               (None, 42, 26, 20)   9020        dropout_4[0][0]                  
__________________________________________________________________________________________________
batch_normalization_6 (BatchNor (None, 42, 26, 20)   80          conv2d_6[0][0]                   
__________________________________________________________________________________________________
activation_6 (Activation)       (None, 42, 26, 20)   0           batch_normalization_6[0][0]      
__________________________________________________________________________________________________
conv2d_7 (Conv2D)               (None, 42, 26, 20)   3620        activation_6[0][0]               
__________________________________________________________________________________________________
batch_normalization_7 (BatchNor (None, 42, 26, 20)   80          conv2d_7[0][0]                   
__________________________________________________________________________________________________
activation_7 (Activation)       (None, 42, 26, 20)   0           batch_normalization_7[0][0]      
__________________________________________________________________________________________________
concatenate_2 (Concatenate)     (None, 42, 26, 70)   0           dropout_4[0][0]                  
                                                                 activation_7[0][0]               
__________________________________________________________________________________________________
max_pooling2d_2 (MaxPooling2D)  (None, 21, 13, 70)   0           concatenate_2[0][0]              
__________________________________________________________________________________________________
dropout_5 (Dropout)             (None, 21, 13, 70)   0           max_pooling2d_2[0][0]            
__________________________________________________________________________________________________
conv2d_8 (Conv2D)               (None, 21, 13, 40)   25240       dropout_5[0][0]                  
__________________________________________________________________________________________________
batch_normalization_8 (BatchNor (None, 21, 13, 40)   160         conv2d_8[0][0]                   
__________________________________________________________________________________________________
activation_8 (Activation)       (None, 21, 13, 40)   0           batch_normalization_8[0][0]      
__________________________________________________________________________________________________
conv2d_9 (Conv2D)               (None, 21, 13, 40)   14440       activation_8[0][0]               
__________________________________________________________________________________________________
batch_normalization_9 (BatchNor (None, 21, 13, 40)   160         conv2d_9[0][0]                   
__________________________________________________________________________________________________
activation_9 (Activation)       (None, 21, 13, 40)   0           batch_normalization_9[0][0]      
__________________________________________________________________________________________________
concatenate_3 (Concatenate)     (None, 21, 13, 110)  0           dropout_5[0][0]                  2019-06-30 04:37:01.386106: I tensorflow/core/common_runtime/gpu/gpu_device.cc:1471] Adding visible gpu devices: 0
2019-06-30 04:37:01.386189: I tensorflow/core/common_runtime/gpu/gpu_device.cc:952] Device interconnect StreamExecutor with strength 1 edge matrix:
2019-06-30 04:37:01.386203: I tensorflow/core/common_runtime/gpu/gpu_device.cc:958]      0 
2019-06-30 04:37:01.386220: I tensorflow/core/common_runtime/gpu/gpu_device.cc:971] 0:   N 
2019-06-30 04:37:01.386450: I tensorflow/core/common_runtime/gpu/gpu_device.cc:1084] Created TensorFlow device (/job:localhost/replica:0/task:0/device:GPU:0 with 15123 MB memory) -> physical GPU (device: 0, name: Tesla P100-PCIE-16GB, pci bus id: 0000:88:00.0, compute capability: 6.0)

                                                                 activation_9[0][0]               
__________________________________________________________________________________________________
dropout_6 (Dropout)             (None, 21, 13, 110)  0           concatenate_3[0][0]              
__________________________________________________________________________________________________
conv2d_transpose_1 (Conv2DTrans (None, 42, 26, 20)   8820        dropout_6[0][0]                  
__________________________________________________________________________________________________
concatenate_4 (Concatenate)     (None, 42, 26, 90)   0           conv2d_transpose_1[0][0]         
                                                                 concatenate_2[0][0]              
__________________________________________________________________________________________________
conv2d_10 (Conv2D)              (None, 42, 26, 20)   16220       concatenate_4[0][0]              
__________________________________________________________________________________________________
batch_normalization_10 (BatchNo (None, 42, 26, 20)   80          conv2d_10[0][0]                  
__________________________________________________________________________________________________
activation_10 (Activation)      (None, 42, 26, 20)   0           batch_normalization_10[0][0]     
__________________________________________________________________________________________________
conv2d_11 (Conv2D)              (None, 42, 26, 20)   3620        activation_10[0][0]              
__________________________________________________________________________________________________
batch_normalization_11 (BatchNo (None, 42, 26, 20)   80          conv2d_11[0][0]                  
__________________________________________________________________________________________________
activation_11 (Activation)      (None, 42, 26, 20)   0           batch_normalization_11[0][0]     
__________________________________________________________________________________________________
concatenate_5 (Concatenate)     (None, 42, 26, 110)  0           concatenate_4[0][0]              
                                                                 activation_11[0][0]              
__________________________________________________________________________________________________
dropout_7 (Dropout)             (None, 42, 26, 110)  0           concatenate_5[0][0]              
__________________________________________________________________________________________________
conv2d_transpose_2 (Conv2DTrans (None, 84, 52, 10)   4410        dropout_7[0][0]                  
__________________________________________________________________________________________________
concatenate_6 (Concatenate)     (None, 84, 52, 60)   0           conv2d_transpose_2[0][0]         
                                                                 concatenate_1[0][0]              
__________________________________________________________________________________________________
conv2d_12 (Conv2D)              (None, 84, 52, 10)   5410        concatenate_6[0][0]              
__________________________________________________________________________________________________
batch_normalization_12 (BatchNo (None, 84, 52, 10)   40          conv2d_12[0][0]                  
__________________________________________________________________________________________________
activation_12 (Activation)      (None, 84, 52, 10)   0           batch_normalization_12[0][0]     
__________________________________________________________________________________________________
conv2d_13 (Conv2D)              (None, 84, 52, 10)   910         activation_12[0][0]              
__________________________________________________________________________________________________
batch_normalization_13 (BatchNo (None, 84, 52, 10)   40          conv2d_13[0][0]                  
__________________________________________________________________________________________________
activation_13 (Activation)      (None, 84, 52, 10)   0           batch_normalization_13[0][0]     
__________________________________________________________________________________________________
concatenate_7 (Concatenate)     (None, 84, 52, 70)   0           concatenate_6[0][0]              
                                                                 activation_13[0][0]              
__________________________________________________________________________________________________
dropout_8 (Dropout)             (None, 84, 52, 70)   0           concatenate_7[0][0]              
__________________________________________________________________________________________________
conv2d_14 (Conv2D)              (None, 84, 52, 13)   923         dropout_8[0][0]                  
==================================================================================================
Total params: 127,713
Trainable params: 127,073
Non-trainable params: 640
__________________________________________________________________________________________________
----- /array/ssd/msmajdi/experiments/keras/exp7/models/sE8_Cascade_FM10_Res_Unet_NL3_LS_MyBCE_US1/MultiClass_24567891011121314/sd0/model_weights.h5
…
2019-06-30 05:27:32.365357: I tensorflow/core/common_runtime/gpu/gpu_device.cc:952] Device interconnect StreamExecutor with strength 1 edge matrix:
2019-06-30 05:27:32.365373: I tensorflow/core/common_runtime/gpu/gpu_device.cc:958]      0 
2019-06-30 05:27:32.365382: I tensorflow/core/common_runtime/gpu/gpu_device.cc:971] 0:   N 
2019-06-30 05:27:32.366123: I tensorflow/core/common_runtime/gpu/gpu_device.cc:1084] Created TensorFlow device (/job:localhost/replica:0/task:0/device:GPU:0 with 15123 MB memory) -> physical GPU (device: 0, name: Tesla P100-PCIE-16GB, pci bus id: 0000:88:00.0, compute capability: 6.0)

=================================================================
input_1 (InputLayer)         (None, 112, 152, 1)       0         
_________________________________________________________________
conv2d_1 (Conv2D)            (None, 112, 152, 10)      100       
_________________________________________________________________
batch_normalization_1 (Batch (None, 112, 152, 10)      40        
_________________________________________________________________
activation_1 (Activation)    (None, 112, 152, 10)      0         
_________________________________________________________________
conv2d_2 (Conv2D)            (None, 112, 152, 10)      910       
_________________________________________________________________
batch_normalization_2 (Batch (None, 112, 152, 10)      40        
_________________________________________________________________
activation_2 (Activation)    (None, 112, 152, 10)      0         
_________________________________________________________________
max_pooling2d_1 (MaxPooling2 (None, 56, 76, 10)        0         
_________________________________________________________________
conv2d_3 (Conv2D)            (None, 56, 76, 20)        1820      
_________________________________________________________________
batch_normalization_3 (Batch (None, 56, 76, 20)        80        
_________________________________________________________________
activation_3 (Activation)    (None, 56, 76, 20)        0         
_________________________________________________________________
conv2d_4 (Conv2D)            (None, 56, 76, 20)        3620      
_________________________________________________________________
batch_normalization_4 (Batch (None, 56, 76, 20)        80        
_________________________________________________________________
activation_4 (Activation)    (None, 56, 76, 20)        0         
_________________________________________________________________
max_pooling2d_2 (MaxPooling2 (None, 28, 38, 20)        0         
_________________________________________________________________
conv2d_5 (Conv2D)            (None, 28, 38, 40)        7240      
_________________________________________________________________
batch_normalization_5 (Batch (None, 28, 38, 40)        160       
_________________________________________________________________
activation_5 (Activation)    (None, 28, 38, 40)        0         
_________________________________________________________________
conv2d_6 (Conv2D)            (None, 28, 38, 40)        14440     
_________________________________________________________________
batch_normalization_6 (Batch (None, 28, 38, 40)        160       
_________________________________________________________________
activation_6 (Activation)    (None, 28, 38, 40)        0         
_________________________________________________________________
conv2d_7 (Conv2D)            (None, 28, 38, 40)        14440     
_________________________________________________________________
batch_normalization_7 (Batch (None, 28, 38, 40)        160       
_________________________________________________________________
activation_7 (Activation)    (None, 28, 38, 40)        0         
_________________________________________________________________
max_pooling2d_3 (MaxPooling2 (None, 14, 19, 40)        0         
_________________________________________________________________
up_sampling2d_1 (UpSampling2 (None, 28, 38, 40)        0         
_________________________________________________________________
conv2d_8 (Conv2D)            (None, 28, 38, 40)        14440     
_________________________________________________________________
batch_normalization_8 (Batch (None, 28, 38, 40)        160       
_________________________________________________________________
activation_8 (Activation)    (None, 28, 38, 40)        0         
_________________________________________________________________
conv2d_9 (Conv2D)            (None, 28, 38, 40)        14440     
_________________________________________________________________
batch_normalization_9 (Batch (None, 28, 38, 40)        160       
_________________________________________________________________
activation_9 (Activation)    (None, 28, 38, 40)        0         
_________________________________________________________________
conv2d_10 (Conv2D)           (None, 28, 38, 40)        14440     
_________________________________________________________________
batch_normalization_10 (Batc (None, 28, 38, 40)        160       
_________________________________________________________________
activation_10 (Activation)   (None, 28, 38, 40)        0         
_________________________________________________________________
up_sampling2d_2 (UpSampling2 (None, 56, 76, 40)        0         
_________________________________________________________________
conv2d_11 (Conv2D)           (None, 56, 76, 20)        7220      
_________________________________________________________________
batch_normalization_11 (Batc (None, 56, 76, 20)        80        
_________________________________________________________________
activation_11 (Activation)   (None, 56, 76, 20)        0         
_________________________________________________________________
conv2d_12 (Conv2D)           (None, 56, 76, 20)        3620      
_________________________________________________________________
batch_normalization_12 (Batc (None, 56, 76, 20)        80        
_________________________________________________________________
activation_12 (Activation)   (None, 56, 76, 20)        0         
_________________________________________________________________
up_sampling2d_3 (UpSampling2 (None, 112, 152, 20)      0         
_________________________________________________________________
conv2d_13 (Conv2D)           (None, 112, 152, 10)      1810      
_________________________________________________________________
batch_normalization_13 (Batc (None, 112, 152, 10)      40        
_________________________________________________________________
activation_13 (Activation)   (None, 112, 152, 10)      0         
_________________________________________________________________
conv2d_14 (Conv2D)           (None, 112, 152, 10)      910       
_________________________________________________________________
batch_normalization_14 (Batc (None, 112, 152, 10)      40        
_________________________________________________________________
activation_14 (Activation)   (None, 112, 152, 10)      0         
_________________________________________________________________
conv2d_15 (Conv2D)           (None, 112, 152, 2)       22        
=================================================================
Total params: 100,912
Trainable params: 100,192
Non-trainable params: 720
_________________________________________________________________
------------------------------------------------------------------
class_weights [27.00911323  0.51038228]
Train on 35595 samples, validate on 1007 samples
Epoch 1/300
 - 59s - loss: 68847.3889 - acc: 0.9806 - mDice: 0.1063 - val_loss: 22569.9726 - val_acc: 0.9966 - val_mDice: 0.2825
…
2019-06-30 08:11:24.691324: I tensorflow/core/common_runtime/gpu/gpu_device.cc:1084] Created TensorFlow device (/job:localhost/replica:0/task:0/device:GPU:0 with 15123 MB memory) -> physical GPU (device: 0, name: Tesla P100-PCIE-16GB, pci bus id: 0000:88:00.0, compute capability: 6.0)

---------------------------------------------------------------
 Nucleus: [1]  | GPU: 6  | SD 1  | Dropout 0.3  | LR 0.001  | NL 3  |  Cascade |  FM 10 |  Upsample 1
Experiment: exp7
SubExperiment: sE8_Cascade_FM10_SegNet_Unet_NL3_LS_MyBCE_US1
---------------------------------------------------------------
_________________________________________________________________
Layer (type)                 Output Shape              Param #   
=================================================================
input_1 (InputLayer)         (None, 88, 112, 1)        0         
_________________________________________________________________
conv2d_1 (Conv2D)            (None, 88, 112, 10)       100       
_________________________________________________________________
batch_normalization_1 (Batch (None, 88, 112, 10)       40        
_________________________________________________________________
activation_1 (Activation)    (None, 88, 112, 10)       0         
_________________________________________________________________
conv2d_2 (Conv2D)            (None, 88, 112, 10)       910       
_________________________________________________________________
batch_normalization_2 (Batch (None, 88, 112, 10)       40        
_________________________________________________________________
activation_2 (Activation)    (None, 88, 112, 10)       0         
_________________________________________________________________
max_pooling2d_1 (MaxPooling2 (None, 44, 56, 10)        0         
_________________________________________________________________
conv2d_3 (Conv2D)            (None, 44, 56, 20)        1820      
_________________________________________________________________
batch_normalization_3 (Batch (None, 44, 56, 20)        80        
_________________________________________________________________
activation_3 (Activation)    (None, 44, 56, 20)        0         
_________________________________________________________________
conv2d_4 (Conv2D)            (None, 44, 56, 20)        3620      
_________________________________________________________________
batch_normalization_4 (Batch (None, 44, 56, 20)        80        
_________________________________________________________________
activation_4 (Activation)    (None, 44, 56, 20)        0         
_________________________________________________________________
max_pooling2d_2 (MaxPooling2 (None, 22, 28, 20)        0         
_________________________________________________________________
conv2d_5 (Conv2D)            (None, 22, 28, 40)        7240      
_________________________________________________________________
batch_normalization_5 (Batch (None, 22, 28, 40)        160       
_________________________________________________________________
activation_5 (Activation)    (None, 22, 28, 40)        0         
_________________________________________________________________
conv2d_6 (Conv2D)            (None, 22, 28, 40)        14440     
_________________________________________________________________
batch_normalization_6 (Batch (None, 22, 28, 40)        160       
_________________________________________________________________
activation_6 (Activation)    (None, 22, 28, 40)        0         
_________________________________________________________________
conv2d_7 (Conv2D)            (None, 22, 28, 40)        14440     
_________________________________________________________________
batch_normalization_7 (Batch (None, 22, 28, 40)        160       
_________________________________________________________________
activation_7 (Activation)    (None, 22, 28, 40)        0         
_________________________________________________________________
max_pooling2d_3 (MaxPooling2 (None, 11, 14, 40)        0         
_________________________________________________________________
up_sampling2d_1 (UpSampling2 (None, 22, 28, 40)        0         
_________________________________________________________________
conv2d_8 (Conv2D)            (None, 22, 28, 40)        14440     
_________________________________________________________________
batch_normalization_8 (Batch (None, 22, 28, 40)        160       
_________________________________________________________________
activation_8 (Activation)    (None, 22, 28, 40)        0         
_________________________________________________________________
conv2d_9 (Conv2D)            (None, 22, 28, 40)        14440     
_________________________________________________________________
batch_normalization_9 (Batch (None, 22, 28, 40)        160       
_________________________________________________________________
activation_9 (Activation)    (None, 22, 28, 40)        0         
_________________________________________________________________
conv2d_10 (Conv2D)           (None, 22, 28, 40)        14440     
_________________________________________________________________
batch_normalization_10 (Batc (None, 22, 28, 40)        160       
_________________________________________________________________
activation_10 (Activation)   (None, 22, 28, 40)        0         
_________________________________________________________________
up_sampling2d_2 (UpSampling2 (None, 44, 56, 40)        0         
_________________________________________________________________
conv2d_11 (Conv2D)           (None, 44, 56, 20)        7220      
_________________________________________________________________
batch_normalization_11 (Batc (None, 44, 56, 20)        80        
_________________________________________________________________
activation_11 (Activation)   (None, 44, 56, 20)        0         
_________________________________________________________________
conv2d_12 (Conv2D)           (None, 44, 56, 20)        3620      
_________________________________________________________________
batch_normalization_12 (Batc (None, 44, 56, 20)        80        
_________________________________________________________________
activation_12 (Activation)   (None, 44, 56, 20)        0         
_________________________________________________________________
up_sampling2d_3 (UpSampling2 (None, 88, 112, 20)       0         
_________________________________________________________________
conv2d_13 (Conv2D)           (None, 88, 112, 10)       1810      
_________________________________________________________________
batch_normalization_13 (Batc (None, 88, 112, 10)       40        
_________________________________________________________________
activation_13 (Activation)   (None, 88, 112, 10)       0         
_________________________________________________________________
conv2d_14 (Conv2D)           (None, 88, 112, 10)       910       
_________________________________________________________________
batch_normalization_14 (Batc (None, 88, 112, 10)       40        
_________________________________________________________________
activation_14 (Activation)   (None, 88, 112, 10)       0         
_________________________________________________________________
conv2d_15 (Conv2D)           (None, 88, 112, 2)        22        
=================================================================
Total params: 100,912
Trainable params: 100,192
Non-trainable params: 720
_________________________________________________________________
------------------------------------------------------------------
class_weights [25.07431974  0.51120135]
Train on 57078 samples, validate on 1608 samples
Epoch 1/300
 - 58s - loss: 25901.6933 - acc: 0.9905 - mDice: 0.3340 - val_loss: 5811.7649 - val_acc: 0.9970 - val_mDice: 0.6137
…
 #layer 3 #layers changed False
---------------------------------------------------------------
 Nucleus: [2, 4, 5, 6, 7, 8, 9, 10, 11, 12, 13, 14]  | GPU: 6  | SD 2  | Dropout 0.3  | LR 0.001  | NL 3  |  Cascade |  FM 10 |  Upsample 1
Experiment: exp7
SubExperiment: sE8_Cascade_FM10_SegNet_Unet_NL3_LS_MyBCE_US1
---------------------------------------------------------------
_________________________________________________________________
Layer (type)                 Output Shape              Param #   
=================================================================
input_1 (InputLayer)         (None, 56, 80, 1)         0         
_________________________________________________________________
conv2d_1 (Conv2D)            (None, 56, 80, 10)        100       
_________________________________________________________________
batch_normalization_1 (Batch (None, 56, 80, 10)        40        
_________________________________________________________________
activation_1 (Activation)    (None, 56, 80, 10)        0         
_________________________________________________________________
conv2d_2 (Conv2D)            (None, 56, 80, 10)        910       
_________________________________________________________________
batch_normalization_2 (Batch (None, 56, 80, 10)        40        
_________________________________________________________________
activation_2 (Activation)    (None, 56, 80, 10)        0         
_________________________________________________________________
max_pooling2d_1 (MaxPooling2 (None, 28, 40, 10)        0         
_________________________________________________________________
conv2d_3 (Conv2D)            (None, 28, 40, 20)        1820      
_________________________________________________________________
batch_normalization_3 (Batch (None, 28, 40, 20)        80        
_________________________________________________________________
activation_3 (Activation)    (None, 28, 40, 20)        0         
_________________________________________________________________
conv2d_4 (Conv2D)            (None, 28, 40, 20)        3620      
_________________________________________________________________
batch_normalization_4 (Batch (None, 28, 40, 20)        80        
_________________________________________________________________
activation_4 (Activation)    (None, 28, 40, 20)        0         
_________________________________________________________________
max_pooling2d_2 (MaxPooling2 (None, 14, 20, 20)        0         
_________________________________________________________________
conv2d_5 (Conv2D)            (None, 14, 20, 40)        7240      
_________________________________________________________________
batch_normalization_5 (Batch (None, 14, 20, 40)        160       
_________________________________________________________________
activation_5 (Activation)    (None, 14, 20, 40)        0         
_________________________________________________________________
conv2d_6 (Conv2D)            (None, 14, 20, 40)        14440     
_________________________________________________________________
batch_normalization_6 (Batch (None, 14, 20, 40)        160       
_________________________________________________________________
activation_6 (Activation)    (None, 14, 20, 40)        0         
_________________________________________________________________
conv2d_7 (Conv2D)            (None, 14, 20, 40)        14440     
_________________________________________________________________
batch_normalization_7 (Batch (None, 14, 20, 40)        160       
_________________________________________________________________
activation_7 (Activation)    (None, 14, 20, 40)        0         
_________________________________________________________________
max_pooling2d_3 (MaxPooling2 (None, 7, 10, 40)         0         
_________________________________________________________________
up_sampling2d_1 (UpSampling2 (None, 14, 20, 40)        0         
_________________________________________________________________
conv2d_8 (Conv2D)            (None, 14, 20, 40)        14440     
_________________________________________________________________
batch_normalization_8 (Batch (None, 14, 20, 40)        160       
_________________________________________________________________
activation_8 (Activation)    (None, 14, 20, 40)        0         
_________________________________________________________________
conv2d_9 (Conv2D)            (None, 14, 20, 40)        14440     
_________________________________________________________________
batch_normalization_9 (Batch (None, 14, 20, 40)        160       
_________________________________________________________________
activation_9 (Activation)    (None, 14, 20, 40)        0         
_________________________________________________________________
conv2d_10 (Conv2D)           (None, 14, 20, 40)        14440     
_________________________________________________________________
batch_normalization_10 (Batc (None, 14, 20, 40)        160       
_________________________________________________________________
activation_10 (Activation)   (None, 14, 20, 40)        0         
_________________________________________________________________
up_sampling2d_2 (UpSampling2 (None, 28, 40, 40)        0         
_________________________________________________________________
conv2d_11 (Conv2D)           (None, 28, 40, 20)        7220      
_________________________________________________________________
batch_normalization_11 (Batc (None, 28, 40, 20)        80        
_________________________________________________________________
activation_11 (Activation)   (None, 28, 40, 20)        0         
_________________________________________________________________
conv2d_12 (Conv2D)           (None, 28, 40, 20)        3620      
_________________________________________________________________
batch_normalization_12 (Batc (None, 28, 40, 20)        80        
_________________________________________________________________
activation_12 (Activation)   (None, 28, 40, 20)        0         
_________________________________________________________________
up_sampling2d_3 (UpSampling2 (None, 56, 80, 20)        0         
_________________________________________________________________
conv2d_13 (Conv2D)           (None, 56, 80, 10)        1810      
_________________________________________________________________
batch_normalization_13 (Batc (None, 56, 80, 10)        40        
_________________________________________________________________
activation_13 (Activation)   (None, 56, 80, 10)        0         
_________________________________________________________________
conv2d_14 (Conv2D)           (None, 56, 80, 10)        910       
_________________________________________________________________
batch_normalization_14 (Batc (None, 56, 80, 10)        40        
_________________________________________________________________
activation_14 (Activation)   (None, 56, 80, 10)        0         
_________________________________________________________________
conv2d_15 (Conv2D)           (None, 56, 80, 13)        143       
=================================================================
Total params: 101,033
Trainable params: 100,313
Non-trainable params: 720
…
activation_13 (Activation)   (None, 80, 56, 10)        0         
_________________________________________________________________
conv2d_14 (Conv2D)           (None, 80, 56, 10)        910       
_________________________________________________________________
batch_normalization_14 (Batc (None, 80, 56, 10)        40        
_________________________________________________________________
activation_14 (Activation)   (None, 80, 56, 10)        0         
_________________________________________________________________
conv2d_15 (Conv2D)           (None, 80, 56, 13)        143       
=================================================================
Total params: 101,033
Trainable params: 100,313
Non-trainable params: 720
_________________________________________________________________
------------------------------------------------------------------
class_weights [2.70299001e+01 1.19468637e+01 4.82583334e+01 4.14242854e+00
 1.25417162e+01 2.39750306e+00 2.83366917e+01 5.30126666e+01
…
 N: [1]  | GPU: 6  | SD 0  | Dropout 0.3  | LR 0.001  | NL 3  |  Cascade |  FM 10 |  Upsample 1

 #layer 3 #layers changed False
---------------------------------------------------------------
 Nucleus: [1]  | GPU: 6  | SD 2  | Dropout 0.3  | LR 0.001  | NL 3  |  Cascade |  FM 10 |  Upsample 1
Experiment: exp7
SubExperiment: sE12_Cascade_FM10_SegNet_Unet_NL3_LS_MyBCE_US1_Main_Init_3T_CV_a
---------------------------------------------------------------
_________________________________________________________________
Layer (type)                 Output Shape              Param #   
=================================================================
input_1 (InputLayer)         (None, 120, 120, 1)       0         
_________________________________________________________________
conv2d_1 (Conv2D)            (None, 120, 120, 10)      100       
_________________________________________________________________
batch_normalization_1 (Batch (None, 120, 120, 10)      40        
_________________________________________________________________
activation_1 (Activation)    (None, 120, 120, 10)      0         
_________________________________________________________________
conv2d_2 (Conv2D)            (None, 120, 120, 10)      910       
_________________________________________________________________
batch_normalization_2 (Batch (None, 120, 120, 10)      40        
_________________________________________________________________
activation_2 (Activation)    (None, 120, 120, 10)      0         
_________________________________________________________________
max_pooling2d_1 (MaxPooling2 (None, 60, 60, 10)        0         
_________________________________________________________________
conv2d_3 (Conv2D)            (None, 60, 60, 20)        1820      
_________________________________________________________________
batch_normalization_3 (Batch (None, 60, 60, 20)        80        
_________________________________________________________________
activation_3 (Activation)    (None, 60, 60, 20)        0         
_________________________________________________________________
conv2d_4 (Conv2D)            (None, 60, 60, 20)        3620      
_________________________________________________________________
batch_normalization_4 (Batch (None, 60, 60, 20)        80        
_________________________________________________________________
activation_4 (Activation)    (None, 60, 60, 20)        0         
_________________________________________________________________
max_pooling2d_2 (MaxPooling2 (None, 30, 30, 20)        0         
_________________________________________________________________
conv2d_5 (Conv2D)            (None, 30, 30, 40)        7240      
_________________________________________________________________
batch_normalization_5 (Batch (None, 30, 30, 40)        160       
_________________________________________________________________
activation_5 (Activation)    (None, 30, 30, 40)        0         
_________________________________________________________________
conv2d_6 (Conv2D)            (None, 30, 30, 40)        14440     
_________________________________________________________________
batch_normalization_6 (Batch (None, 30, 30, 40)        160       
_________________________________________________________________
activation_6 (Activation)    (None, 30, 30, 40)        0         
_________________________________________________________________
conv2d_7 (Conv2D)            (None, 30, 30, 40)        14440     
_________________________________________________________________
batch_normalization_7 (Batch (None, 30, 30, 40)        160       
_________________________________________________________________
activation_7 (Activation)    (None, 30, 30, 40)        0         
_________________________________________________________________
max_pooling2d_3 (MaxPooling2 (None, 15, 15, 40)        0         
_________________________________________________________________
up_sampling2d_1 (UpSampling2 (None, 30, 30, 40)        0         
_________________________________________________________________
conv2d_8 (Conv2D)            (None, 30, 30, 40)        14440     
_________________________________________________________________
batch_normalization_8 (Batch (None, 30, 30, 40)        160       
_________________________________________________________________
activation_8 (Activation)    (None, 30, 30, 40)        0         
_________________________________________________________________
conv2d_9 (Conv2D)            (None, 30, 30, 40)        14440     
_________________________________________________________________
batch_normalization_9 (Batch (None, 30, 30, 40)        160       
_________________________________________________________________
activation_9 (Activation)    (None, 30, 30, 40)        0         
_________________________________________________________________
conv2d_10 (Conv2D)           (None, 30, 30, 40)        14440     
_________________________________________________________________
batch_normalization_10 (Batc (None, 30, 30, 40)        160       
_________________________________________________________________
activation_10 (Activation)   (None, 30, 30, 40)        0         
_________________________________________________________________
up_sampling2d_2 (UpSampling2 (None, 60, 60, 40)        0         
_________________________________________________________________
conv2d_11 (Conv2D)           (None, 60, 60, 20)        7220      
_________________________________________________________________
batch_normalization_11 (Batc (None, 60, 60, 20)        80        
_________________________________________________________________
activation_11 (Activation)   (None, 60, 60, 20)        0         
_________________________________________________________________
conv2d_12 (Conv2D)           (None, 60, 60, 20)        3620      
_________________________________________________________________
batch_normalization_12 (Batc (None, 60, 60, 20)        80        
_________________________________________________________________
activation_12 (Activation)   (None, 60, 60, 20)        0         
_________________________________________________________________
up_sampling2d_3 (UpSampling2 (None, 120, 120, 20)      0         
_________________________________________________________________
conv2d_13 (Conv2D)           (None, 120, 120, 10)      1810      
_________________________________________________________________
batch_normalization_13 (Batc (None, 120, 120, 10)      40        
_________________________________________________________________
activation_13 (Activation)   (None, 120, 120, 10)      0         
_________________________________________________________________
conv2d_14 (Conv2D)           (None, 120, 120, 10)      910       
_________________________________________________________________
batch_normalization_14 (Batc (None, 120, 120, 10)      40        
_________________________________________________________________
activation_14 (Activation)   (None, 120, 120, 10)      0         
_________________________________________________________________
conv2d_15 (Conv2D)           (None, 120, 120, 2)       22        
=================================================================
Total params: 100,912
Trainable params: 100,192
Non-trainable params: 720
_________________________________________________________________
----- /array/ssd/msmajdi/experiments/keras/exp7/models/sE8_Cascade_FM10_SegNet_Unet_NL3_LS_MyBCE_US1/1-THALAMUS/sd2/model_weights.h5
 --- initialized from Model_3T /array/ssd/msmajdi/experiments/keras/exp7/models/sE8_Cascade_FM10_SegNet_Unet_NL3_LS_MyBCE_US1/1-THALAMUS/sd2
…
{'val_loss': [… 'val_acc': [… 'val_mDice': [… 'loss': [… 'acc': [… 'mDice': [… ---------------------------------------------------------------
 Nucleus: [1]  | GPU: 6  | SD 1  | Dropout 0.3  | LR 0.001  | NL 3  |  Cascade |  FM 10 |  Upsample 1
Experiment: exp7
SubExperiment: sE12_Cascade_FM10_SegNet_Unet_NL3_LS_MyBCE_US1_Main_Init_3T_CV_a
---------------------------------------------------------------
_________________________________________________________________
Layer (type)                 Output Shape              Param #   
=================================================================
input_1 (InputLayer)         (None, 72, 120, 1)        0         
_________________________________________________________________
conv2d_1 (Conv2D)            (None, 72, 120, 10)       100       
_________________________________________________________________
batch_normalization_1 (Batch (None, 72, 120, 10)       40        
_________________________________________________________________
activation_1 (Activation)    (None, 72, 120, 10)       0         
_________________________________________________________________
conv2d_2 (Conv2D)            (None, 72, 120, 10)       910       
_________________________________________________________________
batch_normalization_2 (Batch (None, 72, 120, 10)       40        
_________________________________________________________________
activation_2 (Activation)    (None, 72, 120, 10)       0         
_________________________________________________________________
max_pooling2d_1 (MaxPooling2 (None, 36, 60, 10)        0         
_________________________________________________________________
conv2d_3 (Conv2D)            (None, 36, 60, 20)        1820      
_________________________________________________________________
batch_normalization_3 (Batch (None, 36, 60, 20)        80        
_________________________________________________________________
activation_3 (Activation)    (None, 36, 60, 20)        0         
_________________________________________________________________2019-06-30 14:00:33.412459: I tensorflow/core/common_runtime/gpu/gpu_device.cc:1471] Adding visible gpu devices: 0
2019-06-30 14:00:33.412567: I tensorflow/core/common_runtime/gpu/gpu_device.cc:952] Device interconnect StreamExecutor with strength 1 edge matrix:
2019-06-30 14:00:33.412583: I tensorflow/core/common_runtime/gpu/gpu_device.cc:958]      0 
2019-06-30 14:00:33.412593: I tensorflow/core/common_runtime/gpu/gpu_device.cc:971] 0:   N 
2019-06-30 14:00:33.412817: I tensorflow/core/common_runtime/gpu/gpu_device.cc:1084] Created TensorFlow device (/job:localhost/replica:0/task:0/device:GPU:0 with 15123 MB memory) -> physical GPU (device: 0, name: Tesla P100-PCIE-16GB, pci bus id: 0000:88:00.0, compute capability: 6.0)

conv2d_4 (Conv2D)            (None, 36, 60, 20)        3620      
_________________________________________________________________
batch_normalization_4 (Batch (None, 36, 60, 20)        80        
_________________________________________________________________
activation_4 (Activation)    (None, 36, 60, 20)        0         
_________________________________________________________________
max_pooling2d_2 (MaxPooling2 (None, 18, 30, 20)        0         
_________________________________________________________________
conv2d_5 (Conv2D)            (None, 18, 30, 40)        7240      
_________________________________________________________________
batch_normalization_5 (Batch (None, 18, 30, 40)        160       
_________________________________________________________________
activation_5 (Activation)    (None, 18, 30, 40)        0         
_________________________________________________________________
conv2d_6 (Conv2D)            (None, 18, 30, 40)        14440     
_________________________________________________________________
batch_normalization_6 (Batch (None, 18, 30, 40)        160       
_________________________________________________________________
activation_6 (Activation)    (None, 18, 30, 40)        0         
_________________________________________________________________
conv2d_7 (Conv2D)            (None, 18, 30, 40)        14440     
_________________________________________________________________
batch_normalization_7 (Batch (None, 18, 30, 40)        160       
_________________________________________________________________
activation_7 (Activation)    (None, 18, 30, 40)        0         
_________________________________________________________________
max_pooling2d_3 (MaxPooling2 (None, 9, 15, 40)         0         
_________________________________________________________________
up_sampling2d_1 (UpSampling2 (None, 18, 30, 40)        0         
_________________________________________________________________
conv2d_8 (Conv2D)            (None, 18, 30, 40)        14440     
_________________________________________________________________
batch_normalization_8 (Batch (None, 18, 30, 40)        160       
_________________________________________________________________
activation_8 (Activation)    (None, 18, 30, 40)        0         
_________________________________________________________________
conv2d_9 (Conv2D)            (None, 18, 30, 40)        14440     
_________________________________________________________________
batch_normalization_9 (Batch (None, 18, 30, 40)        160       
_________________________________________________________________
activation_9 (Activation)    (None, 18, 30, 40)        0         
_________________________________________________________________
conv2d_10 (Conv2D)           (None, 18, 30, 40)        14440     
_________________________________________________________________
batch_normalization_10 (Batc (None, 18, 30, 40)        160       
_________________________________________________________________
activation_10 (Activation)   (None, 18, 30, 40)        0         
_________________________________________________________________
up_sampling2d_2 (UpSampling2 (None, 36, 60, 40)        0         
_________________________________________________________________
conv2d_11 (Conv2D)           (None, 36, 60, 20)        7220      
_________________________________________________________________
batch_normalization_11 (Batc (None, 36, 60, 20)        80        
_________________________________________________________________
activation_11 (Activation)   (None, 36, 60, 20)        0         
_________________________________________________________________
conv2d_12 (Conv2D)           (None, 36, 60, 20)        3620      
_________________________________________________________________
batch_normalization_12 (Batc (None, 36, 60, 20)        80        
_________________________________________________________________
activation_12 (Activation)   (None, 36, 60, 20)        0         
_________________________________________________________________
up_sampling2d_3 (UpSampling2 (None, 72, 120, 20)       0         
_________________________________________________________________
conv2d_13 (Conv2D)           (None, 72, 120, 10)       1810      
_________________________________________________________________
batch_normalization_13 (Batc (None, 72, 120, 10)       40        
_________________________________________________________________
activation_13 (Activation)   (None, 72, 120, 10)       0         
_________________________________________________________________
conv2d_14 (Conv2D)           (None, 72, 120, 10)       910       
_________________________________________________________________
batch_normalization_14 (Batc (None, 72, 120, 10)       40        
_________________________________________________________________
activation_14 (Activation)   (None, 72, 120, 10)       0         
_________________________________________________________________
conv2d_15 (Conv2D)           (None, 72, 120, 2)        22        
=================================================================
Total params: 100,912
Trainable params: 100,192
Non-trainable params: 720
_________________________________________________________________
----- /array/ssd/msmajdi/experiments/keras/exp7/models/sE8_Cascade_FM10_SegNet_Unet_NL3_LS_MyBCE_US1/1-THALAMUS/sd1/model_weights.h5
 --- initialized from Model_3T /array/ssd/msmajdi/experiments/keras/exp7/models/sE8_Cascade_FM10_SegNet_Unet_NL3_LS_MyBCE_US1/1-THALAMUS/sd1
…
 #layer 3 #layers changed False
---------------------------------------------------------------
 Nucleus: [2, 4, 5, 6, 7, 8, 9, 10, 11, 12, 13, 14]  | GPU: 6  | SD 2  | Dropout 0.3  | LR 0.001  | NL 3  |  Cascade |  FM 10 |  Upsample 1
Experiment: exp7
SubExperiment: sE12_Cascade_FM10_SegNet_Unet_NL3_LS_MyBCE_US1_Main_Init_3T_CV_a
---------------------------------------------------------------
_________________________________________________________________
Layer (type)                 Output Shape              Param #   
=================================================================
input_1 (InputLayer)         (None, 56, 88, 1)         0         
_________________________________________________________________
conv2d_1 (Conv2D)            (None, 56, 88, 10)        100       
_________________________________________________________________
batch_normalization_1 (Batch (None, 56, 88, 10)        40        
_________________________________________________________________
activation_1 (Activation)    (None, 56, 88, 10)        0         
_________________________________________________________________
conv2d_2 (Conv2D)            (None, 56, 88, 10)        910       
_________________________________________________________________
batch_normalization_2 (Batch (None, 56, 88, 10)        40        
_________________________________________________________________
activation_2 (Activation)    (None, 56, 88, 10)        0         
_________________________________________________________________
max_pooling2d_1 (MaxPooling2 (None, 28, 44, 10)        0         
_________________________________________________________________
conv2d_3 (Conv2D)            (None, 28, 44, 20)        1820      
_________________________________________________________________2019-06-30 14:45:43.894503: I tensorflow/core/common_runtime/gpu/gpu_device.cc:1471] Adding visible gpu devices: 0
2019-06-30 14:45:43.894606: I tensorflow/core/common_runtime/gpu/gpu_device.cc:952] Device interconnect StreamExecutor with strength 1 edge matrix:
2019-06-30 14:45:43.894621: I tensorflow/core/common_runtime/gpu/gpu_device.cc:958]      0 
2019-06-30 14:45:43.894631: I tensorflow/core/common_runtime/gpu/gpu_device.cc:971] 0:   N 
2019-06-30 14:45:43.894878: I tensorflow/core/common_runtime/gpu/gpu_device.cc:1084] Created TensorFlow device (/job:localhost/replica:0/task:0/device:GPU:0 with 15123 MB memory) -> physical GPU (device: 0, name: Tesla P100-PCIE-16GB, pci bus id: 0000:88:00.0, compute capability: 6.0)

batch_normalization_3 (Batch (None, 28, 44, 20)        80        
_________________________________________________________________
activation_3 (Activation)    (None, 28, 44, 20)        0         
_________________________________________________________________
conv2d_4 (Conv2D)            (None, 28, 44, 20)        3620      
_________________________________________________________________
batch_normalization_4 (Batch (None, 28, 44, 20)        80        
_________________________________________________________________
activation_4 (Activation)    (None, 28, 44, 20)        0         
_________________________________________________________________
max_pooling2d_2 (MaxPooling2 (None, 14, 22, 20)        0         
_________________________________________________________________
conv2d_5 (Conv2D)            (None, 14, 22, 40)        7240      
_________________________________________________________________
batch_normalization_5 (Batch (None, 14, 22, 40)        160       
_________________________________________________________________
activation_5 (Activation)    (None, 14, 22, 40)        0         
_________________________________________________________________
conv2d_6 (Conv2D)            (None, 14, 22, 40)        14440     
_________________________________________________________________
batch_normalization_6 (Batch (None, 14, 22, 40)        160       
_________________________________________________________________
activation_6 (Activation)    (None, 14, 22, 40)        0         
_________________________________________________________________
conv2d_7 (Conv2D)            (None, 14, 22, 40)        14440     
_________________________________________________________________
batch_normalization_7 (Batch (None, 14, 22, 40)        160       
_________________________________________________________________
activation_7 (Activation)    (None, 14, 22, 40)        0         
_________________________________________________________________
max_pooling2d_3 (MaxPooling2 (None, 7, 11, 40)         0         
_________________________________________________________________
up_sampling2d_1 (UpSampling2 (None, 14, 22, 40)        0         
_________________________________________________________________
conv2d_8 (Conv2D)            (None, 14, 22, 40)        14440     
_________________________________________________________________
batch_normalization_8 (Batch (None, 14, 22, 40)        160       
_________________________________________________________________
activation_8 (Activation)    (None, 14, 22, 40)        0         
_________________________________________________________________
conv2d_9 (Conv2D)            (None, 14, 22, 40)        14440     
_________________________________________________________________
batch_normalization_9 (Batch (None, 14, 22, 40)        160       
_________________________________________________________________
activation_9 (Activation)    (None, 14, 22, 40)        0         
_________________________________________________________________
conv2d_10 (Conv2D)           (None, 14, 22, 40)        14440     
_________________________________________________________________
batch_normalization_10 (Batc (None, 14, 22, 40)        160       
_________________________________________________________________
activation_10 (Activation)   (None, 14, 22, 40)        0         
_________________________________________________________________
up_sampling2d_2 (UpSampling2 (None, 28, 44, 40)        0         
_________________________________________________________________
conv2d_11 (Conv2D)           (None, 28, 44, 20)        7220      
_________________________________________________________________
batch_normalization_11 (Batc (None, 28, 44, 20)        80        
_________________________________________________________________
activation_11 (Activation)   (None, 28, 44, 20)        0         
_________________________________________________________________
conv2d_12 (Conv2D)           (None, 28, 44, 20)        3620      
_________________________________________________________________
batch_normalization_12 (Batc (None, 28, 44, 20)        80        
_________________________________________________________________
activation_12 (Activation)   (None, 28, 44, 20)        0         
_________________________________________________________________
up_sampling2d_3 (UpSampling2 (None, 56, 88, 20)        0         
_________________________________________________________________
conv2d_13 (Conv2D)           (None, 56, 88, 10)        1810      
_________________________________________________________________
batch_normalization_13 (Batc (None, 56, 88, 10)        40        
_________________________________________________________________
activation_13 (Activation)   (None, 56, 88, 10)        0         
_________________________________________________________________
conv2d_14 (Conv2D)           (None, 56, 88, 10)        910       
_________________________________________________________________
batch_normalization_14 (Batc (None, 56, 88, 10)        40        
_________________________________________________________________
activation_14 (Activation)   (None, 56, 88, 10)        0         
_________________________________________________________________
conv2d_15 (Conv2D)           (None, 56, 88, 13)        143       
=================================================================
Total params: 101,033
Trainable params: 100,313
Non-trainable params: 720
_________________________________________________________________
----- /array/ssd/msmajdi/experiments/keras/exp7/models/sE8_Cascade_FM10_SegNet_Unet_NL3_LS_MyBCE_US1/MultiClass_24567891011121314/sd2/model_weights.h5
 --- initialized from Model_3T /array/ssd/msmajdi/experiments/keras/exp7/models/sE8_Cascade_FM10_SegNet_Unet_NL3_LS_MyBCE_US1/MultiClass_24567891011121314/sd2
…
2019-06-30 16:08:19.958915: I tensorflow/core/common_runtime/gpu/gpu_device.cc:1084] Created TensorFlow device (/job:localhost/replica:0/task:0/device:GPU:0 with 15123 MB memory) -> physical GPU (device: 0, name: Tesla P100-PCIE-16GB, pci bus id: 0000:88:00.0, compute capability: 6.0)

---------------------------------------------------------------
 Nucleus: [2, 4, 5, 6, 7, 8, 9, 10, 11, 12, 13, 14]  | GPU: 6  | SD 0  | Dropout 0.3  | LR 0.001  | NL 3  |  Cascade |  FM 10 |  Upsample 1
Experiment: exp7
SubExperiment: sE12_Cascade_FM10_SegNet_Unet_NL3_LS_MyBCE_US1_Main_Init_3T_CV_a
---------------------------------------------------------------
_________________________________________________________________
Layer (type)                 Output Shape              Param #   
=================================================================
input_1 (InputLayer)         (None, 88, 56, 1)         0         
_________________________________________________________________
conv2d_1 (Conv2D)            (None, 88, 56, 10)        100       
_________________________________________________________________
batch_normalization_1 (Batch (None, 88, 56, 10)        40        
_________________________________________________________________
activation_1 (Activation)    (None, 88, 56, 10)        0         
_________________________________________________________________
conv2d_2 (Conv2D)            (None, 88, 56, 10)        910       
_________________________________________________________________
batch_normalization_2 (Batch (None, 88, 56, 10)        40        
_________________________________________________________________
activation_2 (Activation)    (None, 88, 56, 10)        0         
_________________________________________________________________
max_pooling2d_1 (MaxPooling2 (None, 44, 28, 10)        0         
_________________________________________________________________
conv2d_3 (Conv2D)            (None, 44, 28, 20)        1820      
_________________________________________________________________
batch_normalization_3 (Batch (None, 44, 28, 20)        80        
_________________________________________________________________
activation_3 (Activation)    (None, 44, 28, 20)        0         
_________________________________________________________________
conv2d_4 (Conv2D)            (None, 44, 28, 20)        3620      
_________________________________________________________________
batch_normalization_4 (Batch (None, 44, 28, 20)        80        
_________________________________________________________________
activation_4 (Activation)    (None, 44, 28, 20)        0         
_________________________________________________________________
max_pooling2d_2 (MaxPooling2 (None, 22, 14, 20)        0         
_________________________________________________________________
conv2d_5 (Conv2D)            (None, 22, 14, 40)        7240      
_________________________________________________________________
batch_normalization_5 (Batch (None, 22, 14, 40)        160       
_________________________________________________________________
activation_5 (Activation)    (None, 22, 14, 40)        0         
_________________________________________________________________
conv2d_6 (Conv2D)            (None, 22, 14, 40)        14440     
_________________________________________________________________
batch_normalization_6 (Batch (None, 22, 14, 40)        160       
_________________________________________________________________
activation_6 (Activation)    (None, 22, 14, 40)        0         
_________________________________________________________________
conv2d_7 (Conv2D)            (None, 22, 14, 40)        14440     
_________________________________________________________________
batch_normalization_7 (Batch (None, 22, 14, 40)        160       
_________________________________________________________________
activation_7 (Activation)    (None, 22, 14, 40)        0         
_________________________________________________________________
max_pooling2d_3 (MaxPooling2 (None, 11, 7, 40)         0         
_________________________________________________________________
up_sampling2d_1 (UpSampling2 (None, 22, 14, 40)        0         
_________________________________________________________________
conv2d_8 (Conv2D)            (None, 22, 14, 40)        14440     
_________________________________________________________________
batch_normalization_8 (Batch (None, 22, 14, 40)        160       
_________________________________________________________________
activation_8 (Activation)    (None, 22, 14, 40)        0         
_________________________________________________________________
conv2d_9 (Conv2D)            (None, 22, 14, 40)        14440     
_________________________________________________________________
batch_normalization_9 (Batch (None, 22, 14, 40)        160       
_________________________________________________________________
activation_9 (Activation)    (None, 22, 14, 40)        0         
_________________________________________________________________
conv2d_10 (Conv2D)           (None, 22, 14, 40)        14440     
_________________________________________________________________
batch_normalization_10 (Batc (None, 22, 14, 40)        160       
_________________________________________________________________
activation_10 (Activation)   (None, 22, 14, 40)        0         
_________________________________________________________________
up_sampling2d_2 (UpSampling2 (None, 44, 28, 40)        0         
_________________________________________________________________
conv2d_11 (Conv2D)           (None, 44, 28, 20)        7220      
_________________________________________________________________
batch_normalization_11 (Batc (None, 44, 28, 20)        80        
_________________________________________________________________
activation_11 (Activation)   (None, 44, 28, 20)        0         
_________________________________________________________________
conv2d_12 (Conv2D)           (None, 44, 28, 20)        3620      
_________________________________________________________________
batch_normalization_12 (Batc (None, 44, 28, 20)        80        
_________________________________________________________________
activation_12 (Activation)   (None, 44, 28, 20)        0         
_________________________________________________________________
up_sampling2d_3 (UpSampling2 (None, 88, 56, 20)        0         
_________________________________________________________________
conv2d_13 (Conv2D)           (None, 88, 56, 10)        1810      
_________________________________________________________________
batch_normalization_13 (Batc (None, 88, 56, 10)        40        
_________________________________________________________________
activation_13 (Activation)   (None, 88, 56, 10)        0         
_________________________________________________________________
conv2d_14 (Conv2D)           (None, 88, 56, 10)        910       
_________________________________________________________________
batch_normalization_14 (Batc (None, 88, 56, 10)        40        
_________________________________________________________________
activation_14 (Activation)   (None, 88, 56, 10)        0         
_________________________________________________________________
conv2d_15 (Conv2D)           (None, 88, 56, 13)        143       
=================================================================
Total params: 101,033
Trainable params: 100,313
Non-trainable params: 720
_________________________________________________________________
----- /array/ssd/msmajdi/experiments/keras/exp7/models/sE8_Cascade_FM10_SegNet_Unet_NL3_LS_MyBCE_US1/MultiClass_24567891011121314/sd0/model_weights.h5
 --- initialized from Model_3T /array/ssd/msmajdi/experiments/keras/exp7/models/sE8_Cascade_FM10_SegNet_Unet_NL3_LS_MyBCE_US1/MultiClass_24567891011121314/sd0
…
---------------------------------------------------------------
 Nucleus: [1]  | GPU: 6  | SD 2  | Dropout 0.3  | LR 0.001  | NL 4  |  Cascade |  FM 20 |  Upsample 1
Experiment: exp7
SubExperiment: sE8_Cascade_FM20_Res_Unet_NL4_LS_MyBCE_US1
---------------------------------------------------------------
__________________________________________________________________________________________________
Layer (type)                    Output Shape         Param #     Connected to                     
==================================================================================================
input_1 (InputLayer)            (None, 112, 152, 1)  0                                            
__________________________________________________________________________________________________
conv2d_1 (Conv2D)               (None, 112, 152, 40) 400         input_1[0][0]                    
__________________________________________________________________________________________________
batch_normalization_1 (BatchNor (None, 112, 152, 40) 160         conv2d_1[0][0]                   
__________________________________________________________________________________________________
activation_1 (Activation)       (None, 112, 152, 40) 0           batch_normalization_1[0][0]      
__________________________________________________________________________________________________
dropout_1 (Dropout)             (None, 112, 152, 40) 0           activation_1[0][0]               
__________________________________________________________________________________________________
conv2d_2 (Conv2D)               (None, 112, 152, 40) 14440       dropout_1[0][0]                  
__________________________________________________________________________________________________
batch_normalization_2 (BatchNor (None, 112, 152, 40) 160         conv2d_2[0][0]                   
__________________________________________________________________________________________________
activation_2 (Activation)       (None, 112, 152, 40) 0           batch_normalization_2[0][0]      
__________________________________________________________________________________________________
dropout_2 (Dropout)             (None, 112, 152, 40) 0           activation_2[0][0]               
__________________________________________________________________________________________________
conv2d_3 (Conv2D)               (None, 112, 152, 40) 14440       dropout_2[0][0]                  
__________________________________________________________________________________________________
batch_normalization_3 (BatchNor (None, 112, 152, 40) 160         conv2d_3[0][0]                   
__________________________________________________________________________________________________
activation_3 (Activation)       (None, 112, 152, 40) 0           batch_normalization_3[0][0]      
__________________________________________________________________________________________________
dropout_3 (Dropout)             (None, 112, 152, 40) 0           activation_3[0][0]               
__________________________________________________________________________________________________
conv2d_4 (Conv2D)               (None, 112, 152, 20) 7220        dropout_3[0][0]                  
__________________________________________________________________________________________________
batch_normalization_4 (BatchNor (None, 112, 152, 20) 80          conv2d_4[0][0]                   
__________________________________________________________________________________________________
activation_4 (Activation)       (None, 112, 152, 20) 0           batch_normalization_4[0][0]      
__________________________________________________________________________________________________
conv2d_5 (Conv2D)               (None, 112, 152, 20) 3620        activation_4[0][0]               
__________________________________________________________________________________________________
batch_normalization_5 (BatchNor (None, 112, 152, 20) 80          conv2d_5[0][0]                   
__________________________________________________________________________________________________
activation_5 (Activation)       (None, 112, 152, 20) 0           batch_normalization_5[0][0]      
__________________________________________________________________________________________________
concatenate_1 (Concatenate)     (None, 112, 152, 60) 0           dropout_3[0][0]                  
                                                                 activation_5[0][0]               
__________________________________________________________________________________________________
max_pooling2d_1 (MaxPooling2D)  (None, 56, 76, 60)   0           concatenate_1[0][0]              
__________________________________________________________________________________________________
dropout_4 (Dropout)             (None, 56, 76, 60)   0           max_pooling2d_1[0][0]            
__________________________________________________________________________________________________
conv2d_6 (Conv2D)               (None, 56, 76, 40)   21640       dropout_4[0][0]                  
__________________________________________________________________________________________________
batch_normalization_6 (BatchNor (None, 56, 76, 40)   160         conv2d_6[0][0]                   
__________________________________________________________________________________________________
activation_6 (Activation)       (None, 56, 76, 40)   0           batch_normalization_6[0][0]      
__________________________________________________________________________________________________
conv2d_7 (Conv2D)               (None, 56, 76, 40)   14440       activation_6[0][0]               
__________________________________________________________________________________________________
batch_normalization_7 (BatchNor (None, 56, 76, 40)   160         conv2d_7[0][0]                   
__________________________________________________________________________________________________
activation_7 (Activation)       (None, 56, 76, 40)   0           batch_normalization_7[0][0]      
__________________________________________________________________________________________________
concatenate_2 (Concatenate)     (None, 56, 76, 100)  0           dropout_4[0][0]                  
                                                                 activation_7[0][0]               
__________________________________________________________________________________________________
max_pooling2d_2 (MaxPooling2D)  (None, 28, 38, 100)  0           concatenate_2[0][0]              
__________________________________________________________________________________________________
dropout_5 (Dropout)             (None, 28, 38, 100)  0           max_pooling2d_2[0][0]            
__________________________________________________________________________________________________
conv2d_8 (Conv2D)               (None, 28, 38, 80)   72080       dropout_5[0][0]                  
__________________________________________________________________________________________________
batch_normalization_8 (BatchNor (None, 28, 38, 80)   320         conv2d_8[0][0]                   
__________________________________________________________________________________________________
activation_8 (Activation)       (None, 28, 38, 80)   0           batch_normalization_8[0][0]      
__________________________________________________________________________________________________
conv2d_9 (Conv2D)               (None, 28, 38, 80)   57680       activation_8[0][0]               
__________________________________________________________________________________________________
batch_normalization_9 (BatchNor (None, 28, 38, 80)   320         conv2d_9[0][0]                   
__________________________________________________________________________________________________
activation_9 (Activation)       (None, 28, 38, 80)   0           batch_normalization_9[0][0]      
__________________________________________________________________________________________________
concatenate_3 (Concatenate)     (None, 28, 38, 180)  0           dropout_5[0][0]                  
                                                                 activation_9[0][0]               
__________________________________________________________________________________________________
max_pooling2d_3 (MaxPooling2D)  (None, 14, 19, 180)  0           concatenate_3[0][0]              
__________________________________________________________________________________________________
dropout_6 (Dropout)             (None, 14, 19, 180)  0           max_pooling2d_3[0][0]            
__________________________________________________________________________________________________
conv2d_10 (Conv2D)              (None, 14, 19, 160)  259360      dropout_6[0][0]                  
__________________________________________________________________________________________________
batch_normalization_10 (BatchNo (None, 14, 19, 160)  640         conv2d_10[0][0]                  
__________________________________________________________________________________________________
activation_10 (Activation)      (None, 14, 19, 160)  0           batch_normalization_10[0][0]     
__________________________________________________________________________________________________
conv2d_11 (Conv2D)              (None, 14, 19, 160)  230560      activation_10[0][0]              
__________________________________________________________________________________________________
batch_normalization_11 (BatchNo (None, 14, 19, 160)  640         conv2d_11[0][0]                  
__________________________________________________________________________________________________
activation_11 (Activation)      (None, 14, 19, 160)  0           batch_normalization_11[0][0]     
__________________________________________________________________________________________________
concatenate_4 (Concatenate)     (None, 14, 19, 340)  0           dropout_6[0][0]                  
                                                                 activation_11[0][0]              
__________________________________________________________________________________________________
dropout_7 (Dropout)             (None, 14, 19, 340)  0           concatenate_4[0][0]              
__________________________________________________________________________________________________
conv2d_transpose_1 (Conv2DTrans (None, 28, 38, 80)   108880      dropout_7[0][0]                  
__________________________________________________________________________________________________
concatenate_5 (Concatenate)     (None, 28, 38, 260)  0           conv2d_transpose_1[0][0]         
                                                                 concatenate_3[0][0]              
__________________________________________________________________________________________________
conv2d_12 (Conv2D)              (None, 28, 38, 80)   187280      concatenate_5[0][0]              
__________________________________________________________________________________________________
batch_normalization_12 (BatchNo (None, 28, 38, 80)   320         conv2d_12[0][0]                  
__________________________________________________________________________________________________
activation_12 (Activation)      (None, 28, 38, 80)   0           batch_normalization_12[0][0]     
__________________________________________________________________________________________________
conv2d_13 (Conv2D)              (None, 28, 38, 80)   57680       activation_12[0][0]              
__________________________________________________________________________________________________
batch_normalization_13 (BatchNo (None, 28, 38, 80)   320         conv2d_13[0][0]                  
__________________________________________________________________________________________________
activation_13 (Activation)      (None, 28, 38, 80)   0           batch_normalization_13[0][0]     
__________________________________________________________________________________________________
concatenate_6 (Concatenate)     (None, 28, 38, 340)  0           concatenate_5[0][0]              
                                                                 activation_13[0][0]              
__________________________________________________________________________________________________
dropout_8 (Dropout)             (None, 28, 38, 340)  0           concatenate_6[0][0]              
__________________________________________________________________________________________________
conv2d_transpose_2 (Conv2DTrans (None, 56, 76, 40)   54440       dropout_8[0][0]                  
__________________________________________________________________________________________________
concatenate_7 (Concatenate)     (None, 56, 76, 140)  0           conv2d_transpose_2[0][0]         
                                                                 concatenate_2[0][0]              
__________________________________________________________________________________________________
conv2d_14 (Conv2D)              (None, 56, 76, 40)   50440       concatenate_7[0][0]              
__________________________________________________________________________________________________
batch_normalization_14 (BatchNo (None, 56, 76, 40)   160         conv2d_14[0][0]                  
__________________________________________________________________________________________________
activation_14 (Activation)      (None, 56, 76, 40)   0           batch_normalization_14[0][0]     
__________________________________________________________________________________________________
conv2d_15 (Conv2D)              (None, 56, 76, 40)   14440       activation_14[0][0]              
__________________________________________________________________________________________________
batch_normalization_15 (BatchNo (None, 56, 76, 40)   160         conv2d_15[0][0]                  
__________________________________________________________________________________________________
activation_15 (Activation)      (None, 56, 76, 40)   0           batch_normalization_15[0][0]     
__________________________________________________________________________________________________
concatenate_8 (Concatenate)     (None, 56, 76, 180)  0           concatenate_7[0][0]              
                                                                 activation_15[0][0]              
__________________________________________________________________________________________________
dropout_9 (Dropout)             (None, 56, 76, 180)  0           concatenate_8[0][0]              
__________________________________________________________________________________________________
conv2d_transpose_3 (Conv2DTrans (None, 112, 152, 20) 14420       dropout_9[0][0]                  
__________________________________________________________________________________________________
concatenate_9 (Concatenate)     (None, 112, 152, 80) 0           conv2d_transpose_3[0][0]         
                                                                 concatenate_1[0][0]              
__________________________________________________________________________________________________
conv2d_16 (Conv2D)              (None, 112, 152, 20) 14420       concatenate_9[0][0]              
__________________________________________________________________________________________________
batch_normalization_16 (BatchNo (None, 112, 152, 20) 80          conv2d_16[0][0]                  
__________________________________________________________________________________________________
activation_16 (Activation)      (None, 112, 152, 20) 0           batch_normalization_16[0][0]     
__________________________________________________________________________________________________
conv2d_17 (Conv2D)              (None, 112, 152, 20) 3620        activation_16[0][0]              
__________________________________________________________________________________________________
batch_normalization_17 (BatchNo (None, 112, 152, 20) 80          conv2d_17[0][0]                  2019-06-30 17:00:17.673253: I tensorflow/core/common_runtime/gpu/gpu_device.cc:1471] Adding visible gpu devices: 0
2019-06-30 17:00:17.673381: I tensorflow/core/common_runtime/gpu/gpu_device.cc:952] Device interconnect StreamExecutor with strength 1 edge matrix:
2019-06-30 17:00:17.673398: I tensorflow/core/common_runtime/gpu/gpu_device.cc:958]      0 
2019-06-30 17:00:17.673417: I tensorflow/core/common_runtime/gpu/gpu_device.cc:971] 0:   N 
…
