…
 Nucleus: [1]  | GPU: 2  | SD 2  | Dropout 0.3  | LR 0.001  | NL 3  |  Cascade |  FM 20 |  Upsample 1
Experiment: exp9_test_Manoj
SubExperiment: sE13_Cascade_FM20_ResFCN_ResUnet2_TL_NL3_LS_MyLogDice_US1_FCNA0_FCNB0_FM0_CSFn2_TL_Main_CV_a
---------------------------------------------------------------
__________________________________________________________________________________________________
Layer (type)                    Output Shape         Param #     Connected to                     
==================================================================================================
input_1 (InputLayer)            (None, 284, 528, 1)  0                                            
__________________________________________________________________________________________________
conv2d_1 (Conv2D)               (None, 284, 528, 20) 200         input_1[0][0]                    
__________________________________________________________________________________________________
batch_normalization_1 (BatchNor (None, 284, 528, 20) 80          conv2d_1[0][0]                   
__________________________________________________________________________________________________
activation_1 (Activation)       (None, 284, 528, 20) 0           batch_normalization_1[0][0]      
__________________________________________________________________________________________________
conv2d_2 (Conv2D)               (None, 284, 528, 20) 3620        activation_1[0][0]               
__________________________________________________________________________________________________
batch_normalization_2 (BatchNor (None, 284, 528, 20) 80          conv2d_2[0][0]                   
__________________________________________________________________________________________________
activation_2 (Activation)       (None, 284, 528, 20) 0           batch_normalization_2[0][0]      
__________________________________________________________________________________________________
max_pooling2d_1 (MaxPooling2D)  (None, 142, 264, 20) 0           activation_2[0][0]               
__________________________________________________________________________________________________
dropout_1 (Dropout)             (None, 142, 264, 20) 0           max_pooling2d_1[0][0]            
__________________________________________________________________________________________________
conv2d_3 (Conv2D)               (None, 142, 264, 40) 7240        dropout_1[0][0]                  
__________________________________________________________________________________________________
batch_normalization_3 (BatchNor (None, 142, 264, 40) 160         conv2d_3[0][0]                   
__________________________________________________________________________________________________
activation_3 (Activation)       (None, 142, 264, 40) 0           batch_normalization_3[0][0]      
__________________________________________________________________________________________________
conv2d_4 (Conv2D)               (None, 142, 264, 40) 14440       activation_3[0][0]               
__________________________________________________________________________________________________
batch_normalization_4 (BatchNor (None, 142, 264, 40) 160         conv2d_4[0][0]                   
__________________________________________________________________________________________________
activation_4 (Activation)       (None, 142, 264, 40) 0           batch_normalization_4[0][0]      
__________________________________________________________________________________________________
concatenate_1 (Concatenate)     (None, 142, 264, 60) 0           dropout_1[0][0]                  
                                                                 activation_4[0][0]               
__________________________________________________________________________________________________
max_pooling2d_2 (MaxPooling2D)  (None, 71, 132, 60)  0           concatenate_1[0][0]              
__________________________________________________________________________________________________
dropout_2 (Dropout)             (None, 71, 132, 60)  0           max_pooling2d_2[0][0]            
__________________________________________________________________________________________________
conv2d_5 (Conv2D)               (None, 71, 132, 80)  43280       dropout_2[0][0]                  
__________________________________________________________________________________________________
batch_normalization_5 (BatchNor (None, 71, 132, 80)  320         conv2d_5[0][0]                   
__________________________________________________________________________________________________
activation_5 (Activation)       (None, 71, 132, 80)  0           batch_normalization_5[0][0]      
__________________________________________________________________________________________________
conv2d_6 (Conv2D)               (None, 71, 132, 80)  57680       activation_5[0][0]               
__________________________________________________________________________________________________
batch_normalization_6 (BatchNor (None, 71, 132, 80)  320         conv2d_6[0][0]                   
__________________________________________________________________________________________________
activation_6 (Activation)       (None, 71, 132, 80)  0           batch_normalization_6[0][0]      
__________________________________________________________________________________________________
concatenate_2 (Concatenate)     (None, 71, 132, 140) 0           dropout_2[0][0]                  
                                                                 activation_6[0][0]               
__________________________________________________________________________________________________
dropout_3 (Dropout)             (None, 71, 132, 140) 0           concatenate_2[0][0]              
__________________________________________________________________________________________________
conv2d_transpose_1 (Conv2DTrans (None, 142, 264, 40) 22440       dropout_3[0][0]                  
__________________________________________________________________________________________________
concatenate_3 (Concatenate)     (None, 142, 264, 100 0           conv2d_transpose_1[0][0]         
                                                                 concatenate_1[0][0]              
__________________________________________________________________________________________________
conv2d_7 (Conv2D)               (None, 142, 264, 40) 36040       concatenate_3[0][0]              
__________________________________________________________________________________________________
batch_normalization_7 (BatchNor (None, 142, 264, 40) 160         conv2d_7[0][0]                   
__________________________________________________________________________________________________
activation_7 (Activation)       (None, 142, 264, 40) 0           batch_normalization_7[0][0]      
__________________________________________________________________________________________________
conv2d_8 (Conv2D)               (None, 142, 264, 40) 14440       activation_7[0][0]               
__________________________________________________________________________________________________
batch_normalization_8 (BatchNor (None, 142, 264, 40) 160         conv2d_8[0][0]                   
__________________________________________________________________________________________________
activation_8 (Activation)       (None, 142, 264, 40) 0           batch_normalization_8[0][0]      
__________________________________________________________________________________________________
concatenate_4 (Concatenate)     (None, 142, 264, 140 0           concatenate_3[0][0]              
                                                                 activation_8[0][0]               
__________________________________________________________________________________________________
…
saving BB  test1-THALAMUS Sagittal:   0%|          | 0/1 [00:00<?, ?it/s]saving BB  test1-THALAMUS Sagittal: 100%|██████████| 1/1 [00:01<00:00,  1.69s/it]
Loading test:   0%|          | 0/1 [00:00<?, ?it/s]Loading test: 100%|██████████| 1/1 [00:49<00:00, 49.18s/it]
concatenating: validation:   0%|          | 0/1 [00:00<?, ?it/s]concatenating: validation: 100%|██████████| 1/1 [00:00<00:00, 27.77it/s]
dropout_4 (Dropout)             (None, 142, 264, 140 0           concatenate_4[0][0]              
__________________________________________________________________________________________________
conv2d_transpose_2 (Conv2DTrans (None, 284, 528, 20) 11220       dropout_4[0][0]                  
__________________________________________________________________________________________________
concatenate_5 (Concatenate)     (None, 284, 528, 40) 0           conv2d_transpose_2[0][0]         
                                                                 activation_2[0][0]               
__________________________________________________________________________________________________
conv2d_9 (Conv2D)               (None, 284, 528, 20) 7220        concatenate_5[0][0]              
__________________________________________________________________________________________________
batch_normalization_9 (BatchNor (None, 284, 528, 20) 80          conv2d_9[0][0]                   
__________________________________________________________________________________________________
activation_9 (Activation)       (None, 284, 528, 20) 0           batch_normalization_9[0][0]      
__________________________________________________________________________________________________
conv2d_10 (Conv2D)              (None, 284, 528, 20) 3620        activation_9[0][0]               
__________________________________________________________________________________________________
batch_normalization_10 (BatchNo (None, 284, 528, 20) 80          conv2d_10[0][0]                  
__________________________________________________________________________________________________
activation_10 (Activation)      (None, 284, 528, 20) 0           batch_normalization_10[0][0]     
__________________________________________________________________________________________________
concatenate_6 (Concatenate)     (None, 284, 528, 60) 0           concatenate_5[0][0]              
                                                                 activation_10[0][0]              
__________________________________________________________________________________________________
dropout_5 (Dropout)             (None, 284, 528, 60) 0           concatenate_6[0][0]              
__________________________________________________________________________________________________
conv2d_11 (Conv2D)              (None, 284, 528, 2)  122         dropout_5[0][0]                  
==================================================================================================
Total params: 223,162
Trainable params: 48,482
Non-trainable params: 174,680
__________________________________________________________________________________________________
---------------------- check Layers Step ------------------------------
 N: [2, 4, 5, 6, 7, 8, 9, 10, 11, 12, 13, 14]  | GPU: 2  | SD 2  | Dropout 0.3  | LR 0.001  | NL 3  |  Cascade |  FM 20 |  Upsample 1
…
 Nucleus: [2, 4, 5, 6, 7, 8, 9, 10, 11, 12, 13, 14]  | GPU: 2  | SD 2  | Dropout 0.3  | LR 0.001  | NL 3  |  Cascade |  FM 20 |  Upsample 1
Experiment: exp9_test_Manoj
SubExperiment: sE13_Cascade_FM20_ResFCN_ResUnet2_TL_NL3_LS_MyLogDice_US1_FCNA0_FCNB0_FM0_CSFn2_TL_Main_CV_a
---------------------------------------------------------------
__________________________________________________________________________________________________
Layer (type)                    Output Shape         Param #     Connected to                     
==================================================================================================
input_1 (InputLayer)            (None, 132, 236, 1)  0                                            
__________________________________________________________________________________________________
conv2d_1 (Conv2D)               (None, 132, 236, 20) 200         input_1[0][0]                    
__________________________________________________________________________________________________
batch_normalization_1 (BatchNor (None, 132, 236, 20) 80          conv2d_1[0][0]                   
__________________________________________________________________________________________________
activation_1 (Activation)       (None, 132, 236, 20) 0           batch_normalization_1[0][0]      
__________________________________________________________________________________________________
conv2d_2 (Conv2D)               (None, 132, 236, 20) 3620        activation_1[0][0]               
__________________________________________________________________________________________________
batch_normalization_2 (BatchNor (None, 132, 236, 20) 80          conv2d_2[0][0]                   
__________________________________________________________________________________________________
activation_2 (Activation)       (None, 132, 236, 20) 0           batch_normalization_2[0][0]      
__________________________________________________________________________________________________
max_pooling2d_1 (MaxPooling2D)  (None, 66, 118, 20)  0           activation_2[0][0]               
__________________________________________________________________________________________________
dropout_1 (Dropout)             (None, 66, 118, 20)  0           max_pooling2d_1[0][0]            
__________________________________________________________________________________________________
conv2d_3 (Conv2D)               (None, 66, 118, 40)  7240        dropout_1[0][0]                  
__________________________________________________________________________________________________
batch_normalization_3 (BatchNor (None, 66, 118, 40)  160         conv2d_3[0][0]                   
__________________________________________________________________________________________________
activation_3 (Activation)       (None, 66, 118, 40)  0           batch_normalization_3[0][0]      
__________________________________________________________________________________________________
conv2d_4 (Conv2D)               (None, 66, 118, 40)  14440       activation_3[0][0]               
__________________________________________________________________________________________________
batch_normalization_4 (BatchNor (None, 66, 118, 40)  160         conv2d_4[0][0]                   
__________________________________________________________________________________________________
activation_4 (Activation)       (None, 66, 118, 40)  0           batch_normalization_4[0][0]      
__________________________________________________________________________________________________
concatenate_1 (Concatenate)     (None, 66, 118, 60)  0           dropout_1[0][0]                  
                                                                 activation_4[0][0]               
__________________________________________________________________________________________________
max_pooling2d_2 (MaxPooling2D)  (None, 33, 59, 60)   0           concatenate_1[0][0]              
__________________________________________________________________________________________________
dropout_2 (Dropout)             (None, 33, 59, 60)   0           max_pooling2d_2[0][0]            
__________________________________________________________________________________________________
conv2d_5 (Conv2D)               (None, 33, 59, 80)   43280       dropout_2[0][0]                  
__________________________________________________________________________________________________
batch_normalization_5 (BatchNor (None, 33, 59, 80)   320         conv2d_5[0][0]                   
__________________________________________________________________________________________________
activation_5 (Activation)       (None, 33, 59, 80)   0           batch_normalization_5[0][0]      
__________________________________________________________________________________________________
conv2d_6 (Conv2D)               (None, 33, 59, 80)   57680       activation_5[0][0]               
__________________________________________________________________________________________________
batch_normalization_6 (BatchNor (None, 33, 59, 80)   320         conv2d_6[0][0]                   2019-08-27 13:30:35.628187: I tensorflow/core/common_runtime/gpu/gpu_device.cc:1471] Adding visible gpu devices: 0
2019-08-27 13:30:35.628276: I tensorflow/core/common_runtime/gpu/gpu_device.cc:952] Device interconnect StreamExecutor with strength 1 edge matrix:
2019-08-27 13:30:35.628296: I tensorflow/core/common_runtime/gpu/gpu_device.cc:958]      0 
2019-08-27 13:30:35.628310: I tensorflow/core/common_runtime/gpu/gpu_device.cc:971] 0:   N 
2019-08-27 13:30:35.628737: I tensorflow/core/common_runtime/gpu/gpu_device.cc:1084] Created TensorFlow device (/job:localhost/replica:0/task:0/device:GPU:0 with 15123 MB memory) -> physical GPU (device: 0, name: Tesla P100-PCIE-16GB, pci bus id: 0000:08:00.0, compute capability: 6.0)

predicting test subjects:   0%|          | 0/1 [00:00<?, ?it/s]predicting test subjects: 100%|██████████| 1/1 [02:33<00:00, 153.77s/it]
predicting train subjects: 0it [00:00, ?it/s]
Loading test:   0%|          | 0/1 [00:00<?, ?it/s]Loading test: 100%|██████████| 1/1 [00:20<00:00, 20.55s/it]
concatenating: validation:   0%|          | 0/1 [00:00<?, ?it/s]concatenating: validation: 100%|██████████| 1/1 [00:00<00:00,  3.59it/s]
__________________________________________________________________________________________________
activation_6 (Activation)       (None, 33, 59, 80)   0           batch_normalization_6[0][0]      
__________________________________________________________________________________________________
concatenate_2 (Concatenate)     (None, 33, 59, 140)  0           dropout_2[0][0]                  
                                                                 activation_6[0][0]               
__________________________________________________________________________________________________
dropout_3 (Dropout)             (None, 33, 59, 140)  0           concatenate_2[0][0]              
__________________________________________________________________________________________________
conv2d_transpose_1 (Conv2DTrans (None, 66, 118, 40)  22440       dropout_3[0][0]                  
__________________________________________________________________________________________________
concatenate_3 (Concatenate)     (None, 66, 118, 100) 0           conv2d_transpose_1[0][0]         
                                                                 concatenate_1[0][0]              
__________________________________________________________________________________________________
conv2d_7 (Conv2D)               (None, 66, 118, 40)  36040       concatenate_3[0][0]              
__________________________________________________________________________________________________
batch_normalization_7 (BatchNor (None, 66, 118, 40)  160         conv2d_7[0][0]                   
__________________________________________________________________________________________________
activation_7 (Activation)       (None, 66, 118, 40)  0           batch_normalization_7[0][0]      
__________________________________________________________________________________________________
conv2d_8 (Conv2D)               (None, 66, 118, 40)  14440       activation_7[0][0]               
__________________________________________________________________________________________________
batch_normalization_8 (BatchNor (None, 66, 118, 40)  160         conv2d_8[0][0]                   
__________________________________________________________________________________________________
activation_8 (Activation)       (None, 66, 118, 40)  0           batch_normalization_8[0][0]      
__________________________________________________________________________________________________
concatenate_4 (Concatenate)     (None, 66, 118, 140) 0           concatenate_3[0][0]              
                                                                 activation_8[0][0]               
__________________________________________________________________________________________________
dropout_4 (Dropout)             (None, 66, 118, 140) 0           concatenate_4[0][0]              
__________________________________________________________________________________________________
conv2d_transpose_2 (Conv2DTrans (None, 132, 236, 20) 11220       dropout_4[0][0]                  
__________________________________________________________________________________________________
concatenate_5 (Concatenate)     (None, 132, 236, 40) 0           conv2d_transpose_2[0][0]         
                                                                 activation_2[0][0]               
__________________________________________________________________________________________________
conv2d_9 (Conv2D)               (None, 132, 236, 20) 7220        concatenate_5[0][0]              
__________________________________________________________________________________________________
batch_normalization_9 (BatchNor (None, 132, 236, 20) 80          conv2d_9[0][0]                   
__________________________________________________________________________________________________
activation_9 (Activation)       (None, 132, 236, 20) 0           batch_normalization_9[0][0]      
__________________________________________________________________________________________________
conv2d_10 (Conv2D)              (None, 132, 236, 20) 3620        activation_9[0][0]               
__________________________________________________________________________________________________
batch_normalization_10 (BatchNo (None, 132, 236, 20) 80          conv2d_10[0][0]                  
__________________________________________________________________________________________________
activation_10 (Activation)      (None, 132, 236, 20) 0           batch_normalization_10[0][0]     
__________________________________________________________________________________________________
concatenate_6 (Concatenate)     (None, 132, 236, 60) 0           concatenate_5[0][0]              
                                                                 activation_10[0][0]              
__________________________________________________________________________________________________
dropout_5 (Dropout)             (None, 132, 236, 60) 0           concatenate_6[0][0]              
__________________________________________________________________________________________________
conv2d_11 (Conv2D)              (None, 132, 236, 13) 793         dropout_5[0][0]                  
==================================================================================================
Total params: 223,833
Trainable params: 49,153
Non-trainable params: 174,680
__________________________________________________________________________________________________
---------------------- check Layers Step ------------------------------
 N: [1]  | GPU: 2  | SD 1  | Dropout 0.3  | LR 0.001  | NL 3  |  Cascade |  FM 20 |  Upsample 1
…
 Nucleus: [1]  | GPU: 2  | SD 1  | Dropout 0.3  | LR 0.001  | NL 3  |  Cascade |  FM 20 |  Upsample 1
Experiment: exp9_test_Manoj
SubExperiment: sE13_Cascade_FM20_ResFCN_ResUnet2_TL_NL3_LS_MyLogDice_US1_FCNA0_FCNB0_FM0_CSFn2_TL_Main_CV_a
---------------------------------------------------------------
__________________________________________________________________________________________________
Layer (type)                    Output Shape         Param #     Connected to                     
==================================================================================================
input_1 (InputLayer)            (None, 336, 284, 1)  0                                            
__________________________________________________________________________________________________
conv2d_1 (Conv2D)               (None, 336, 284, 30) 300         input_1[0][0]                    
__________________________________________________________________________________________________
batch_normalization_1 (BatchNor (None, 336, 284, 30) 120         conv2d_1[0][0]                   
__________________________________________________________________________________________________
activation_1 (Activation)       (None, 336, 284, 30) 0           batch_normalization_1[0][0]      
__________________________________________________________________________________________________
conv2d_2 (Conv2D)               (None, 336, 284, 30) 8130        activation_1[0][0]               
__________________________________________________________________________________________________
batch_normalization_2 (BatchNor (None, 336, 284, 30) 120         conv2d_2[0][0]                   
__________________________________________________________________________________________________
activation_2 (Activation)       (None, 336, 284, 30) 0           batch_normalization_2[0][0]      
__________________________________________________________________________________________________
max_pooling2d_1 (MaxPooling2D)  (None, 168, 142, 30) 0           activation_2[0][0]               
__________________________________________________________________________________________________
dropout_1 (Dropout)             (None, 168, 142, 30) 0           max_pooling2d_1[0][0]            
__________________________________________________________________________________________________
conv2d_3 (Conv2D)               (None, 168, 142, 60) 16260       dropout_1[0][0]                  
__________________________________________________________________________________________________
batch_normalization_3 (BatchNor (None, 168, 142, 60) 240         conv2d_3[0][0]                   
__________________________________________________________________________________________________
activation_3 (Activation)       (None, 168, 142, 60) 0           batch_normalization_3[0][0]      
__________________________________________________________________________________________________
conv2d_4 (Conv2D)               (None, 168, 142, 60) 32460       activation_3[0][0]               
__________________________________________________________________________________________________
batch_normalization_4 (BatchNor (None, 168, 142, 60) 240         conv2d_4[0][0]                   
__________________________________________________________________________________________________
activation_4 (Activation)       (None, 168, 142, 60) 0           batch_normalization_4[0][0]      
__________________________________________________________________________________________________
concatenate_1 (Concatenate)     (None, 168, 142, 90) 0           dropout_1[0][0]                  
                                                                 activation_4[0][0]               
__________________________________________________________________________________________________
max_pooling2d_2 (MaxPooling2D)  (None, 84, 71, 90)   0           concatenate_1[0][0]              
__________________________________________________________________________________________________
dropout_2 (Dropout)             (None, 84, 71, 90)   0           max_pooling2d_2[0][0]            
__________________________________________________________________________________________________
conv2d_5 (Conv2D)               (None, 84, 71, 120)  97320       dropout_2[0][0]                  
__________________________________________________________________________________________________
batch_normalization_5 (BatchNor (None, 84, 71, 120)  480         conv2d_5[0][0]                   
__________________________________________________________________________________________________
activation_5 (Activation)       (None, 84, 71, 120)  0           batch_normalization_5[0][0]      
__________________________________________________________________________________________________
conv2d_6 (Conv2D)               (None, 84, 71, 120)  129720      activation_5[0][0]               
__________________________________________________________________________________________________
batch_normalization_6 (BatchNor (None, 84, 71, 120)  480         conv2d_6[0][0]                   
__________________________________________________________________________________________________
activation_6 (Activation)       (None, 84, 71, 120)  0           batch_normalization_6[0][0]      
__________________________________________________________________________________________________
concatenate_2 (Concatenate)     (None, 84, 71, 210)  0           dropout_2[0][0]                  
                                                                 activation_6[0][0]               
__________________________________________________________________________________________________
dropout_3 (Dropout)             (None, 84, 71, 210)  0           concatenate_2[0][0]              
__________________________________________________________________________________________________
conv2d_transpose_1 (Conv2DTrans (None, 168, 142, 60) 50460       dropout_3[0][0]                  
__________________________________________________________________________________________________
concatenate_3 (Concatenate)     (None, 168, 142, 150 0           conv2d_transpose_1[0][0]         
                                                                 concatenate_1[0][0]              
__________________________________________________________________________________________________
conv2d_7 (Conv2D)               (None, 168, 142, 60) 81060       concatenate_3[0][0]              
__________________________________________________________________________________________________
batch_normalization_7 (BatchNor (None, 168, 142, 60) 240         conv2d_7[0][0]                   
__________________________________________________________________________________________________
activation_7 (Activation)       (None, 168, 142, 60) 0           batch_normalization_7[0][0]      
__________________________________________________________________________________________________
conv2d_8 (Conv2D)               (None, 168, 142, 60) 32460       activation_7[0][0]               
__________________________________________________________________________________________________
batch_normalization_8 (BatchNor (None, 168, 142, 60) 240         conv2d_8[0][0]                   
__________________________________________________________________________________________________
activation_8 (Activation)       (None, 168, 142, 60) 0           batch_normalization_8[0][0]      
__________________________________________________________________________________________________
concatenate_4 (Concatenate)     (None, 168, 142, 210 0           concatenate_3[0][0]              
                                                                 activation_8[0][0]               
__________________________________________________________________________________________________
dropout_4 (Dropout)             (None, 168, 142, 210 0           concatenate_4[0][0]              
__________________________________________________________________________________________________
conv2d_transpose_2 (Conv2DTrans (None, 336, 284, 30) 25230       dropout_4[0][0]                  
__________________________________________________________________________________________________
concatenate_5 (Concatenate)     (None, 336, 284, 60) 0           conv2d_transpose_2[0][0]         
                                                                 activation_2[0][0]               
__________________________________________________________________________________________________
conv2d_9 (Conv2D)               (None, 336, 284, 30) 16230       concatenate_5[0][0]              
__________________________________________________________________________________________________
batch_normalization_9 (BatchNor (None, 336, 284, 30) 120         conv2d_9[0][0]                   
__________________________________________________________________________________________________
activation_9 (Activation)       (None, 336, 284, 30) 0           batch_normalization_9[0][0]      
__________________________________________________________________________________________________
conv2d_10 (Conv2D)              (None, 336, 284, 30) 8130        activation_9[0][0]               
__________________________________________________________________________________________________
batch_normalization_10 (BatchNo (None, 336, 284, 30) 120         conv2d_10[0][0]                  
__________________________________________________________________________________________________
activation_10 (Activation)      (None, 336, 284, 30) 0           batch_normalization_10[0][0]     
__________________________________________________________________________________________________
concatenate_6 (Concatenate)     (None, 336, 284, 90) 0           concatenate_5[0][0]              
                                                                 activation_10[0][0]              
__________________________________________________________________________________________________
dropout_5 (Dropout)             (None, 336, 284, 90) 0           concatenate_6[0][0]              
__________________________________________________________________________________________________
conv2d_11 (Conv2D)              (None, 336, 284, 2)  182         dropout_5[0][0]                  
==================================================================================================
Total params: 500,342
Trainable params: 108,122
Non-trainable params: 392,220
__________________________________________________________________________________________________2019-08-27 13:33:33.893106: I tensorflow/core/common_runtime/gpu/gpu_device.cc:1471] Adding visible gpu devices: 0
…
 Nucleus: [2, 4, 5, 6, 7, 8, 9, 10, 11, 12, 13, 14]  | GPU: 2  | SD 1  | Dropout 0.3  | LR 0.001  | NL 3  |  Cascade |  FM 20 |  Upsample 1
Experiment: exp9_test_Manoj
SubExperiment: sE13_Cascade_FM20_ResFCN_ResUnet2_TL_NL3_LS_MyLogDice_US1_FCNA0_FCNB0_FM0_CSFn2_TL_Main_CV_a
---------------------------------------------------------------
__________________________________________________________________________________________________
Layer (type)                    Output Shape         Param #     Connected to                     
==================================================================================================
input_1 (InputLayer)            (None, 192, 168, 1)  0                                            
__________________________________________________________________________________________________
conv2d_1 (Conv2D)               (None, 192, 168, 30) 300         input_1[0][0]                    
__________________________________________________________________________________________________
batch_normalization_1 (BatchNor (None, 192, 168, 30) 120         conv2d_1[0][0]                   
__________________________________________________________________________________________________
activation_1 (Activation)       (None, 192, 168, 30) 0           batch_normalization_1[0][0]      
__________________________________________________________________________________________________
conv2d_2 (Conv2D)               (None, 192, 168, 30) 8130        activation_1[0][0]               
__________________________________________________________________________________________________
batch_normalization_2 (BatchNor (None, 192, 168, 30) 120         conv2d_2[0][0]                   
__________________________________________________________________________________________________
activation_2 (Activation)       (None, 192, 168, 30) 0           batch_normalization_2[0][0]      
__________________________________________________________________________________________________
max_pooling2d_1 (MaxPooling2D)  (None, 96, 84, 30)   0           activation_2[0][0]               
__________________________________________________________________________________________________
dropout_1 (Dropout)             (None, 96, 84, 30)   0           max_pooling2d_1[0][0]            
__________________________________________________________________________________________________
conv2d_3 (Conv2D)               (None, 96, 84, 60)   16260       dropout_1[0][0]                  
__________________________________________________________________________________________________
batch_normalization_3 (BatchNor (None, 96, 84, 60)   240         conv2d_3[0][0]                   
__________________________________________________________________________________________________
activation_3 (Activation)       (None, 96, 84, 60)   0           batch_normalization_3[0][0]      
__________________________________________________________________________________________________
conv2d_4 (Conv2D)               (None, 96, 84, 60)   32460       activation_3[0][0]               
__________________________________________________________________________________________________
batch_normalization_4 (BatchNor (None, 96, 84, 60)   240         conv2d_4[0][0]                   
__________________________________________________________________________________________________
activation_4 (Activation)       (None, 96, 84, 60)   0           batch_normalization_4[0][0]      
__________________________________________________________________________________________________
concatenate_1 (Concatenate)     (None, 96, 84, 90)   0           dropout_1[0][0]                  
                                                                 activation_4[0][0]               
__________________________________________________________________________________________________
max_pooling2d_2 (MaxPooling2D)  (None, 48, 42, 90)   0           concatenate_1[0][0]              
__________________________________________________________________________________________________
dropout_2 (Dropout)             (None, 48, 42, 90)   0           max_pooling2d_2[0][0]            
__________________________________________________________________________________________________
conv2d_5 (Conv2D)               (None, 48, 42, 120)  97320       dropout_2[0][0]                  
__________________________________________________________________________________________________
batch_normalization_5 (BatchNor (None, 48, 42, 120)  480         conv2d_5[0][0]                   
__________________________________________________________________________________________________
activation_5 (Activation)       (None, 48, 42, 120)  0           batch_normalization_5[0][0]      
__________________________________________________________________________________________________
conv2d_6 (Conv2D)               (None, 48, 42, 120)  129720      activation_5[0][0]               
__________________________________________________________________________________________________
batch_normalization_6 (BatchNor (None, 48, 42, 120)  480         conv2d_6[0][0]                   
__________________________________________________________________________________________________
activation_6 (Activation)       (None, 48, 42, 120)  0           batch_normalization_6[0][0]      
__________________________________________________________________________________________________
concatenate_2 (Concatenate)     (None, 48, 42, 210)  0           dropout_2[0][0]                  
                                                                 activation_6[0][0]               
__________________________________________________________________________________________________
dropout_3 (Dropout)             (None, 48, 42, 210)  0           concatenate_2[0][0]              
__________________________________________________________________________________________________
conv2d_transpose_1 (Conv2DTrans (None, 96, 84, 60)   50460       dropout_3[0][0]                  
__________________________________________________________________________________________________
concatenate_3 (Concatenate)     (None, 96, 84, 150)  0           conv2d_transpose_1[0][0]         
                                                                 concatenate_1[0][0]              
__________________________________________________________________________________________________
conv2d_7 (Conv2D)               (None, 96, 84, 60)   81060       concatenate_3[0][0]              
__________________________________________________________________________________________________
batch_normalization_7 (BatchNor (None, 96, 84, 60)   240         conv2d_7[0][0]                   
__________________________________________________________________________________________________
activation_7 (Activation)       (None, 96, 84, 60)   0           batch_normalization_7[0][0]      
__________________________________________________________________________________________________
conv2d_8 (Conv2D)               (None, 96, 84, 60)   32460       activation_7[0][0]               
__________________________________________________________________________________________________
batch_normalization_8 (BatchNor (None, 96, 84, 60)   240         conv2d_8[0][0]                   
__________________________________________________________________________________________________
activation_8 (Activation)       (None, 96, 84, 60)   0           batch_normalization_8[0][0]      
__________________________________________________________________________________________________
concatenate_4 (Concatenate)     (None, 96, 84, 210)  0           concatenate_3[0][0]              
                                                                 activation_8[0][0]               
__________________________________________________________________________________________________2019-08-27 13:35:00.410659: I tensorflow/core/common_runtime/gpu/gpu_device.cc:1471] Adding visible gpu devices: 0
2019-08-27 13:35:00.410739: I tensorflow/core/common_runtime/gpu/gpu_device.cc:952] Device interconnect StreamExecutor with strength 1 edge matrix:
…
2019-08-27 13:35:00.411094: I tensorflow/core/common_runtime/gpu/gpu_device.cc:1084] Created TensorFlow device (/job:localhost/replica:0/task:0/device:GPU:0 with 15123 MB memory) -> physical GPU (device: 0, name: Tesla P100-PCIE-16GB, pci bus id: 0000:08:00.0, compute capability: 6.0)

predicting test subjects:   0%|          | 0/1 [00:00<?, ?it/s]predicting test subjects: 100%|██████████| 1/1 [03:07<00:00, 187.52s/it]
predicting train subjects: 0it [00:00, ?it/s]
Loading test:   0%|          | 0/1 [00:00<?, ?it/s]Loading test: 100%|██████████| 1/1 [00:46<00:00, 47.00s/it]
concatenating: validation:   0%|          | 0/1 [00:00<?, ?it/s]concatenating: validation: 100%|██████████| 1/1 [00:00<00:00, 10.66it/s]
dropout_4 (Dropout)             (None, 96, 84, 210)  0           concatenate_4[0][0]              
__________________________________________________________________________________________________
conv2d_transpose_2 (Conv2DTrans (None, 192, 168, 30) 25230       dropout_4[0][0]                  
__________________________________________________________________________________________________
concatenate_5 (Concatenate)     (None, 192, 168, 60) 0           conv2d_transpose_2[0][0]         
                                                                 activation_2[0][0]               
__________________________________________________________________________________________________
conv2d_9 (Conv2D)               (None, 192, 168, 30) 16230       concatenate_5[0][0]              
__________________________________________________________________________________________________
batch_normalization_9 (BatchNor (None, 192, 168, 30) 120         conv2d_9[0][0]                   
__________________________________________________________________________________________________
activation_9 (Activation)       (None, 192, 168, 30) 0           batch_normalization_9[0][0]      
__________________________________________________________________________________________________
conv2d_10 (Conv2D)              (None, 192, 168, 30) 8130        activation_9[0][0]               
__________________________________________________________________________________________________
batch_normalization_10 (BatchNo (None, 192, 168, 30) 120         conv2d_10[0][0]                  
__________________________________________________________________________________________________
activation_10 (Activation)      (None, 192, 168, 30) 0           batch_normalization_10[0][0]     
__________________________________________________________________________________________________
concatenate_6 (Concatenate)     (None, 192, 168, 90) 0           concatenate_5[0][0]              
                                                                 activation_10[0][0]              
__________________________________________________________________________________________________
dropout_5 (Dropout)             (None, 192, 168, 90) 0           concatenate_6[0][0]              
__________________________________________________________________________________________________
conv2d_11 (Conv2D)              (None, 192, 168, 13) 1183        dropout_5[0][0]                  
==================================================================================================
Total params: 501,343
Trainable params: 109,123
Non-trainable params: 392,220
__________________________________________________________________________________________________
---------------------- check Layers Step ------------------------------
 N: [1]  | GPU: 2  | SD 0  | Dropout 0.3  | LR 0.001  | NL 3  |  Cascade |  FM 20 |  Upsample 1
…
 Nucleus: [2, 4, 5, 6, 7, 8, 9, 10, 11, 12, 13, 14]  | GPU: 2  | SD 0  | Dropout 0.3  | LR 0.001  | NL 3  |  Cascade |  FM 20 |  Upsample 1
Experiment: exp9_test_Manoj
SubExperiment: sE13_Cascade_FM20_ResFCN_ResUnet2_TL_NL3_LS_MyLogDice_US1_FCNA0_FCNB0_FM0_CSFn2_TL_Main_CV_a
---------------------------------------------------------------
__________________________________________________________________________________________________
Layer (type)                    Output Shape         Param #     Connected to                     
==================================================================================================
input_1 (InputLayer)            (None, 236, 132, 1)  0                                            
__________________________________________________________________________________________________
conv2d_1 (Conv2D)               (None, 236, 132, 40) 400         input_1[0][0]                    
__________________________________________________________________________________________________
batch_normalization_1 (BatchNor (None, 236, 132, 40) 160         conv2d_1[0][0]                   
__________________________________________________________________________________________________
activation_1 (Activation)       (None, 236, 132, 40) 0           batch_normalization_1[0][0]      
__________________________________________________________________________________________________
conv2d_2 (Conv2D)               (None, 236, 132, 40) 14440       activation_1[0][0]               
__________________________________________________________________________________________________
batch_normalization_2 (BatchNor (None, 236, 132, 40) 160         conv2d_2[0][0]                   
__________________________________________________________________________________________________
activation_2 (Activation)       (None, 236, 132, 40) 0           batch_normalization_2[0][0]      
__________________________________________________________________________________________________
max_pooling2d_1 (MaxPooling2D)  (None, 118, 66, 40)  0           activation_2[0][0]               
__________________________________________________________________________________________________
dropout_1 (Dropout)             (None, 118, 66, 40)  0           max_pooling2d_1[0][0]            
__________________________________________________________________________________________________
conv2d_3 (Conv2D)               (None, 118, 66, 80)  28880       dropout_1[0][0]                  
__________________________________________________________________________________________________
batch_normalization_3 (BatchNor (None, 118, 66, 80)  320         conv2d_3[0][0]                   
__________________________________________________________________________________________________
activation_3 (Activation)       (None, 118, 66, 80)  0           batch_normalization_3[0][0]      
__________________________________________________________________________________________________
conv2d_4 (Conv2D)               (None, 118, 66, 80)  57680       activation_3[0][0]               
__________________________________________________________________________________________________
batch_normalization_4 (BatchNor (None, 118, 66, 80)  320         conv2d_4[0][0]                   
__________________________________________________________________________________________________
activation_4 (Activation)       (None, 118, 66, 80)  0           batch_normalization_4[0][0]      
__________________________________________________________________________________________________
concatenate_1 (Concatenate)     (None, 118, 66, 120) 0           dropout_1[0][0]                  
                                                                 activation_4[0][0]               
__________________________________________________________________________________________________
max_pooling2d_2 (MaxPooling2D)  (None, 59, 33, 120)  0           concatenate_1[0][0]              
__________________________________________________________________________________________________
dropout_2 (Dropout)             (None, 59, 33, 120)  0           max_pooling2d_2[0][0]            
__________________________________________________________________________________________________
conv2d_5 (Conv2D)               (None, 59, 33, 160)  172960      dropout_2[0][0]                  
__________________________________________________________________________________________________
batch_normalization_5 (BatchNor (None, 59, 33, 160)  640         conv2d_5[0][0]                   
__________________________________________________________________________________________________
activation_5 (Activation)       (None, 59, 33, 160)  0           batch_normalization_5[0][0]      
__________________________________________________________________________________________________
conv2d_6 (Conv2D)               (None, 59, 33, 160)  230560      activation_5[0][0]               2019-08-27 13:38:58.172174: I tensorflow/core/common_runtime/gpu/gpu_device.cc:1471] Adding visible gpu devices: 0
2019-08-27 13:38:58.172312: I tensorflow/core/common_runtime/gpu/gpu_device.cc:952] Device interconnect StreamExecutor with strength 1 edge matrix:
2019-08-27 13:38:58.172335: I tensorflow/core/common_runtime/gpu/gpu_device.cc:958]      0 
2019-08-27 13:38:58.172351: I tensorflow/core/common_runtime/gpu/gpu_device.cc:971] 0:   N 
2019-08-27 13:38:58.172801: I tensorflow/core/common_runtime/gpu/gpu_device.cc:1084] Created TensorFlow device (/job:localhost/replica:0/task:0/device:GPU:0 with 15123 MB memory) -> physical GPU (device: 0, name: Tesla P100-PCIE-16GB, pci bus id: 0000:08:00.0, compute capability: 6.0)

predicting test subjects:   0%|          | 0/1 [00:00<?, ?it/s]predicting test subjects: 100%|██████████| 1/1 [02:54<00:00, 174.10s/it]
predicting train subjects: 0it [00:00, ?it/s]
  0%|          | 0/1 [00:00<?, ?it/s]100%|██████████| 1/1 [01:50<00:00, 110.41s/it]

__________________________________________________________________________________________________
batch_normalization_6 (BatchNor (None, 59, 33, 160)  640         conv2d_6[0][0]                   
__________________________________________________________________________________________________
activation_6 (Activation)       (None, 59, 33, 160)  0           batch_normalization_6[0][0]      
__________________________________________________________________________________________________
concatenate_2 (Concatenate)     (None, 59, 33, 280)  0           dropout_2[0][0]                  
                                                                 activation_6[0][0]               
__________________________________________________________________________________________________
dropout_3 (Dropout)             (None, 59, 33, 280)  0           concatenate_2[0][0]              
__________________________________________________________________________________________________
conv2d_transpose_1 (Conv2DTrans (None, 118, 66, 80)  89680       dropout_3[0][0]                  
__________________________________________________________________________________________________
concatenate_3 (Concatenate)     (None, 118, 66, 200) 0           conv2d_transpose_1[0][0]         
                                                                 concatenate_1[0][0]              
__________________________________________________________________________________________________
conv2d_7 (Conv2D)               (None, 118, 66, 80)  144080      concatenate_3[0][0]              
__________________________________________________________________________________________________
batch_normalization_7 (BatchNor (None, 118, 66, 80)  320         conv2d_7[0][0]                   
__________________________________________________________________________________________________
activation_7 (Activation)       (None, 118, 66, 80)  0           batch_normalization_7[0][0]      
__________________________________________________________________________________________________
conv2d_8 (Conv2D)               (None, 118, 66, 80)  57680       activation_7[0][0]               
__________________________________________________________________________________________________
batch_normalization_8 (BatchNor (None, 118, 66, 80)  320         conv2d_8[0][0]                   
__________________________________________________________________________________________________
activation_8 (Activation)       (None, 118, 66, 80)  0           batch_normalization_8[0][0]      
__________________________________________________________________________________________________
concatenate_4 (Concatenate)     (None, 118, 66, 280) 0           concatenate_3[0][0]              
                                                                 activation_8[0][0]               
__________________________________________________________________________________________________
dropout_4 (Dropout)             (None, 118, 66, 280) 0           concatenate_4[0][0]              
__________________________________________________________________________________________________
conv2d_transpose_2 (Conv2DTrans (None, 236, 132, 40) 44840       dropout_4[0][0]                  
__________________________________________________________________________________________________
concatenate_5 (Concatenate)     (None, 236, 132, 80) 0           conv2d_transpose_2[0][0]         
                                                                 activation_2[0][0]               
__________________________________________________________________________________________________
conv2d_9 (Conv2D)               (None, 236, 132, 40) 28840       concatenate_5[0][0]              
__________________________________________________________________________________________________
batch_normalization_9 (BatchNor (None, 236, 132, 40) 160         conv2d_9[0][0]                   
__________________________________________________________________________________________________
activation_9 (Activation)       (None, 236, 132, 40) 0           batch_normalization_9[0][0]      
__________________________________________________________________________________________________
conv2d_10 (Conv2D)              (None, 236, 132, 40) 14440       activation_9[0][0]               
__________________________________________________________________________________________________
batch_normalization_10 (BatchNo (None, 236, 132, 40) 160         conv2d_10[0][0]                  
__________________________________________________________________________________________________
activation_10 (Activation)      (None, 236, 132, 40) 0           batch_normalization_10[0][0]     
__________________________________________________________________________________________________
concatenate_6 (Concatenate)     (None, 236, 132, 120 0           concatenate_5[0][0]              
                                                                 activation_10[0][0]              
__________________________________________________________________________________________________
dropout_5 (Dropout)             (None, 236, 132, 120 0           concatenate_6[0][0]              
__________________________________________________________________________________________________
conv2d_11 (Conv2D)              (None, 236, 132, 13) 1573        dropout_5[0][0]                  
==================================================================================================
Total params: 889,253
Trainable params: 192,693
Non-trainable params: 696,560
__________________________________________________________________________________________________
