…
 Nucleus: 1  | GPU: 0  | SD 1  | Dropout 0.3  | LR 0.001  | NL 3  |  Cascade |  FM 20
Experiment: exp5_CSFn
SubExperiment: sE12_Cascade_FM20_DO0.3_ET_InitFrom_3Tp7T_NoSchedular_WeightedClass_CV_a
---------------------------------------------------------------
InputDimensions [92, 112, 128]
(34641, 92, 112, 1)
__________________________________________________________________________________________________
Layer (type)                    Output Shape         Param #     Connected to                     
==================================================================================================
input_1 (InputLayer)            (None, 92, 112, 1)   0                                            
__________________________________________________________________________________________________
batch_normalization_1 (BatchNor (None, 92, 112, 1)   4           input_1[0][0]                    
__________________________________________________________________________________________________
conv2d_1 (Conv2D)               (None, 92, 112, 20)  200         batch_normalization_1[0][0]      
__________________________________________________________________________________________________
conv2d_2 (Conv2D)               (None, 92, 112, 20)  3620        conv2d_1[0][0]                   
__________________________________________________________________________________________________
max_pooling2d_1 (MaxPooling2D)  (None, 46, 56, 20)   0           conv2d_2[0][0]                   
__________________________________________________________________________________________________
dropout_1 (Dropout)             (None, 46, 56, 20)   0           max_pooling2d_1[0][0]            
__________________________________________________________________________________________________
batch_normalization_2 (BatchNor (None, 46, 56, 20)   80          dropout_1[0][0]                  
__________________________________________________________________________________________________
conv2d_3 (Conv2D)               (None, 46, 56, 40)   7240        batch_normalization_2[0][0]      
__________________________________________________________________________________________________
conv2d_4 (Conv2D)               (None, 46, 56, 40)   14440       conv2d_3[0][0]                   
__________________________________________________________________________________________________
max_pooling2d_2 (MaxPooling2D)  (None, 23, 28, 40)   0           conv2d_4[0][0]                   
__________________________________________________________________________________________________
dropout_2 (Dropout)             (None, 23, 28, 40)   0           max_pooling2d_2[0][0]            
__________________________________________________________________________________________________
conv2d_5 (Conv2D)               (None, 23, 28, 80)   28880       dropout_2[0][0]                  
__________________________________________________________________________________________________
conv2d_6 (Conv2D)               (None, 23, 28, 80)   57680       conv2d_5[0][0]                   
__________________________________________________________________________________________________
dropout_3 (Dropout)             (None, 23, 28, 80)   0           conv2d_6[0][0]                   
__________________________________________________________________________________________________
batch_normalization_3 (BatchNor (None, 23, 28, 80)   320         dropout_3[0][0]                  
__________________________________________________________________________________________________
conv2d_transpose_1 (Conv2DTrans (None, 46, 56, 40)   12840       batch_normalization_3[0][0]      
__________________________________________________________________________________________________
concatenate_1 (Concatenate)     (None, 46, 56, 80)   0           conv2d_transpose_1[0][0]         
                                                                 conv2d_4[0][0]                   
__________________________________________________________________________________________________
conv2d_7 (Conv2D)               (None, 46, 56, 40)   28840       concatenate_1[0][0]              
__________________________________________________________________________________________________
conv2d_8 (Conv2D)               (None, 46, 56, 40)   14440       conv2d_7[0][0]                   
__________________________________________________________________________________________________
dropout_4 (Dropout)             (None, 46, 56, 40)   0           conv2d_8[0][0]                   
__________________________________________________________________________________________________
batch_normalization_4 (BatchNor (None, 46, 56, 40)   160         dropout_4[0][0]                  
__________________________________________________________________________________________________
conv2d_transpose_2 (Conv2DTrans (None, 92, 112, 20)  3220        batch_normalization_4[0][0]      
__________________________________________________________________________________________________
concatenate_2 (Concatenate)     (None, 92, 112, 40)  0           conv2d_transpose_2[0][0]         
                                                                 conv2d_2[0][0]                   
__________________________________________________________________________________________________
conv2d_9 (Conv2D)               (None, 92, 112, 20)  7220        concatenate_2[0][0]              
__________________________________________________________________________________________________
conv2d_10 (Conv2D)              (None, 92, 112, 20)  3620        conv2d_9[0][0]                   
__________________________________________________________________________________________________
dropout_5 (Dropout)             (None, 92, 112, 20)  0           conv2d_10[0][0]                  
__________________________________________________________________________________________________
conv2d_11 (Conv2D)              (None, 92, 112, 2)   42          dropout_5[0][0]                  
==================================================================================================
Total params: 182,846
Trainable params: 182,564
Non-trainable params: 282
__________________________________________________________________________________________________
 --- initialized from Model_7T /array/ssd/msmajdi/experiments/keras/exp5_CSFn/models/sE12_Cascade_FM20_3T7T/1-THALAMUS/sd1
…
2019-05-24 18:32:15.485389: I tensorflow/core/common_runtime/gpu/gpu_device.cc:952] Device interconnect StreamExecutor with strength 1 edge matrix:
2019-05-24 18:32:15.485406: I tensorflow/core/common_runtime/gpu/gpu_device.cc:958]      0 
2019-05-24 18:32:15.485416: I tensorflow/core/common_runtime/gpu/gpu_device.cc:971] 0:   N 
2019-05-24 18:32:15.485854: I tensorflow/core/common_runtime/gpu/gpu_device.cc:1084] Created TensorFlow device (/job:localhost/replica:0/task:0/device:GPU:0 with 15123 MB memory) -> physical GPU (device: 0, name: Tesla P100-PCIE-16GB, pci bus id: 0000:04:00.0, compute capability: 6.0)

batch_normalization_1 (BatchNor (None, 84, 56, 1)    4           input_1[0][0]                    
__________________________________________________________________________________________________
conv2d_1 (Conv2D)               (None, 84, 56, 20)   200         batch_normalization_1[0][0]      
__________________________________________________________________________________________________
conv2d_2 (Conv2D)               (None, 84, 56, 20)   3620        conv2d_1[0][0]                   
__________________________________________________________________________________________________
max_pooling2d_1 (MaxPooling2D)  (None, 42, 28, 20)   0           conv2d_2[0][0]                   
__________________________________________________________________________________________________
dropout_1 (Dropout)             (None, 42, 28, 20)   0           max_pooling2d_1[0][0]            
__________________________________________________________________________________________________
batch_normalization_2 (BatchNor (None, 42, 28, 20)   80          dropout_1[0][0]                  
__________________________________________________________________________________________________
conv2d_3 (Conv2D)               (None, 42, 28, 40)   7240        batch_normalization_2[0][0]      
__________________________________________________________________________________________________
conv2d_4 (Conv2D)               (None, 42, 28, 40)   14440       conv2d_3[0][0]                   
__________________________________________________________________________________________________
max_pooling2d_2 (MaxPooling2D)  (None, 21, 14, 40)   0           conv2d_4[0][0]                   
__________________________________________________________________________________________________
dropout_2 (Dropout)             (None, 21, 14, 40)   0           max_pooling2d_2[0][0]            
__________________________________________________________________________________________________
conv2d_5 (Conv2D)               (None, 21, 14, 80)   28880       dropout_2[0][0]                  
__________________________________________________________________________________________________
conv2d_6 (Conv2D)               (None, 21, 14, 80)   57680       conv2d_5[0][0]                   
__________________________________________________________________________________________________
dropout_3 (Dropout)             (None, 21, 14, 80)   0           conv2d_6[0][0]                   
__________________________________________________________________________________________________
batch_normalization_3 (BatchNor (None, 21, 14, 80)   320         dropout_3[0][0]                  
__________________________________________________________________________________________________
conv2d_transpose_1 (Conv2DTrans (None, 42, 28, 40)   12840       batch_normalization_3[0][0]      
__________________________________________________________________________________________________
concatenate_1 (Concatenate)     (None, 42, 28, 80)   0           conv2d_transpose_1[0][0]         
                                                                 conv2d_4[0][0]                   
__________________________________________________________________________________________________
conv2d_7 (Conv2D)               (None, 42, 28, 40)   28840       concatenate_1[0][0]              
__________________________________________________________________________________________________
conv2d_8 (Conv2D)               (None, 42, 28, 40)   14440       conv2d_7[0][0]                   
__________________________________________________________________________________________________
dropout_4 (Dropout)             (None, 42, 28, 40)   0           conv2d_8[0][0]                   
__________________________________________________________________________________________________
batch_normalization_4 (BatchNor (None, 42, 28, 40)   160         dropout_4[0][0]                  
__________________________________________________________________________________________________
conv2d_transpose_2 (Conv2DTrans (None, 84, 56, 20)   3220        batch_normalization_4[0][0]      
__________________________________________________________________________________________________
concatenate_2 (Concatenate)     (None, 84, 56, 40)   0           conv2d_transpose_2[0][0]         
                                                                 conv2d_2[0][0]                   
__________________________________________________________________________________________________
conv2d_9 (Conv2D)               (None, 84, 56, 20)   7220        concatenate_2[0][0]              
__________________________________________________________________________________________________
conv2d_10 (Conv2D)              (None, 84, 56, 20)   3620        conv2d_9[0][0]                   
__________________________________________________________________________________________________
dropout_5 (Dropout)             (None, 84, 56, 20)   0           conv2d_10[0][0]                  
__________________________________________________________________________________________________
conv2d_11 (Conv2D)              (None, 84, 56, 2)    42          dropout_5[0][0]                  
==================================================================================================
Total params: 182,846
Trainable params: 182,564
Non-trainable params: 282
__________________________________________________________________________________________________
 --- initialized from Model_7T /array/ssd/msmajdi/experiments/keras/exp5_CSFn/models/sE12_Cascade_FM20_3T7T/2-AV/sd0
…
 Nucleus: 2  | GPU: 0  | SD 1  | Dropout 0.3  | LR 0.001  | NL 3  |  Cascade |  FM 20
Experiment: exp5_CSFn
SubExperiment: sE12_Cascade_FM20_DO0.3_ET_InitFrom_3Tp7T_NoSchedular_WeightedClass_CV_a
---------------------------------------------------------------
InputDimensions [56, 56, 72]
(20833, 56, 56, 1)
__________________________________________________________________________________________________
Layer (type)                    Output Shape         Param #     Connected to                     
==================================================================================================
input_1 (InputLayer)            (None, 56, 56, 1)    0                                            
__________________________________________________________________________________________________
batch_normalization_1 (BatchNor (None, 56, 56, 1)    4           input_1[0][0]                    
__________________________________________________________________________________________________
conv2d_1 (Conv2D)               (None, 56, 56, 20)   200         batch_normalization_1[0][0]      
__________________________________________________________________________________________________
conv2d_2 (Conv2D)               (None, 56, 56, 20)   3620        conv2d_1[0][0]                   
__________________________________________________________________________________________________
max_pooling2d_1 (MaxPooling2D)  (None, 28, 28, 20)   0           conv2d_2[0][0]                   
__________________________________________________________________________________________________
dropout_1 (Dropout)             (None, 28, 28, 20)   0           max_pooling2d_1[0][0]            
__________________________________________________________________________________________________
batch_normalization_2 (BatchNor (None, 28, 28, 20)   80          dropout_1[0][0]                  
__________________________________________________________________________________________________
conv2d_3 (Conv2D)               (None, 28, 28, 40)   7240        batch_normalization_2[0][0]      
__________________________________________________________________________________________________
conv2d_4 (Conv2D)               (None, 28, 28, 40)   14440       conv2d_3[0][0]                   
__________________________________________________________________________________________________
max_pooling2d_2 (MaxPooling2D)  (None, 14, 14, 40)   0           conv2d_4[0][0]                   
__________________________________________________________________________________________________
dropout_2 (Dropout)             (None, 14, 14, 40)   0           max_pooling2d_2[0][0]            
__________________________________________________________________________________________________
conv2d_5 (Conv2D)               (None, 14, 14, 80)   28880       dropout_2[0][0]                  
__________________________________________________________________________________________________
conv2d_6 (Conv2D)               (None, 14, 14, 80)   57680       conv2d_5[0][0]                   
__________________________________________________________________________________________________
dropout_3 (Dropout)             (None, 14, 14, 80)   0           conv2d_6[0][0]                   
__________________________________________________________________________________________________
batch_normalization_3 (BatchNor (None, 14, 14, 80)   320         dropout_3[0][0]                  
__________________________________________________________________________________________________
conv2d_transpose_1 (Conv2DTrans (None, 28, 28, 40)   12840       batch_normalization_3[0][0]      
__________________________________________________________________________________________________
concatenate_1 (Concatenate)     (None, 28, 28, 80)   0           conv2d_transpose_1[0][0]         
                                                                 conv2d_4[0][0]                   
__________________________________________________________________________________________________
conv2d_7 (Conv2D)               (None, 28, 28, 40)   28840       concatenate_1[0][0]              
__________________________________________________________________________________________________
conv2d_8 (Conv2D)               (None, 28, 28, 40)   14440       conv2d_7[0][0]                   
__________________________________________________________________________________________________2019-05-24 18:38:10.165305: I tensorflow/core/common_runtime/gpu/gpu_device.cc:1471] Adding visible gpu devices: 0
2019-05-24 18:38:10.165413: I tensorflow/core/common_runtime/gpu/gpu_device.cc:952] Device interconnect StreamExecutor with strength 1 edge matrix:
2019-05-24 18:38:10.165428: I tensorflow/core/common_runtime/gpu/gpu_device.cc:958]      0 
2019-05-24 18:38:10.165436: I tensorflow/core/common_runtime/gpu/gpu_device.cc:971] 0:   N 
2019-05-24 18:38:10.165900: I tensorflow/core/common_runtime/gpu/gpu_device.cc:1084] Created TensorFlow device (/job:localhost/replica:0/task:0/device:GPU:0 with 15123 MB memory) -> physical GPU (device: 0, name: Tesla P100-PCIE-16GB, pci bus id: 0000:04:00.0, compute capability: 6.0)

dropout_4 (Dropout)             (None, 28, 28, 40)   0           conv2d_8[0][0]                   
__________________________________________________________________________________________________
batch_normalization_4 (BatchNor (None, 28, 28, 40)   160         dropout_4[0][0]                  
__________________________________________________________________________________________________
conv2d_transpose_2 (Conv2DTrans (None, 56, 56, 20)   3220        batch_normalization_4[0][0]      
__________________________________________________________________________________________________
concatenate_2 (Concatenate)     (None, 56, 56, 40)   0           conv2d_transpose_2[0][0]         
                                                                 conv2d_2[0][0]                   
__________________________________________________________________________________________________
conv2d_9 (Conv2D)               (None, 56, 56, 20)   7220        concatenate_2[0][0]              
__________________________________________________________________________________________________
conv2d_10 (Conv2D)              (None, 56, 56, 20)   3620        conv2d_9[0][0]                   
__________________________________________________________________________________________________
dropout_5 (Dropout)             (None, 56, 56, 20)   0           conv2d_10[0][0]                  
__________________________________________________________________________________________________
conv2d_11 (Conv2D)              (None, 56, 56, 2)    42          dropout_5[0][0]                  
==================================================================================================
Total params: 182,846
Trainable params: 182,564
Non-trainable params: 282
__________________________________________________________________________________________________
 --- initialized from Model_7T /array/ssd/msmajdi/experiments/keras/exp5_CSFn/models/sE12_Cascade_FM20_3T7T/2-AV/sd1
…
 Nucleus: 4  | GPU: 0  | SD 1  | Dropout 0.3  | LR 0.001  | NL 3  |  Cascade |  FM 20
Experiment: exp5_CSFn
SubExperiment: sE12_Cascade_FM20_DO0.3_ET_InitFrom_3Tp7T_NoSchedular_WeightedClass_CV_a
---------------------------------------------------------------
InputDimensions [56, 56, 72]
(20833, 56, 56, 1)
__________________________________________________________________________________________________
Layer (type)                    Output Shape         Param #     Connected to                     
==================================================================================================
input_1 (InputLayer)            (None, 56, 56, 1)    0                                            
__________________________________________________________________________________________________
batch_normalization_1 (BatchNor (None, 56, 56, 1)    4           input_1[0][0]                    
__________________________________________________________________________________________________
conv2d_1 (Conv2D)               (None, 56, 56, 20)   200         batch_normalization_1[0][0]      
__________________________________________________________________________________________________
conv2d_2 (Conv2D)               (None, 56, 56, 20)   3620        conv2d_1[0][0]                   
__________________________________________________________________________________________________
max_pooling2d_1 (MaxPooling2D)  (None, 28, 28, 20)   0           conv2d_2[0][0]                   
__________________________________________________________________________________________________
dropout_1 (Dropout)             (None, 28, 28, 20)   0           max_pooling2d_1[0][0]            
__________________________________________________________________________________________________
batch_normalization_2 (BatchNor (None, 28, 28, 20)   80          dropout_1[0][0]                  
__________________________________________________________________________________________________
conv2d_3 (Conv2D)               (None, 28, 28, 40)   7240        batch_normalization_2[0][0]      
__________________________________________________________________________________________________
conv2d_4 (Conv2D)               (None, 28, 28, 40)   14440       conv2d_3[0][0]                   
__________________________________________________________________________________________________
max_pooling2d_2 (MaxPooling2D)  (None, 14, 14, 40)   0           conv2d_4[0][0]                   
__________________________________________________________________________________________________
dropout_2 (Dropout)             (None, 14, 14, 40)   0           max_pooling2d_2[0][0]            
__________________________________________________________________________________________________
conv2d_5 (Conv2D)               (None, 14, 14, 80)   28880       dropout_2[0][0]                  
__________________________________________________________________________________________________
conv2d_6 (Conv2D)               (None, 14, 14, 80)   57680       conv2d_5[0][0]                   
__________________________________________________________________________________________________
dropout_3 (Dropout)             (None, 14, 14, 80)   0           conv2d_6[0][0]                   
__________________________________________________________________________________________________
batch_normalization_3 (BatchNor (None, 14, 14, 80)   320         dropout_3[0][0]                  
__________________________________________________________________________________________________
conv2d_transpose_1 (Conv2DTrans (None, 28, 28, 40)   12840       batch_normalization_3[0][0]      
__________________________________________________________________________________________________
concatenate_1 (Concatenate)     (None, 28, 28, 80)   0           conv2d_transpose_1[0][0]         
                                                                 conv2d_4[0][0]                   
__________________________________________________________________________________________________
conv2d_7 (Conv2D)               (None, 28, 28, 40)   28840       concatenate_1[0][0]              2019-05-24 18:58:45.669939: I tensorflow/core/common_runtime/gpu/gpu_device.cc:1471] Adding visible gpu devices: 0
2019-05-24 18:58:45.670037: I tensorflow/core/common_runtime/gpu/gpu_device.cc:952] Device interconnect StreamExecutor with strength 1 edge matrix:
2019-05-24 18:58:45.670052: I tensorflow/core/common_runtime/gpu/gpu_device.cc:958]      0 
2019-05-24 18:58:45.670060: I tensorflow/core/common_runtime/gpu/gpu_device.cc:971] 0:   N 
2019-05-24 18:58:45.670504: I tensorflow/core/common_runtime/gpu/gpu_device.cc:1084] Created TensorFlow device (/job:localhost/replica:0/task:0/device:GPU:0 with 15123 MB memory) -> physical GPU (device: 0, name: Tesla P100-PCIE-16GB, pci bus id: 0000:04:00.0, compute capability: 6.0)

__________________________________________________________________________________________________
conv2d_8 (Conv2D)               (None, 28, 28, 40)   14440       conv2d_7[0][0]                   
__________________________________________________________________________________________________
dropout_4 (Dropout)             (None, 28, 28, 40)   0           conv2d_8[0][0]                   
__________________________________________________________________________________________________
batch_normalization_4 (BatchNor (None, 28, 28, 40)   160         dropout_4[0][0]                  
__________________________________________________________________________________________________
conv2d_transpose_2 (Conv2DTrans (None, 56, 56, 20)   3220        batch_normalization_4[0][0]      
__________________________________________________________________________________________________
concatenate_2 (Concatenate)     (None, 56, 56, 40)   0           conv2d_transpose_2[0][0]         
                                                                 conv2d_2[0][0]                   
__________________________________________________________________________________________________
conv2d_9 (Conv2D)               (None, 56, 56, 20)   7220        concatenate_2[0][0]              
__________________________________________________________________________________________________
conv2d_10 (Conv2D)              (None, 56, 56, 20)   3620        conv2d_9[0][0]                   
__________________________________________________________________________________________________
dropout_5 (Dropout)             (None, 56, 56, 20)   0           conv2d_10[0][0]                  
__________________________________________________________________________________________________
conv2d_11 (Conv2D)              (None, 56, 56, 2)    42          dropout_5[0][0]                  
==================================================================================================
Total params: 182,846
Trainable params: 182,564
Non-trainable params: 282
__________________________________________________________________________________________________
 --- initialized from Model_7T /array/ssd/msmajdi/experiments/keras/exp5_CSFn/models/sE12_Cascade_FM20_3T7T/4-VA/sd1
…
 Nucleus: 5  | GPU: 0  | SD 0  | Dropout 0.3  | LR 0.001  | NL 3  |  Cascade |  FM 20
Experiment: exp5_CSFn
SubExperiment: sE12_Cascade_FM20_DO0.3_ET_InitFrom_3Tp7T_NoSchedular_WeightedClass_CV_a
---------------------------------------------------------------
InputDimensions [84, 56, 48]
(12748, 84, 56, 1)
__________________________________________________________________________________________________
Layer (type)                    Output Shape         Param #     Connected to                     
==================================================================================================
input_1 (InputLayer)            (None, 84, 56, 1)    0                                            
__________________________________________________________________________________________________
batch_normalization_1 (BatchNor (None, 84, 56, 1)    4           input_1[0][0]                    
__________________________________________________________________________________________________
conv2d_1 (Conv2D)               (None, 84, 56, 20)   200         batch_normalization_1[0][0]      
__________________________________________________________________________________________________
conv2d_2 (Conv2D)               (None, 84, 56, 20)   3620        conv2d_1[0][0]                   
__________________________________________________________________________________________________
max_pooling2d_1 (MaxPooling2D)  (None, 42, 28, 20)   0           conv2d_2[0][0]                   2019-05-24 19:09:05.092213: I tensorflow/core/common_runtime/gpu/gpu_device.cc:1471] Adding visible gpu devices: 0
2019-05-24 19:09:05.092297: I tensorflow/core/common_runtime/gpu/gpu_device.cc:952] Device interconnect StreamExecutor with strength 1 edge matrix:
2019-05-24 19:09:05.092312: I tensorflow/core/common_runtime/gpu/gpu_device.cc:958]      0 
2019-05-24 19:09:05.092320: I tensorflow/core/common_runtime/gpu/gpu_device.cc:971] 0:   N 
2019-05-24 19:09:05.092764: I tensorflow/core/common_runtime/gpu/gpu_device.cc:1084] Created TensorFlow device (/job:localhost/replica:0/task:0/device:GPU:0 with 15123 MB memory) -> physical GPU (device: 0, name: Tesla P100-PCIE-16GB, pci bus id: 0000:04:00.0, compute capability: 6.0)

__________________________________________________________________________________________________
dropout_1 (Dropout)             (None, 42, 28, 20)   0           max_pooling2d_1[0][0]            
__________________________________________________________________________________________________
batch_normalization_2 (BatchNor (None, 42, 28, 20)   80          dropout_1[0][0]                  
__________________________________________________________________________________________________
conv2d_3 (Conv2D)               (None, 42, 28, 40)   7240        batch_normalization_2[0][0]      
__________________________________________________________________________________________________
conv2d_4 (Conv2D)               (None, 42, 28, 40)   14440       conv2d_3[0][0]                   
__________________________________________________________________________________________________
max_pooling2d_2 (MaxPooling2D)  (None, 21, 14, 40)   0           conv2d_4[0][0]                   
__________________________________________________________________________________________________
dropout_2 (Dropout)             (None, 21, 14, 40)   0           max_pooling2d_2[0][0]            
__________________________________________________________________________________________________
conv2d_5 (Conv2D)               (None, 21, 14, 80)   28880       dropout_2[0][0]                  
__________________________________________________________________________________________________
conv2d_6 (Conv2D)               (None, 21, 14, 80)   57680       conv2d_5[0][0]                   
__________________________________________________________________________________________________
dropout_3 (Dropout)             (None, 21, 14, 80)   0           conv2d_6[0][0]                   
__________________________________________________________________________________________________
batch_normalization_3 (BatchNor (None, 21, 14, 80)   320         dropout_3[0][0]                  
__________________________________________________________________________________________________
conv2d_transpose_1 (Conv2DTrans (None, 42, 28, 40)   12840       batch_normalization_3[0][0]      
__________________________________________________________________________________________________
concatenate_1 (Concatenate)     (None, 42, 28, 80)   0           conv2d_transpose_1[0][0]         
                                                                 conv2d_4[0][0]                   
__________________________________________________________________________________________________
conv2d_7 (Conv2D)               (None, 42, 28, 40)   28840       concatenate_1[0][0]              
__________________________________________________________________________________________________
conv2d_8 (Conv2D)               (None, 42, 28, 40)   14440       conv2d_7[0][0]                   
__________________________________________________________________________________________________
dropout_4 (Dropout)             (None, 42, 28, 40)   0           conv2d_8[0][0]                   
__________________________________________________________________________________________________
batch_normalization_4 (BatchNor (None, 42, 28, 40)   160         dropout_4[0][0]                  
__________________________________________________________________________________________________
conv2d_transpose_2 (Conv2DTrans (None, 84, 56, 20)   3220        batch_normalization_4[0][0]      
__________________________________________________________________________________________________
concatenate_2 (Concatenate)     (None, 84, 56, 40)   0           conv2d_transpose_2[0][0]         
                                                                 conv2d_2[0][0]                   
__________________________________________________________________________________________________
conv2d_9 (Conv2D)               (None, 84, 56, 20)   7220        concatenate_2[0][0]              
__________________________________________________________________________________________________
conv2d_10 (Conv2D)              (None, 84, 56, 20)   3620        conv2d_9[0][0]                   
__________________________________________________________________________________________________
dropout_5 (Dropout)             (None, 84, 56, 20)   0           conv2d_10[0][0]                  
__________________________________________________________________________________________________
conv2d_11 (Conv2D)              (None, 84, 56, 2)    42          dropout_5[0][0]                  
==================================================================================================
Total params: 182,846
Trainable params: 182,564
Non-trainable params: 282
__________________________________________________________________________________________________
 --- initialized from Model_7T /array/ssd/msmajdi/experiments/keras/exp5_CSFn/models/sE12_Cascade_FM20_3T7T/5-VLa/sd0
…
 Nucleus: 6  | GPU: 0  | SD 0  | Dropout 0.3  | LR 0.001  | NL 3  |  Cascade |  FM 20
Experiment: exp5_CSFn
SubExperiment: sE12_Cascade_FM20_DO0.3_ET_InitFrom_3Tp7T_NoSchedular_WeightedClass_CV_a
---------------------------------------------------------------
InputDimensions [84, 56, 48]
(12748, 84, 56, 1)
__________________________________________________________________________________________________
Layer (type)                    Output Shape         Param #     Connected to                     
==================================================================================================
input_1 (InputLayer)            (None, 84, 56, 1)    0                                            
__________________________________________________________________________________________________
batch_normalization_1 (BatchNor (None, 84, 56, 1)    4           input_1[0][0]                    
__________________________________________________________________________________________________
conv2d_1 (Conv2D)               (None, 84, 56, 20)   200         batch_normalization_1[0][0]      
__________________________________________________________________________________________________
conv2d_2 (Conv2D)               (None, 84, 56, 20)   3620        conv2d_1[0][0]                   
__________________________________________________________________________________________________
max_pooling2d_1 (MaxPooling2D)  (None, 42, 28, 20)   0           conv2d_2[0][0]                   
__________________________________________________________________________________________________
dropout_1 (Dropout)             (None, 42, 28, 20)   0           max_pooling2d_1[0][0]            
__________________________________________________________________________________________________
batch_normalization_2 (BatchNor (None, 42, 28, 20)   80          dropout_1[0][0]                  
__________________________________________________________________________________________________
conv2d_3 (Conv2D)               (None, 42, 28, 40)   7240        batch_normalization_2[0][0]      
__________________________________________________________________________________________________
conv2d_4 (Conv2D)               (None, 42, 28, 40)   14440       conv2d_3[0][0]                   
__________________________________________________________________________________________________2019-05-24 19:24:32.451584: I tensorflow/core/common_runtime/gpu/gpu_device.cc:1471] Adding visible gpu devices: 0
2019-05-24 19:24:32.451696: I tensorflow/core/common_runtime/gpu/gpu_device.cc:952] Device interconnect StreamExecutor with strength 1 edge matrix:
2019-05-24 19:24:32.451710: I tensorflow/core/common_runtime/gpu/gpu_device.cc:958]      0 
2019-05-24 19:24:32.451719: I tensorflow/core/common_runtime/gpu/gpu_device.cc:971] 0:   N 
2019-05-24 19:24:32.452157: I tensorflow/core/common_runtime/gpu/gpu_device.cc:1084] Created TensorFlow device (/job:localhost/replica:0/task:0/device:GPU:0 with 15123 MB memory) -> physical GPU (device: 0, name: Tesla P100-PCIE-16GB, pci bus id: 0000:04:00.0, compute capability: 6.0)

max_pooling2d_2 (MaxPooling2D)  (None, 21, 14, 40)   0           conv2d_4[0][0]                   
__________________________________________________________________________________________________
dropout_2 (Dropout)             (None, 21, 14, 40)   0           max_pooling2d_2[0][0]            
__________________________________________________________________________________________________
conv2d_5 (Conv2D)               (None, 21, 14, 80)   28880       dropout_2[0][0]                  
__________________________________________________________________________________________________
conv2d_6 (Conv2D)               (None, 21, 14, 80)   57680       conv2d_5[0][0]                   
__________________________________________________________________________________________________
dropout_3 (Dropout)             (None, 21, 14, 80)   0           conv2d_6[0][0]                   
__________________________________________________________________________________________________
batch_normalization_3 (BatchNor (None, 21, 14, 80)   320         dropout_3[0][0]                  
__________________________________________________________________________________________________
conv2d_transpose_1 (Conv2DTrans (None, 42, 28, 40)   12840       batch_normalization_3[0][0]      
__________________________________________________________________________________________________
concatenate_1 (Concatenate)     (None, 42, 28, 80)   0           conv2d_transpose_1[0][0]         
                                                                 conv2d_4[0][0]                   
__________________________________________________________________________________________________
conv2d_7 (Conv2D)               (None, 42, 28, 40)   28840       concatenate_1[0][0]              
__________________________________________________________________________________________________
conv2d_8 (Conv2D)               (None, 42, 28, 40)   14440       conv2d_7[0][0]                   
__________________________________________________________________________________________________
dropout_4 (Dropout)             (None, 42, 28, 40)   0           conv2d_8[0][0]                   
__________________________________________________________________________________________________
batch_normalization_4 (BatchNor (None, 42, 28, 40)   160         dropout_4[0][0]                  
__________________________________________________________________________________________________
conv2d_transpose_2 (Conv2DTrans (None, 84, 56, 20)   3220        batch_normalization_4[0][0]      
__________________________________________________________________________________________________
concatenate_2 (Concatenate)     (None, 84, 56, 40)   0           conv2d_transpose_2[0][0]         
                                                                 conv2d_2[0][0]                   
__________________________________________________________________________________________________
conv2d_9 (Conv2D)               (None, 84, 56, 20)   7220        concatenate_2[0][0]              
__________________________________________________________________________________________________
conv2d_10 (Conv2D)              (None, 84, 56, 20)   3620        conv2d_9[0][0]                   
__________________________________________________________________________________________________
dropout_5 (Dropout)             (None, 84, 56, 20)   0           conv2d_10[0][0]                  
__________________________________________________________________________________________________
conv2d_11 (Conv2D)              (None, 84, 56, 2)    42          dropout_5[0][0]                  
==================================================================================================
Total params: 182,846
Trainable params: 182,564
Non-trainable params: 282
__________________________________________________________________________________________________
 --- initialized from Model_7T /array/ssd/msmajdi/experiments/keras/exp5_CSFn/models/sE12_Cascade_FM20_3T7T/6-VLP/sd0
…
2019-05-24 19:34:02.998449: I tensorflow/core/common_runtime/gpu/gpu_device.cc:952] Device interconnect StreamExecutor with strength 1 edge matrix:
2019-05-24 19:34:02.998468: I tensorflow/core/common_runtime/gpu/gpu_device.cc:958]      0 
2019-05-24 19:34:02.998478: I tensorflow/core/common_runtime/gpu/gpu_device.cc:971] 0:   N 
2019-05-24 19:34:02.998902: I tensorflow/core/common_runtime/gpu/gpu_device.cc:1084] Created TensorFlow device (/job:localhost/replica:0/task:0/device:GPU:0 with 15123 MB memory) -> physical GPU (device: 0, name: Tesla P100-PCIE-16GB, pci bus id: 0000:04:00.0, compute capability: 6.0)

conv2d_2 (Conv2D)               (None, 56, 56, 20)   3620        conv2d_1[0][0]                   
__________________________________________________________________________________________________
max_pooling2d_1 (MaxPooling2D)  (None, 28, 28, 20)   0           conv2d_2[0][0]                   
__________________________________________________________________________________________________
dropout_1 (Dropout)             (None, 28, 28, 20)   0           max_pooling2d_1[0][0]            
__________________________________________________________________________________________________
batch_normalization_2 (BatchNor (None, 28, 28, 20)   80          dropout_1[0][0]                  
__________________________________________________________________________________________________
conv2d_3 (Conv2D)               (None, 28, 28, 40)   7240        batch_normalization_2[0][0]      
__________________________________________________________________________________________________
conv2d_4 (Conv2D)               (None, 28, 28, 40)   14440       conv2d_3[0][0]                   
__________________________________________________________________________________________________
max_pooling2d_2 (MaxPooling2D)  (None, 14, 14, 40)   0           conv2d_4[0][0]                   
__________________________________________________________________________________________________
dropout_2 (Dropout)             (None, 14, 14, 40)   0           max_pooling2d_2[0][0]            
__________________________________________________________________________________________________
conv2d_5 (Conv2D)               (None, 14, 14, 80)   28880       dropout_2[0][0]                  
__________________________________________________________________________________________________
conv2d_6 (Conv2D)               (None, 14, 14, 80)   57680       conv2d_5[0][0]                   
__________________________________________________________________________________________________
dropout_3 (Dropout)             (None, 14, 14, 80)   0           conv2d_6[0][0]                   
__________________________________________________________________________________________________
batch_normalization_3 (BatchNor (None, 14, 14, 80)   320         dropout_3[0][0]                  
__________________________________________________________________________________________________
conv2d_transpose_1 (Conv2DTrans (None, 28, 28, 40)   12840       batch_normalization_3[0][0]      
__________________________________________________________________________________________________
concatenate_1 (Concatenate)     (None, 28, 28, 80)   0           conv2d_transpose_1[0][0]         
                                                                 conv2d_4[0][0]                   
__________________________________________________________________________________________________
conv2d_7 (Conv2D)               (None, 28, 28, 40)   28840       concatenate_1[0][0]              
__________________________________________________________________________________________________
conv2d_8 (Conv2D)               (None, 28, 28, 40)   14440       conv2d_7[0][0]                   
__________________________________________________________________________________________________
dropout_4 (Dropout)             (None, 28, 28, 40)   0           conv2d_8[0][0]                   
__________________________________________________________________________________________________
batch_normalization_4 (BatchNor (None, 28, 28, 40)   160         dropout_4[0][0]                  
__________________________________________________________________________________________________
conv2d_transpose_2 (Conv2DTrans (None, 56, 56, 20)   3220        batch_normalization_4[0][0]      
__________________________________________________________________________________________________
concatenate_2 (Concatenate)     (None, 56, 56, 40)   0           conv2d_transpose_2[0][0]         
                                                                 conv2d_2[0][0]                   
__________________________________________________________________________________________________
conv2d_9 (Conv2D)               (None, 56, 56, 20)   7220        concatenate_2[0][0]              
__________________________________________________________________________________________________
conv2d_10 (Conv2D)              (None, 56, 56, 20)   3620        conv2d_9[0][0]                   
__________________________________________________________________________________________________
dropout_5 (Dropout)             (None, 56, 56, 20)   0           conv2d_10[0][0]                  
__________________________________________________________________________________________________
conv2d_11 (Conv2D)              (None, 56, 56, 2)    42          dropout_5[0][0]                  
==================================================================================================
Total params: 182,846
Trainable params: 182,564
Non-trainable params: 282
__________________________________________________________________________________________________
 --- initialized from Model_7T /array/ssd/msmajdi/experiments/keras/exp5_CSFn/models/sE12_Cascade_FM20_3T7T/6-VLP/sd1
…
 Nucleus: 7  | GPU: 0  | SD 1  | Dropout 0.3  | LR 0.001  | NL 3  |  Cascade |  FM 20
Experiment: exp5_CSFn
SubExperiment: sE12_Cascade_FM20_DO0.3_ET_InitFrom_3Tp7T_NoSchedular_WeightedClass_CV_a
---------------------------------------------------------------
InputDimensions [56, 56, 72]
(20833, 56, 56, 1)
__________________________________________________________________________________________________
Layer (type)                    Output Shape         Param #     Connected to                     
==================================================================================================
input_1 (InputLayer)            (None, 56, 56, 1)    0                                            
__________________________________________________________________________________________________
batch_normalization_1 (BatchNor (None, 56, 56, 1)    4           input_1[0][0]                    
__________________________________________________________________________________________________
conv2d_1 (Conv2D)               (None, 56, 56, 20)   200         batch_normalization_1[0][0]      
__________________________________________________________________________________________________
conv2d_2 (Conv2D)               (None, 56, 56, 20)   3620        conv2d_1[0][0]                   
__________________________________________________________________________________________________
max_pooling2d_1 (MaxPooling2D)  (None, 28, 28, 20)   0           conv2d_2[0][0]                   
__________________________________________________________________________________________________
dropout_1 (Dropout)             (None, 28, 28, 20)   0           max_pooling2d_1[0][0]            
__________________________________________________________________________________________________
batch_normalization_2 (BatchNor (None, 28, 28, 20)   80          dropout_1[0][0]                  
__________________________________________________________________________________________________
conv2d_3 (Conv2D)               (None, 28, 28, 40)   7240        batch_normalization_2[0][0]      
__________________________________________________________________________________________________
conv2d_4 (Conv2D)               (None, 28, 28, 40)   14440       conv2d_3[0][0]                   
__________________________________________________________________________________________________
max_pooling2d_2 (MaxPooling2D)  (None, 14, 14, 40)   0           conv2d_4[0][0]                   
__________________________________________________________________________________________________2019-05-24 19:54:10.075396: I tensorflow/core/common_runtime/gpu/gpu_device.cc:1471] Adding visible gpu devices: 0
2019-05-24 19:54:10.075502: I tensorflow/core/common_runtime/gpu/gpu_device.cc:952] Device interconnect StreamExecutor with strength 1 edge matrix:
2019-05-24 19:54:10.075527: I tensorflow/core/common_runtime/gpu/gpu_device.cc:958]      0 
2019-05-24 19:54:10.075536: I tensorflow/core/common_runtime/gpu/gpu_device.cc:971] 0:   N 
2019-05-24 19:54:10.076002: I tensorflow/core/common_runtime/gpu/gpu_device.cc:1084] Created TensorFlow device (/job:localhost/replica:0/task:0/device:GPU:0 with 15123 MB memory) -> physical GPU (device: 0, name: Tesla P100-PCIE-16GB, pci bus id: 0000:04:00.0, compute capability: 6.0)

dropout_2 (Dropout)             (None, 14, 14, 40)   0           max_pooling2d_2[0][0]            
__________________________________________________________________________________________________
conv2d_5 (Conv2D)               (None, 14, 14, 80)   28880       dropout_2[0][0]                  
__________________________________________________________________________________________________
conv2d_6 (Conv2D)               (None, 14, 14, 80)   57680       conv2d_5[0][0]                   
__________________________________________________________________________________________________
dropout_3 (Dropout)             (None, 14, 14, 80)   0           conv2d_6[0][0]                   
__________________________________________________________________________________________________
batch_normalization_3 (BatchNor (None, 14, 14, 80)   320         dropout_3[0][0]                  
__________________________________________________________________________________________________
conv2d_transpose_1 (Conv2DTrans (None, 28, 28, 40)   12840       batch_normalization_3[0][0]      
__________________________________________________________________________________________________
concatenate_1 (Concatenate)     (None, 28, 28, 80)   0           conv2d_transpose_1[0][0]         
                                                                 conv2d_4[0][0]                   
__________________________________________________________________________________________________
conv2d_7 (Conv2D)               (None, 28, 28, 40)   28840       concatenate_1[0][0]              
__________________________________________________________________________________________________
conv2d_8 (Conv2D)               (None, 28, 28, 40)   14440       conv2d_7[0][0]                   
__________________________________________________________________________________________________
dropout_4 (Dropout)             (None, 28, 28, 40)   0           conv2d_8[0][0]                   
__________________________________________________________________________________________________
batch_normalization_4 (BatchNor (None, 28, 28, 40)   160         dropout_4[0][0]                  
__________________________________________________________________________________________________
conv2d_transpose_2 (Conv2DTrans (None, 56, 56, 20)   3220        batch_normalization_4[0][0]      
__________________________________________________________________________________________________
concatenate_2 (Concatenate)     (None, 56, 56, 40)   0           conv2d_transpose_2[0][0]         
                                                                 conv2d_2[0][0]                   
__________________________________________________________________________________________________
conv2d_9 (Conv2D)               (None, 56, 56, 20)   7220        concatenate_2[0][0]              
__________________________________________________________________________________________________
conv2d_10 (Conv2D)              (None, 56, 56, 20)   3620        conv2d_9[0][0]                   
__________________________________________________________________________________________________
dropout_5 (Dropout)             (None, 56, 56, 20)   0           conv2d_10[0][0]                  
__________________________________________________________________________________________________
conv2d_11 (Conv2D)              (None, 56, 56, 2)    42          dropout_5[0][0]                  
==================================================================================================
Total params: 182,846
Trainable params: 182,564
Non-trainable params: 282
__________________________________________________________________________________________________
 --- initialized from Model_7T /array/ssd/msmajdi/experiments/keras/exp5_CSFn/models/sE12_Cascade_FM20_3T7T/7-VPL/sd1
…
2019-05-24 20:05:00.088387: I tensorflow/core/common_runtime/gpu/gpu_device.cc:952] Device interconnect StreamExecutor with strength 1 edge matrix:
2019-05-24 20:05:00.088402: I tensorflow/core/common_runtime/gpu/gpu_device.cc:958]      0 
2019-05-24 20:05:00.088411: I tensorflow/core/common_runtime/gpu/gpu_device.cc:971] 0:   N 
2019-05-24 20:05:00.088859: I tensorflow/core/common_runtime/gpu/gpu_device.cc:1084] Created TensorFlow device (/job:localhost/replica:0/task:0/device:GPU:0 with 15123 MB memory) -> physical GPU (device: 0, name: Tesla P100-PCIE-16GB, pci bus id: 0000:04:00.0, compute capability: 6.0)

conv2d_2 (Conv2D)               (None, 84, 56, 20)   3620        conv2d_1[0][0]                   
__________________________________________________________________________________________________
max_pooling2d_1 (MaxPooling2D)  (None, 42, 28, 20)   0           conv2d_2[0][0]                   
__________________________________________________________________________________________________
dropout_1 (Dropout)             (None, 42, 28, 20)   0           max_pooling2d_1[0][0]            
__________________________________________________________________________________________________
batch_normalization_2 (BatchNor (None, 42, 28, 20)   80          dropout_1[0][0]                  
__________________________________________________________________________________________________
conv2d_3 (Conv2D)               (None, 42, 28, 40)   7240        batch_normalization_2[0][0]      
__________________________________________________________________________________________________
conv2d_4 (Conv2D)               (None, 42, 28, 40)   14440       conv2d_3[0][0]                   
__________________________________________________________________________________________________
max_pooling2d_2 (MaxPooling2D)  (None, 21, 14, 40)   0           conv2d_4[0][0]                   
__________________________________________________________________________________________________
dropout_2 (Dropout)             (None, 21, 14, 40)   0           max_pooling2d_2[0][0]            
__________________________________________________________________________________________________
conv2d_5 (Conv2D)               (None, 21, 14, 80)   28880       dropout_2[0][0]                  
__________________________________________________________________________________________________
conv2d_6 (Conv2D)               (None, 21, 14, 80)   57680       conv2d_5[0][0]                   
__________________________________________________________________________________________________
dropout_3 (Dropout)             (None, 21, 14, 80)   0           conv2d_6[0][0]                   
__________________________________________________________________________________________________
batch_normalization_3 (BatchNor (None, 21, 14, 80)   320         dropout_3[0][0]                  
__________________________________________________________________________________________________
conv2d_transpose_1 (Conv2DTrans (None, 42, 28, 40)   12840       batch_normalization_3[0][0]      
__________________________________________________________________________________________________
concatenate_1 (Concatenate)     (None, 42, 28, 80)   0           conv2d_transpose_1[0][0]         
                                                                 conv2d_4[0][0]                   
__________________________________________________________________________________________________
conv2d_7 (Conv2D)               (None, 42, 28, 40)   28840       concatenate_1[0][0]              
__________________________________________________________________________________________________
conv2d_8 (Conv2D)               (None, 42, 28, 40)   14440       conv2d_7[0][0]                   
__________________________________________________________________________________________________
dropout_4 (Dropout)             (None, 42, 28, 40)   0           conv2d_8[0][0]                   
__________________________________________________________________________________________________
batch_normalization_4 (BatchNor (None, 42, 28, 40)   160         dropout_4[0][0]                  
__________________________________________________________________________________________________
conv2d_transpose_2 (Conv2DTrans (None, 84, 56, 20)   3220        batch_normalization_4[0][0]      
__________________________________________________________________________________________________
concatenate_2 (Concatenate)     (None, 84, 56, 40)   0           conv2d_transpose_2[0][0]         
                                                                 conv2d_2[0][0]                   
__________________________________________________________________________________________________
conv2d_9 (Conv2D)               (None, 84, 56, 20)   7220        concatenate_2[0][0]              
__________________________________________________________________________________________________
conv2d_10 (Conv2D)              (None, 84, 56, 20)   3620        conv2d_9[0][0]                   
__________________________________________________________________________________________________
dropout_5 (Dropout)             (None, 84, 56, 20)   0           conv2d_10[0][0]                  
__________________________________________________________________________________________________
conv2d_11 (Conv2D)              (None, 84, 56, 2)    42          dropout_5[0][0]                  
==================================================================================================
Total params: 182,846
Trainable params: 182,564
Non-trainable params: 282
__________________________________________________________________________________________________
 --- initialized from Model_7T /array/ssd/msmajdi/experiments/keras/exp5_CSFn/models/sE12_Cascade_FM20_3T7T/8-Pul/sd0
…
2019-05-24 20:18:24.967928: I tensorflow/core/common_runtime/gpu/gpu_device.cc:952] Device interconnect StreamExecutor with strength 1 edge matrix:
2019-05-24 20:18:24.967943: I tensorflow/core/common_runtime/gpu/gpu_device.cc:958]      0 
2019-05-24 20:18:24.967952: I tensorflow/core/common_runtime/gpu/gpu_device.cc:971] 0:   N 
2019-05-24 20:18:24.968403: I tensorflow/core/common_runtime/gpu/gpu_device.cc:1084] Created TensorFlow device (/job:localhost/replica:0/task:0/device:GPU:0 with 15123 MB memory) -> physical GPU (device: 0, name: Tesla P100-PCIE-16GB, pci bus id: 0000:04:00.0, compute capability: 6.0)

batch_normalization_1 (BatchNor (None, 56, 56, 1)    4           input_1[0][0]                    
__________________________________________________________________________________________________
conv2d_1 (Conv2D)               (None, 56, 56, 20)   200         batch_normalization_1[0][0]      
__________________________________________________________________________________________________
conv2d_2 (Conv2D)               (None, 56, 56, 20)   3620        conv2d_1[0][0]                   
__________________________________________________________________________________________________
max_pooling2d_1 (MaxPooling2D)  (None, 28, 28, 20)   0           conv2d_2[0][0]                   
__________________________________________________________________________________________________
dropout_1 (Dropout)             (None, 28, 28, 20)   0           max_pooling2d_1[0][0]            
__________________________________________________________________________________________________
batch_normalization_2 (BatchNor (None, 28, 28, 20)   80          dropout_1[0][0]                  
__________________________________________________________________________________________________
conv2d_3 (Conv2D)               (None, 28, 28, 40)   7240        batch_normalization_2[0][0]      
__________________________________________________________________________________________________
conv2d_4 (Conv2D)               (None, 28, 28, 40)   14440       conv2d_3[0][0]                   
__________________________________________________________________________________________________
max_pooling2d_2 (MaxPooling2D)  (None, 14, 14, 40)   0           conv2d_4[0][0]                   
__________________________________________________________________________________________________
dropout_2 (Dropout)             (None, 14, 14, 40)   0           max_pooling2d_2[0][0]            
__________________________________________________________________________________________________
conv2d_5 (Conv2D)               (None, 14, 14, 80)   28880       dropout_2[0][0]                  
__________________________________________________________________________________________________
conv2d_6 (Conv2D)               (None, 14, 14, 80)   57680       conv2d_5[0][0]                   
__________________________________________________________________________________________________
dropout_3 (Dropout)             (None, 14, 14, 80)   0           conv2d_6[0][0]                   
__________________________________________________________________________________________________
batch_normalization_3 (BatchNor (None, 14, 14, 80)   320         dropout_3[0][0]                  
__________________________________________________________________________________________________
conv2d_transpose_1 (Conv2DTrans (None, 28, 28, 40)   12840       batch_normalization_3[0][0]      
__________________________________________________________________________________________________
concatenate_1 (Concatenate)     (None, 28, 28, 80)   0           conv2d_transpose_1[0][0]         
                                                                 conv2d_4[0][0]                   
__________________________________________________________________________________________________
conv2d_7 (Conv2D)               (None, 28, 28, 40)   28840       concatenate_1[0][0]              
__________________________________________________________________________________________________
conv2d_8 (Conv2D)               (None, 28, 28, 40)   14440       conv2d_7[0][0]                   
__________________________________________________________________________________________________
dropout_4 (Dropout)             (None, 28, 28, 40)   0           conv2d_8[0][0]                   
__________________________________________________________________________________________________
batch_normalization_4 (BatchNor (None, 28, 28, 40)   160         dropout_4[0][0]                  
__________________________________________________________________________________________________
conv2d_transpose_2 (Conv2DTrans (None, 56, 56, 20)   3220        batch_normalization_4[0][0]      
__________________________________________________________________________________________________
concatenate_2 (Concatenate)     (None, 56, 56, 40)   0           conv2d_transpose_2[0][0]         
                                                                 conv2d_2[0][0]                   
__________________________________________________________________________________________________
conv2d_9 (Conv2D)               (None, 56, 56, 20)   7220        concatenate_2[0][0]              
__________________________________________________________________________________________________
conv2d_10 (Conv2D)              (None, 56, 56, 20)   3620        conv2d_9[0][0]                   
__________________________________________________________________________________________________
dropout_5 (Dropout)             (None, 56, 56, 20)   0           conv2d_10[0][0]                  
__________________________________________________________________________________________________
conv2d_11 (Conv2D)              (None, 56, 56, 2)    42          dropout_5[0][0]                  
==================================================================================================
Total params: 182,846
Trainable params: 182,564
Non-trainable params: 282
__________________________________________________________________________________________________
 --- initialized from Model_7T /array/ssd/msmajdi/experiments/keras/exp5_CSFn/models/sE12_Cascade_FM20_3T7T/8-Pul/sd1
…
 Nucleus: 9  | GPU: 0  | SD 1  | Dropout 0.3  | LR 0.001  | NL 3  |  Cascade |  FM 20
Experiment: exp5_CSFn
SubExperiment: sE12_Cascade_FM20_DO0.3_ET_InitFrom_3Tp7T_NoSchedular_WeightedClass_CV_a
---------------------------------------------------------------
InputDimensions [56, 56, 72]
(20833, 56, 56, 1)
__________________________________________________________________________________________________
Layer (type)                    Output Shape         Param #     Connected to                     
==================================================================================================
input_1 (InputLayer)            (None, 56, 56, 1)    0                                            
__________________________________________________________________________________________________
batch_normalization_1 (BatchNor (None, 56, 56, 1)    4           input_1[0][0]                    
__________________________________________________________________________________________________
conv2d_1 (Conv2D)               (None, 56, 56, 20)   200         batch_normalization_1[0][0]      
__________________________________________________________________________________________________
conv2d_2 (Conv2D)               (None, 56, 56, 20)   3620        conv2d_1[0][0]                   
__________________________________________________________________________________________________
max_pooling2d_1 (MaxPooling2D)  (None, 28, 28, 20)   0           conv2d_2[0][0]                   
__________________________________________________________________________________________________
dropout_1 (Dropout)             (None, 28, 28, 20)   0           max_pooling2d_1[0][0]            
__________________________________________________________________________________________________
batch_normalization_2 (BatchNor (None, 28, 28, 20)   80          dropout_1[0][0]                  
__________________________________________________________________________________________________
conv2d_3 (Conv2D)               (None, 28, 28, 40)   7240        batch_normalization_2[0][0]      2019-05-24 20:41:30.845309: I tensorflow/core/common_runtime/gpu/gpu_device.cc:1471] Adding visible gpu devices: 0
2019-05-24 20:41:30.845413: I tensorflow/core/common_runtime/gpu/gpu_device.cc:952] Device interconnect StreamExecutor with strength 1 edge matrix:
2019-05-24 20:41:30.845428: I tensorflow/core/common_runtime/gpu/gpu_device.cc:958]      0 
2019-05-24 20:41:30.845436: I tensorflow/core/common_runtime/gpu/gpu_device.cc:971] 0:   N 
2019-05-24 20:41:30.845892: I tensorflow/core/common_runtime/gpu/gpu_device.cc:1084] Created TensorFlow device (/job:localhost/replica:0/task:0/device:GPU:0 with 15123 MB memory) -> physical GPU (device: 0, name: Tesla P100-PCIE-16GB, pci bus id: 0000:04:00.0, compute capability: 6.0)

__________________________________________________________________________________________________
conv2d_4 (Conv2D)               (None, 28, 28, 40)   14440       conv2d_3[0][0]                   
__________________________________________________________________________________________________
max_pooling2d_2 (MaxPooling2D)  (None, 14, 14, 40)   0           conv2d_4[0][0]                   
__________________________________________________________________________________________________
dropout_2 (Dropout)             (None, 14, 14, 40)   0           max_pooling2d_2[0][0]            
__________________________________________________________________________________________________
conv2d_5 (Conv2D)               (None, 14, 14, 80)   28880       dropout_2[0][0]                  
__________________________________________________________________________________________________
conv2d_6 (Conv2D)               (None, 14, 14, 80)   57680       conv2d_5[0][0]                   
__________________________________________________________________________________________________
dropout_3 (Dropout)             (None, 14, 14, 80)   0           conv2d_6[0][0]                   
__________________________________________________________________________________________________
batch_normalization_3 (BatchNor (None, 14, 14, 80)   320         dropout_3[0][0]                  
__________________________________________________________________________________________________
conv2d_transpose_1 (Conv2DTrans (None, 28, 28, 40)   12840       batch_normalization_3[0][0]      
__________________________________________________________________________________________________
concatenate_1 (Concatenate)     (None, 28, 28, 80)   0           conv2d_transpose_1[0][0]         
                                                                 conv2d_4[0][0]                   
__________________________________________________________________________________________________
conv2d_7 (Conv2D)               (None, 28, 28, 40)   28840       concatenate_1[0][0]              
__________________________________________________________________________________________________
conv2d_8 (Conv2D)               (None, 28, 28, 40)   14440       conv2d_7[0][0]                   
__________________________________________________________________________________________________
dropout_4 (Dropout)             (None, 28, 28, 40)   0           conv2d_8[0][0]                   
__________________________________________________________________________________________________
batch_normalization_4 (BatchNor (None, 28, 28, 40)   160         dropout_4[0][0]                  
__________________________________________________________________________________________________
conv2d_transpose_2 (Conv2DTrans (None, 56, 56, 20)   3220        batch_normalization_4[0][0]      
__________________________________________________________________________________________________
concatenate_2 (Concatenate)     (None, 56, 56, 40)   0           conv2d_transpose_2[0][0]         
                                                                 conv2d_2[0][0]                   
__________________________________________________________________________________________________
conv2d_9 (Conv2D)               (None, 56, 56, 20)   7220        concatenate_2[0][0]              
__________________________________________________________________________________________________
conv2d_10 (Conv2D)              (None, 56, 56, 20)   3620        conv2d_9[0][0]                   
__________________________________________________________________________________________________
dropout_5 (Dropout)             (None, 56, 56, 20)   0           conv2d_10[0][0]                  
__________________________________________________________________________________________________
conv2d_11 (Conv2D)              (None, 56, 56, 2)    42          dropout_5[0][0]                  
==================================================================================================
Total params: 182,846
Trainable params: 182,564
Non-trainable params: 282
__________________________________________________________________________________________________
 --- initialized from Model_7T /array/ssd/msmajdi/experiments/keras/exp5_CSFn/models/sE12_Cascade_FM20_3T7T/9-LGN/sd1
…
 Nucleus: 11  | GPU: 0  | SD 0  | Dropout 0.3  | LR 0.001  | NL 3  |  Cascade |  FM 20
Experiment: exp5_CSFn
SubExperiment: sE12_Cascade_FM20_DO0.3_ET_InitFrom_3Tp7T_NoSchedular_WeightedClass_CV_a
---------------------------------------------------------------
InputDimensions [84, 56, 48]
(12748, 84, 56, 1)
__________________________________________________________________________________________________
Layer (type)                    Output Shape         Param #     Connected to                     
==================================================================================================
input_1 (InputLayer)            (None, 84, 56, 1)    0                                            
__________________________________________________________________________________________________
batch_normalization_1 (BatchNor (None, 84, 56, 1)    4           input_1[0][0]                    
__________________________________________________________________________________________________
conv2d_1 (Conv2D)               (None, 84, 56, 20)   200         batch_normalization_1[0][0]      
__________________________________________________________________________________________________
conv2d_2 (Conv2D)               (None, 84, 56, 20)   3620        conv2d_1[0][0]                   
__________________________________________________________________________________________________
max_pooling2d_1 (MaxPooling2D)  (None, 42, 28, 20)   0           conv2d_2[0][0]                   
__________________________________________________________________________________________________
dropout_1 (Dropout)             (None, 42, 28, 20)   0           max_pooling2d_1[0][0]            
__________________________________________________________________________________________________
batch_normalization_2 (BatchNor (None, 42, 28, 20)   80          dropout_1[0][0]                  
__________________________________________________________________________________________________
conv2d_3 (Conv2D)               (None, 42, 28, 40)   7240        batch_normalization_2[0][0]      
__________________________________________________________________________________________________
conv2d_4 (Conv2D)               (None, 42, 28, 40)   14440       conv2d_3[0][0]                   
__________________________________________________________________________________________________
max_pooling2d_2 (MaxPooling2D)  (None, 21, 14, 40)   0           conv2d_4[0][0]                   
__________________________________________________________________________________________________
dropout_2 (Dropout)             (None, 21, 14, 40)   0           max_pooling2d_2[0][0]            
__________________________________________________________________________________________________
conv2d_5 (Conv2D)               (None, 21, 14, 80)   28880       dropout_2[0][0]                  
__________________________________________________________________________________________________
conv2d_6 (Conv2D)               (None, 21, 14, 80)   57680       conv2d_5[0][0]                   
__________________________________________________________________________________________________
dropout_3 (Dropout)             (None, 21, 14, 80)   0           conv2d_6[0][0]                   
__________________________________________________________________________________________________
batch_normalization_3 (BatchNor (None, 21, 14, 80)   320         dropout_3[0][0]                  
__________________________________________________________________________________________________
conv2d_transpose_1 (Conv2DTrans (None, 42, 28, 40)   12840       batch_normalization_3[0][0]      
__________________________________________________________________________________________________
concatenate_1 (Concatenate)     (None, 42, 28, 80)   0           conv2d_transpose_1[0][0]         
                                                                 conv2d_4[0][0]                   
__________________________________________________________________________________________________
conv2d_7 (Conv2D)               (None, 42, 28, 40)   28840       concatenate_1[0][0]              
__________________________________________________________________________________________________
conv2d_8 (Conv2D)               (None, 42, 28, 40)   14440       conv2d_7[0][0]                   
__________________________________________________________________________________________________
dropout_4 (Dropout)             (None, 42, 28, 40)   0           conv2d_8[0][0]                   
__________________________________________________________________________________________________
batch_normalization_4 (BatchNor (None, 42, 28, 40)   160         dropout_4[0][0]                  
__________________________________________________________________________________________________2019-05-24 21:05:07.466403: I tensorflow/core/common_runtime/gpu/gpu_device.cc:1471] Adding visible gpu devices: 0
2019-05-24 21:05:07.466514: I tensorflow/core/common_runtime/gpu/gpu_device.cc:952] Device interconnect StreamExecutor with strength 1 edge matrix:
2019-05-24 21:05:07.466529: I tensorflow/core/common_runtime/gpu/gpu_device.cc:958]      0 
2019-05-24 21:05:07.466537: I tensorflow/core/common_runtime/gpu/gpu_device.cc:971] 0:   N 
2019-05-24 21:05:07.466978: I tensorflow/core/common_runtime/gpu/gpu_device.cc:1084] Created TensorFlow device (/job:localhost/replica:0/task:0/device:GPU:0 with 15123 MB memory) -> physical GPU (device: 0, name: Tesla P100-PCIE-16GB, pci bus id: 0000:04:00.0, compute capability: 6.0)

conv2d_transpose_2 (Conv2DTrans (None, 84, 56, 20)   3220        batch_normalization_4[0][0]      
__________________________________________________________________________________________________
concatenate_2 (Concatenate)     (None, 84, 56, 40)   0           conv2d_transpose_2[0][0]         
                                                                 conv2d_2[0][0]                   
__________________________________________________________________________________________________
conv2d_9 (Conv2D)               (None, 84, 56, 20)   7220        concatenate_2[0][0]              
__________________________________________________________________________________________________
conv2d_10 (Conv2D)              (None, 84, 56, 20)   3620        conv2d_9[0][0]                   
__________________________________________________________________________________________________
dropout_5 (Dropout)             (None, 84, 56, 20)   0           conv2d_10[0][0]                  
__________________________________________________________________________________________________
conv2d_11 (Conv2D)              (None, 84, 56, 2)    42          dropout_5[0][0]                  
==================================================================================================
Total params: 182,846
Trainable params: 182,564
Non-trainable params: 282
__________________________________________________________________________________________________
 --- initialized from Model_7T /array/ssd/msmajdi/experiments/keras/exp5_CSFn/models/sE12_Cascade_FM20_3T7T/11-CM/sd0
…
