…
(7/9) test vimp2_ANON624_20130117_control
     Bias Correction
     Rigid Registration
     Cropping
(8/9) test vimp2_ANON714_03222013_control
     Bias Correction
     Rigid Registration
     Cropping
************ stage 3 ************
       11-CM gpu:  5
InputDimensions [116, 144, 84]
num_Layers 3
__________________________________________________________________________________________________
Layer (type)                    Output Shape         Param #     Connected to                     
==================================================================================================
input_1 (InputLayer)            (None, 116, 144, 1)  0                                            
__________________________________________________________________________________________________
batch_normalization_1 (BatchNor (None, 116, 144, 1)  4           input_1[0][0]                    
__________________________________________________________________________________________________
conv2d_1 (Conv2D)               (None, 116, 144, 64) 640         batch_normalization_1[0][0]      
__________________________________________________________________________________________________
conv2d_2 (Conv2D)               (None, 116, 144, 64) 36928       conv2d_1[0][0]                   
__________________________________________________________________________________________________
max_pooling2d_1 (Layer_Params.MaxPooling2D)  (None, 58, 72, 64)   0           conv2d_2[0][0]                   
__________________________________________________________________________________________________
dropout_1 (Layer_Params.Dropout)             (None, 58, 72, 64)   0           max_pooling2d_1[0][0]            
__________________________________________________________________________________________________
batch_normalization_2 (BatchNor (None, 58, 72, 64)   256         dropout_1[0][0]                  
__________________________________________________________________________________________________
conv2d_3 (Conv2D)               (None, 58, 72, 128)  73856       batch_normalization_2[0][0]      
__________________________________________________________________________________________________
conv2d_4 (Conv2D)               (None, 58, 72, 128)  147584      conv2d_3[0][0]                   
__________________________________________________________________________________________________
max_pooling2d_2 (Layer_Params.MaxPooling2D)  (None, 29, 36, 128)  0           conv2d_4[0][0]                   
__________________________________________________________________________________________________
dropout_2 (Layer_Params.Dropout)             (None, 29, 36, 128)  0           max_pooling2d_2[0][0]            
__________________________________________________________________________________________________
conv2d_5 (Conv2D)               (None, 29, 36, 256)  295168      dropout_2[0][0]                  
__________________________________________________________________________________________________
conv2d_6 (Conv2D)               (None, 29, 36, 256)  590080      conv2d_5[0][0]                   
__________________________________________________________________________________________________
dropout_3 (Layer_Params.Dropout)             (None, 29, 36, 256)  0           conv2d_6[0][0]                   
__________________________________________________________________________________________________
batch_normalization_3 (BatchNor (None, 29, 36, 256)  1024        dropout_3[0][0]                  
__________________________________________________________________________________________________
conv2d_transpose_1 (Conv2DTrans (None, 58, 72, 128)  131200      batch_normalization_3[0][0]      
__________________________________________________________________________________________________
concatenate_1 (Concatenate)     (None, 58, 72, 256)  0           conv2d_transpose_1[0][0]         
                                                                 conv2d_4[0][0]                   
__________________________________________________________________________________________________
conv2d_7 (Conv2D)               (None, 58, 72, 128)  295040      concatenate_1[0][0]              
__________________________________________________________________________________________________
conv2d_8 (Conv2D)               (None, 58, 72, 128)  147584      conv2d_7[0][0]                   
__________________________________________________________________________________________________
dropout_4 (Layer_Params.Dropout)             (None, 58, 72, 128)  0           conv2d_8[0][0]                   
__________________________________________________________________________________________________
batch_normalization_4 (BatchNor (None, 58, 72, 128)  512         dropout_4[0][0]                  
__________________________________________________________________________________________________
conv2d_transpose_2 (Conv2DTrans (None, 116, 144, 64) 32832       batch_normalization_4[0][0]      
__________________________________________________________________________________________________
concatenate_2 (Concatenate)     (None, 116, 144, 128 0           conv2d_transpose_2[0][0]         
                                                                 conv2d_2[0][0]                   
__________________________________________________________________________________________________
conv2d_9 (Conv2D)               (None, 116, 144, 64) 73792       concatenate_2[0][0]              
__________________________________________________________________________________________________
conv2d_10 (Conv2D)              (None, 116, 144, 64) 36928       conv2d_9[0][0]                   
__________________________________________________________________________________________________
dropout_5 (Layer_Params.Dropout)             (None, 116, 144, 64) 0           conv2d_10[0][0]                  
__________________________________________________________________________________________________
conv2d_11 (Conv2D)              (None, 116, 144, 2)  130         dropout_5[0][0]                  
==================================================================================================
Total params: 1,863,558
Trainable params: 1,862,660
Non-trainable params: 898
__________________________________________________________________________________________________
Train on 848 samples, validate on 92 samples
Epoch 1/100

100/848 [==>...........................] - ETA: 51s - loss: 0.6408 - acc: 0.8453 - Dice_Calculator: 0.0058
…
