…
 Nucleus: 2.0  | GPU: 0,1  | SD 0  | Dropout 0.3  | LR 0.001  | NL 3  |  HCascade |  FM 20
Experiment: exp4
SubExperiment: sE11_HCascade_FM20_DO0.3_ET_InitFrom_Main_AllAugments
SubExperiment: sE11-HCascade-FM20-DO0.3-ET-InitFrom-Main-AllAugments
---------------------------------------------------------------
InputDimensions [84, 56, 48]
(12739, 84, 56, 1)
__________________________________________________________________________________________________
Layer (type)                    Output Shape         Param #     Connected to                     
==================================================================================================
input_1 (InputLayer)            (None, 84, 56, 1)    0                                            
__________________________________________________________________________________________________
batch_normalization_1 (BatchNor (None, 84, 56, 1)    4           input_1[0][0]                    
__________________________________________________________________________________________________
conv2d_1 (Conv2D)               (None, 84, 56, 20)   200         batch_normalization_1[0][0]      
__________________________________________________________________________________________________
conv2d_2 (Conv2D)               (None, 84, 56, 20)   3620        conv2d_1[0][0]                   
__________________________________________________________________________________________________
max_pooling2d_1 (MaxPooling2D)  (None, 42, 28, 20)   0           conv2d_2[0][0]                   
__________________________________________________________________________________________________
dropout_1 (Dropout)             (None, 42, 28, 20)   0           max_pooling2d_1[0][0]            
__________________________________________________________________________________________________
batch_normalization_2 (BatchNor (None, 42, 28, 20)   80          dropout_1[0][0]                  
__________________________________________________________________________________________________
conv2d_3 (Conv2D)               (None, 42, 28, 40)   7240        batch_normalization_2[0][0]      
__________________________________________________________________________________________________
conv2d_4 (Conv2D)               (None, 42, 28, 40)   14440       conv2d_3[0][0]                   
__________________________________________________________________________________________________
max_pooling2d_2 (MaxPooling2D)  (None, 21, 14, 40)   0           conv2d_4[0][0]                   
__________________________________________________________________________________________________
dropout_2 (Dropout)             (None, 21, 14, 40)   0           max_pooling2d_2[0][0]            
__________________________________________________________________________________________________
conv2d_5 (Conv2D)               (None, 21, 14, 80)   28880       dropout_2[0][0]                  
__________________________________________________________________________________________________
conv2d_6 (Conv2D)               (None, 21, 14, 80)   57680       conv2d_5[0][0]                   
__________________________________________________________________________________________________
dropout_3 (Dropout)             (None, 21, 14, 80)   0           conv2d_6[0][0]                   
__________________________________________________________________________________________________
batch_normalization_3 (BatchNor (None, 21, 14, 80)   320         dropout_3[0][0]                  
__________________________________________________________________________________________________
conv2d_transpose_1 (Conv2DTrans (None, 42, 28, 40)   12840       batch_normalization_3[0][0]      
__________________________________________________________________________________________________Loading train:  66%|██████▋   | 214/322 [00:21<00:10, 10.69it/s]Loading train:  67%|██████▋   | 216/322 [00:21<00:10, 10.33it/s]Loading train:  68%|██████▊   | 218/322 [00:22<00:10, 10.39it/s]Loading train:  68%|██████▊   | 220/322 [00:22<00:10, 10.05it/s]
…
 Nucleus: 2.0  | GPU: 2,  | SD 1  | Dropout 0.3  | LR 0.001  | NL 3  |  HCascade |  FM 20
Experiment: exp4
SubExperiment: sE11_HCascade_FM20_DO0.3_ET_InitFrom_Main_AllAugments
SubExperiment: sE11-HCascade-FM20-DO0.3-ET-InitFrom-Main-AllAugments
---------------------------------------------------------------
InputDimensions [56, 56, 72]
(20945, 56, 56, 1)
__________________________________________________________________________________________________
Layer (type)                    Output Shape         Param #     Connected to                     
==================================================================================================
input_1 (InputLayer)            (None, 56, 56, 1)    0                                            
__________________________________________________________________________________________________
batch_normalization_1 (BatchNor (None, 56, 56, 1)    4           input_1[0][0]                    
__________________________________________________________________________________________________
conv2d_1 (Conv2D)               (None, 56, 56, 20)   200         batch_normalization_1[0][0]      
__________________________________________________________________________________________________
conv2d_2 (Conv2D)               (None, 56, 56, 20)   3620        conv2d_1[0][0]                   
__________________________________________________________________________________________________
max_pooling2d_1 (MaxPooling2D)  (None, 28, 28, 20)   0           conv2d_2[0][0]                   
__________________________________________________________________________________________________
dropout_1 (Dropout)             (None, 28, 28, 20)   0           max_pooling2d_1[0][0]            
__________________________________________________________________________________________________
batch_normalization_2 (BatchNor (None, 28, 28, 20)   80          dropout_1[0][0]                  
__________________________________________________________________________________________________
conv2d_3 (Conv2D)               (None, 28, 28, 40)   7240        batch_normalization_2[0][0]      
__________________________________________________________________________________________________
conv2d_4 (Conv2D)               (None, 28, 28, 40)   14440       conv2d_3[0][0]                   
__________________________________________________________________________________________________
max_pooling2d_2 (MaxPooling2D)  (None, 14, 14, 40)   0           conv2d_4[0][0]                   
__________________________________________________________________________________________________
dropout_2 (Dropout)             (None, 14, 14, 40)   0           max_pooling2d_2[0][0]            
__________________________________________________________________________________________________
conv2d_5 (Conv2D)               (None, 14, 14, 80)   28880       dropout_2[0][0]                  
__________________________________________________________________________________________________
conv2d_6 (Conv2D)               (None, 14, 14, 80)   57680       conv2d_5[0][0]                   
__________________________________________________________________________________________________
dropout_3 (Dropout)             (None, 14, 14, 80)   0           conv2d_6[0][0]                   
__________________________________________________________________________________________________
batch_normalization_3 (BatchNor (None, 14, 14, 80)   320         dropout_3[0][0]                  
__________________________________________________________________________________________________
conv2d_transpose_1 (Conv2DTrans (None, 28, 28, 40)   12840       batch_normalization_3[0][0]      
__________________________________________________________________________________________________

concatenate_1 (Concatenate)     (None, 28, 28, 80)   0           conv2d_transpose_1[0][0]         
                                                                 conv2d_4[0][0]                   
__________________________________________________________________________________________________
conv2d_7 (Conv2D)               (None, 28, 28, 40)   28840       concatenate_1[0][0]              
__________________________________________________________________________________________________
conv2d_8 (Conv2D)               (None, 28, 28, 40)   14440       conv2d_7[0][0]                   
__________________________________________________________________________________________________
dropout_4 (Dropout)             (None, 28, 28, 40)   0           conv2d_8[0][0]                   
__________________________________________________________________________________________________
batch_normalization_4 (BatchNor (None, 28, 28, 40)   160         dropout_4[0][0]                  
__________________________________________________________________________________________________
conv2d_transpose_2 (Conv2DTrans (None, 56, 56, 20)   3220        batch_normalization_4[0][0]      
__________________________________________________________________________________________________
concatenate_2 (Concatenate)     (None, 56, 56, 40)   0           conv2d_transpose_2[0][0]         
                                                                 conv2d_2[0][0]                   
__________________________________________________________________________________________________
conv2d_9 (Conv2D)               (None, 56, 56, 20)   7220        concatenate_2[0][0]              
__________________________________________________________________________________________________
conv2d_10 (Conv2D)              (None, 56, 56, 20)   3620        conv2d_9[0][0]                   
__________________________________________________________________________________________________
dropout_5 (Dropout)             (None, 56, 56, 20)   0           conv2d_10[0][0]                  
__________________________________________________________________________________________________
conv2d_11 (Conv2D)              (None, 56, 56, 2)    42          dropout_5[0][0]                  
==================================================================================================
Total params: 182,846
Trainable params: 182,564
Non-trainable params: 282
__________________________________________________________________________________________________
 --- initialized from older Model  
------------------------------------------------------------------
…
  File "/array/ssd/msmajdi/code/thalamus/keras/modelFuncs/choosingModel.py", line 357, in trainingExperiment
    model, hist = modelTrain_Unet(Data, params, model)
  File "/array/ssd/msmajdi/code/thalamus/keras/modelFuncs/choosingModel.py", line 272, in modelTrain_Unet
    if len(params.WhichExperiment.HardParams.Machine.GPU_Index) > 1: model = multi_gpu_model(model)
  File "/array/ssd/msmajdi/anaconda3/envs/keras-gpu/lib/python3.6/site-packages/keras/utils/multi_gpu_utils.py", line 166, in multi_gpu_model
    'Received: `gpus=%d`' % gpus)
ValueError: For multi-gpu usage to be effective, call `multi_gpu_model` with `gpus >= 2`. Received: `gpus=1`

concatenate_1 (Concatenate)     (None, 42, 28, 80)   0           conv2d_transpose_1[0][0]         
                                                                 conv2d_4[0][0]                   
__________________________________________________________________________________________________
conv2d_7 (Conv2D)               (None, 42, 28, 40)   28840       concatenate_1[0][0]              
__________________________________________________________________________________________________
conv2d_8 (Conv2D)               (None, 42, 28, 40)   14440       conv2d_7[0][0]                   
__________________________________________________________________________________________________
dropout_4 (Dropout)             (None, 42, 28, 40)   0           conv2d_8[0][0]                   
__________________________________________________________________________________________________
batch_normalization_4 (BatchNor (None, 42, 28, 40)   160         dropout_4[0][0]                  
__________________________________________________________________________________________________
conv2d_transpose_2 (Conv2DTrans (None, 84, 56, 20)   3220        batch_normalization_4[0][0]      
__________________________________________________________________________________________________
concatenate_2 (Concatenate)     (None, 84, 56, 40)   0           conv2d_transpose_2[0][0]         
                                                                 conv2d_2[0][0]                   
__________________________________________________________________________________________________
conv2d_9 (Conv2D)               (None, 84, 56, 20)   7220        concatenate_2[0][0]              
__________________________________________________________________________________________________
conv2d_10 (Conv2D)              (None, 84, 56, 20)   3620        conv2d_9[0][0]                   
__________________________________________________________________________________________________
dropout_5 (Dropout)             (None, 84, 56, 20)   0           conv2d_10[0][0]                  
__________________________________________________________________________________________________
conv2d_11 (Conv2D)              (None, 84, 56, 2)    42          dropout_5[0][0]                  
==================================================================================================
Total params: 182,846
Trainable params: 182,564
Non-trainable params: 282
__________________________________________________________________________________________________
 --- initialized from older Model  
------------------------------------------------------------------
…
