…
WARNING: subject:  vimp2_1443_08122015  size is out of the training network input dimensions
WARNING: subject:  vimp2_1448_08132015  size is out of the training network input dimensions
WARNING: subject:  vimp2_1510_09022015  size is out of the training network input dimensions
__________________________________________________________________________________________________
Layer (type)                    Output Shape         Param #     Connected to                     
==================================================================================================
input_1 (InputLayer)            (None, 92, 92, 1)    0                                            
__________________________________________________________________________________________________
conv2d_1 (Conv2D)               (None, 92, 92, 64)   640         input_1[0][0]                    
__________________________________________________________________________________________________
conv2d_2 (Conv2D)               (None, 92, 92, 64)   36928       conv2d_1[0][0]                   
__________________________________________________________________________________________________
max_pooling2d_1 (MaxPooling2D)  (None, 46, 46, 64)   0           conv2d_2[0][0]                   
__________________________________________________________________________________________________
dropout_1 (Dropout)             (None, 46, 46, 64)   0           max_pooling2d_1[0][0]            
__________________________________________________________________________________________________
conv2d_3 (Conv2D)               (None, 46, 46, 128)  73856       dropout_1[0][0]                  
__________________________________________________________________________________________________
conv2d_4 (Conv2D)               (None, 46, 46, 128)  147584      conv2d_3[0][0]                   
__________________________________________________________________________________________________
max_pooling2d_2 (MaxPooling2D)  (None, 23, 23, 128)  0           conv2d_4[0][0]                   
__________________________________________________________________________________________________
dropout_2 (Dropout)             (None, 23, 23, 128)  0           max_pooling2d_2[0][0]            
__________________________________________________________________________________________________
conv2d_5 (Conv2D)               (None, 23, 23, 256)  295168      dropout_2[0][0]                  
__________________________________________________________________________________________________
conv2d_6 (Conv2D)               (None, 23, 23, 256)  590080      conv2d_5[0][0]                   
__________________________________________________________________________________________________
dropout_3 (Dropout)             (None, 23, 23, 256)  0           conv2d_6[0][0]                   
__________________________________________________________________________________________________
conv2d_transpose_1 (Conv2DTrans (None, 46, 46, 128)  131200      dropout_3[0][0]                  
__________________________________________________________________________________________________
concatenate_1 (Concatenate)     (None, 46, 46, 256)  0           conv2d_transpose_1[0][0]         
                                                                 conv2d_4[0][0]                   
__________________________________________________________________________________________________
conv2d_7 (Conv2D)               (None, 46, 46, 128)  295040      concatenate_1[0][0]              
__________________________________________________________________________________________________
conv2d_8 (Conv2D)               (None, 46, 46, 128)  147584      conv2d_7[0][0]                   
__________________________________________________________________________________________________
dropout_4 (Dropout)             (None, 46, 46, 128)  0           conv2d_8[0][0]                   
__________________________________________________________________________________________________
conv2d_transpose_2 (Conv2DTrans (None, 92, 92, 64)   32832       dropout_4[0][0]                  
__________________________________________________________________________________________________
concatenate_2 (Concatenate)     (None, 92, 92, 128)  0           conv2d_transpose_2[0][0]         
                                                                 conv2d_2[0][0]                   
__________________________________________________________________________________________________
conv2d_9 (Conv2D)               (None, 92, 92, 64)   73792       concatenate_2[0][0]              
__________________________________________________________________________________________________
conv2d_10 (Conv2D)              (None, 92, 92, 64)   36928       conv2d_9[0][0]                   
__________________________________________________________________________________________________
dropout_5 (Dropout)             (None, 92, 92, 64)   0           conv2d_10[0][0]                  
__________________________________________________________________________________________________
conv2d_11 (Conv2D)              (None, 92, 92, 2)    130         dropout_5[0][0]                  
==================================================================================================
Total params: 1,861,762
Trainable params: 1,861,762
Non-trainable params: 0
__________________________________________________________________________________________________
{'val_loss': [… 'val_acc': [… 'loss': [… 'acc': [… 0it [00:00, ?it/s]1it [00:00,  
…
