…
WARNING: INPUT IMAGE SIZE IS TOO SMALL FOR THE NUMBER OF LAYERS
# LAYERS  OLD: 5  =>  NEW: 4
WARNING: subject:  20priors_vimp_884_06272013_TS  size is out of the training network input dimensions
Nuclei: 1-THALAMUS   GPU: 6   Epochs: 80   Dataset: All_7T   Experiment: { exp3_7T_wLRAug , subExp1_Loss_BCE }
nuclei:  1-THALAMUS gpu: 6
__________________________________________________________________________________________________
Layer (type)                    Output Shape         Param #     Connected to                     
==================================================================================================
input_1 (InputLayer)            (None, 96, 88, 1)    0                                            
__________________________________________________________________________________________________
batch_normalization_1 (BatchNor (None, 96, 88, 1)    4           input_1[0][0]                    
__________________________________________________________________________________________________
conv2d_1 (Conv2D)               (None, 96, 88, 64)   640         batch_normalization_1[0][0]      
__________________________________________________________________________________________________
conv2d_2 (Conv2D)               (None, 96, 88, 64)   36928       conv2d_1[0][0]                   
__________________________________________________________________________________________________
max_pooling2d_1 (MaxPooling2D)  (None, 48, 44, 64)   0           conv2d_2[0][0]                   
__________________________________________________________________________________________________
dropout_1 (Dropout)             (None, 48, 44, 64)   0           max_pooling2d_1[0][0]            
__________________________________________________________________________________________________
batch_normalization_2 (BatchNor (None, 48, 44, 64)   256         dropout_1[0][0]                  
__________________________________________________________________________________________________
conv2d_3 (Conv2D)               (None, 48, 44, 128)  73856       batch_normalization_2[0][0]      
__________________________________________________________________________________________________
conv2d_4 (Conv2D)               (None, 48, 44, 128)  147584      conv2d_3[0][0]                   
__________________________________________________________________________________________________
max_pooling2d_2 (MaxPooling2D)  (None, 24, 22, 128)  0           conv2d_4[0][0]                   
__________________________________________________________________________________________________
dropout_2 (Dropout)             (None, 24, 22, 128)  0           max_pooling2d_2[0][0]            
__________________________________________________________________________________________________
batch_normalization_3 (BatchNor (None, 24, 22, 128)  512         dropout_2[0][0]                  
__________________________________________________________________________________________________
conv2d_5 (Conv2D)               (None, 24, 22, 256)  295168      batch_normalization_3[0][0]      
__________________________________________________________________________________________________
conv2d_6 (Conv2D)               (None, 24, 22, 256)  590080      conv2d_5[0][0]                   
__________________________________________________________________________________________________
max_pooling2d_3 (MaxPooling2D)  (None, 12, 11, 256)  0           conv2d_6[0][0]                   
__________________________________________________________________________________________________
dropout_3 (Dropout)             (None, 12, 11, 256)  0           max_pooling2d_3[0][0]            
__________________________________________________________________________________________________
conv2d_7 (Conv2D)               (None, 12, 11, 512)  1180160     dropout_3[0][0]                  
__________________________________________________________________________________________________
conv2d_8 (Conv2D)               (None, 12, 11, 512)  2359808     conv2d_7[0][0]                   
__________________________________________________________________________________________________
dropout_4 (Dropout)             (None, 12, 11, 512)  0           conv2d_8[0][0]                   
__________________________________________________________________________________________________
batch_normalization_4 (BatchNor (None, 12, 11, 512)  2048        dropout_4[0][0]                  
__________________________________________________________________________________________________
conv2d_transpose_1 (Conv2DTrans (None, 24, 22, 256)  524544      batch_normalization_4[0][0]      
__________________________________________________________________________________________________
concatenate_1 (Concatenate)     (None, 24, 22, 512)  0           conv2d_transpose_1[0][0]         
                                                                 conv2d_6[0][0]                   
__________________________________________________________________________________________________
conv2d_9 (Conv2D)               (None, 24, 22, 256)  1179904     concatenate_1[0][0]              
__________________________________________________________________________________________________
conv2d_10 (Conv2D)              (None, 24, 22, 256)  590080      conv2d_9[0][0]                   
__________________________________________________________________________________________________
dropout_5 (Dropout)             (None, 24, 22, 256)  0           conv2d_10[0][0]                  
__________________________________________________________________________________________________
batch_normalization_5 (BatchNor (None, 24, 22, 256)  1024        dropout_5[0][0]                  
__________________________________________________________________________________________________
conv2d_transpose_2 (Conv2DTrans (None, 48, 44, 128)  131200      batch_normalization_5[0][0]      
__________________________________________________________________________________________________
concatenate_2 (Concatenate)     (None, 48, 44, 256)  0           conv2d_transpose_2[0][0]         
                                                                 conv2d_4[0][0]                   
__________________________________________________________________________________________________
conv2d_11 (Conv2D)              (None, 48, 44, 128)  295040      concatenate_2[0][0]              
__________________________________________________________________________________________________
conv2d_12 (Conv2D)              (None, 48, 44, 128)  147584      conv2d_11[0][0]                  
__________________________________________________________________________________________________
dropout_6 (Dropout)             (None, 48, 44, 128)  0           conv2d_12[0][0]                  
__________________________________________________________________________________________________
batch_normalization_6 (BatchNor (None, 48, 44, 128)  512         dropout_6[0][0]                  
__________________________________________________________________________________________________
conv2d_transpose_3 (Conv2DTrans (None, 96, 88, 64)   32832       batch_normalization_6[0][0]      
__________________________________________________________________________________________________
concatenate_3 (Concatenate)     (None, 96, 88, 128)  0           conv2d_transpose_3[0][0]         
                                                                 conv2d_2[0][0]                   
__________________________________________________________________________________________________
conv2d_13 (Conv2D)              (None, 96, 88, 64)   73792       concatenate_3[0][0]              
__________________________________________________________________________________________________
conv2d_14 (Conv2D)              (None, 96, 88, 64)   36928       conv2d_13[0][0]                  
__________________________________________________________________________________________________
dropout_7 (Dropout)             (None, 96, 88, 64)   0           conv2d_14[0][0]                  
__________________________________________________________________________________________________
Training:   0%|          | 0/80 [00:00<?, ?it/s]
Epoch: 0:   0%|          | 0/5544 [00:00<?, ?it/s][A
conv2d_15 (Conv2D)              (None, 96, 88, 2)    130         dropout_7[0][0]                  
==================================================================================================
Total params: 7,700,614
Trainable params: 7,698,436
Non-trainable params: 2,178
__________________________________________________________________________________________________
Train on 5544 samples, validate on 616 samples
Epoch 1/80

  40/5544 [..............................] - ETA: 11:55 - loss: 0.6032 - acc: 0.8232 - Dice_Calculator: 0.0599
…
