…
2019-01-23 17:34:16.892499: I tensorflow/core/common_runtime/gpu/gpu_device.cc:1084] Created TensorFlow device (/job:localhost/replica:0/task:0/device:GPU:0 with 15123 MB memory) -> physical GPU (device: 0, name: Tesla P100-PCIE-16GB, pci bus id: 0000:85:00.0, compute capability: 6.0)
WARNING: subject:  vimp2_1510_09022015  size is out of the training network input dimensions
Nuclei: 6-VLP   GPU: 5   Epochs: 50   Dataset: SRI_3T   Experiment: { exp3_SRI , subExp1_Loss_Dice_N_BCE }
nuclei:  6-VLP gpu: 5
__________________________________________________________________________________________________
Layer (type)                    Output Shape         Param #     Connected to                     
==================================================================================================
input_1 (InputLayer)            (None, 96, 96, 1)    0                                            
__________________________________________________________________________________________________
batch_normalization_1 (BatchNor (None, 96, 96, 1)    4           input_1[0][0]                    
__________________________________________________________________________________________________
conv2d_1 (Conv2D)               (None, 96, 96, 64)   640         batch_normalization_1[0][0]      
__________________________________________________________________________________________________
conv2d_2 (Conv2D)               (None, 96, 96, 64)   36928       conv2d_1[0][0]                   
__________________________________________________________________________________________________
max_pooling2d_1 (MaxPooling2D)  (None, 48, 48, 64)   0           conv2d_2[0][0]                   
__________________________________________________________________________________________________
dropout_1 (Dropout)             (None, 48, 48, 64)   0           max_pooling2d_1[0][0]            
__________________________________________________________________________________________________
batch_normalization_2 (BatchNor (None, 48, 48, 64)   256         dropout_1[0][0]                  
__________________________________________________________________________________________________
conv2d_3 (Conv2D)               (None, 48, 48, 128)  73856       batch_normalization_2[0][0]      
__________________________________________________________________________________________________
conv2d_4 (Conv2D)               (None, 48, 48, 128)  147584      conv2d_3[0][0]                   
__________________________________________________________________________________________________
max_pooling2d_2 (MaxPooling2D)  (None, 24, 24, 128)  0           conv2d_4[0][0]                   
__________________________________________________________________________________________________
dropout_2 (Dropout)             (None, 24, 24, 128)  0           max_pooling2d_2[0][0]            
__________________________________________________________________________________________________
batch_normalization_3 (BatchNor (None, 24, 24, 128)  512         dropout_2[0][0]                  
__________________________________________________________________________________________________
conv2d_5 (Conv2D)               (None, 24, 24, 256)  295168      batch_normalization_3[0][0]      
__________________________________________________________________________________________________
conv2d_6 (Conv2D)               (None, 24, 24, 256)  590080      conv2d_5[0][0]                   
__________________________________________________________________________________________________
max_pooling2d_3 (MaxPooling2D)  (None, 12, 12, 256)  0           conv2d_6[0][0]                   
__________________________________________________________________________________________________
dropout_3 (Dropout)             (None, 12, 12, 256)  0           max_pooling2d_3[0][0]            
__________________________________________________________________________________________________
batch_normalization_4 (BatchNor (None, 12, 12, 256)  1024        dropout_3[0][0]                  
__________________________________________________________________________________________________
conv2d_7 (Conv2D)               (None, 12, 12, 512)  1180160     batch_normalization_4[0][0]      
__________________________________________________________________________________________________
conv2d_8 (Conv2D)               (None, 12, 12, 512)  2359808     conv2d_7[0][0]                   
__________________________________________________________________________________________________
max_pooling2d_4 (MaxPooling2D)  (None, 6, 6, 512)    0           conv2d_8[0][0]                   
__________________________________________________________________________________________________
dropout_4 (Dropout)             (None, 6, 6, 512)    0           max_pooling2d_4[0][0]            
__________________________________________________________________________________________________
conv2d_9 (Conv2D)               (None, 6, 6, 1024)   4719616     dropout_4[0][0]                  
__________________________________________________________________________________________________
conv2d_10 (Conv2D)              (None, 6, 6, 1024)   9438208     conv2d_9[0][0]                   
__________________________________________________________________________________________________
dropout_5 (Dropout)             (None, 6, 6, 1024)   0           conv2d_10[0][0]                  
__________________________________________________________________________________________________
batch_normalization_5 (BatchNor (None, 6, 6, 1024)   4096        dropout_5[0][0]                  
__________________________________________________________________________________________________
conv2d_transpose_1 (Conv2DTrans (None, 12, 12, 512)  2097664     batch_normalization_5[0][0]      
__________________________________________________________________________________________________
concatenate_1 (Concatenate)     (None, 12, 12, 1024) 0           conv2d_transpose_1[0][0]         
                                                                 conv2d_8[0][0]                   
__________________________________________________________________________________________________
conv2d_11 (Conv2D)              (None, 12, 12, 512)  4719104     concatenate_1[0][0]              
__________________________________________________________________________________________________
conv2d_12 (Conv2D)              (None, 12, 12, 512)  2359808     conv2d_11[0][0]                  
__________________________________________________________________________________________________
dropout_6 (Dropout)             (None, 12, 12, 512)  0           conv2d_12[0][0]                  
__________________________________________________________________________________________________
batch_normalization_6 (BatchNor (None, 12, 12, 512)  2048        dropout_6[0][0]                  
__________________________________________________________________________________________________
conv2d_transpose_2 (Conv2DTrans (None, 24, 24, 256)  524544      batch_normalization_6[0][0]      
__________________________________________________________________________________________________
concatenate_2 (Concatenate)     (None, 24, 24, 512)  0           conv2d_transpose_2[0][0]         
                                                                 conv2d_6[0][0]                   
__________________________________________________________________________________________________
conv2d_13 (Conv2D)              (None, 24, 24, 256)  1179904     concatenate_2[0][0]              
__________________________________________________________________________________________________
conv2d_14 (Conv2D)              (None, 24, 24, 256)  590080      conv2d_13[0][0]                  
__________________________________________________________________________________________________
dropout_7 (Dropout)             (None, 24, 24, 256)  0           conv2d_14[0][0]                  
__________________________________________________________________________________________________
batch_normalization_7 (BatchNor (None, 24, 24, 256)  1024        dropout_7[0][0]                  
__________________________________________________________________________________________________
conv2d_transpose_3 (Conv2DTrans (None, 48, 48, 128)  131200      batch_normalization_7[0][0]      
__________________________________________________________________________________________________
Training:   0%|          | 0/50 [00:00<?, ?it/s]
Epoch: 0:   0%|          | 0/2408 [00:00<?, ?it/s][A
concatenate_3 (Concatenate)     (None, 48, 48, 256)  0           conv2d_transpose_3[0][0]         
                                                                 conv2d_4[0][0]                   
__________________________________________________________________________________________________
conv2d_15 (Conv2D)              (None, 48, 48, 128)  295040      concatenate_3[0][0]              
__________________________________________________________________________________________________
conv2d_16 (Conv2D)              (None, 48, 48, 128)  147584      conv2d_15[0][0]                  
__________________________________________________________________________________________________
dropout_8 (Dropout)             (None, 48, 48, 128)  0           conv2d_16[0][0]                  
__________________________________________________________________________________________________
batch_normalization_8 (BatchNor (None, 48, 48, 128)  512         dropout_8[0][0]                  
__________________________________________________________________________________________________
conv2d_transpose_4 (Conv2DTrans (None, 96, 96, 64)   32832       batch_normalization_8[0][0]      
__________________________________________________________________________________________________
concatenate_4 (Concatenate)     (None, 96, 96, 128)  0           conv2d_transpose_4[0][0]         
                                                                 conv2d_2[0][0]                   
__________________________________________________________________________________________________
conv2d_17 (Conv2D)              (None, 96, 96, 64)   73792       concatenate_4[0][0]              
__________________________________________________________________________________________________
conv2d_18 (Conv2D)              (None, 96, 96, 64)   36928       conv2d_17[0][0]                  
__________________________________________________________________________________________________
dropout_9 (Dropout)             (None, 96, 96, 64)   0           conv2d_18[0][0]                  
__________________________________________________________________________________________________
conv2d_19 (Conv2D)              (None, 96, 96, 2)    130         dropout_9[0][0]                  
==================================================================================================
Total params: 31,040,134
Trainable params: 31,035,396
Non-trainable params: 4,738
__________________________________________________________________________________________________
Train on 2408 samples, validate on 268 samples
Epoch 1/50

  40/2408 [..............................] - ETA: 8:04 - loss: 1.0374 - acc: 0.9770 - Dice_Calculator: 0.2425
…
